my_transformer/saved_model/simpleANNlr=0.001bs=512My_Mass_Balance_loss.pt (torch, 34575 bytes, 8 tensors)

l1.weight f4 [50, 14]
0	0x3e17f984	0.14841276
1	0xbe17539e	-0.14777991
2	0x3d33dbf8	0.04391095
3	0x3e1fbdee	0.15599796
4	0x3decbed0	0.11559832
5	0xbe0754a2	-0.13215879
6	0xbe70b19b	-0.23505251
7	0x3cb029d0	0.021504313
8	0xbb323f80	-0.0027198493
9	0xbe55c784	-0.2087689
10	0x3d6804d0	0.056645215
11	0x3e120fb8	0.14263809
12	0x3d57dfa0	0.0527035
13	0x3e2775b8	0.163535
14	0x3dfafa04	0.12254718
15	0x3d8aa23c	0.06769225
16	0xbceff898	-0.029293343
17	0xbde3e076	-0.11126797
18	0xbdab1f58	-0.08355588
19	0x3e6668e6	0.22500953
20	0x3e78ef6e	0.24310085
21	0x3c359ce0	0.011084765
22	0xbe0d34a3	-0.1378961
23	0xbda60552	-0.081064835
24	0x3e47bbf4	0.19505292
25	0x3e131baa	0.14366022
26	0x3deab59c	0.114604205
27	0xbe02ce63	-0.12774043
28	0xbe1b3adb	-0.1515917
29	0x3e3aef14	0.18255264
30	0xbda60d00	-0.08107948
31	0xbbe409c0	-0.00695917
32	0x3e21305e	0.15741107
33	0xbe306f78	-0.17230022
34	0x3e0e73d8	0.13911378
35	0xbe29b1f0	-0.16571784
36	0x3dfb2d94	0.12264553
37	0xbd679420	-0.056537747
38	0xbdbab142	-0.091158405
39	0x3e437cd4	0.19090587
40	0x3d3cc7d8	0.046089023
41	0xbd9bc4f6	-0.07605927
42	0x3c8de140	0.017319322
43	0xbe0e2d2e	-0.13884422
44	0x3d524f40	0.05134511
45	0x3d82660c	0.0636712
46	0xbe61c47f	-0.22047614
47	0xbe0ddfb5	-0.13854869
48	0x3c32c2e0	0.01091072
49	0xbe42bbca	-0.19016948
50	0x3d866dc8	0.06563908
51	0x3d8951ac	0.06705031
52	0x3dbdbbcc	0.09264335
53	0xbe527534	-0.20552522
54	0xbe4ea96a	-0.20181814
55	0x3e4f1c36	0.20225605
56	0x3e67b3a4	0.22627121
57	0xbe3ea0f8	-0.18616092
58	0x3e127d00	0.14305496
59	0xbc1b25c0	-0.0094694495
60	0x3e482a4e	0.19547388
61	0x3dc7fd8c	0.09765157
62	0x3d46c288	0.048525363
63	0xbe2d3717	-0.16915546
64	0x3ca81140	0.020516038
65	0x3e576544	0.21034724
66	0xbd2e1974	-0.042504743
67	0x3d274b60	0.040843368
68	0x3df39bf8	0.11894983
69	0xbe5b5bac	-0.21421689
70	0xbe02fb74	-0.12791234
71	0x3db80150	0.08984625
72	0xbce628f0	-0.028095692
73	0x3d82f918	0.06395167
74	0x3e53a3b0	0.2066791
75	0x3e76cc76	0.24101433
76	0xbe12ac40	-0.1432352
77	0x3e81e6c1	0.25371364
78	0x3e82dadb	0.25557598
79	0x3b94f3c0	0.004545659
80	0xbe7ce474	-0.24696523
81	0xbd1bf060	-0.038071036
82	0x3de954e8	0.11393148
83	0xbd31a388	-0.043368846
84	0xbdc802a8	-0.09766132
85	0x3e32e46c	0.17469949
86	0xbaf10000	-0.0018386841
87	0xbdd5f2c4	-0.104466945
88	0xbe43dff2	-0.19128397
89	0x3e0b2ba8	0.13590872
90	0xbe5b41b6	-0.21411785
91	0x3e6c14f2	0.23054865
92	0xbe86fd26	-0.26365012
93	0x3e3be260	0.18348074
94	0x3d9a9d84	0.07549575
95	0x3e14d438	0.1453408
96	0xbd523d3c	-0.05132793
97	0x3e0059d2	0.12534264
98	0xbe499f96	-0.19689783
99	0x3dc24a10	0.094867826
100	0xbe69b9d0	-0.22824788
101	0x3e8148f5	0.25250974
102	0xbdc94762	-0.09828068
103	0x3e3245f4	0.17409497
104	0x3d96b46c	0.073586315
105	0x3d3b88b8	0.045784682
106	0x3e460e66	0.1934143
107	0xbd62f45c	-0.05540882
108	0xbe561fe4	-0.20910603
109	0x3d8734b4	0.06601849
110	0xbe2fec08	-0.17179883
111	0xbdfd3fc8	-0.12365681
112	0x3e06f6e0	0.13180113
113	0x3dcd6fc8	0.10031086
114	0xbe3cc39f	-0.18433999
115	0xbcaab638	-0.020838842
116	0x3e405dfe	0.18785855
117	0x3e82826b	0.25490126
118	0xbe7c1b2a	-0.24619737
119	0x3dce4e28	0.10073501
120	0x3e50327a	0.20331755
121	0x3e13834e	0.14405558
122	0xbe835074	-0.25647318
123	0x3e049d82	0.1295071
124	0xbcd85dc0	-0.026411891
125	0x3e10e3b6	0.14149365
126	0xbde403dc	-0.111335486
127	0xbaac0300	-0.0013123453
128	0x3db150b4	0.08657971
129	0xbda6d302	-0.08145715
130	0xbe381ac0	-0.17978954
131	0x3c8d95c0	0.01728332
132	0x3d8d5534	0.06901017
133	0xbb0db800	-0.0021624565
134	0x3d99ac74	0.07503596
135	0x3e2e668c	0.17031306
136	0xbe1fd4c7	-0.15608512
137	0xbe5fde5f	-0.21862172
138	0x3ddf2c88	0.108971655
139	0x3e348750	0.17629743
140	0xbd6db3e0	-0.05803287
141	0xbe680c5b	-0.22660963
142	0xbda491d0	-0.08035624
143	0xbdbbdb34	-0.09172669
144	0xbce026b8	-0.027362213
145	0x3e84ed2f	0.25962207
146	0x3bb4b940	0.0055152476
147	0x3e7dcf6a	0.24786153
148	0xbbc4a9c0	-0.006001681
149	0xbe4713ca	-0.19441143
150	0x3d82fa28	0.0639537
151	0x3de699b8	0.11259788
152	0x3e6aeef2	0.22942713
153	0x3e27ac72	0.16374376
154	0xbe20759e	-0.15669867
155	0x3cd10280	0.025513887
156	0xbd8d6c5c	-0.069054335
157	0x3e1ee8cc	0.15518492
158	0xbc9e5f30	-0.019332498
159	0xbe4e2444	-0.20131022
160	0xbe32e64a	-0.17470661
161	0xbd84edf8	-0.064907014
162	0x3dd63a00	0.10460281
163	0xbdccdd60	-0.100031614
164	0xbe281a86	-0.16416368
165	0x3e7d1d82	0.24718288
166	0xbe0b67c1	-0.13613798
167	0x3c9f8af0	0.01947543
168	0xbe525a3e	-0.20542237
169	0xbd3d34a8	-0.046192795
170	0xbd9d1ebc	-0.07671878
171	0x3df81490	0.12113297
172	0xbe22daee	-0.15903828
173	0x3e1dd84c	0.15414542
174	0xbe3a446c	-0.18190163
175	0x39c95000	0.00038397312
176	0x3e2f7e14	0.17137939
177	0xbe535a74	-0.20639974
178	0x3d2ef720	0.042716146
179	0xbe539edd	-0.2066607
180	0xbdd29c18	-0.10283679
181	0x3d0762a8	0.03305307
182	0xbda42c44	-0.080162555
183	0x3e65c0ca	0.22436824
184	0x3d20a7e0	0.039222598
185	0xbe21290d	-0.15738316
186	0xbe31d239	-0.1736535
187	0x3e1f5306	0.15559015
188	0xbde780cc	-0.11303863
189	0xbe6a9f1f	-0.22912262
190	0x3d886c1c	0.06661245
191	0xbe43378a	-0.19064155
192	0x3e60da9c	0.21958393
193	0x3e344a94	0.17606574
194	0x3e4aa58e	0.19789717
195	0xbde38c7e	-0.11110781
196	0xbe56ef5a	-0.20989743
197	0x3da532fc	0.08066365
198	0xbe85b0c3	-0.2611142
199	0xbe21c7e1	-0.15798904
200	0xbe0ffd9d	-0.1406159
201	0xbd3bff60	-0.04589784
202	0x3dd8f7d0	0.105941415
203	0xbe0df997	-0.13864742
204	0xbe5e006b	-0.21679847
205	0x3da5942c	0.08084902
206	0xbd6a4890	-0.057198107
207	0xbe0b9a0e	-0.13632986
208	0xbe772fd8	-0.24139345
209	0xbd0b28a8	-0.03397432
210	0xbe5579f6	-0.20847306
211	0xbd83c5de	-0.064342245
212	0xbe8139b0	-0.25239325
213	0x3e29a456	0.16566595
214	0x3dcaac88	0.09896189
215	0x3e0ba704	0.1363793
216	0xbe80e08d	-0.2517132
217	0xbe868a7f	-0.2627754
218	0xbde80e14	-0.1133081
219	0xba8b4900	-0.0010626614
220	0x3daf5428	0.085609734
221	0xbe673486	-0.2257863
222	0xbd244918	-0.04010877
223	0x3e6900e2	0.22754243
224	0xbd0ca83c	-0.03434013
225	0xbdaf928a	-0.08572872
226	0x3c36a9c0	0.01114887
227	0x3e80ed0b	0.2518085
228	0x3c5aaf80	0.0133475065
229	0xbdcb3b10	-0.09923375
230	0x3de6b978	0.11265844
231	0xbe389496	-0.18025431
232	0x3de62618	0.112377346
233	0x3e2d20c0	0.16907024
234	0x3e47464c	0.1946041
235	0xbe2a30ab	-0.16620128
236	0x3de99894	0.11406055
237	0xbe11820b	-0.14209764
238	0xbe587755	-0.21139272
239	0x3e7bfe26	0.24608669
240	0xbe66848d	-0.22511502
241	0xbe073f4d	-0.13207741
242	0xbe697cfa	-0.22801581
243	0x3cbd4d70	0.023108214
244	0xbe023ba9	-0.12718071
245	0x3d90e58c	0.070750326
246	0x3e0ad836	0.1355904
247	0xbd1d0a10	-0.038339674
248	0xbe24e80f	-0.16104148
249	0xbd523060	-0.051315665
250	0x3e114bc0	0.14189053
251	0xbe40a6c2	-0.18813613
252	0xbe6e8553	-0.23293047
253	0x3d3cf048	0.046127588
254	0xbe042095	-0.12903054
255	0xbd796e7c	-0.06089638

l1.bias f4 [50]
0	0x3e61fce6	0.2206913
1	0xbe0c836b	-0.13722007
2	0x3d8481d4	0.06470075
3	0xbe768f7b	-0.24078171
4	0x3e1f2ff6	0.1554564
5	0x3d9d6970	0.07686126
6	0x3cf804d0	0.030275732
7	0xbe83e5d9	-0.25761297
8	0x3df7a9e8	0.12092954
9	0xbe5088c4	-0.20364672
10	0x3d5fefa0	0.054671884
11	0x3ddadd3c	0.10686728
12	0x3e6e1b92	0.23252705
13	0xbd85aa58	-0.06526631
14	0x3d6aa280	0.05728388
15	0xbe165e2a	-0.14684358
16	0x3dedbd14	0.116083294
17	0xbe85916f	-0.2608752
18	0x3e759596	0.23982844
19	0x3e2df3a2	0.1698747
20	0x3de0db20	0.10979295
21	0xbe558572	-0.20851687
22	0xbdbb41ae	-0.09143387
23	0x3e1fa216	0.15589175
24	0x3c2a8060	0.010406584
25	0x3e811ed1	0.25218824
26	0x3e324812	0.17410305
27	0x3e2e49a6	0.17020282
28	0x3ddf0a68	0.10890657
29	0x3e4f9712	0.20272473
30	0xbe828001	-0.25488284
31	0xbe67872d	-0.22610159
32	0x3c827b20	0.015927851
33	0xbcc2d7f8	-0.023784623
34	0xbe17b014	-0.14813262
35	0x3e6c088c	0.23050135
36	0xbe0b8f75	-0.13628943
37	0x3dc5563c	0.096355885
38	0xbc0e1000	-0.008670807
39	0xbe179fe5	-0.14807089
40	0x3e81ba5b	0.2533749
41	0xbcaf5a58	-0.021405384
42	0x3d3a2138	0.045441836
43	0x3e4f0d60	0.20219946
44	0x3e876e2b	0.2645124
45	0x3e0518e4	0.12997776
46	0x3cbf98a0	0.023388207
47	0x3d2b8aa8	0.04188028
48	0x3e28f9dc	0.16501564
49	0x3e623204	0.22089392

l2.weight f4 [100, 50]
0	0xbd24d9cc	-0.04024677
1	0xbdeb7dfc	-0.11498639
2	0xbd6dca54	-0.058054283
3	0x3d1aa96c	0.03775923
4	0x3d909828	0.070602715
5	0xbde0a144	-0.10968259
6	0xbe06ff1f	-0.13183258
7	0xbdd50d84	-0.104029685
8	0x3dc7133e	0.09720467
9	0x3dfc5b32	0.123220816
10	0xbddfbba7	-0.10924464
11	0x3d73d9c4	0.05953385
12	0xbc3d27e0	-0.0115451515
13	0x3e0cbe57	0.13744484
14	0x3d15cb78	0.036570996
15	0x3bde6280	0.0067866445
16	0x3ddf828e	0.10913573
17	0x3d084a9c	0.033274278
18	0xbbf91040	-0.007600814
19	0xbc853d58	-0.016264603
20	0x3d48a2f4	0.04898353
21	0x3d62fbf0	0.055416048
22	0xbd755ec2	-0.05990482
23	0xbb884100	-0.004158139
24	0xbdda6288	-0.106633246
25	0x3c0a2d60	0.00843367
26	0xbd386a88	-0.04502347
27	0xbcd4fb18	-0.025998637
28	0xbb991980	-0.0046722293
29	0xbd6c3356	-0.057666145
30	0xba039b00	-0.000502035
31	0x3ddf852a	0.10914071
32	0xbd154e46	-0.0364516
33	0xbda03782	-0.07823087
34	0xbd8496fe	-0.06474112
35	0xbdd3bddd	-0.10338948
36	0xbdb86d5f	-0.09005236
37	0x3d5d1854	0.05397828
38	0x3cb19f30	0.021682352
39	0xbd7d1de0	-0.06179607
40	0xbd4eb0ca	-0.050461568
41	0x3cce8e98	0.025214478
42	0x3df0d4aa	0.117593125
43	0x3d8c296e	0.068438396
44	0xbe0bb159	-0.13641872
45	0x3e0eccf1	0.13945366
46	0x3b97cb00	0.004632354
47	0x3e106f21	0.14104892
48	0x3cbbfa38	0.022946462
49	0x3c34e580	0.011041045
50	0xbced9ce8	-0.029005483
51	0x3d723980	0.059136868
52	0xbda19f03	-0.07891657
53	0x3dbba9b4	0.09163228
54	0xbe05043d	-0.12989898
55	0x3b939340	0.0045036376
56	0xbe1076bd	-0.14107795
57	0xbda057f5	-0.078292765
58	0x3d2261c0	0.039644003
59	0x3c969fa0	0.018386662
60	0x3d27ec04	0.040996566
61	0x3da68e78	0.081326425
62	0xbd29913c	-0.041398272
63	0x3e004f87	0.12530337
64	0x3da54e8a	0.08071621
65	0xbdfc2dc8	-0.123134196
66	0xbdbaf8d0	-0.091294885
67	0xbd4f3d1c	-0.050595388
68	0xbdd70280	-0.10498524
69	0xbc81a340	-0.015824914
70	0x3dac12da	0.08402033
71	0x3dc69f8c	0.096984
72	0x3d3a3d30	0.04546851
73	0xbe0066e7	-0.12539254
74	0xbdc754ee	-0.09732996
75	0xbcc2b42c	-0.023767553
76	0xbb8db4e0	-0.0043245405
77	0xbd7d59f0	-0.06185335
78	0x3db8c944	0.09022763
79	0x3da794a0	0.08182645
80	0xbc00af90	-0.007854357
81	0xbde180ef	-0.1101092
82	0xbd4d7c46	-0.050167345
83	0xbd03bc0c	-0.032161757
84	0xbd14dde4	-0.036344424
85	0x3d496d68	0.049176604
86	0x3d5f0870	0.054451406
87	0x3cf94eb8	0.030433044
88	0xbbc48e40	-0.005998403
89	0xbc831de8	-0.016005471
90	0xbe0c61d9	-0.13709201
91	0xbcec50ac	-0.028847061
92	0x3d890254	0.06689897
93	0x3caeff28	0.021361902
94	0x3d452444	0.04813029
95	0x3b934040	0.004493743
96	0x3b42a280	0.0029698908
97	0x3ddac52a	0.10682137
98	0x3e049a21	0.1294942
99	0xbd8fa39d	-0.07013629
100	0xbd9621e6	-0.07330684
101	0x3d940196	0.07226865
102	0x3e0b922b	0.13629977
103	0xbdbcc170	-0.09216583
104	0x3db48a5a	0.08815451
105	0x3df63e46	0.120235965
106	0xbdfe6580	-0.12421703
107	0x3b7c2b80	0.0038478076
108	0xbc8f7d58	-0.017515823
109	0x3c907238	0.017632589
110	0x3e0f9b8f	0.14024185
111	0xbe04e40b	-0.12977616
112	0x3dcad2c8	0.099034846
113	0x3df54142	0.119753376
114	0xbda1e8dc	-0.079057425
115	0xbdf2465a	-0.11829825
116	0xbdef1c44	-0.11675313
117	0x3d6cc410	0.057804167
118	0xbdbe5215	-0.09293
119	0xbdeac800	-0.11463928
120	0xbd7d3f0a	-0.061827697
121	0xbd302958	-0.04300818
122	0xbdbdff43	-0.09277203
123	0x3d8aadb2	0.06771411
124	0x3c7599c0	0.01499027
125	0xbd1ba5c0	-0.03799987
126	0x3d6c9a40	0.05776429
127	0xbbb70e00	-0.0055863857
128	0x3dad135a	0.08450957
129	0xbda27899	-0.079331584
130	0x3d948808	0.072525084
131	0xbd9f3002	-0.07772829
132	0xbd8775f3	-0.06614294
133	0x3d9524e8	0.0728243
134	0xbd9126b6	-0.07087462
135	0xbd8e7b5d	-0.069571234
136	0xbe0325bd	-0.12807365
137	0xbd2de0fe	-0.042450897
138	0x3df833da	0.12119265
139	0x3def7a4a	0.11693247
140	0x3cc3ef30	0.023917764
141	0xbd822797	-0.063552074
142	0x3dbff366	0.093725964
143	0x3e066795	0.13125451
144	0x3db3e576	0.087840006
145	0xbd4426d2	-0.047888584
146	0xb8a2c000	-7.760525e-05
147	0xbd15427a	-0.03644035
148	0x3db4a454	0.088204056
149	0xbd7d393c	-0.06182216
150	0x3d1606d8	0.03662762
151	0xbd622562	-0.055211432
152	0x3d42e5c8	0.047582418
153	0xbe01e7fc	-0.12686151
154	0xbd5c75e0	-0.05382335
155	0x3c5bd140	0.013416588
156	0xbe01f4d5	-0.12691052
157	0x3d3087c8	0.04309824
158	0xbda14ba5	-0.07875756
159	0xbc653250	-0.013989046
160	0x3c8666c0	0.016406417
161	0x3c4bf0c0	0.012447536
162	0x3d89bc96	0.06725423
163	0x3de073ee	0.10959612
164	0xbd50851a	-0.050908186
165	0xbc828d58	-0.015936539
166	0x3d96b2b4	0.07358304
167	0x3de7f0ba	0.11325212
168	0x3de2efb2	0.110808745
169	0x3e059f87	0.13049136
170	0x3d41f300	0.047350883
171	0x3de6b9f2	0.11265935
172	0xbdc530cc	-0.09628448
173	0x3d384e24	0.044996396
174	0xbd96ea54	-0.07368913
175	0x3d4079ec	0.046991274
176	0x3db519fa	0.08842845
177	0xbd69797e	-0.05700063
178	0x3d9997ae	0.07499634
179	0x3c11cbd0	0.00889869
180	0x3daefb16	0.085439846
181	0xbda2ba7c	-0.07945725
182	0x3d1af05c	0.03782688
183	0xbce0625c	-0.027390651
184	0xbdb15cf0	-0.086603045
185	0xbccd1160	-0.0250327
186	0x3cadbec8	0.021209136
187	0xbd9794b9	-0.074014135
188	0xbd958347	-0.0730043
189	0xbd909365	-0.07059363
190	0xbce5e8ac	-0.028065048
191	0x3d3bd0ac	0.045853302
192	0x3da3d1e8	0.07999021
193	0x3d03658c	0.032079265
194	0x3d56f0e4	0.052475825
195	0xbe032f86	-0.12811098
196	0xbd89a077	-0.06720059
197	0x3b06fa00	0.002059579
198	0x3d956782	0.07295133
199	0x3e0adae5	0.13560064
200	0xbd66df7c	-0.056365475
201	0x3ddcc468	0.10779649
202	0xbe06f395	-0.13178857
203	0x3d72eb18	0.059306234
204	0xbd4a4ad8	-0.049387783
205	0xbd08b794	-0.0333782
206	0xbe0cffc7	-0.13769446
207	0x3c8e40b8	0.017364845
208	0x3e016269	0.12635197
209	0xbd5f74ae	-0.054554634
210	0x3d4062c4	0.04696919
211	0x3e089fb5	0.13342173
212	0xbd70cf92	-0.058791704
213	0x3e0e5171	0.13898255
214	0xbd8a7a53	-0.06761613
215	0x3e0181db	0.12647192
216	0x3c833848	0.016018048
217	0x3e0138c7	0.12619315
218	0xbda1f565	-0.079081334
219	0x3da0c354	0.07849756
220	0x3b600740	0.003418401
221	0x3d893686	0.06699853
222	0x3cf1d138	0.029518709
223	0x3d16e880	0.036842823
224	0xbe0b62a6	-0.1361185
225	0xbdc8cf66	-0.09805183
226	0xbd7aafa2	-0.061202653
227	0x3db6fbb0	0.08934724
228	0x3c81c938	0.015843019
229	0x3d461988	0.048364192
230	0xbe04b303	-0.12958913
231	0x3d58aa70	0.052896917
232	0xbcbc6890	-0.022999078
233	0xbd2fda22	-0.042932637
234	0xbc4922d0	-0.012276366
235	0x3d0ce654	0.034399346
236	0xbc9d4888	-0.019199625
237	0xbd84daa5	-0.06487016
238	0x3bc65160	0.006052181
239	0xbd9a71a1	-0.07541204
240	0x3b2d5d80	0.0026453435
241	0x3dec3d5e	0.11535142
242	0x3b3de900	0.002897799
243	0x3ddc9bf6	0.10771935
244	0x3c2b8780	0.010469317
245	0xbd5d95ee	-0.054098062
246	0x3e0f3fb3	0.13989143
247	0x3e0b0769	0.13577046
248	0x3abdbb00	0.0014475286
249	0x3de7ab62	0.113119856
250	0xbddd5b05	-0.10808376
251	0x3d02d6a0	0.031942964
252	0x3d8ad5f4	0.067790896
253	0x3e0f7d13	0.14012556
254	0xbdfe7c92	-0.12426104
255	0x3cedc328	0.029023722

l2.bias f4 [100]
0	0x3d4fde88	0.05074933
1	0xbe03f67e	-0.12886998
2	0xbd24232c	-0.040072605
3	0x3d81a222	0.063297525
4	0xbdbc1f5c	-0.09185669
5	0x3dd90e38	0.10598415
6	0xbd8f7782	-0.07005216
7	0x3c177870	0.009245023
8	0xbe080adf	-0.13285397
9	0x3d31795c	0.043328628
10	0x3c765680	0.015035272
11	0x3da49044	0.08035329
12	0x3d0cce30	0.034376323
13	0xbdaeac47	-0.08528953
14	0x3db46e06	0.08810048
15	0xbcc07d50	-0.023497254
16	0x3d7ce740	0.061743975
17	0xbdcf4268	-0.10120088
18	0xbdfe38a5	-0.12413148
19	0x3e067d27	0.1313368
20	0xbdf79711	-0.120893605
21	0xbd86a3ec	-0.06574234
22	0xbd89d2bd	-0.06729648
23	0x3cf203c0	0.029542804
24	0x3e06840d	0.13136311
25	0x3d3b1c28	0.04568115
26	0xbdc073a6	-0.09397058
27	0xbda14f9f	-0.07876515
28	0xbdba2bbe	-0.090903744
29	0xbdeda7a8	-0.116042435
30	0xbe08060d	-0.13283558
31	0x3dfa7fb2	0.12231387
32	0x3e01fd2b	0.12694232
33	0xbd2a100a	-0.041519202
34	0x3dcde6b4	0.10053769
35	0xbdc65562	-0.09684254
36	0xbda3d258	-0.07999104
37	0x3e0aea47	0.13565932
38	0x3d93ae2c	0.07210955
39	0xbdbdafca	-0.09262045
40	0xbde2add6	-0.11068313
41	0x3db329a4	0.08748177
42	0xbcaff52c	-0.021479212
43	0xbd0d0924	-0.034432545
44	0xbd13f084	-0.036118045
45	0xbd0140a8	-0.0315558
46	0x3c624950	0.013811424
47	0xbd03f486	-0.032215618
48	0x3ca24b58	0.019811317
49	0x3d3d8cb0	0.04627675
50	0xbe018beb	-0.1265103
51	0xbbc5a060	-0.006031081
52	0x3d015e6c	0.03158419
53	0x3da711b2	0.08157672
54	0x3db1e97e	0.08687113
55	0xbd179676	-0.037008725
56	0x3dd7baf6	0.10533707
57	0xbd91e413	-0.0712358
58	0xbdfbc8b1	-0.12294138
59	0x3d761e48	0.060087472
60	0x3db0f25e	0.08639978
61	0x3d562bb8	0.052287787
62	0x3d117ee8	0.035521418
63	0x3ddca316	0.10773294
64	0x3c757f60	0.014983982
65	0xbdcc18e8	-0.09965688
66	0xbde0c5f0	-0.109752536
67	0xbdaf8e1a	-0.085720256
68	0xbbff2820	-0.0077867657
69	0xbd2a745c	-0.041614875
70	0x3dd43da4	0.103633195
71	0x3d1c1900	0.03810978
72	0xbdd57132	-0.10421981
73	0xbdbb22bc	-0.091374844
74	0x3d713598	0.058889
75	0x3d8fe6c4	0.07026437
76	0x3df6aa6e	0.12044226
77	0x39b1b000	0.000338912
78	0xbd87ce01	-0.06631089
79	0xbc535700	-0.01289916
80	0xbe050484	-0.12990004
81	0xbe10241e	-0.14076278
82	0xbd90d1c3	-0.07071259
83	0x3d410b14	0.047129706
84	0xbcef2440	-0.02919209
85	0x3d2df6e8	0.042471796
86	0x3d2b6af0	0.04185003
87	0xbe0968ed	-0.13418932
88	0xbdf8d1da	-0.12149401
89	0x3e012eab	0.12615459
90	0x3e030a5b	0.12796919
91	0xbdc66d4c	-0.096888155
92	0xbddc4ef2	-0.10757245
93	0x3da05b2a	0.07829888
94	0xbe0ff7af	-0.14059328
95	0xbd71c63e	-0.05902695
96	0xbdc2e10e	-0.09515582
97	0xbdadee4c	-0.08492717
98	0xbded620f	-0.11590969
99	0xbd629e98	-0.055327028

l3.weight f4 [20, 100]
0	0x3d6471d2	0.05577261
1	0x3b941b60	0.004519865
2	0xbdb9118a	-0.090365484
3	0x3d69f1d2	0.057115383
4	0xbd4983a3	-0.049197804
5	0xbd8b6ac5	-0.06807474
6	0xbd870212	-0.06592192
7	0x3ce54004	0.027984627
8	0x3d65fe72	0.05615086
9	0xbcbdd0f4	-0.023170926
10	0x3ccfcb2c	0.025365435
11	0x3cdbf75c	0.026851349
12	0xbd3916ea	-0.04518787
13	0xbd936095	-0.07196156
14	0x3c389f40	0.011268437
15	0x3d4faa72	0.05069966
16	0xbdc18670	-0.0944947
17	0xbc6f6668	-0.014611818
18	0xbd800702	-0.06251337
19	0x3dcbf0c7	0.09958034
20	0xbcb5f234	-0.022210218
21	0xbcd91aec	-0.026502095
22	0x3d56d2b6	0.052447043
23	0x3c882954	0.01662127
24	0xbda5c2e5	-0.08093814
25	0xbd9059b3	-0.07048359
26	0xbac90e80	-0.0015339404
27	0xbd45d4ed	-0.048298765
28	0xbc3afcf0	-0.011412844
29	0xbdc59867	-0.09648209
30	0x3d990fcd	0.07473717
31	0x3ce3cd5c	0.027807884
32	0x3d3dfa9e	0.046381585
33	0x3d0fba42	0.03508974
34	0x3d5ce982	0.053933628
35	0x3d1aa31e	0.037753217
36	0xbb917c20	-0.0044398457
37	0xbd742a93	-0.059610914
38	0x3dc8edc1	0.09810973
39	0x3d6100fa	0.054932572
40	0x3c813f98	0.015777394
41	0xbdc23c32	-0.094841376
42	0xbce36180	-0.027756453
43	0x3d0962ea	0.033541597
44	0xbd07656a	-0.0330557
45	0x3ce61e94	0.028090753
46	0xbdba6d97	-0.09102934
47	0xbc6f6a70	-0.014612779
48	0xbdaff48f	-0.08591568
49	0x3dbad5fb	0.09122845
50	0xbd8d6ac6	-0.06905131
51	0xbbb073a0	-0.0053848773
52	0xbd82109d	-0.06350825
53	0x3c9670ac	0.018364273
54	0x3cb69828	0.02228935
55	0xbd78a127	-0.06070056
56	0xbd4eb247	-0.050462987
57	0x3db8833b	0.09009405
58	0xbcddb848	-0.027065411
59	0xbdbf6c72	-0.09346856
60	0x3db3c0d9	0.08777017
61	0x3d7a209a	0.061066248
62	0x3b85b430	0.004080318
63	0x3d792512	0.06082637
64	0x3d884171	0.06653107
65	0x3da51a89	0.08061702
66	0x3d0d73de	0.034534328
67	0x3d8017e7	0.06254559
68	0x3d29c59e	0.041448228
69	0xbcca87d4	-0.024722971
70	0x3be4ba20	0.0069801956
71	0xbdaeb675	-0.08530895
72	0x3d9b3099	0.07577629
73	0xbd8e3098	-0.06942862
74	0x3cb2ffa0	0.021850407
75	0x3b9f1ce0	0.004855737
76	0xbdb4d768	-0.08830148
77	0x3d878803	0.06617739
78	0xbd85f046	-0.06539969
79	0x3da74f51	0.08169425
80	0xbd9b05ed	-0.0756949
81	0x3ca7e9f8	0.020497307
82	0x3cc03254	0.023461498
83	0xbc782518	-0.015145563
84	0x3d9ec54b	0.077524744
85	0xbcd4efd8	-0.025993273
86	0x3d3b9eaa	0.04580561
87	0x3ca6fa68	0.020383075
88	0xbd805b16	-0.06267373
89	0xbc324e98	-0.010882996
90	0x3ccf2684	0.02528692
91	0x3d1839ca	0.037164487
92	0xbd8b751d	-0.06809447
93	0x3b9dac30	0.004811786
94	0x3d41db6a	0.04732839
95	0x3dc3f705	0.095685996
96	0xbd055e64	-0.03256072
97	0xbc8ac02c	-0.016937338
98	0xbccc3fc8	-0.024932757
99	0x3d6d412e	0.05792349
100	0xbd9f4f73	-0.077788256
101	0x3dc4e191	0.09613336
102	0x3d8a2971	0.067461856
103	0xbd8f3c6d	-0.06993947
104	0xbc92f6a0	-0.017939866
105	0x3d63187a	0.055443265
106	0xbdc22f0d	-0.094816305
107	0xbd1eed13	-0.03880031
108	0xbd4aec47	-0.049541738
109	0xbda9a496	-0.082833454
110	0xbbd8e560	-0.0066191405
111	0x3d38d74e	0.045127206
112	0x3b2a6940	0.0026002675
113	0x3cfa26cc	0.030536078
114	0xbca5d100	-0.02024126
115	0x3d4f9ed2	0.050688572
116	0x3d7cc9f2	0.061716028
117	0xbd48eb90	-0.049052775
118	0x3b83a2d0	0.0040172115
119	0xbb8198b0	-0.0039549693
120	0x3d104abe	0.03522753
121	0xbcbcaf54	-0.023032822
122	0xbd21d65d	-0.039511073
123	0x3d06b692	0.032888956
124	0xbce1c938	-0.027561769
125	0xbcfa6b38	-0.030568704
126	0xbdb708cf	-0.08937227
127	0xbd6c2343	-0.057650816
128	0x3c7f5ed0	0.01558657
129	0xba821480	-0.0009924322
130	0xbda385db	-0.07984515
131	0x3dcb4999	0.09926147
132	0x3ca8fed4	0.020629324
133	0xbdc7567b	-0.09733292
134	0xbc816048	-0.01579298
135	0xbd6acaf3	-0.057322454
136	0x3d438866	0.0477375
137	0xbd03cfc0	-0.032180548
138	0x3d9bfc71	0.07616509
139	0x3d7759c2	0.060388334
140	0xbdb6054b	-0.08887728
141	0xbcec0b00	-0.028813839
142	0x3ccbece8	0.02489324
143	0xbd76935a	-0.06019912
144	0x3dc2a181	0.09503461
145	0x3ce7c344	0.028291352
146	0x3d8b803f	0.068115704
147	0x3d4963ee	0.049167566
148	0x3d895d83	0.06707289
149	0xbdb509f3	-0.08839788
150	0x3c6d1e70	0.014472589
151	0x3db052a3	0.08609512
152	0xbda444be	-0.08020924
153	0x3db44e55	0.08804003
154	0x3dc19b51	0.094534524
155	0x3d8c9221	0.068638094
156	0xbdb94080	-0.090455055
157	0x3b4f7f40	0.003166154
158	0xbd964edd	-0.07339261
159	0xbbfa7820	-0.0076437145
160	0x3dcbd1a1	0.09952093
161	0x3cbec928	0.023289278
162	0xbcbb0400	-0.022829056
163	0xbcf99e38	-0.030470952
164	0x3da10f81	0.07864285
165	0x3d98f9c5	0.07469515
166	0x3d8c54b9	0.06852097
167	0x3dca8101	0.09887887
168	0x3c413d98	0.01179447
169	0xbda32bbe	-0.079673275
170	0x3c91c914	0.017796077
171	0x3cfcac1c	0.030843787
172	0x3c381390	0.011235133
173	0x3dc7ead5	0.097615875
174	0x3d719cee	0.05898755
175	0x3d380b1e	0.044932477
176	0x3d7787e2	0.060432322
177	0x3d528472	0.05139584
178	0x3d9999b9	0.075000234
179	0xbcca9168	-0.024727538
180	0x3d58d28a	0.05293516
181	0xbd4c5893	-0.04988916
182	0xbdb17097	-0.08664053
183	0xbd529123	-0.051407944
184	0xbd5ad520	-0.053425908
185	0x3d4ed496	0.050495706
186	0xbc9a28f4	-0.018818356
187	0xbdc9e2a2	-0.0985768
188	0xbb636bc0	-0.0034701675
189	0x3cdd8b0c	0.027043842
190	0xbdac7d83	-0.08422377
191	0xbd876d90	-0.06612694
192	0xbba55550	-0.0050455704
193	0x3bc2a460	0.005940005
194	0xba1f9d80	-0.0006088838
195	0x3db2cbc5	0.08730272
196	0xbdccbaba	-0.09996553
197	0x3db166fd	0.086622216
198	0xbd880f06	-0.066434905
199	0xbd49b6b3	-0.0492465
200	0x3d999f51	0.0750109
201	0x3d0edc02	0.034877785
202	0xbd45befd	-0.048277844
203	0xbd84c00d	-0.06481943
204	0x3d7693b2	0.060199447
205	0xbd697c27	-0.057003167
206	0x3b076800	0.0020661354
207	0x3d50f26e	0.05101245
208	0xbdc349da	-0.095355704
209	0xbd2399c0	-0.03994155
210	0xbcbf1328	-0.023324564
211	0x3c48b540	0.012250245
212	0x3dc00fa5	0.09377984
213	0x3ca12008	0.019668594
214	0xbda2fb2d	-0.07958064
215	0xbd995d22	-0.07488467
216	0xbdbd2595	-0.09235684
217	0x3d8dcf85	0.06924347
218	0x3cd45484	0.025919206
219	0xbce70a20	-0.02820307
220	0xbd843478	-0.0645532
221	0xbca649f4	-0.020298935
222	0xbd9860f8	-0.0744037
223	0x3d1e6d36	0.03867837
224	0xbc117818	-0.00887873
225	0xbda4d170	-0.080477595
226	0xbcfb75b4	-0.030695774
227	0x3cd6e3dc	0.026231699
228	0xbd67b62a	-0.05657021
229	0x3c8ba638	0.017047033
230	0xbc134700	-0.008989096
231	0xbd62d74d	-0.055381108
232	0x3d87fdc9	0.066402026
233	0xbc853968	-0.016262725
234	0x3ba3a020	0.0049934536
235	0xbd4c971d	-0.0499488
236	0xbd9a43cb	-0.07532462
237	0x3c9b6e14	0.018973388
238	0xbd0067c0	-0.031348944
239	0xbd0d3f1a	-0.034484006
240	0x3c8aacd8	0.016928121
241	0xbc407ec0	-0.01174897
242	0xbdb67253	-0.08908524
243	0xbdbe3257	-0.09286945
244	0x3d64039e	0.055667512
245	0x3d2605b2	0.040532775
246	0xbdaff95b	-0.08592483
247	0x3dc987d5	0.09840361
248	0x3becdcb0	0.0072284564
249	0x3cd079bc	0.025448672
250	0xbd55a440	-0.052158594
251	0x3d2d9dd2	0.042386837
252	0xbdbaf0e5	-0.09127978
253	0xbc0160b0	-0.007896587
254	0x3d3b65e2	0.04575146
255	0xbc799f68	-0.015235759

l3.bias f4 [20]
0	0x3dac8e7d	0.08425615
1	0x3d9a5155	0.07535044
2	0x3d3424de	0.04398047
3	0xbdc7a853	-0.09748902
4	0x3c1411e8	0.009037472
5	0x3d531ab2	0.05153913
6	0xbd3a5b13	-0.04549701
7	0xbd9ae928	-0.07564002
8	0xbd29006d	-0.04126017
9	0x3d0d5d8e	0.03451305
10	0xbd0f6b0a	-0.03501419
11	0xbd584657	-0.052801456
12	0x3d5ed652	0.05440361
13	0xbd88f000	-0.06686401
14	0xbd1d6ec7	-0.038435724
15	0x3bd33a30	0.0064461455
16	0xbcd98078	-0.026550516
17	0xbdc6dc42	-0.097099796
18	0xbd98de38	-0.0746426
19	0x3d4aa72e	0.04947584

output.weight f4 [8, 20]
0	0x3d32daa8	0.043665558
1	0xbd77d930	-0.06050986
2	0xbd40950c	-0.047017142
3	0xbe1d9f6a	-0.15392843
4	0x3cc990a0	0.024605095
5	0xbe41efec	-0.18939179
6	0x3e3f681c	0.18692058
7	0x3c939380	0.01801467
8	0xbd932a36	-0.071857855
9	0x3dd55bac	0.10417876
10	0x3d58e138	0.05294916
11	0xbd0d7f78	-0.03454539
12	0x3d6c50c8	0.057694227
13	0x3def50e4	0.116853505
14	0x3cd0f568	0.025507644
15	0x3d970540	0.07374048
16	0x3db77858	0.089585006
17	0x3e20b35a	0.15693417
18	0x3dc80674	0.09766856
19	0x3e1469e2	0.14493516
20	0xbdae1218	-0.08499545
21	0x3db9670c	0.09052858
22	0xbdc45488	-0.095864356
23	0x3e3b6d72	0.18303469
24	0x3d8e66d4	0.06953207
25	0x3e3baa48	0.18326676
26	0x3e389cc8	0.18028557
27	0xbdffbae6	-0.1248682
28	0x3d74d750	0.05977565
29	0xbe562dbe	-0.20915887
30	0xbc275320	-0.01021269
31	0x3c617680	0.013761163
32	0xbd1f2a14	-0.03885849
33	0x3d896c30	0.06710088
34	0x3d6305f8	0.055425614
35	0x3e43169a	0.1905159
36	0x3dcad2a8	0.09903461
37	0xbda2b5e8	-0.07944852
38	0x3e516f42	0.20452598
39	0x3e320028	0.17382872
40	0x3e0e4e32	0.13897017
41	0xbd3257bc	-0.0435407
42	0xbde2e201	-0.11078263
43	0x3df7f91c	0.12108061
44	0x3d5766f0	0.052588403
45	0xbbf589a0	-0.007493213
46	0x3da848a0	0.08216977
47	0xbe25d0c6	-0.16192922
48	0x3e273fe8	0.16332972
49	0xbbe93e20	-0.0071180016
50	0x3e63bd08	0.22240078
51	0x3a621e00	0.0008625686
52	0xbe484960	-0.1955924
53	0x3bd00460	0.006348178
54	0x3d85b06c	0.065277904
55	0x3e52bdd2	0.20580223
56	0x3c8a6c40	0.01689732
57	0xbdc35200	-0.09537125
58	0x3dd7a598	0.105296314
59	0xbe16b110	-0.14715981
60	0x3e2e8f8c	0.17046946
61	0xbe57267c	-0.21010774
62	0x3e089288	0.13337147
63	0xbdaed9bc	-0.08537623
64	0x3e2198d6	0.15780959
65	0xbdb70f54	-0.089384705
66	0x3e201a02	0.15634921
67	0x3d0e6610	0.034765303
68	0xbdec30e6	-0.11532764
69	0xbe251ccc	-0.16124266
70	0x3d8d0748	0.068861544
71	0x3dc54304	0.09631923
72	0x3e4701d2	0.19434288
73	0xbdd4b95a	-0.103869155
74	0xbe406b72	-0.18790987
75	0xbd9d6374	-0.07684985
76	0x3d0a31e0	0.03373897
77	0x3d133160	0.03593576
78	0xbcb384d8	-0.02191393
79	0x3e003138	0.12518775
80	0xbce06f80	-0.027396917
81	0xbe0389ae	-0.1284549
82	0xbd6c6aa4	-0.057718888
83	0xbdbee868	-0.09321672
84	0x3cae4e30	0.021277517
85	0x3d3a6858	0.045509666
86	0xbe6398fe	-0.2222633
87	0x3e1f7ab4	0.15574151
88	0x3db54148	0.08850342
89	0x3e0aa886	0.13540849
90	0x3dbd1260	0.092320204
91	0xbe0c63e8	-0.13709986
92	0x3d595130	0.053055942
93	0x3ddfbe0c	0.109249204
94	0x3e1bf482	0.15229991
95	0xbd7e3518	-0.062062353
96	0xbdc309e6	-0.09523372
97	0x3e5124a8	0.2042414
98	0x3e079716	0.13241228
99	0xbde6753a	-0.11252828
100	0xbcbb2e08	-0.022849098
101	0xbc8b2f88	-0.016990438
102	0xbd5cbce8	-0.053891093
103	0x3df64138	0.12024158
104	0x3e3c318a	0.18378273
105	0xbe1d7964	-0.15378338
106	0xbe0758fe	-0.13217542
107	0xbaee7100	-0.0018191636
108	0x3e2cdfcc	0.16882247
109	0x3e1e6b3c	0.15470594
110	0x3e171fe8	0.14758265
111	0xbe32cca0	-0.1746087
112	0xbe2cc95c	-0.16873688
113	0x3df8276c	0.12116894
114	0x3e049596	0.12947688
115	0xbe1770c9	-0.14789118
116	0xbcca5690	-0.02469948
117	0x3e002df8	0.12517536
118	0x3e3065de	0.17226359
119	0x3dcd335c	0.10019562
120	0x3d84b8f0	0.064805865
121	0x3dcf54f4	0.101236254
122	0xbe028e70	-0.12749648
123	0x3d3fc8c0	0.04682231
124	0xbdd970ff	-0.106172554
125	0xbde7d0fa	-0.11319156
126	0xbdffd29a	-0.12491341
127	0xbbf2fd20	-0.0074154288
128	0x3e572126	0.21008739
129	0x3e0c08bc	0.13675207
130	0x3e359c48	0.17735398
131	0x3e3278d0	0.17428899
132	0xbc8a2528	-0.01686342
133	0x3d8f9e54	0.070126206
134	0x3de4f254	0.11179033
135	0x3d8cb0a4	0.06869629
136	0xbd819c6c	-0.06328663
137	0xbd49a49c	-0.04922925
138	0xbce189d8	-0.02753155
139	0x3e2b29f2	0.1671522
140	0x3e03dd5a	0.12877408
141	0xbd15ff94	-0.03662069
142	0xbe4f3a10	-0.20236993
143	0xbdd17cf2	-0.102289096
144	0xbe303c74	-0.17210561
145	0xbde1243f	-0.109932415
146	0xbd467d78	-0.0484595
147	0xbde8a8fb	-0.113603555
148	0xba99a000	-0.0011720657
149	0x3d76a9f8	0.06022069
150	0x3e5dcd08	0.21660244
151	0x3e09d40a	0.13459793
152	0x3cd35250	0.025796086
153	0xbe22ca3c	-0.15897459
154	0xbe345e26	-0.1761404
155	0x3e1245cc	0.14284438
156	0x3e3cb778	0.18429363
157	0xbdb002ac	-0.085942596
158	0xbdc53248	-0.09628731
159	0xbdf3ab5a	-0.11897917

output.bias f4 [8]
0	0x3e1e791a	0.15475884
1	0xbe16d1fc	-0.1472854
2	0xbd93c22e	-0.07214771
3	0x3dce85e8	0.10084134
4	0x3d229db0	0.039701164
5	0x3e1baee0	0.15203428
6	0xbe48b762	-0.19601205
7	0xbd5f5d84	-0.054532543
