my_transformer/saved_model/simpleANNlr=0.005bs=64.pt (torch, 34575 bytes, 8 tensors)

l1.weight f4 [50, 14]
0.0044960678 -0.052659616 0.07596052 -0.15725985 0.26653603 -0.21944791 0.21833351 -0.14017671
-0.18434721 -0.11236909 0.08540824 -0.02347733 -0.16169178 -0.20597792 -0.089012384 -0.07026282
-0.07304257 0.003237933 0.20523554 0.031812727 0.033280045 -0.116366535 -0.11011168 -0.08723912
0.15462774 -0.15153216 0.18889403 0.16397107 -0.082035065 -0.03781542 0.13744384 -0.19036976
0.06964597 -0.18479864 -0.24953237 0.07286912 -0.13481301 0.24956027 0.00021058321 -0.19150531
-0.24904792 0.19025502 0.079226375 -0.26288944 -0.066423595 0.07104364 -0.11745003 -0.2469866
-0.19685145 -0.16906065 -0.190326 -0.24221474 -0.08835186 -0.10090129 -0.06029682 0.015948981
-0.054125175 0.23684683 0.23974392 -0.0074951053 0.20950457 0.21702683 -0.13657814 -0.18312624
-0.15197903 0.0372459 0.09165609 -0.005989045 -0.24712369 -0.1925486 -0.175557 0.20608643
0.09487361 -0.07936172 -0.220326 -0.06908578 0.049298167 0.0894489 0.2031934 -0.21135056
-0.10148503 -0.1353639 0.2010363 0.11439985 -0.001465112 -0.10456039 -0.2609785 -0.042099744
-0.20356289 -0.06974691 0.14263093 -0.079456225 -0.25559467 0.0847027 0.24251589 0.19719547
0.12621772 -0.21636394 -0.0952362 -0.095236495 0.15156832 -0.18418728 0.06508654 0.17579028
-0.23917061 -0.15461701 -0.081454486 0.12392995 -0.133468 0.25595537 0.2572349 -0.22822896
0.030665219 0.21492651 0.25566068 0.03356573 -0.1942532 0.22191185 -0.24061795 -0.14023033
0.18746048 0.1026417 0.11600998 -0.25367862 -0.08424452 -0.07110976 -0.2384081 -0.08525519
0.105965585 0.23681298 -0.06877002 -0.257488 -0.22248238 -0.24840444 -0.08620246 0.17572841
-0.10974309 0.16534182 -0.08308244 -0.0025918484 0.14191535 -0.15364228 0.15439552 0.1497486
-0.14196911 -0.16633554 0.12830263 -0.20703411 0.053599834 -0.010914534 0.1164709 -0.14247645
0.002214104 -0.14522225 -0.17224634 0.25047752 -0.0350741 -0.043471947 0.025813013 -0.120900854
0.082585156 0.18032026 0.20978135 0.043205827 0.23300365 -0.009688705 -0.19420028 -0.13495469
0.10107863 -0.11071524 0.14944342 0.096078604 0.13594764 0.0335491 0.03623566 -0.16476455
0.13777235 0.1710724 0.10301265 0.16896093 -0.063677 -0.11085208 0.101094455 -0.26455587
-0.20546255 0.07363218 -0.06181115 0.19473824 0.08151713 0.2565138 -0.26291963 -0.24400237
-0.18735194 0.010258347 0.014840156 -0.119289055 -0.12745796 -0.14636195 -0.027389452 0.087810814
-0.21443954 -0.25777912 -0.15602978 -0.11652593 0.19041172 0.14546925 -0.21600911 0.14683554
-0.11328083 0.09983015 0.08567387 -0.0076262653 -0.10840146 -0.014126688 -0.16889203 0.25259623
0.22495228 0.01231724 0.18633097 -0.21643198 0.12593502 -0.04860884 0.1775648 -0.096736774
-0.21491739 0.0389387 -0.08991608 0.1754694 0.19320878 0.18158296 -0.0928064 -0.08747631
0.24932942 -0.072741404 -0.24445057 0.2452803 0.26315454 0.18161461 0.1316177 0.14236444
-0.112624064 -0.10550842 -0.09196854 -0.02891542 -0.087405875 0.13655427 0.06467879 -0.1537163
-0.22174901 -0.2581033 0.09558791 0.25591752 0.14731348 -0.08265975 0.04730034 0.0545007
00000000: c053 933b 9cb1 57bd 3091 9b3d ba08 21be
00000010: 6977 883e f4b6 60be d292 5f3e 7c8a 0fbe
00000020: 84c5 3cbe c421 e6bd 84ea ae3d 8853 c0bc
00000030: 8892 25be e0eb 52be 204c b6bd f4e5 8fbd
00000040: 5897 95bd 8033 543b 4429 523e 104e 023d
00000050: a850 083d 9451 eebd 3c82 e1bd 6caa b2bd
00000060: bc56 1e3e 3f2b 1bbe 706d 413e 08e8 273e
00000070: 0002 a8bd 58e4 1abd 14be 0c3e 4af0 42be
00000080: 8ca2 8e3d db3b 3dbe 6a85 7fbe 683c 953d
00000090: 6c0c 0abe ba8c 7f3e 00d0 5c39 f819 44be
000000a0: 6b06 7fbe 36d2 423e 7041 a23d 7299 86be
000000b0: 1809 88bd 547f 913d a489 f0bd 0eea 7cbe
000000c0: 6d93 49be 3c1e 2dbe d2e4 42be 2407 78be
000000d0: d2f1 b4bd 56a5 cebd ccf9 76bd 70a7 823c
000000e0: 5cb2 5dbd fa87 723e 6e7f 753e 8099 f5bb
000000f0: 5e88 563e 483c 5e3e 24db 0bbe 7285 3bbe
00000100: 64a0 1bbe 288f 183d 30b6 bb3d c03f c4bb
00000110: fe0d 7dbe 762b 45be 37c5 33be 5208 533e
00000120: 184d c23d 6688 a2bd 249d 61be d87c 8dbd
00000130: e0ec 493d fc30 b73d ee11 503e 486c 58be
00000140: 62d7 cfbd d69c 0abe 76dc 4d3e 784a ea3d
00000150: 0009 c0ba c223 d6bd f99e 85be c870 2cbd
00000160: ca72 50be 78d7 8ebd d80d 123e f2b9 a2bd
00000170: 4edd 82be 9c78 ad3d 1656 783e 9ced 493e
00000180: 383f 013e 828e 5dbe 320b c3bd 5a0b c3bd
00000190: ba34 1b3e 979b 3cbe 184c 853d 5e02 343e
000001a0: 24e9 74be ec53 1ebe 9cd1 a6bd fcce fd3d
000001b0: d6ab 08be 950c 833e 4bb4 833e dab4 69be
000001c0: a035 fb3c b215 5c3e f5e5 823e 387c 093d
000001d0: 50ea 46be dc3c 633e 8d64 76be 8a98 0fbe
000001e0: a4f5 3f3e d035 d23d a496 ed3d 2ae2 81be
000001f0: 6488 acbd fea1 91bd 4121 74be 469a aebd
00000200: 7c04 d93d 1a7f 723e 4cd7 8cbd 78d5 83be
00000210: 6cd2 63be bc5d 7ebe ea8a b0bd 26f2 333e
00000220: fcc0 e0bd 5e4f 293e 2027 aabd 00dc 29bb
00000230: 4252 113e 6754 1dbe dc19 1e3e b257 193e
00000240: 5a60 11be dd53 2abe c461 033e c000 54be
00000250: 808b 5b3d e0d2 32bc 4c88 ee3d 59e5 11be
00000260: 801a 113b 24b5 14be 5861 30be 973e 803e
00000270: dca9 0fbd a40f 32bd d075 d33c de9a f7bd
00000280: 6822 a93d e0a5 383e ecd0 563e 98f8 303d
00000290: 8298 6e3e 60bd 1ebc 70dc 46be 9031 0abe
000002a0: 5002 cf3d acbe e2bd b207 193e dcc4 c43d
000002b0: dc35 0b3e c86a 093d d86b 143d 0ab8 28be
000002c0: 3214 0d3e 9a2d 2f3e 4cf8 d23d 1804 2d3e
000002d0: 1669 82bd 6a06 e3bd 9c0a cf3d de73 87be
000002e0: c664 52be 78cc 963d b02d 7dbd 7669 473e
000002f0: 74f2 a63d c755 833e 679d 86be c2db 79be
00000300: 30d9 3fbe a012 283c 2024 733c d24d f4bd
00000310: 5784 02be e8df 15be d85f e0bc 28d6 b33d
00000320: 0a96 5bbe a0fb 83be 45c6 1fbe 26a5 eebd
00000330: 4afb 423e e4f5 143e 7e31 5dbe 0e5c 163e
00000340: c8ff e7bd c073 cc3d c875 af3d c0e5 f9bb
00000350: 9601 debd a073 67bc 08f2 2cbe 4b54 813e
00000360: e459 663e 40ce 493c 8ccd 3e3e 58a0 5dbe
00000370: 1cf5 003e 101a 47bd 8cd3 353e ee1d c6bd
00000380: 4e13 5cbe 307e 1f3d ec25 b8bd 40ae 333e
00000390: 86d8 453e e2f0 393e 4811 bebd c826 b3bd
000003a0: 3650 7f3e 72f9 94bd 4051 7abe c22a 7b3e
000003b0: 31bc 863e 2ef9 393e cac6 063e fcc7 113e
000003c0: 72a7 e6bd cc14 d8bd 005a bcbd 08e0 ecbc
000003d0: da01 b3bd e2d4 0b3e 5076 843d ce67 1dbe
000003e0: 2c12 63be 1e26 84be 98c3 c33d 9f07 833e
000003f0: 58d9 163e 8449 a9bd 00be 413d 203c 5f3d

l1.bias f4 [50]
-0.06620902 -0.24833992 -0.23702317 -0.2068346 -0.06308189 -0.09866597 0.23026815 -0.23709732
0.16289955 0.23294005 -0.12710808 -0.24994346 -0.2461239 -0.076050386 -0.119250536 -0.26567584
-0.060649246 -0.22235528 0.17289591 -0.22508931 -0.1667522 0.116116196 0.0007916391 -0.014371783
0.16249481 -0.19871606 0.14389008 -0.1684483 0.12100273 0.20161134 -0.2509595 0.035224855
-0.21904999 -0.018820286 -0.11089429 0.2377002 0.068623215 -0.04276876 -0.20433706 -0.13533854
0.21583542 0.15287793 0.09516126 -0.19195233 -0.20371926 0.018816382 0.17545846 -0.118161246
0.21551567 -0.20032915
00000000: 9898 87bd d24c 7ebe 34b6 72be 73cc 53be
00000010: 1431 81bd 6211 cabd 6acb 6b3e a4c9 72be
00000020: 24cf 263e d687 6e3e 9f28 02be 2ef1 7fbe
00000030: e707 7cbe 4ec0 9bbd a039 f4bd aa06 88be
00000040: 586b 78bd 1ab1 63be a00b 313e d07d 66be
00000050: 17c1 2abe 54ce ed3d 0086 4f3a a077 6bbc
00000060: 0a65 263e 397c 4bbe ec57 133e b67d 2cbe
00000070: 48d0 f73d 3473 4e3e c37d 80be f047 103d
00000080: a44e 60be 002d 9abc 8c1c e3bd ae67 733e
00000090: 548a 8c3d 4c2e 2fbd bc3d 51be 3096 0abe
000000a0: f603 5d3e 088c 1c3e e8e3 c23d 278f 44be
000000b0: c89b 50be d024 9a3c 62ab 333e 86fe f1bd
000000c0: 24b0 5c3e 1623 4dbe

l2.weight f4 [100, 50]
0.10325286 -0.11739484 -0.08480489 -0.073015645 0.07765399 0.13518195 -0.10544087 -0.06290856
0.090705335 -0.05583495 0.12698202 0.121867344 -0.06842259 -0.13825843 0.1282451 -0.004395485
-0.066682234 0.11118339 -0.10376789 -0.078348145 0.021857575 -0.12946722 -0.08483576 -0.104267284
-0.04212881 0.010594696 -0.07516965 0.054350674 0.1335382 0.12645917 -0.010214359 -0.1394829
-0.08618631 0.08319089 -0.08209917 -0.007259801 0.06346901 -0.024540223 0.07091385 -0.1370139
-0.084683284 -0.03228695 -0.06564134 0.014891073 0.043848798 0.03771171 -0.040873006 -0.06106396
-0.12911257 0.100207865 -0.12647963 -0.10828161 -0.13178918 0.032963216 -0.008445233 -0.10128778
-0.053272285 -0.0365761 0.12335576 0.042863265 0.12653498 0.09014107 -0.098170534 0.124034956
-0.055901647 -0.036296733 -0.0012849122 0.066162586 -0.037162565 -0.12303871 0.0068449974 -0.116729446
0.031647503 0.036781833 -0.115887314 -0.077430815 0.05092527 0.11715414 -0.0984312 -0.05258902
-0.045133546 -0.03457077 -0.13859004 0.12781392 0.0018109381 -0.049030393 -0.083645836 -0.00035823882
0.045178965 0.0006876439 0.05997397 0.041595414 0.13101946 -0.123228505 0.12745552 0.1103877
0.13070776 -0.025804713 -0.098156996 -0.019935712 0.08683404 0.010436639 -0.038195685 0.02557838
-0.034227155 0.040329173 0.025915518 -0.01845245 -0.09534982 0.124493375 0.01057367 -0.118616425
-0.13001157 -0.030404486 -0.008210719 -0.028632767 -0.13251443 -0.10349184 0.0586188 0.115907624
0.11946629 0.09338912 -0.045155056 -0.072206825 0.09614727 0.06198956 0.13246353 0.0054409355
-0.0063451678 0.032244653 -0.063205555 -0.09243207 -0.0075153112 0.06303111 0.058494568 0.13126527
0.103397176 0.063447535 0.13530834 -0.009712517 -0.08916323 0.050771743 -0.01568006 0.11417045
-0.10550441 0.09348893 -0.07807672 -0.056929268 0.021183312 0.10379812 0.09509221 0.088801816
-0.09138196 -0.021635883 -0.1120512 0.13679208 -0.09282299 -0.0068700314 0.053265825 -0.035121948
-0.018053167 0.07772435 0.10586588 0.022399396 -0.10967742 0.039085418 0.086473435 0.079965055
-0.04340507 0.085983485 0.10178386 -0.059436716 0.072838426 -0.025947355 0.08314791 0.09341891
-0.11579196 -0.036122836 -0.092161946 0.0019307882 0.13334312 0.1251254 0.028205395 -0.099893704
-0.117774636 -0.08915082 -0.027533256 0.13918771 -0.13762191 0.017942771 0.0027217567 0.06743012
-0.010938883 -0.08565147 0.07156332 -0.026084565 -0.0232758 0.007414788 0.06446226 -0.054701082
-0.00013934076 0.07748832 -0.13840011 -0.003406942 0.13532503 -0.05439218 -0.057287753 0.13048305
0.014900997 0.05152276 0.047947854 -0.1250725 -0.052073427 0.007425219 0.12729953 -0.08641149
0.12358083 -0.13145941 -0.027193032 0.13399445 0.0423297 -0.07302365 -0.09914846 0.002508968
0.12421031 -0.112282954 -0.054681778 0.11769505 -0.07825335 0.08501026 -0.03145639 0.03566307
-0.007815808 0.08795734 -0.021362096 0.107746646 -0.014556408 -0.016063586 0.12312807 -0.027109593
0.11449213 0.11487897 0.10205875 -0.13604686 0.12491687 -0.059891805 0.03503698 -0.09907762
-0.07761482 0.0015776902 0.01637189 0.10125543 0.109598294 0.06904699 0.024790257 0.13893579
00000000: 3c76 d33d b56c f0bd 30ae adbd 3a89 95bd
00000010: 0e09 9f3d 236d 0a3e 62f1 d7bd 34d6 80bd
00000020: b8c3 b93d 30b3 64bd 9307 023e 9695 f93d
00000030: 2521 8cbd 9e93 0dbe af52 033e 0008 90bb
00000040: b290 88bd 1eb4 e33d 4284 d4bd fe74 a0bd
00000050: a80e b33c 0e93 04be 5fbe adbd 168a d5bd
00000060: 428f 2cbd 6095 2d3c 8cf2 99bd d09e 5e3d
00000070: 3dbe 083e 837e 013e 205a 27bc 9bd4 0ebe
00000080: 7382 b0bd fc5f aa3d 9c23 a8bd a0e3 edbb
00000090: 0afc 813d 9408 c9bc 483b 913d 5f4d 0cbe
000000a0: 6e6e adbd 523f 04bd f86e 86bd b0f9 733c
000000b0: cc9a 333d 9877 1a3d 746a 27bd 341e 7abd
000000c0: 1636 04be c839 cd3d e083 01be c0c2 ddbd
000000d0: bef3 06be 7004 073d e05d 0abc f86f cfbd
000000e0: 0a34 5abd d2d0 15bd f2a1 fc3d 6491 2f3d
000000f0: 6392 013e e29b b83d a20d c9bd 0a06 fe3d
00000100: 20f9 64bd e2ab 14bd 806a a8ba 4080 873d
00000110: c637 18bd b8fb fbbd 004c e03b d90f efbd
00000120: d0a0 013d 8ca8 163d 5456 edbd 0c94 9ebd
00000130: 0497 503d 82ee ef3d 4c96 c9bd 9667 57bd
00000140: f4dd 38bd 149a 0dbd 8cea 0dbe a7e1 023e
00000150: 005d ed3a 18d4 48bd 824e abbd 00d2 bbb9
00000160: 940d 393d 0043 343a 44a7 753d f45f 2a3d
00000170: f729 063e 3a5f fcbd b383 023e f212 e23d
00000180: 41d8 053e 6864 d3bc 8906 c9bd 3850 a3bc
00000190: 0cd6 b13d 70fe 2a3c 1473 1cbd c089 d13c
000001a0: c631 0cbd 3430 253d c84c d43c 9829 97bc
000001b0: c446 c3bd 62f6 fe3d 303d 2d3c 2bed f2bd
000001c0: c121 05be d412 f9bc 4086 06bc 448f eabc
000001d0: ddb1 07be 88f3 d3bd 441a 703d fa60 ed3d
000001e0: beaa f43d cc42 bf3d 82f4 38bd 2ce1 93bd
000001f0: dce8 c43d c4e8 7d3d 85a4 073e e049 b23b
00000200: 20eb cfbb f812 043d ea71 81bd 064d bdbd
00000210: 0043 f6bb 7416 813d 0098 6f3d 676a 063e
00000220: e6c1 d33d c8f0 813d 458e 0a3e 4021 1fbc
00000230: 369b b6bd 08f6 4f3d 7873 80bc 32d2 e93d
00000240: b212 d8bd 2077 bf3d b0e6 9fbd aa2e 69bd
00000250: a088 ad3c 1c94 d43d b4bf c23d badd b53d
00000260: 7726 bbbd bc3d b1bc 197b e5bd 3913 0c3e
00000270: fb19 bebd 001e e1bb 442d 5a3d 08dc 0fbd
00000280: 3ce4 93bc f22d 9f3d 36d0 d83d f07e b73c
00000290: 8e9e e0bd 0818 203d fc18 b13d b8c4 a33d
000002a0: 84c9 31bd 1c18 b03d 0e74 d03d ea73 73bd
000002b0: 502c 953d 8c8f d4bc 7449 aa3d 6a52 bf3d
000002c0: 5624 edbd 8af5 13bd 67bf bcbd 8012 fd3a
000002d0: 198b 083e df20 003e 000f e73c 1295 ccbd
000002e0: d433 f1bd b594 b6bd 6c8d e1bc 3987 0e3e
000002f0: c2ec 0cbe b8fc 923c 805f 323b ce18 8a3d
00000300: 0039 33bc 0a6a afbd ca8f 923d 4caf d5bc
00000310: e4ac bebc c0f7 f23b ca04 843d 3e0e 60bd
00000320: 001c 12b9 32b2 9e3d c2b8 0dbe 0047 5fbb
00000330: a592 0a3e 56ca 5ebd 90a6 6abd 599d 053e
00000340: 5023 743c 8809 533d f864 443d 0113 00be
00000350: f24a 55bd 404f f33b cf5a 023e 82f8 b0bd
00000360: f217 fd3d 4c9d 06be ecc3 debc d735 093e
00000370: e861 2d3d 6c8d 95bd 590e cbbd 806d 243b
00000380: fa61 fe3d 9bf4 e5bd 00fa 5fbd 1a0a f13d
00000390: 4b43 a0bd dc19 ae3d 6ad8 00bd 7013 123d
000003a0: e00d 00bc fa22 b43d 90ff aebc 46aa dc3d
000003b0: 007e 6ebc c897 83bc 922a fc3d f014 debc
000003c0: da7a ea3d aa45 eb3d 2e04 d13d de4f 0bbe
000003d0: 6ad4 ff3d 1c51 75bd f082 0f3d 35e9 cabd
000003e0: 85f4 9ebd 80ca ce3a 581e 863c 025f cf3d
000003f0: 1275 e03d 8268 8d3d f014 cb3c 2f45 0e3e

l2.bias f4 [100]
0.121351436 0.026190266 0.067072526 -0.106698714 -0.05420783 0.135251 -0.08553481 0.10846077
-0.12714879 -0.04870382 0.11222635 -0.00952214 0.12042765 -0.089398414 0.058300167 0.09955521
-0.07926758 -0.07288497 0.038817942 0.08634457 -0.050671473 0.08709954 -0.07178587 -0.016517319
-0.0409778 -0.13821085 0.10499087 -0.0049570203 0.00055767596 0.007973984 0.0842845 0.12935625
0.048205897 -0.073037624 -0.015397936 -0.10690999 0.048511475 0.13322659 0.005169794 0.10753575
-0.02084519 -0.12433144 0.014191002 0.080414504 0.10129739 0.12032835 -0.06594374 0.015022248
-0.08458964 0.089771256 0.029651403 0.07695682 -0.051739037 -0.07368387 0.05393651 -0.11793753
-0.038571753 -0.008525506 0.003404811 -0.09147502 -0.025419302 0.02129063 0.13489501 -0.1156967
0.12477894 -0.100695096 0.075794 0.112638876 -0.09819543 0.116533354 0.0882888 -0.06443173
-0.1249758 0.062114656 0.063527554 0.053983256 0.044439316 0.004986584 0.024150312 0.02843012
0.04404229 -0.09692157 -0.08441533 -0.002289936 0.047054216 0.14012812 0.06701629 -0.1353119
0.09100935 0.029489174 -0.0115032345 0.11391933 0.11763634 -0.105619535 0.011506125 -0.037126184
0.05848375 -0.12629817 -0.03440459 -0.01169233
00000000: 1a87 f83d f88c d63c 525d 893d db84 dabd
00000010: 0809 5ebd 3d7f 0a3e e02c afbd ae20 de3d
00000020: 4b33 02be a87d 47bd eed6 e53d c002 1cbc
00000030: c6a2 f63d 8416 b7bd 28cc 6e3d 9ae3 cb3d
00000040: 0a57 a2bd b744 95bd 90ff 1e3d 6cd5 b03d
00000050: e48c 4fbd 3e61 b23d 7804 93bd 544f 87bc
00000060: 56d8 27bd 2587 0dbe 7405 d73d 806e a2bb
00000070: 0031 123a 50a5 023c 5a9d ac3d f775 043e
00000080: 8c73 453d c094 95bd a047 7cbc a0f3 dabd
00000090: f8b3 463d 8d6c 083e 6067 a93b b43b dc3d
000000a0: 88c3 aabc 7ba1 febd 6081 683c 5cb0 a43d
000000b0: 0275 cf3d b66e f63d 830d 87bd e01f 763c
000000c0: 553d adbd fed9 b73d 80e7 f23c 8a9b 9d3d
000000d0: 50ec 53bd 92e7 96bd 88ec 5c3d 3b89 f1bd
000000e0: 6afd 1dbd 90ae 0bbc 4023 5f3b 4157 bbbd
000000f0: 243c d0bc b069 ae3c eb21 0a3e 64f2 ecbd
00000100: 1a8c ff3d 3b39 cebd e239 9b3d 36af e63d
00000110: b01a c9bd 0aa9 ee3d c2d0 b43d c8f4 83bd
00000120: 50f3 ffbd f06b 7e3d bc1a 823d 8c1d 5d3d
00000130: 0006 363d 8066 a33b e0d6 c53c 48e6 e83c
00000140: b065 343d d17e c6bd f2e1 acbd c012 16bb
00000150: ecbb 403d bf7d 0f3e d63f 893d 348f 0abe
00000160: 1c63 ba3d 4893 f13c 1078 3cbc 8a4e e93d
00000170: 52eb f03d 0e4f d8bd 3084 3c3c a011 18bd
00000180: a88c 6f3d 4f54 01be d4eb 0cbd 3091 3fbc

l3.weight f4 [20, 100]
0.08901467 0.07912166 0.07520717 0.029758282 0.019063495 0.06720633 0.030534916 0.021776482
-0.08331655 0.06131316 -0.0054978877 -0.050460137 0.041726775 0.08339343 0.09247971 -0.06448369
0.014199175 0.073547535 -0.095509194 -0.08999542 -0.08096987 0.054162912 0.095726915 -0.06899737
-0.081001654 0.09472019 -0.017391339 0.06394238 0.01734139 0.08876533 -0.014294289 0.060509436
-0.046454083 0.07103545 -0.016483985 0.03774088 0.06690324 -0.06967535 -0.03219249 -0.075047314
0.017099306 0.0748203 -0.09686544 0.09282666 -0.02706033 0.083484806 0.08367371 -0.027929865
0.008062519 -0.07529835 0.0017460808 -0.06868097 0.027303346 0.0019263476 0.0052728206 -0.07931577
0.05879242 0.057710685 -0.06827387 -0.03438677 -0.0627951 -0.042028394 0.0929938 0.069751315
0.020351484 -0.0050139427 -0.074988425 0.016710281 -0.026026212 -0.073365465 -0.07919934 0.0977987
-0.022422 -0.016659915 -0.061242282 0.07093877 -0.092092335 -0.07410173 0.06834052 0.03944405
-0.035073087 -0.00024862587 -0.054834604 0.072186746 0.01581087 -0.030202016 0.034532256 -0.026136398
-0.0342137 0.078336336 0.041898318 -0.029330216 0.09473587 -0.0029236823 0.08924999 -0.06448649
0.040784396 -0.011268221 0.060722716 -0.041126847 -0.034647837 0.06447358 0.0380707 0.020087644
-0.0155175105 -0.03922664 -0.054140653 -0.015395999 -0.07346213 0.01887592 -0.03225881 0.07730789
-0.00020072609 -0.07278421 -0.085723095 -0.09125306 0.021004513 0.020808734 0.040825836 0.07697638
0.08234768 -0.06601063 -0.07170204 0.03398662 -0.09063035 -0.07648231 -0.041029405 0.03408868
-0.0042216927 -0.040658306 -0.009237349 -0.012493357 0.006268896 -0.08577623 0.008514658 0.023308001
0.028734274 0.074213855 -0.07277167 -0.08336929 -0.08208569 -0.030398533 0.02760797 0.0048614144
0.017717764 0.09736142 0.08594776 -0.068207994 -0.06353505 -0.034264192 -0.06283282 -0.010218047
-0.058564544 -0.0042009503 -0.021587744 -0.09854372 -0.017159365 0.09434893 -0.09148734 0.09889985
0.06571012 -0.00075131655 0.027675517 -0.07088733 0.06471025 -0.045946207 -0.009770557 0.028146513
-0.08983206 -0.0782123 0.08226807 -0.03957857 -0.09763056 0.054146342 -0.096583344 0.026019968
-0.0077244192 -0.03430368 0.018957198 0.06176526 -0.054267384 -0.046323456 -0.09433067 -0.049348008
0.06460292 -0.074737415 -0.040695276 -0.09361372 -0.07286403 0.073899545 0.037040032 0.022993147
-0.05557933 -0.048776854 -0.056374777 0.020240307 0.013152026 -0.06258881 0.08450868 -0.089619316
0.09566248 0.010403894 0.04448656 -0.02064655 -0.08713607 -0.016931593 -0.004998669 -0.06832303
-0.093445085 0.020911016 0.07756581 -0.07681425 -0.006875396 -0.0004374385 0.026413463 -0.05372981
-0.004388228 0.08358646 -0.06607519 0.012273863 0.00062406063 0.05220311 0.051756255 0.017608263
-0.06304076 -0.0012271777 0.038210593 0.056713708 0.01995729 -0.09764718 0.09792312 0.024880089
0.074436106 0.0044201612 -0.051052283 -0.053017676 0.042109616 -0.008877538 0.08159264 0.042888172
-0.0069247335 0.022140898 -0.07971607 -0.045408178 -0.059936464 0.08957318 -0.094109915 0.09065222
-0.043888893 -0.08476796 0.048866414 -0.08943041 -0.08233813 0.05509133 0.07047842 -0.09177865
00000000: 534d b63d 890a a23d 3706 9a3d a4c7 f33c
00000010: 0c2b 9c3c 79a3 893d 5c24 fa3c 9864 b23c
00000020: dea1 aabd 8223 7b3d a027 b4bb 4aaf 4ebd
00000030: b2e9 2a3d 2dca aa3d 0166 bd3d 0610 84bd
00000040: a8a3 683c 17a0 963d 539a c3bd 854f b8bd
00000050: 88d3 a5bd eed9 5d3d 790c c43d 7e4e 8dbd
00000060: 32e4 a5bd a9fc c13d 4878 8ebc 39f4 823d
00000070: 880f 8e3c 99ca b53d 9832 6abc bed8 773d
00000080: a346 3ebd 097b 913d 6c09 87bc 2e96 1a3d
00000090: 9104 893d f3b1 8ebd 46dc 03bd 68b2 99bd
000000a0: d813 8c3c 633b 993d 6361 c6bd e71b be3d
000000b0: a0ad ddbc 15fa aa3d 1f5d ab3d 2ccd e4bc
000000c0: a818 043c 0536 9abd c0dc e43a 9ca8 8cbd
000000d0: 44ab df3c 807d fc3a a0c7 ac3b 4e70 a2bd
000000e0: 52d0 703d 0a62 6c3d 2cd3 8bbd 24d9 0cbd
000000f0: b89a 80bd f725 2cbd 8973 be3d c7d9 8e3d
00000100: 28b8 a63c 004c a4bb 8893 99bd 00e4 883c
00000110: ec34 d5bc a240 96bd 4333 a2bd af4a c83d
00000120: 58ae b7bc 607a 88bc 30d9 7abd 5948 913d
00000130: e89a bcbd a6c2 97bd 1df6 8b3d 1690 213d
00000140: cca8 0fbd 005a 82b9 409a 60bd a5d6 933d
00000150: cc85 813c 386a f7bc b271 0d3d 001c d6bc
00000160: aa23 0cbd cd6e a03d 929d 2b3d ec45 f0bc
00000170: e104 c23d 409b 3fbb b3c8 b63d 7e11 84bd
00000180: 8a0d 273d 589e 38bc 62b8 783d a074 28bd
00000190: e4ea 0dbd b90a 843d 06f0 1b3d d88e a43c
000001a0: 283d 7ebc 1dac 20bd 97c2 5dbd 803f 7cbc
000001b0: 5073 96bd aca1 9a3c d021 04bd 9953 9e3d
000001c0: 007a 52b9 e30f 95bd 978f afbd e2e2 babd
000001d0: a811 ac3c 1477 aa3c fe38 273d cba5 9d3d
000001e0: e7a5 a83d 9530 87bd 85d8 92bd 8e35 0b3d
000001f0: 689c b9bd c2a2 9cbd 730e 28bd 92a0 0b3d
00000200: 2056 8abb 5389 26bd 4058 17bc f0b0 4cbc
00000210: 506b cd3b 73ab afbd 1081 0b3c 6cf0 be3c
00000220: 2464 eb3c 6ffd 973d 5009 95bd 85bd aabd
00000230: 8b1c a8bd 5806 f9bc 1c2a e23c 804c 9f3b
00000240: d824 913c 6d65 c73d 6105 b03d a2b0 8bbd
00000250: aa1e 82bd 9c58 0cbd 7eae 80bd 9869 27bc
00000260: 60e1 6fbd 20a8 89bb c8d8 b0bc 4ad1 c9bd
00000270: cc91 8cbc 033a c13d b75d bbbd 018c ca3d
00000280: 0793 863d 00f4 44ba c4b7 e23c 602d 91bd
00000290: cf86 843d 1732 3cbd b014 20bc 8493 e63c
000002a0: dff9 b7bd c52d a0bd 297c a83d 231d 22bd
000002b0: 88f2 c7bd 8ec8 5d3d 7dcd c5bd d427 d53c
000002c0: 201d fdbb 0482 0cbd 204c 9b3c 92fd 7c3d
000002d0: 7a47 5ebd aabd 3dbd 7030 c1bd 2321 4abd
000002e0: 894e 843d ee0f 99bd 17b0 26bd 8db8 bfbd
000002f0: bd39 95bd a558 973d 4ab7 173d 205c bc3c
00000300: 27a7 63bd 3dca 47bd 3de9 66bd 00cf a53c
00000310: 987b 573c 902e 80bd e312 ad3d 558a b7bd
00000320: b1ea c33d 1875 2a3c 8a37 363d f422 a9bc
00000330: 6574 b2bd 20b4 8abc e0cb a3bb f2ec 8bbd
00000340: 2360 bfbd 944d ab3c d3da 9e3d ca50 9dbd
00000350: 004b e1bb 0058 e5b9 0c61 d83c ca13 5cbd
00000360: 20cb 8fbb 612f ab3d 6e52 87bd 5018 493c
00000370: 0098 233a eed2 553d 5efe 533d 343f 903c
00000380: 841b 81bd 40d9 a0ba b682 1c3d a24c 683d
00000390: 787d a33c 3ffb c7bd eb8b c83d 54d1 cb3c
000003a0: f571 983d 00d7 903b 331c 51bd 1029 59bd
000003b0: 227b 2c3d 1873 11bc 0b1a a73d 82ab 2f3d
000003c0: e0e8 e2bb d460 b53c 2e42 a3bd edfd 39bd
000003d0: f07f 75bd 2572 b73d b3bc c0bd dfa7 b93d
000003e0: d7c4 33bd d39a adbd 2628 483d 4a27 b7bd
000003f0: e5a0 a8bd 72a7 613d fd56 903d 72f6 bbbd

l3.bias f4 [20]
0.07785963 0.043815456 0.07725894 -0.005083576 -0.0139546245 -0.03422837 -0.088738814 -0.073387146
0.0027794838 0.09065134 -0.02515956 0.06255124 0.09254863 0.06345851 -0.047582235 0.06549854
0.029857345 0.06054277 0.0009420365 0.040824093
00000000: df74 9f3d d677 333d ef39 9e3d 2094 a6bb
00000010: f0a1 64bc 0c33 0cbd b2bc b5bd 004c 96bd
00000020: 0028 363b 69a7 b93d 6c1b cebc dd1a 803d
00000030: 238a bd3d 89f6 813d 97e5 42bd 1924 863d
00000040: 6497 f43c b2fb 773d 00f3 763a 2a37 273d

output.weight f4 [8, 20]
0.031553745 -0.04500328 -0.14820975 -0.0344595 -0.16229162 0.20019764 0.10535619 0.016001865
0.12598842 0.1561512 -0.024258614 0.027169317 0.039633214 0.00551188 -0.06431116 -0.1643772
-0.107463375 0.15372515 -0.13044137 -0.15218788 0.123373 0.14743581 0.08047527 -0.15183315
0.07014617 -0.18547255 -0.20536122 0.11766964 -0.094111085 0.0809502 -0.094730034 0.10462016
0.18873233 0.009667173 -0.16976841 -0.1327225 0.21105075 0.044955194 0.20017624 -0.10547673
0.11834118 -0.08507925 0.16293597 -0.091257155 0.07617208 -0.13520686 0.18492502 -0.09644903
0.089325994 -0.011682451 0.11708316 -0.17731579 -0.14239247 0.064670056 -0.13199826 0.024050087
-0.20418283 -0.15315008 -0.02477172 0.17234528 -0.097000524 -0.16603222 0.16477427 -0.1613366
0.2231558 -0.038445666 0.19450426 0.12234151 -0.177662 0.14264622 -0.17956355 0.13173148
-0.031158447 -0.13699247 -0.09641297 0.14318481 -0.105084114 -0.0032979846 0.02564612 -0.022192478
0.060639262 -0.12321617 0.22294298 0.08022624 0.12133786 0.16424182 -0.09358311 -0.19957526
-0.08989608 0.09328103 -0.15679677 0.15433627 -0.10301068 0.22045758 0.18944281 -0.2179116
-0.17704816 0.16917911 0.04178667 0.2110812 0.004226148 0.08005184 -0.0024983585 0.15295845
0.053868294 0.058617473 -0.121136546 -0.08168104 -0.2137901 0.07100773 0.14558074 0.0473347
0.120336235 -0.21218227 0.04390198 -0.1597516 0.082140714 -0.13328472 0.02639839 -0.013778836
0.13737082 0.12957433 0.11129516 -0.09656328 -0.2012161 -0.06193483 -0.20681494 -0.082656726
0.026566863 -0.19531888 0.13305089 0.054260254 -0.1940141 0.012875035 -0.110157415 0.0061588436
0.08702472 -0.12674215 0.16769442 -0.21537526 -0.0777092 0.03966558 0.029234648 0.1355071
0.0540123 -0.008000776 0.12217036 -0.03200747 0.10561818 -0.05613336 0.13280115 0.092485696
0.17191178 -0.18264006 0.08623257 -0.20270075 -0.13181481 0.11868626 -0.08267619 0.03871715
00000000: 803e 013d 5c55 38bd 4cc4 17be 6825 0dbd
00000010: c62f 26be 9c00 4d3e fcc4 d73d 5816 833c
00000020: 1c03 013e 1ae6 1f3e 00ba c6bc 3092 de3c
00000030: 7056 223d 009d b43b 92b5 83bd 7f52 28be
00000040: c215 dcbd 206a 1d3e 6c92 05be 24d7 1bbe
00000050: fcaa fc3d 6af9 163e 38d0 a43d 267a 1bbe
00000060: cca8 8f3d 84ec 3dbe 364a 52be c8fc f03d
00000070: 50bd c0bd 38c9 a53d d201 c2bd 1843 d63d
00000080: 0c43 413e 1063 1e3c c5d7 2dbe 68e8 07be
00000090: b01d 583e f022 383d 00fb 4c3e 2f04 d8bd
000000a0: dc5c f23d 083e aebd b0d8 263e 08e5 babd
000000b0: 1c00 9c3d ab73 0abe fc5c 3d3e 1287 c5bd
000000c0: 8cf0 b63d c067 3fbc 4cc9 ef3d 4592 35be
000000d0: 55cf 11be bc71 843d 8d2a 07be b004 c53c
000000e0: 4e15 51be 60d3 1cbe 10ee cabc 487b 303e
000000f0: 36a8 c6bd 5a04 2abe 96ba 283e 6c35 25be
00000100: f482 643e 3479 1dbd 202c 473e 308e fa3d
00000110: 07ed 35be da11 123e 82df 37be 9ee4 063e
00000120: 0040 ffbc c147 0cbe 2a74 c5bd 0a9f 123e
00000130: 5736 d7bd 0023 58bb d017 d23c 00cd b5bc
00000140: e060 783d c258 fcbd 2a4b 643e a84d a43d
00000150: fc7f f83d 022f 283e 80a8 bfbd 755d 4cbe
00000160: 701b b8bd 200a bf3d 558f 20be 540a 1e3e
00000170: 43f7 d2bd a2bf 613e 4cfd 413e 3824 5fbe
00000180: 1d4c 35be 4a3d 2d3e 8028 2b3d ac25 583e
00000190: 807b 8a3b 38f2 a33d 80bb 23bb 24a1 1c3e
000001a0: 00a5 5c3d e018 703d 7016 f8bd 6448 a7bd
000001b0: cbeb 5abe 806c 913d 1e13 153e 08e2 413d
000001c0: d872 f63d 4f46 59be 90d2 333d ec95 23be
000001d0: 6439 a83d ca7b 08be 7041 d83c a0c0 61bc
000001e0: f0aa 0c3e 22af 043e b8ee e33d f8c2 c5bd
000001f0: 980b 4ebe 60af 7dbd 4cc7 53be ee47 a9bd
00000200: c0a2 d93c ac01 48be 7e3e 083e 0040 5e3d
00000210: a2ab 46be d0f1 523c 369a e1bd 20d0 c93b
00000220: 043a b23d b2c8 01be 16b8 2b3e 558b 5cbe
00000230: 0026 9fbd 6078 223d 807d ef3c 60c2 0a3e
00000240: 003c 5d3d b015 03bc 7434 fa3d 441a 03bd
00000250: 584e d83d 18ec 65bd 06fd 073e 2469 bd3d
00000260: a409 303e ff05 3bbe b49a b03d c990 4fbe
00000270: 76fa 06be c811 f33d 2252 a9bd e095 1e3d

output.bias f4 [8]
-0.040640786 0.17695934 -0.08313784 -0.21355207 -0.19598392 0.17679384 -0.058857694 -0.09964581
00000000: f476 26bd d434 353e 2c44 aabd 65ad 5abe
00000010: 02b0 48be 7209 353e c414 71bd 1a13 ccbd
