my_transformer/saved_model/simpleANNlr=0.002bs=128_MSE.pt (torch, 34575 bytes, 8 tensors)

l1.weight f4 [50, 14]
00000000: 9935 803e ae06 503e f7fa 69be 60d6 473d
00000010: 0214 f3bd 9862 1dbd 387a adbd 2025 ffbc
00000020: b61c 0ebe 78b8 bd3d 8c28 8a3d 6a6b 43be
00000030: b5b2 843e c01f f33b 8060 d23b 02fc 2ebe
00000040: 6dc0 06be c0d4 65be 48d4 13be d0df cf3c
00000050: c44a 1c3e 34e7 42bd fc0a 943d 24d7 1a3e
00000060: 48ab 83be f83a 89bd e0c7 7c3d 083d 20be
00000070: b15d 1bbe 02b3 503e e81d 53bd 0796 19be
00000080: 8a48 753e 8015 c43c e44a 893d 974f 823e
00000090: 6041 f13d 926b 3dbe d6c3 53be 3ab0 16be
000000a0: fa75 153e 45de 80be c027 e6bc 0ad6 5cbe
000000b0: 6cb7 64bd 087e 2bbd 7cf4 4cbd 1005 a23c
000000c0: 2e1f aebd b0f9 06be 45d5 873e 1843 083e
000000d0: 40cd 2c3d 7673 5fbe 02fb 263e 36ff 743e
000000e0: 9887 01be 82a1 b0bd f35b 813e 82dd 043e
000000f0: 4cc8 21be 5264 3a3e 6898 73bd b842 cf3d
00000100: 34bb 83be 6ad6 2abe 19a5 85be c817 62be
00000110: 9817 a33d d68a acbd 8082 b23d 20a3 293d
00000120: 326c 223e d032 bcbd 9a5d f2bd 2c47 6ebe
00000130: b07e fe3c 0234 4cbe 66bc bfbd 701f ac3c
00000140: b44a f33d 8c7b a0bd fe87 febd 104a 433e
00000150: 2cc5 7ebe 98d4 273e 3a4a 7cbe 7c2c 5f3e
00000160: 9035 513e 8035 27bd 04af 4fbd 1c50 1e3e
00000170: f848 12be fa49 703e 1861 0dbe 46b3 acbd
00000180: 1495 b5bd 3237 093e b076 f3bd 70c9 bb3c
00000190: 2814 653e 9c15 adbd 44e8 5f3e 9869 73bd
000001a0: 2823 023d f8f2 0dbd 61f7 25be 9461 c03d
000001b0: ce6e 7b3e 38d9 0f3d 1c48 82be 1882 773d
000001c0: 3888 333e 262f adbd a8f3 fb3d bc12 163e
000001d0: 8e0e 12be a7e1 1ebe 963c 6bbe 0aac 7c3e
000001e0: e8a7 9bbc 5093 ee3c c4e0 863d d045 c13c
000001f0: b641 25be b609 f7bd 70ef b2bd 9853 ecbc
00000200: 62e7 85be 240f 5ebe e642 7c3e 4d92 873e
00000210: 04ba 063e 892f 88be 44bd 323e d6cd f9bd
00000220: 90d8 403e dc7d 533e d810 fb3d e091 22bc
00000230: e00f cd3d a7b9 72be 1f0b 34be 52fa b9bd
00000240: 68a6 a83d b6ee 5b3e e871 3b3e 282d b6bd
00000250: c074 67be 3434 923d 78d6 6fbe 6453 47bd
00000260: 3c35 6dbe 8709 7dbe 0042 51bc bef9 a4bd
00000270: e0a8 2cbc d654 6b3e 044e 72be c734 81be
00000280: c8a6 df3d 8ab6 56be 06b1 d6bd c4c7 1c3e
00000290: a97d 0ebe 5c53 34be 5fe7 7ebe 586d 4c3e
000002a0: 404e 52bc 4284 723e b894 243d 3cd5 253e
000002b0: 8527 43be 3838 433d 0099 5b3d b6de 753e
000002c0: 64c5 70bd 9698 84bd 0864 783d a276 a9bd
000002d0: 970f 833e b847 37bd ccac 0e3e c069 953d
000002e0: f47e 46bd 4446 893d bf0a 5abe 7b2e 833e
000002f0: 6c3a f13d f290 9bbd 58f5 d6bc 8cf0 1cbe
00000300: 0056 06bd 5368 843e b8ee 43be a65c 5e3e
00000310: e7c7 81be c813 27bd e41a 1cbe 98cc 95bc
00000320: c09e dd3d 6404 66be a0c1 7d3c 6442 913d
00000330: 206f 6b3c b30b 883e f709 87be a0db d03d
00000340: 2e7c 133e b887 9f3d a4cf edbd 687d 68bd
00000350: 8054 6fbb 2e46 463e a8cf 2f3e c076 a03b
00000360: 66a3 3e3e 9ea2 54be 5045 1d3d ca30 92bd
00000370: 903d 9fbc 84b0 063e f89e 7bbd c0b2 87bc
00000380: 59ae 863e 4603 eabd 6015 493d 8c02 363e
00000390: 39ee 10be de43 633e eab6 573e f42d 553e
000003a0: c412 5bbd ee52 563e dc00 a1bd 5056 2abd
000003b0: 2ced edbd 9846 28be d593 803e d099 a23c
000003c0: ecb8 2f3e de86 d8bd da2e 713e 7e7d 0d3e
000003d0: dc34 a43d dc8e f9bd 9fa4 31be c1c1 833e
000003e0: 8060 343d e4f8 a53d 5428 c3bd 576a 87be
000003f0: aa7a 573e 4011 6fbc 1870 d7bc f408 dfbd
0.25040892 0.20315048 -0.22849642 0.04878843 -0.118690506 -0.038424104 -0.08470577 -0.031145632
-0.1387814 0.092637 0.06746015 -0.19083944 0.25917593 0.0074195564 0.006420195 -0.17088321
-0.13159342 -0.22444439 -0.14436448 0.025375277 0.15262896 -0.047583774 0.072286576 0.15121132
-0.25716615 -0.067007005 0.061714053 -0.15648282 -0.15172459 0.20380786 -0.051542193 -0.14998637
0.23953453 0.023936033 0.067037374 0.25451347 0.117800474 -0.18498066 -0.20680174 -0.14715663
0.14595786 -0.25169578 -0.028095126 -0.21566024 -0.055838987 -0.04186824 -0.050037846 0.019777805
-0.08502041 -0.13181186 0.265299 0.13306844 0.04218793 -0.21821389 0.1630669 0.2392548
-0.12649381 -0.08624555 0.25265464 0.12975124 -0.15799063 0.18202332 -0.059471518 0.101201475
-0.25728762 -0.16683355 -0.26102522 -0.22079384 0.079634845 -0.08424918 0.08716297 0.041415334
0.15861586 -0.09189379 -0.11834259 -0.23269337 0.031066269 -0.19941714 -0.09362106 0.021011084
0.11879483 -0.07836065 -0.12428282 0.19071221 -0.24879903 0.16389692 -0.2463769 0.21794313
0.20430589 -0.040822506 -0.050704017 0.15460247 -0.14285648 0.2346572 -0.1380657 -0.08432631
-0.08866325 0.13399962 -0.11887872 0.022923201 0.2237097 -0.08451387 0.21865946 -0.059426874
0.03177181 -0.03465554 -0.16207649 0.093936116 0.24553987 0.035119265 -0.2544564 0.0604268
0.17532432 -0.084562585 0.12302333 0.14655584 -0.14263365 -0.15515767 -0.2297233 0.24675003
-0.019000962 0.029122978 0.065858394 0.02359286 -0.16138348 -0.12062399 -0.08737075 -0.028848454
-0.26153094 -0.21685463 0.24634895 0.26478806 0.13156897 -0.26598766 0.17455012 -0.12197463
0.18832612 0.2065348 0.12259072 -0.009922475 0.100127935 -0.23703633 -0.17582367 -0.09080948
0.082348645 0.2147778 0.1830517 -0.088953316 -0.2260313 0.07138863 -0.23421657 -0.048663512
-0.23164839 -0.24710666 -0.012772083 -0.08055447 -0.01053831 0.22981581 -0.23662573 -0.25235578
0.10920483 -0.2096807 -0.10482983 0.1531058 -0.13915123 -0.17609924 -0.24892949 0.19963586
-0.012836039 0.23683265 0.04018089 0.16194624 -0.19058044 0.047661036 0.05361271 0.24010739
-0.058781996 -0.06474416 0.060642272 -0.082745805 0.25597832 -0.04474613 0.13933104 0.07295561
-0.048460916 0.06702855 -0.21293162 0.256214 0.11778721 -0.075960055 -0.026240036 -0.15326136
-0.03279686 0.25860843 -0.19134033 0.2171503 -0.25347826 -0.04079035 -0.15244633 -0.018286034
0.10821295 -0.22462612 0.015488058 0.07092741 0.014369756 0.26571426 -0.2637479 0.1019814
0.1440284 0.07789558 -0.1161187 -0.05676022 -0.0036518872 0.19362709 0.17169058 0.0048969686
0.18617019 -0.20765159 0.03839618 -0.07138212 -0.019438535 0.13153273 -0.0614309 -0.016564727
0.26304892 -0.114264056 0.04909265 0.17774409 -0.14153375 0.22193858 0.2106587 0.20818311
-0.053484693 0.20930073 -0.07861492 -0.04158622 -0.116175026 -0.1643318 0.25112787 0.019848734
0.17160386 -0.10572599 0.23553029 0.13817403 0.080178946 -0.121854514 -0.17347954 0.2573376
0.044037342 0.08104113 -0.09529176 -0.26448318 0.21042886 -0.014591515 -0.026298568 -0.108903795

l1.bias f4 [50]
00000000: 2863 683d 00f1 eebb f060 54be 7633 5abe
00000010: c044 adbb f012 513e 62c8 2f3e b0ff 003e
00000020: 625e 503e bb86 83be 16c5 3b3e 002b bcbb
00000030: d78f 853e c402 d0bd 9382 81be 94a3 fc3d
00000040: b885 543e c850 71be 1a79 6d3e 0c4c f43d
00000050: 66be 64be a1e2 01be 401e 4dbe 5e19 3fbe
00000060: 3d8d 06be e2a9 5e3e 7020 0ebd 79d5 883e
00000070: c8fa 653d 1dab 64be 3207 243e ce67 78be
00000080: 2ea7 78be ca24 c3bd f073 03bd d117 0ebe
00000090: 04ca 3abd 78a8 21be 3f8d 813e 00d5 4ebe
000000a0: 389d 68bd 34b9 15be 60e1 cfbd 6007 5bbe
000000b0: ca1a 31be a672 b3bd 4667 113e 50c6 8cbc
000000c0: 301b bd3c 8859 343e
0.056735188 -0.007291913 -0.20740104 -0.21308693 -0.0052877367 0.2041738 0.17166284 0.12597537
0.20348504 -0.2568873 0.18336901 -0.0057424307 0.26086304 -0.101567775 -0.25294933 0.123358876
0.20754135 -0.23565972 0.23190728 0.11928567 -0.22338256 -0.12684108 -0.2003107 -0.1866202
-0.13139816 0.21744493 -0.034698904 0.26725367 0.056147367 -0.223309 0.1601837 -0.24258348
-0.24282524 -0.09528501 -0.03209299 -0.13876273 -0.045602813 -0.15786922 0.25303075 -0.2019844
-0.05679056 -0.1462143 -0.10150409 -0.21389532 -0.17295375 -0.08762102 0.14199552 -0.017184407
0.023084253 0.17612278

l2.weight f4 [100, 50]
00000000: 5ab3 c43d 686a 263d 6b45 00be d949 103e
00000010: 8825 ca3c 845a 5fbd 4c5d 0e3d fccd bb3d
00000020: de2b 913d c0fd fcbc 8037 683c 14d4 223d
00000030: c85b bbbd ec28 79bd 5fc3 fdbd c427 8b3d
00000040: 38a3 7d3d ca2d e23d c0c1 de3b 2122 97bd
00000050: ce30 ba3d 99ba 8cbd 6699 ac3d 82a0 db3d
00000060: b930 0dbe 222e 7abd 845d a53d 0c18 bcbd
00000070: 60ea afbb 5e22 56bd e8e8 e83c 6e87 f93d
00000080: 71b5 073e 7d9e cfbd 20f3 ddbb c2da c53d
00000090: 64ae 663d 8644 ae3d 7e84 9cbd 40be 103c
000000a0: 6ab3 92bd fa38 5fbd ac8f bdbd e486 893d
000000b0: d0a5 9f3d 0070 5bb9 f497 c2bc 9055 08be
000000c0: 86e0 0ebe 4c9c 493d ca44 d43d 7e1e cb3d
000000d0: f290 f73d 00e4 96bb 2826 2b3d 8c2a 293d
000000e0: 5dcb c4bd 9d28 98bd 2ae7 0fbe 0ce8 413d
000000f0: 967f 92bd c41a bfbd 0248 de3d d0db 45bc
00000100: de98 a93d 26a9 a73d 1f4d 033e 1298 01be
00000110: 881a a0bc 3c36 e6bc 8051 4b3b 2b2f 95bd
00000120: c6e6 99bd 768e ec3d 54c4 3d3d c8f1 bc3c
00000130: 5c14 05be c498 a83d 794f eabd c0fc b03c
00000140: c005 5cbc 1a7d d13d 72c4 8c3d 206a 4fbc
00000150: c07f 8ebc 868d 00be 99bb 04be 1461 e3bd
00000160: f602 fe3d 742c c23d 005a b6b9 e040 e93c
00000170: e0bc f93c c6b2 cfbd e007 9cbb 8255 e13d
00000180: 189b 9c3c df66 b3bd 27e9 b5bd 4ae9 09be
00000190: bca8 803d c0d1 5a3c db1c 9dbd 804a cd3c
000001a0: 4279 f83d 5867 763d d8a1 923d 602a 813c
000001b0: 264b 00be cad8 b33d 0085 0bbb f07a fabd
000001c0: 647f 71bd bad7 9c3d 102c 5c3d 281c 113d
000001d0: 6c5b eabd 2832 6f3d 0613 ed3d 55bf f0bd
000001e0: 9d47 0bbe 1e8d 0fbe 6ca3 ebbd c723 03be
000001f0: fc4c 46bd 86a9 c0bd 3264 c83d 2676 1ebd
00000200: 008c b03b 55fe 0c3e e024 99bd 48af 4ebd
00000210: c0ec 3c3b c20f e7bd 00f5 213d cc4f 8ebd
00000220: d8d2 edbc 404b 913d 0c45 b0bd 6059 7ebc
00000230: 362e 983d f09c 7bbd b8d5 c6bc bc3b b43d
00000240: caee b1bd 706c 05bd 5c2a 0f3d 6517 053e
00000250: 60b6 cb3d f3f5 043e 2008 d0bb c05d 1a3c
00000260: 2e80 f43d 181d 113d 30df bb3d e240 ff3d
00000270: 830c 0abe 7846 f33c 900c 813c 4698 883d
00000280: 4056 b6bd 46aa f8bd 6797 023e 805c eabc
00000290: 6e88 f63d b83d a83d c286 37bd 3402 de3d
000002a0: fe32 13bd 8a42 cebd fe1f e03d b811 a8bd
000002b0: 88b8 e9bd 90b5 63bc 9219 823d f504 053e
000002c0: 7e9e 953d 5659 f13d cc4a 513d 2071 bc3c
000002d0: 52aa c13d dec1 debd aaab d5bd 408b b8bc
000002e0: b04e 5a3c 7c45 bc3d 0d94 f8bd 0e0e 843d
000002f0: 2030 05bc ba7f ef3d 2dbd 0b3e 8855 ba3c
00000300: c130 efbd 00be fbb9 ea3e ee3d fa41 0bbd
00000310: 6013 edbb 540c efbd 0d99 05be 462e b93d
00000320: 00e2 043a e8cf a63d c207 37bd e75b debd
00000330: 8eaf f53d 70d1 8c3d c402 15bd e752 e9bd
00000340: 6ec1 b03d ae30 36bd d9be 083e 7409 273d
00000350: b697 9d3d d44d 06be 84db 933d aa8a e1bd
00000360: 70f5 a93c b809 39bd 303d 2dbc fac4 fdbd
00000370: caf8 24bd 405d 4f3d 60d8 8b3d f93c 03be
00000380: 223e e03d 007c 993b 0985 10be 6c95 b53d
00000390: 409a e83c 8849 f03c 029e d53d 657c 0abe
000003a0: aad8 f63d 40dd 3d3d fef1 01be 7c03 97bd
000003b0: 084d cabd 9172 a5bd a0bf 5c3d a83d 15bd
000003c0: 7c7a dfbc ea6d a53d a048 af3b c027 b43d
000003d0: b233 bb3d ee54 fabd 45fc 063e 2083 343c
000003e0: c619 48bd 1897 0ebe bd8a d3bd 2cc4 7d3d
000003f0: 00d1 163d 1d5e 83bd 80c4 78bc cdac f6bd
0.09604521 0.04062882 -0.12526481 0.1409067 0.0246761 -0.05452968 0.034756944 0.09170148
0.07088445 -0.030882716 0.0141733885 0.039753035 -0.09148365 -0.06083004 -0.1239078 0.06794694
0.061923236 0.1104389 0.006797999 -0.073795564 0.0909134 -0.06871528 0.08427696 0.10723974
-0.13788117 -0.061079152 0.08074477 -0.09184274 -0.005368516 -0.05227887 0.02843137 0.12184034
0.13252808 -0.10137651 -0.0067733675 0.09660865 0.056318656 0.085091636 -0.076424584 0.008834422
-0.07163127 -0.054497696 -0.09255919 0.067151815 0.07795298 -0.00020927191 -0.023754098 -0.1331389
-0.13952836 0.049221322 0.10364683 0.09917925 0.12088193 -0.0046048164 0.041784436 0.04130034
-0.09609101 -0.07429621 -0.14053026 0.047340438 -0.07153241 -0.09331277 0.10853578 -0.012076333
0.0828111 0.081865594 0.12822388 -0.12655666 -0.019543901 -0.028102033 0.003102392 -0.07284387
-0.0751472 0.1155061 0.04632981 0.023064509 -0.12996048 0.08232263 -0.114409395 0.021604896
-0.013429105 0.10228939 0.068734065 -0.0126595795 -0.0173949 -0.12553987 -0.12962188 -0.111025006
0.124029085 0.09481135 -0.000347808 0.028473318 0.03048557 -0.1014152 -0.004761681 0.110026374
0.019116923 -0.087598555 -0.08882361 -0.13467899 0.062821835 0.013355672 -0.07671519 0.025059938
0.12132503 0.06015715 0.071597755 0.015767276 -0.12528667 0.087815836 -0.002128899 -0.1223048
-0.05895938 0.07658334 0.05375296 0.035427243 -0.114432186 0.058397442 0.11575894 -0.11755244
-0.13601537 -0.14018676 -0.115057796 -0.12806617 -0.04841326 -0.09407334 0.09784736 -0.038686894
0.005387783 0.13768895 -0.074777365 -0.05046013 0.0028827637 -0.112823024 0.03954029 -0.06948814
-0.029031202 0.07094431 -0.0860692 -0.015524238 0.07430689 -0.061428964 -0.02427183 0.08800456
-0.086881235 -0.032574117 0.034952506 0.12997206 0.09946895 0.12984447 -0.006348625 0.009421766
0.11938511 0.035428137 0.09173429 0.12463547 -0.13481335 0.029696688 0.01575306 0.06669669
-0.0890317 -0.12141852 0.12753068 -0.02860856 0.12037741 0.08214897 -0.04480625 0.10840264
-0.0359373 -0.10071285 0.10943602 -0.082065046 -0.1141215 -0.013898268 0.063525334 0.12990172
0.073056206 0.117846176 0.051096722 0.023003161 0.09456314 -0.10876821 -0.10433133 -0.022527337
0.013324425 0.091929406 -0.121376134 0.06447993 -0.00812915 0.11694284 0.13646384 0.022745863
-0.11679221 -0.00048016012 0.11633094 -0.033998467 -0.0072349757 -0.11672273 -0.13046665 0.09042029
0.0005069077 0.08145124 -0.044685133 -0.10857373 0.11996375 0.068758845 -0.03637959 -0.113927655
0.08630644 -0.04448002 0.13354053 0.0407805 0.07694952 -0.13115627 0.07219604 -0.11012776
0.020746917 -0.045175284 -0.01057367 -0.12391086 -0.040276326 0.05062604 0.0682838 -0.12816228
0.10949351 0.0046839714 -0.14113249 0.088663906 0.028393865 0.029331937 0.10430528 -0.13524015
0.12053044 0.04635358 -0.12689969 -0.073737115 -0.09877974 -0.080784924 0.053893685 -0.036435753
-0.027280085 0.08077605 0.0053492337 0.08796644 0.091407195 -0.1222323 0.1318217 0.011017591
-0.048852704 -0.13924825 -0.103291966 0.061954662 0.03682041 -0.06414435 -0.015183568 -0.12044678

l2.bias f4 [100]
00000000: 18b4 c13d 803b 923c 6063 fa3c f35f 033e
00000010: c03f d53d 8887 f63c 74b6 95bd 80b1 4cbc
00000020: f2aa e63d 8052 553d 0078 b13b d09b c33d
00000030: 2617 bcbd e287 f43d 845f e9bd aa11 56bd
00000040: b297 8b3d 915e 03be 1680 b63d 80c3 57bc
00000050: 900e 8a3d 4e04 863d 8ee9 f23d 90a5 36bc
00000060: 9c20 573d 7eb8 c53d 20eb a8bb c0ff 213c
00000070: 7ea5 b4bd c2d1 d13d 0bc6 0dbe 04fc ffbc
00000080: ce73 82bd d81f 06be 90d2 c13c 48ed a9bc
00000090: 9f84 053e a0a0 293d 6649 e5bd d011 13bd
000000a0: ec39 c93d 7c2b e5bd 556f 86bd 4811 c5bc
000000b0: 5a9d dfbd 44b5 183d c01f bebb 897b 08be
000000c0: 8a54 f83d 1e7f 4abd 4889 89bc cc34 923d
000000d0: 8c54 3a3d 6073 76bc 2092 b53d 2c5a f9bd
000000e0: d5b1 013e 27e6 0dbe e24e a7bd aee1 b63d
000000f0: 1e21 e93d 59f3 0c3e c0f2 733d 4ed8 30bd
00000100: 7045 6ebc 44ee 873d 568d 87bd a60a b8bd
00000110: fa9a e03d 80a6 713c 80d2 abbc bee9 07bd
00000120: f9c4 103e 600a 263c 9a96 c43d 800b 2b3d
00000130: bbeb 0c3e 386f 0cbd 769e d23d 6ec9 c1bd
00000140: 7c42 e7bd fcf6 78bd 0897 d73c 60e2 083d
00000150: c0c2 2e3d f67b 68bd 389c df3c 008d e23c
00000160: 1c2e 333d 8bfa 083e 2f6a ffbd 8781 063e
00000170: d660 ef3d c4dc 183d 702c ffbc d0dd b4bd
00000180: 4853 d53d fd1f 0f3e f0a3 0abe 88c9 c23c
0.09458178 0.017850637 0.030564964 0.1282957 0.1041255 0.030093923 -0.07310191 -0.012493491
0.11263074 0.05208063 0.0054159164 0.09551203 -0.09184103 0.1193998 -0.11395171 -0.05226294
0.06816043 -0.12829043 0.08911149 -0.013169169 0.06741059 0.0654379 0.11860953 -0.011147872
0.052521333 0.0965433 -0.005154982 0.009887636 -0.08820628 0.10245086 -0.13845079 -0.0312481
-0.06369744 -0.13098085 0.023659974 -0.020743027 0.13038872 0.04141295 -0.1119564 -0.03590566
0.09825501 -0.111899346 -0.06564204 -0.024056092 -0.10918684 0.037282243 -0.0058021247 -0.13328375
0.121254995 -0.049437635 -0.016789094 0.071389765 0.045490786 -0.015042156 0.08865762 -0.12175402
0.12665494 -0.13857327 -0.081693426 0.08929764 0.1138327 0.13764705 0.059557676 -0.043175034
-0.014542922 0.066372424 -0.066187546 -0.08986406 0.109670594 0.014749169 -0.020974398 -0.0331819
0.14137639 0.0101343095 0.095990375 0.041759014 0.13761799 -0.034285754 0.1028413 -0.09462248
-0.11291978 -0.060782418 0.026317134 0.033419013 0.042666197 -0.056758843 0.02729617 0.027655125
0.043745145 0.13376825 -0.12471425 0.13135348 0.11688392 0.037319914 -0.03114912 -0.0883137
0.10416275 0.13977046 -0.135391 0.023777738

l3.weight f4 [20, 100]
00000000: 6eb4 4c3d 4e06 6a3d 5e88 603d f037 3c3c
00000010: 84c1 d33c 1403 d3bc 065a 253d b5a0 95bd
00000020: 0ada 0dbd 5ae1 063d 072c c2bd 49a5 a93d
00000030: f3a3 9abd 9f92 9a3d 822e 643d 4ffb 813d
00000040: f6ef 3a3d 4082 92bc 6010 a2bb de89 7f3d
00000050: 42e0 0b3d 7125 b23d ba23 bcbd 5316 5dbd
00000060: 6aa3 13bd a021 90bb 2056 9dbd 2855 42bc
00000070: 606d 09bb 3071 5ebc 9e83 1d3d b264 703d
00000080: 113e 953d 8297 613d 4a21 a7bd 4049 26bc
00000090: bec8 3e3d 12b9 353d a168 883d f4e2 d73c
000000a0: fd18 ba3d 62f8 c9bd b28c 0c3d cb61 9cbd
000000b0: e415 09bd 33a7 c33d aa64 123d cbae 893d
000000c0: 7403 91bc 46a6 633d 98e3 31bc 0053 8d3c
000000d0: e58b 943d da73 4b3d 8c91 ca3c 323a a1bd
000000e0: 252d 833d c032 56bc f1ae a73d e063 bebb
000000f0: eaa0 7f3d 9bc3 b7bd 0dbb b4bd b9fd cb3d
00000100: 8c5c f3bc 827f 003d 795a 863d 43db 823d
00000110: 32ec 6d3d 95e9 853d d75f 24bd 07ce 853d
00000120: 20f2 76bd e40c ed3c 28bd 41bc 98a3 83bc
00000130: 90aa 03bc 360e 91bd ad2a 833d 58d9 03bc
00000140: 8c32 b2bc a0cf d3bc d525 b83d b334 7ebd
00000150: 85dc bebd 10e6 173c ece5 e3bc b08f 90bb
00000160: 50f4 2f3c 0b55 c7bd 4ae2 bdbd 0c3b ecbc
00000170: 8041 cfbc cd9d b73d 4d22 29bd bede 443d
00000180: 28ab 8bbd 2711 b13d 40df 4f3c 28f0 e7bc
00000190: 225c b8bd 1b34 9e3d 2bf2 b23d 3b86 aa3d
000001a0: 6857 4dbc f39f 9fbd 7bd4 95bd 508f 47bc
000001b0: ce25 90bd 1029 bfbd c81d 93bc 98bc aabd
000001c0: 6df6 b8bd 98b7 993c 7d4c 86bd a0a8 35bb
000001d0: 532e a7bd 2299 403d 5ad5 23bd 630e b83d
000001e0: 77c1 2dbd 6046 12bb e1c6 883d 605b 01bd
000001f0: 2094 903c 1b12 803d 0062 36bd 432e 35bd
00000200: 5379 bf3d 62c0 253d 60e4 81bb b556 c6bd
00000210: d3ec 90bd f227 723d c03f 003b b593 81bd
00000220: 0098 77bd 2758 af3d 2ac2 1ebd b038 01bc
00000230: 101a 50bc 9d57 54bd 0c2d cabc 985a b03c
00000240: 4107 be3d 86c8 3c3d a3dd 4cbd 9e0f 043d
00000250: 92c8 5d3d 8e9e 723d d54e 92bd d917 913d
00000260: da26 65bd 12a0 063d 807d 9e3b 6847 c6bd
00000270: 8231 083d 27e7 2fbd c6a8 12bd 81bd a13d
00000280: a0ce b5bb 0024 393a d8cd a33c 2977 a43d
00000290: 4c8d 02bd 3583 bd3d 501d 53bc 1cfd ec3c
000002a0: 5309 37bd 50a5 ed3b 8c98 f73c a765 b23d
000002b0: d089 04bd a007 46bb fe8c 5a3d fb91 c73d
000002c0: cf0c 9b3d 0e34 85bd 3f1f c5bd 0295 613d
000002d0: e220 93bd 7686 99bd 6344 a3bd 4a70 1f3d
000002e0: a7b5 b13d 5b61 8a3d 38fb 9abc ae67 013d
000002f0: b4ed d43c 40a4 61bc c3f2 853d e8ba 373c
00000300: 1a8a 14bd f0b8 1b3c 47e0 7cbd cc8a 87bd
00000310: 8a36 55bd 42ce 85bd 4136 ad3d 50b1 37bd
00000320: 97f7 8a3d d8c7 cbbd 228f c0bd 4107 c13d
00000330: f260 313d 7f93 9d3d 1484 833c 1baa 9b3d
00000340: 1650 533d 7ef1 9bbd 1278 94bd 40a9 283b
00000350: 31c9 8a3d 8606 6f3d 3093 5bbc 6ddf 91bd
00000360: 8047 84bb 3855 9f3c e031 aabc e82d 6dbc
00000370: 1809 bb3c 8df1 5fbd 47c6 63bd 0010 1d3a
00000380: 4259 2f3d 11d3 803d 9f9d cc3d 6864 1d3c
00000390: 35d5 cbbd 4aa9 5b3d 510a cc3d 2c69 853c
000003a0: f296 433d 0d90 45bd ee28 85bd 3edb 5d3d
000003b0: 69a3 b23d f2f9 623d 10b7 4abd 0133 b53d
000003c0: fd65 c1bd 9e04 003d 2553 b03d 3001 653c
000003d0: 38a9 bf3c 2708 5cbd 89d1 a23d 8fad a33d
000003e0: de3e 663d 3a20 143d dd1b 833d 9aa1 75bd
000003f0: 2e9d 4d3d 90d4 31bd dc7e f93c a8eb 073c
0.04997676 0.05713492 0.05481755 0.011487946 0.025849111 -0.025758304 0.040369056 -0.07306043
-0.034631766 0.032929756 -0.09481054 0.08283479 -0.07550802 0.07547497 0.055708416 0.063467614
0.045639 -0.017884374 -0.0049457997 0.06238734 0.034149416 0.08698548 -0.09186502 -0.05397637
-0.036044516 -0.0043985397 -0.07682443 -0.011861123 -0.0020969734 -0.013576791 0.038455598 0.05868978
0.07287229 0.05507613 -0.08160646 -0.0101493 0.04657816 0.04436595 0.066605814 0.026353337
0.090867974 -0.098618284 0.034313865 -0.0763584 -0.033468142 0.09553375 0.035740532 0.06722792
-0.017701842 0.055578493 -0.010857485 0.017251492 0.07253245 0.04967103 0.024727605 -0.07872428
0.06405095 -0.013073623 0.08187664 -0.005810246 0.06240932 -0.08972856 -0.088247396 0.09960503
-0.029707216 0.0313716 0.06560225 0.06389477 0.05808658 0.06538693 -0.040130462 0.06533437
-0.060289502 0.02893681 -0.0118248835 -0.016069219 -0.008036271 -0.07082789 0.06404624 -0.008047424
-0.021752618 -0.02585584 0.08991591 -0.062061977 -0.093194045 0.00927116 -0.027819596 -0.00441166
0.010739401 -0.097330175 -0.09271677 -0.02883675 -0.025299788 0.08965645 -0.041292477 0.048063986
-0.06819755 0.0864585 0.012687504 -0.028312758 -0.09001948 0.07724782 0.08737596 0.08326384
-0.012533046 -0.0779418 -0.07315918 -0.012180164 -0.07038461 -0.09334004 -0.017958537 -0.08336753
-0.09031377 0.018764302 -0.06557558 -0.0027718917 -0.081631325 0.04702104 -0.03999839 0.08987119
-0.04242083 -0.0022319779 0.06678558 -0.031581283 0.017648757 0.06253453 -0.044527054 -0.04423357
0.09349313 0.040466674 -0.003963992 -0.09684507 -0.07076421 0.059120126 0.0019569248 -0.06327001
-0.060447693 0.085617356 -0.038759388 -0.0078870505 -0.012701526 -0.051841367 -0.024679683 0.021527573
0.09278727 0.04608967 -0.050016057 0.032241456 0.054146357 0.05923324 -0.07143942 0.07084627
-0.055945255 0.0328675 0.004836738 -0.096815884 0.03325034 -0.042945053 -0.035805486 0.07897473
-0.0055483133 0.00070625544 0.019995615 0.080305405 -0.031873032 0.092535414 -0.012885407 0.028929286
-0.044686627 0.007252373 0.030224107 0.08710795 -0.03235799 -0.0030216947 0.053357117 0.097446404
0.075708024 -0.06504069 -0.096251 0.055073746 -0.07184006 -0.074963495 -0.07972028 0.038925447
0.086772256 0.0675685 -0.018918619 0.031593017 0.025992252 -0.01377207 0.06540444 0.0112139955
-0.036264516 0.009504542 -0.061737325 -0.0661827 -0.052053966 -0.06533481 0.08457614 -0.044846833
0.06785505 -0.099502265 -0.094023004 0.09425212 0.043305345 0.07694148 0.01605419 0.076008044
0.051590048 -0.0761442 -0.07249464 0.0025735646 0.067766555 0.05835583 -0.013401791 -0.07122693
-0.004036844 0.019449815 -0.020775735 -0.014476277 0.022831485 -0.05467372 -0.055609014 0.0005991459
0.042809732 0.06290258 0.09991001 0.009606458 -0.099527754 0.053628244 0.09962905 0.016285501
0.047751375 -0.04823308 -0.06501947 0.054164164 0.08722574 0.055414148 -0.04949099 0.08847619
-0.09443281 0.031254403 0.086096086 0.013977334 0.02339612 -0.053718712 0.07950122 0.07992088
0.0562123 0.036163546 0.06401799 -0.05996857 0.050198726 -0.043415606 0.030456 0.008295931

l3.bias f4 [20]
00000000: c84a b0bd 6a82 8bbd 4252 103d 4956 b53d
00000010: e06d c53b 7607 103d 6380 2abd f00f 6ebd
00000020: d2b5 463d cacb a4bd 6c38 bb3c 90cc 273c
00000030: 0ca8 a8bc c056 c8bc d989 ca3d f373 cb3d
00000040: 3851 9f3c 608c f3bc ec25 8abc e8f6 153c
-0.086080134 -0.06811984 0.035234697 0.08854348 0.006025061 0.035163365 -0.041626345 -0.058120668
0.04851324 -0.08046682 0.022854052 0.010241643 -0.020587943 -0.024455428 0.098895736 0.09934225
0.019447908 -0.029730022 -0.016863786 0.009153105

output.weight f4 [8, 20]
00000000: 4cb0 5fbd fced 5abd 40b0 153c a5d8 64be
00000010: 1a51 13be c027 a43b b89e 4a3d 802a 4e3c
00000020: 6882 7fbd 5890 49be 7429 0f3e cc0e 11be
00000030: f028 783c 787c 273d e0c6 0cbd a4c7 463e
00000040: c4f2 d13d 90ef bebd 8e86 5b3e 9879 043d
00000050: 2271 15be d869 9bbd 1e1c bdbd 9098 273c
00000060: a07a d73b 00c8 b83b b461 25bd f6ce 3c3e
00000070: 7897 a2bc 2014 dabb 702f 18bc 04ff 00be
00000080: dc3b 553e 646d 3a3e 7ca3 61bd bc19 c93d
00000090: e2e7 1f3e b09d 8cbc 5470 07be 62ca 533e
000000a0: b48a ef3d caa6 e8bd aac1 403e f8f3 afbc
000000b0: d7b8 21be a8fd 38bd 0c40 3dbd cb90 37be
000000c0: 7874 d13d 5dd8 f2bd 9159 50be 0428 b63d
000000d0: 028d 093e 92e3 163e 78f3 e63d faf9 103e
000000e0: 41bb cdbd a4d6 143e 740e d13d ea15 643e
000000f0: 4ef3 213e 33d2 39be f016 3c3c ba55 263e
00000100: 0835 f63d 60ea 67bd f4fd 26bd 2a1f 89bd
00000110: c876 823d 6428 5d3e 2012 1a3e 44e2 ff3d
00000120: b4af 883d 9048 65bc 00c4 8bb9 6a45 063e
00000130: e0ec 1dbe 543c 3f3e 4818 d3bc 78f5 513d
00000140: c472 083e 8095 483d 9a27 223e c083 4a3e
00000150: 629e 36be 3238 2a3e bc8e 45be fc7d 16be
00000160: 5044 c53d 7874 003d d0b9 053e 0071 63ba
00000170: 02fd ecbd 2c3d 573e 70ac 7a3d 1615 4dbe
00000180: b4e5 0c3e 3054 293c 34a0 093e ac4f e13d
00000190: 4c6b b43d 805e 4c3e e2ef 1b3e 60c3 14be
000001a0: f8d4 773d b868 7d3d 8efd 97bd 7440 1abd
000001b0: 182a 743d 78f9 a13c a82c 483e 1c96 823d
000001c0: 0875 57be fabf e4bd d043 7d3c 0896 af3d
000001d0: 48ab 5cbe f01a 4a3c 404c 68bc a015 6a3d
000001e0: 0cad 42be 002b 983b b6e3 3cbe 2e1c 403e
000001f0: 0ebc 0fbe 2c82 413e 0e2c 86bd 0a8d 0f3e
00000200: d2ff 30be 1415 da3d dca0 c9bd 7a8a 193e
00000210: b0b3 463d 005f 4abb 040c 05bd de76 313e
00000220: dcef fa3d 7805 1d3e 8010 373d 44f0 9b3d
00000230: 0ab5 c0bd a4b2 11bd f069 193d 3cf1 883d
00000240: d0c4 d73d f25f a2bd f897 cebd ba89 4f3e
00000250: d958 3ebe 9c8d ed3d d0ab 163e 5e8f 43be
00000260: c41f 1bbe b2ae bfbd 6694 d2bd 544f 4abd
00000270: 380c 8f3d 74a1 b13d f08f 0c3d d099 02be
-0.05461149 -0.053449616 0.00913626 -0.22348268 -0.14386407 0.0050096214 0.049467772 0.012583375
-0.062380224 -0.19683969 0.13980657 -0.14165801 0.015146479 0.040890187 -0.03436935 0.19412094
0.10251382 -0.09323037 0.21438047 0.032342523 -0.14593938 -0.075885475 -0.092338786 0.010229245
0.0065758973 0.0056390762 -0.04037638 0.18438324 -0.019847617 -0.006655231 -0.009288654 -0.1259728
0.20823616 0.18205792 -0.05508755 0.098193616 0.156158 -0.017165035 -0.13226444 0.20682672
0.116963774 -0.113599375 0.18823877 -0.021478638 -0.15793167 -0.04516378 -0.046203658 -0.17926328
0.10227293 -0.11857674 -0.20346667 0.08894351 0.13432696 0.14735249 0.11276907 0.14157858
-0.100454815 0.14535004 0.10207835 0.22273985 0.1581547 -0.18146591 0.011480078 0.1624364
0.12021834 -0.05662 -0.040769532 -0.06695397 0.06370312 0.21597439 0.15045977 0.124943286
0.06674138 -0.013994351 -0.00026658177 0.13112417 -0.15422392 0.18675357 -0.025768414 0.051259488
0.1332503 0.0489707 0.1583542 0.19776821 -0.17833856 0.16623 -0.1929273 -0.14696497
0.0963217 0.031361073 0.13059163 -0.0008676201 -0.11571695 0.21019429 0.061199605 -0.20027575
0.137595 0.010335013 0.13440019 0.11001524 0.08809528 0.19957924 0.15228227 -0.14527655
0.060505837 0.061867446 -0.074214086 -0.037659124 0.059610456 0.019772276 0.19548285 0.06376287
-0.21040738 -0.11169429 0.015458062 0.08573538 -0.21549714 0.012335524 -0.014178336 0.05714953
-0.19011325 0.004643798 -0.1844624 0.1876075 -0.14036581 0.18897313 -0.065513715 0.14018646
-0.17285088 0.106485516 -0.098451346 0.14994231 0.048511207 -0.0030879378 -0.032482162 0.173305
0.12252781 0.15334117 0.04469347 0.076141864 -0.094095305 -0.035570756 0.037454545 0.06686637
0.10535586 -0.07928456 -0.100875795 0.20267382 -0.1858858 0.115992755 0.14713979 -0.19097659
-0.15148836 -0.09359492 -0.10282211 -0.04939206 0.069847524 0.08673373 0.034316957 -0.12753987

output.bias f4 [8]
00000000: a8c5 9a3d a661 62be 704c 2cbc 2a38 023e
00000010: d02d 2e3e 7c95 0abd 8001 e53c 9029 413e
0.07557231 -0.22107562 -0.010516271 0.12716737 0.17009664 -0.033833966 0.027954817 0.18863511
