my_transformer/saved_model/simpleANNlr=0.005bs=128_MSE.pt (torch, 34575 bytes, 8 tensors)

l1.weight f4 [50, 14]
00000000: 44fb 83be a0e0 163d 6ca7 63bd 0719 51be
00000010: 6243 67be 6085 733c 0f5e 72be f03e b73c
00000020: fa0a e0bd 9cdf 51be ac0f c03d f8a6 933d
00000030: f2e0 623e 30d1 d23d f681 3dbe 7455 d6bd
00000040: c8fa 26be 2838 8bbd c069 dcbb 73fd 823e
00000050: 088a 413d b0c7 c63c 5499 183e 1365 06be
00000060: e620 4abe ca3f ffbd 5a87 013e 6085 6abc
00000070: 74fe 183e 6a91 d5bd dd7f 57be 00bb 9bbb
00000080: 2a79 1a3e a817 2fbd 7408 41be c0ca 5fbd
00000090: e8ea 733d 5ea7 d0bd 806b a7bd 4e1a 3dbe
000000a0: 7a78 793e e277 00be fffa 22be 1cb2 393e
000000b0: 9aec e6bd b000 1a3e eff9 22be d0ba 8f3d
000000c0: c43f 0c3e 527d 2f3e ec0c e13d 8080 ad3d
000000d0: 0f19 813e 42d0 86be e07f 60be f8ab 42bd
000000e0: 14e0 80bd b827 e43d 34ac 09bd 80a9 083b
000000f0: a65e 4f3e 021e 4d3e 0983 36be 3870 76be
00000100: a064 d23c 0310 53be 507a 04bd 2afb 42be
00000110: 3e49 16be 093b 71be 708b 443e 36a9 4f3e
00000120: 4ef2 97bd 6c3a 0fbe ee4c 0abe a483 d43d
00000130: 1e66 4ebe e8fe b8bc 90e4 23be 007e 1cbc
00000140: 6d74 843e b24c 7b3e e876 d03d 0aa8 1d3e
00000150: 847b eb3d 00be ea3a b49f 63bd 3061 c23d
00000160: 1493 183e 5c1b ccbd e8c1 d0bc 9a2c 103e
00000170: 88cf 8ebc 0422 3fbd 01e4 5dbe d205 e0bd
00000180: 8073 0ebd c65b 8dbd 4f58 833e 204d 3d3c
00000190: 682d 22be 3c01 cbbd 3c18 6b3e e800 16be
000001a0: 3a80 29be 5863 28be 14f6 363e 7536 3cbe
000001b0: 0e4c 423e 40f6 63bc 204f cdbc d000 953d
000001c0: f89f 40be 6875 953d 3c2f 7dbe ac85 3ebe
000001d0: e61e 81be 5078 91bc d482 013e 89c5 22be
000001e0: ce34 d5bd f6da 183e 34e4 203e 3485 6dbe
000001f0: a043 b8bd 13f1 3dbe 78f3 333e 027d 073e
00000200: 0e46 86bd e6c1 44be 48ff 333e b213 e9bd
00000210: a086 3ebc 58ba 443d ca4d 783e 3003 d53d
00000220: 9013 9e3d 60c2 88bc 5e40 3ebe f85a 75bd
00000230: 2042 9b3d 52e1 92bd 0066 213e b4aa 73bd
00000240: 70f6 f8bd 0a98 c6bd bc68 dabd c22c 7fbe
00000250: b260 dcbd 5c86 cfbd 80c1 643c c80f c43d
00000260: 9e60 693e 42cf 1dbe 6c15 8d3d e02d 373d
00000270: 183c 583e d4c0 cc3d b98c 0abe d2de 333e
00000280: 8a3b 753e b02b d23c bec0 3d3e 8c87 a73d
00000290: 4ab5 81bd 2f72 02be 60dc 74bc 40e0 cd3d
000002a0: 29e2 82be 7cef 143e 9450 d3bd 2644 7e3e
000002b0: 9dba 7ebe 7c5f 99bd e6b7 26be 60b3 1ebc
000002c0: 6034 23bc 0083 d13c b042 f9bc a0f6 5d3c
000002d0: 6069 a4bc b0d5 7cbe b0ce 2a3d 00ab 4c3c
000002e0: 0471 a23d 806c 54bb be1a 1ebe 90e3 20be
000002f0: 4896 0fbd b8f0 15be 2297 75be 22ad 0c3e
00000300: b824 a63d b68c 603e 2038 22bd 4cd7 a4bd
00000310: 88a5 2f3d 40bc e83c 4ead 703e cb95 56be
00000320: 654d 49be 6435 b2bd d8eb c53d a179 6abe
00000330: c8ed d8bd 8990 00be 4843 6a3d f049 3a3d
00000340: d182 87be 3bf5 53be 3f40 1cbe 244d c63d
00000350: 9a28 163e 1172 5abe f08b 3abd 3fe7 43be
00000360: 08ba 6c3e fe1f 543e 5e0a 2bbe db6d 59be
00000370: 4034 3dbd a461 8abd e043 1b3c 084d 6d3e
00000380: 86a5 443e 5c1e 49be 100e 933c a4b7 fa3d
00000390: 78db 6c3d 853e 883e 1151 883e 674a 45be
000003a0: ae96 1bbe 809d bd3d ce00 7a3e 1c3a 393e
000003b0: 3053 56bd 2e40 223e 9600 503e 9882 643d
000003c0: e84f 3c3e e233 84be 9176 74be 52db d7bd
000003d0: f0c5 a63d c63e 4abe 3acf 7d3e 7000 d03c
000003e0: e4f8 62be cb2d 80be 0a6e ddbd 3c06 293e
000003f0: b859 37be b07e 313d 4027 ac3d 3f01 84be
-0.25777638 0.036835313 -0.055579588 -0.20419703 -0.22584298 0.014863342 -0.23668693 0.022368878
-0.109395936 -0.20495456 0.09377989 0.07209581 0.22156122 0.102938056 -0.18506607 -0.10465518
-0.16306603 -0.0679782 -0.0067264736 0.2558399 0.047250777 0.02426514 0.1490224 -0.13124494
-0.19739112 -0.12463339 0.12649289 -0.014314026 0.14940816 -0.10428126 -0.2104487 -0.0047525167
0.15085283 -0.04274717 -0.18850881 -0.054636717 0.059550196 -0.10188173 -0.08174801 -0.18467066
0.24362364 -0.12545732 -0.1591606 0.1813435 -0.11275597 0.15039325 -0.15915655 0.070180535
0.136962 0.1713765 0.10988793 0.08471775 0.2521443 -0.26330763 -0.2192378 -0.047527283
-0.062927395 0.11140388 -0.03361149 0.0020852983 0.2025095 0.20030978 -0.17823423 -0.24066246
0.025682747 -0.20611577 -0.03234321 -0.19041124 -0.14676377 -0.23557676 0.19193816 0.20279393
-0.07419263 -0.1398713 -0.13505909 0.10376671 -0.20156142 -0.022582486 -0.16005158 -0.009551525
0.25870076 0.24540976 0.101789296 0.15396133 0.11498168 0.0017909408 -0.055572227 0.09491193
0.14899856 -0.09966156 -0.025483087 0.14079514 -0.017432943 -0.0466633 -0.21669008 -0.1093861
-0.034778118 -0.0690227 0.25653312 0.011554033 -0.15837634 -0.09912345 0.22958463 -0.14648783
-0.16552821 -0.16444147 0.17867309 -0.18380149 0.18974325 -0.013913691 -0.025062144 0.072755456
-0.18811023 0.07297784 -0.2472505 -0.1860568 -0.25218886 -0.017757565 0.12647563 -0.15895666
-0.10410462 0.14927277 0.15712053 -0.23195344 -0.089972734 -0.18548994 0.17573345 0.1323128
-0.065563306 -0.19214591 0.17577851 -0.1138071 -0.011628777 0.048029274 0.24248424 0.104009986
0.07718575 -0.016694248 -0.18579242 -0.059901208 0.07580972 -0.07171883 0.15761566 -0.059488967
-0.12156379 -0.09696968 -0.10664508 -0.24919418 -0.10760631 -0.10133049 0.01396215 0.095733225
0.22790763 -0.15411094 0.068888515 0.044721484 0.21116674 0.099977165 -0.13530244 0.17565468
0.23948494 0.025655597 0.18530557 0.081801504 -0.06333406 -0.1273887 -0.01494512 0.10052538
-0.25563172 0.14544481 -0.103181034 0.24830684 -0.24875875 -0.07488915 -0.16281089 -0.009686321
-0.009961218 0.025575161 -0.030427307 0.0135475695 -0.020069778 -0.2469089 0.04170102 0.012491941
0.07931712 -0.0032413304 -0.15439889 -0.15711808 -0.03505543 -0.14642608 -0.23983434 0.1373792
0.08112472 0.21928677 -0.039604306 -0.08048877 0.042882472 0.028410077 0.2350361 -0.20955579
-0.1965843 -0.0870159 0.09664124 -0.2289796 -0.10592228 -0.12555136 0.05719307 0.04548067
-0.26466992 -0.20699017 -0.15258883 0.09682682 0.14663926 -0.21332575 -0.04554361 -0.19131182
0.2311784 0.20715329 -0.16703174 -0.21233313 -0.046192408 -0.06756905 0.009476632 0.23173916
0.19203767 -0.19640487 0.017951041 0.12242058 0.05782649 0.266102 0.2662435 -0.19266663
-0.15194198 0.09258556 0.2441437 0.18088573 -0.052325428 0.15844795 0.20312724 0.055788606
0.18389857 -0.25820833 -0.23873354 -0.10539879 0.08143222 -0.19750509 0.24786082 0.025390834
-0.22165257 -0.25034937 -0.10812004 0.16506284 -0.17905319 0.04333371 0.08405924 -0.257822

l1.bias f4 [50]
00000000: bc39 d4bd 20ab 1c3c b895 9fbd 4631 583e
00000010: 1098 023d 127b 383e ba2b 123e 8811 1bbe
00000020: 20cf b4bd 7e99 e5bd be99 0c3e c054 12bc
00000030: f8b9 a23d e840 1a3d 6080 fb3c 4092 25bc
00000040: c492 da3d 5c93 463e 88eb 013d 7cc5 4bbe
00000050: b008 ed3d c62d 7a3e 9a4b 67be 5807 5c3d
00000060: 320e 1abe f033 893c 16dd 80be 8005 143e
00000070: dce9 e7bd 2058 e43d c0a1 2abe 10db 293e
00000080: a439 2d3e 66f7 0a3e 9aaf c0bd 5cbb 63bd
00000090: 4cf5 c73d 1024 efbc 78cd 293d c40f c73d
000000a0: ba6c 84be 68cd eabd 3cdd 1b3e a61b 103e
000000b0: 04b2 ee3d 5436 e7bd fc8e 46be 5905 7fbe
000000c0: ac89 83be 1692 73be
-0.103625745 0.009562284 -0.077922285 0.21112546 0.0318833 0.18015698 0.14274493 -0.15143406
-0.088285685 -0.11210917 0.13730523 -0.008931339 0.07945627 0.037659556 0.030700862 -0.0101056695
0.106725246 0.1939215 0.03171876 -0.19899553 0.11573923 0.24431524 -0.22587433 0.05371794
-0.15044478 0.016748399 -0.25168675 0.14455223 -0.11323902 0.11149621 -0.16663265 0.16587472
0.1691652 0.13570938 -0.09408493 -0.0555986 0.097635835 -0.029192 0.041455716 0.09719804
-0.25864202 -0.114649594 0.15221113 0.14073047 0.116550475 -0.11289659 -0.19390482 -0.24904384
-0.25690973 -0.23786196

l2.weight f4 [100, 50]
00000000: 66f8 8dbd 2001 45bc 4002 d5bb b2ed 813d
00000010: a02b 07bc 59e7 e5bd 31a3 8cbd 2683 09be
00000020: e2e5 5abd d4c3 c83d e0c5 b7bd ba60 8c3d
00000030: fc01 cbbc 3257 cd3d 58e4 973c e482 143d
00000040: 5ae1 de3d 74b2 04bd 2030 763c 602b 7d3c
00000050: 3005 853d b0dc c63d 0ce0 05be 5247 d53d
00000060: 9790 9fbd 82f4 b53d 2ce4 fabc 4811 c43d
00000070: 5297 ecbd 4cd0 c5bc 01ad 083e f0a4 383d
00000080: 9e86 ad3d 9eeb 20bd becd 38bd 0244 0fbe
00000090: efe2 91bd a233 41bd 8c32 75bd 693b f2bd
000000a0: 0009 d1bc a836 483d 3b1f 03be 3802 2f3d
000000b0: 10a1 ff3c 92c8 f13d 75da 053e b420 dc3d
000000c0: 7d6f 103e f6db 01be 810c 9cbd 4619 a13d
000000d0: 907d 433c b07e 783d 8206 f13d 646a 7ebd
000000e0: 7448 4cbd 243c c2bd 24f1 fbbd ce78 9f3d
000000f0: 0a3d e6bd 22b8 f6bd f06f 0ebe c818 65bd
00000100: fa83 fa3d 80c9 883a 50f3 1dbc caa4 aebd
00000110: 28e8 c43d 62ab b63d 401e 05be c29d 00be
00000120: 4212 f63d 8272 fb3d 64fe 2bbd 0a83 d6bd
00000130: 78f6 1b3d 128a d13d 201c 463c e08a 98bd
00000140: 1dcd 023e 38b3 8bbd 09c4 00be 3bc5 033e
00000150: 6098 80bc 4c87 1ebd 90a5 583c 64c9 50bd
00000160: 9c8a c0bc c8be 77bd 8898 833d 4439 8a3d
00000170: 38b6 4f3d 50d3 b83c 5858 343d 442e f2bd
00000180: 389f ac3c e95c bdbd 14a9 1b3d 9ade ee3d
00000190: 3c61 3f3d 8e78 cebd 406a 40bc 2aee e33d
000001a0: 8e07 b73d 4e9c ba3d 2870 0a3d 90a8 413c
000001b0: 7294 fc3d ec3c 703d e3d9 8dbd c08c 33bd
000001c0: 03d9 81bd 646c 5dbd e465 243d 68c2 d53d
000001d0: 8027 a13b 6020 6abd 40f9 533d f631 b13d
000001e0: 40ca 103d e04c 553d 3b06 8ebd 58ba 923d
000001f0: d0ee e43c 8078 a9bc 9e34 7ebd c0af fcbc
00000200: 487a 163d f827 c93c 4668 e3bd e810 b03d
00000210: 54cf 5d3d 2c60 6c3d 980c e63c 68e3 f43c
00000220: 634d f7bd d00e d3bc f02c 763c 20b7 a13b
00000230: 647d dfbd b659 f73d b65f ca3d 90de 2cbd
00000240: a63e b63d aa3f a63d f554 073e 0113 95bd
00000250: 50a0 773d f1ea ffbd 109c ed3c 5c85 233d
00000260: 903c 443d d04f 97bc 81f4 0fbe 106c c13d
00000270: e4ce ab3d c047 98bc b26d f13d e0a6 0d3d
00000280: 2ee2 f33d e01f c03d 18c4 d3bd 3e33 bd3d
00000290: 0a4b fd3d d804 fc3c 9828 0ebe c6ee f93d
000002a0: c2a7 d43d e08f 793d d0dc d43d 80b7 993a
000002b0: 1e59 cabd 3347 063e e691 b73d b0c2 75bc
000002c0: f8a7 1f3d e458 a8bc 8eee a0bd 7c6c 55bd
000002d0: aab2 1ebd 0851 843c f067 053c 68e6 d53d
000002e0: 0047 673a 90df 4c3d 9056 de3c 0018 28ba
000002f0: 73b2 04be b034 0ebd 778a 103e 5028 5e3c
00000300: f880 0d3d c099 d13d e00f e1bc a004 313d
00000310: 1046 4e3d 1c91 6b3d 6c2a 0f3d ac82 ba3d
00000320: 24fb e1bd 4e31 5dbd b618 e33d c1c1 09be
00000330: 48ec d0bc c09f 903d ecad 813d 6aee 90bd
00000340: e652 fc3d 6e92 bfbd 1b7a b0bd 1889 d43d
00000350: 3ccb adbc a8a4 b73c fe8f 82bd 0046 383b
00000360: d423 813d d21e e63d 18d9 883d b61e 10be
00000370: d466 babd 8840 ab3c 1c6e e3bc 1c7a 7b3d
00000380: fe9d 28bd 3406 90bd 32fa a9bd 8889 ca3c
00000390: 807b b4bb 9443 2bbd c0c2 f43b aa28 45bd
000003a0: 4ca9 d2bd e444 b73d a073 f93b 70d6 43bd
000003b0: ff9d 073e 1467 d03d b3e8 0ebe cf16 90bd
000003c0: 3036 4abc baae eb3d 4e97 b03d f073 683c
000003d0: e4dc b13d 6477 f5bd f073 e63c b0ba 19bd
000003e0: 8c1c 7fbd d169 8ebd d03e 1f3c 9c2e 3e3d
000003f0: 1c36 4fbd fcb4 813d 38b7 5dbd 3a1d 3cbd
-0.06932144 -0.012024194 -0.0065005124 0.06344165 -0.008250147 -0.11225767 -0.06867064 -0.13428935
-0.05344189 0.09802976 -0.089732885 0.06854387 -0.02478122 0.10026397 0.0185415 0.03625764
0.10882826 -0.03239675 0.015026122 0.015452236 0.0649513 0.097100616 -0.13073748 0.10413994
-0.0779125 0.08884527 -0.030626379 0.09573609 -0.115522996 -0.024147175 0.13347246 0.04507917
0.08472942 -0.039287202 -0.045118086 -0.13990787 -0.07123362 -0.04716838 -0.05986266 -0.11827738
-0.025516987 0.04888025 -0.12804882 0.042726725 0.03120473 0.11805834 0.13071616 0.10748425
0.1410503 -0.12681565 -0.076195724 0.07866149 0.011931792 0.060667694 0.117688194 -0.06211318
-0.049873784 -0.09484127 -0.12301853 0.077867135 -0.11242111 -0.12046839 -0.13909888 -0.055931836
0.12232204 0.0010436028 -0.00964053 -0.08527525 0.09614593 0.089194074 -0.1299982 -0.1256018
0.12015201 0.122777 -0.041990653 -0.104742125 0.038076848 0.10231413 0.012091666 -0.07448363
0.12773557 -0.06821293 -0.12574781 0.12868206 -0.015697658 -0.038703248 0.013223067 -0.05097331
-0.023503594 -0.060484678 0.064255774 0.06749204 0.050710887 0.0225617 0.044029564 -0.11825231
0.021072015 -0.09246237 0.038003042 0.11663552 0.04672359 -0.10081588 -0.011744082 0.111294106
0.08936988 0.09111844 0.033798367 0.011819974 0.12333001 0.05865185 -0.06926324 -0.0438354
-0.0634022 -0.054058447 0.040136233 0.10437471 0.004918039 -0.05715978 0.051751375 0.086521074
0.03534913 0.052075267 -0.06934782 0.071644485 0.027945906 -0.020687342 -0.0620619 -0.030845523
0.03673771 0.024555191 -0.11103873 0.085969746 0.0541528 0.057708904 0.028082177 0.029893592
-0.12075307 -0.0257639 0.015025362 0.0049351603 -0.10912588 0.12077658 0.09881537 -0.04220444
0.08898668 0.08117612 0.13216002 -0.07279015 0.06045562 -0.124959834 0.02900508 0.039922103
0.04790932 -0.018470675 -0.14058115 0.094444394 0.08389071 -0.0185889 0.11788501 0.034582973
0.11908375 0.0938108 -0.10340136 0.09238289 0.12367828 0.030764028 -0.13882673 0.122037455
0.1038356 0.060928226 0.10393679 0.0011727661 -0.09880279 0.13113098 0.08963375 -0.01500003
0.038978547 -0.020550199 -0.07858001 -0.052105412 -0.038744606 0.01615192 0.008142456 0.10444337
0.00088225305 0.050017893 0.027140886 -0.00064122677 -0.12958698 -0.034718215 0.1411532 0.013559416
0.034546822 0.102344036 -0.02747339 0.0432173 0.050359786 0.057511434 0.034952566 0.09106955
-0.110342294 -0.0540021 0.110886976 -0.13452817 -0.025503293 0.0706172 0.06332001 -0.07076724
0.12320499 -0.09354101 -0.0861704 0.10377711 -0.021215074 0.022417381 -0.063751206 0.0028117895
0.06305662 0.11236347 0.06682032 -0.14074215 -0.09101644 0.020904794 -0.027762465 0.06139575
-0.041166298 -0.07032433 -0.08299674 0.024723783 -0.0055078864 -0.041812494 0.007469505 -0.048134483
-0.10286197 0.08948687 0.0076126605 -0.047811925 0.13243864 0.101759106 -0.13955955 -0.070356004
-0.012342021 0.11507936 0.08622609 0.014187798 0.0868471 -0.119856626 0.028131455 -0.037531555
-0.062283084 -0.06953777 0.0097195655 0.04643117 -0.050588712 0.06333348 -0.05412981 -0.04592631

l2.bias f4 [100]
00000000: 1570 103e 68e0 85bc 86ee 07be 5c97 cabd
00000010: 0ea9 f63d 4a6f afbd 70b5 383d 7ad6 06be
00000020: d2fe 0dbe 4815 303d c295 e53d c737 e8bd
00000030: e01b 223d 498c 08be 0030 7cbb c898 55bd
00000040: e0dd 4dbd 4226 f93d 6884 f6bd 94b0 8bbc
00000050: 4d80 0a3e 00c8 fcb9 0053 a4bb 66a2 f13d
00000060: a08b 483d 787e a9bd 784e ef3c c2e7 a93d
00000070: dc46 b73d 10b9 3e3c 7c1a 273d 8869 e0bd
00000080: 824f 4cbd 80e5 52bd 30c9 6abc ca57 df3d
00000090: 50fd 4e3d fe6a 8dbd 24c2 753d e1e0 063e
000000a0: 2eed 06bd 6038 d13d b0fa 08be 4099 3cbd
000000b0: 9519 09be 6068 a73b 725b f33d b1af 0fbe
000000c0: 312e 103e 3066 1abc 70d6 a73c 9ce5 473d
000000d0: b227 c23d 8084 30bc 76e4 9fbd f0ae 25bd
000000e0: 1ac0 fb3d ec66 9fbd 8aff f43d 125c b53d
000000f0: b0b3 4abd 38b2 c43c e881 9c3c 65e1 92bd
00000100: 2e64 96bd 5de7 9cbd 9097 76bd c058 683c
00000110: 1e17 f83d ec57 373d 1c15 febd 7395 04be
00000120: 8491 693d f8e9 90bd 3878 95bd 5e57 4dbd
00000130: 5927 033e b696 fabd 8c6c b9bd 2daf 0dbe
00000140: 32f0 e33d 9859 c93d b0e8 6f3c 5804 f13c
00000150: 002f ebba 9c68 d4bd a260 963d b0d0 a73c
00000160: e282 0fbe bad7 8ebd a445 c3bd 6970 83bd
00000170: b07a 9abc c0c2 c93b 4a17 9abd 406c 8d3c
00000180: fac0 a43d ac1b 4f3d 462b 0fbe 4705 0abe
0.14105256 -0.016342357 -0.13274583 -0.09892151 0.120439634 -0.085661486 0.045094907 -0.13167754
-0.13866737 0.042989045 0.11210205 -0.11338764 0.039577365 -0.13334765 -0.0038480759 -0.052147657
-0.050260425 0.121655 -0.12036973 -0.017051972 0.13525505 -0.00048214197 -0.005014777 0.11798553
0.04896128 -0.08276075 0.029212222 0.082961574 0.08949062 0.011640802 0.04079674 -0.109576285
-0.049880512 -0.0514884 -0.014330193 0.10905416 0.050534546 -0.06905173 0.0599996 0.13171722
-0.032941036 0.10215831 -0.1337688 -0.046044588 -0.13388665 0.005108878 0.11882676 -0.14031865
0.1408012 -0.009423777 0.020487994 0.048802957 0.094802275 -0.010773778 -0.07807247 -0.040450037
0.122925 -0.07783303 0.11962803 0.08855452 -0.04948777 0.024010763 0.019104913 -0.07171897
-0.073433265 -0.076613165 -0.060203135 0.014181316 0.12113784 0.044761583 -0.1240637 -0.12947635
0.05702354 -0.07075876 -0.072983205 -0.050132148 0.12807979 -0.12235777 -0.09053907 -0.13836356
0.11129798 0.09831542 0.014642879 0.029421017 -0.0017943084 -0.10371515 0.0734265 0.020485252
-0.14014772 -0.0697474 -0.09534767 -0.06417925 -0.01885733 0.006157249 -0.07523973 0.017263532
0.0804462 0.0505635 -0.13981351 -0.13478576

l3.weight f4 [20, 100]
00000000: 9de6 bcbd 1632 0e3d 0521 b63d e2e1 a9bd
00000010: 833b 58bd 0e8f acbd 206c e7bb d05c b7bb
00000020: f1e0 923d 9212 753d c00a f7ba c101 983d
00000030: e8af 22bc 3657 9bbd 790a 8d3d fe47 2a3d
00000040: eb0c b2bd e8fd 94bc 9107 873d 32ac c6bd
00000050: c076 053c 9d02 47bd c3b2 a53d 0cbe 90bc
00000060: a36d 32bd 0be6 933d f183 9b3d d884 6bbc
00000070: 9da7 b53d 0474 fe3c 8837 b4bc a1de a93d
00000080: 810a ae3d a0e7 48bd cdc4 963d 6025 e83b
00000090: 9c57 fe3c 22aa 473d a75b 34bd a371 4ebd
000000a0: 637c 1ebd 00bc c83a 4d06 9abd d089 bc3b
000000b0: 361a 19bd 0fd7 8e3d 00dd 33bd acc0 d7bc
000000c0: 420a 5e3d b5fb 873d b528 a93d 1258 6d3d
000000d0: 260d 5a3d e787 a23d 8e86 7d3d 904a 61bc
000000e0: aef9 1e3d 30c5 27bc ad91 993d 6a38 11bd
000000f0: a069 9d3c 4cdb f13c 680c 303c 9940 c83d
00000100: c1ac bb3d 60e3 d63b 7653 a7bd fa74 4f3d
00000110: 2ab9 4c3d 1a93 493d 2561 99bd 83c5 ac3d
00000120: 74f9 d33c 7696 84bd 90b1 54bd 40b7 5bbb
00000130: 000b 6fba ea81 433d 86c1 0cbd 29d2 cb3d
00000140: 94bc c63c 444b ea3c a258 153d 76d5 703d
00000150: 14eb bebc ce07 9abd 50ba a4bb a8b4 0c3c
00000160: 3c7f 88bd 986c 46bc 8788 28bd 218a 823d
00000170: 57f6 953d 766c 103d 18f0 eebc 5722 9a3d
00000180: 60b8 f8bc 3215 4d3d b491 ff3c c7cf 5ebd
00000190: 80b1 183c 7afa 94bd 1de1 9c3d 3a9d 83bd
000001a0: 9f02 b03d 2053 67bd a0ae 9fbb 6ca7 c23c
000001b0: 5442 993c 1845 593c 47b7 66bd d8e9 2e3c
000001c0: e088 03bd 0025 f339 ff3d 973d 56ba 9ebd
000001d0: cd36 93bd 9b43 933d 3143 bf3d 380c babd
000001e0: 0293 6d3d 0098 a43c 6058 8f3c e00a 9e3c
000001f0: 62b6 81bd 00ff 003c 2fb7 c0bd e0c6 a1bc
00000200: 2f30 bd3d 8d9b c73d f0a0 5cbd c433 d43c
00000210: ec73 d33c e068 bf3c 78c9 953c 2b8c 97bd
00000220: 62cd b4bd b3a5 90bd eaad 5dbd b52a b7bd
00000230: 2eb5 743d 000c 1abc 3429 03bd 404b 40bc
00000240: c862 b23c 055a 90bd 1350 9e3d dd56 43bd
00000250: 5383 62bd 3187 8b3d 7e15 093d 6111 a43d
00000260: 00da 64bb d894 4cbc a28f bdbd 5636 603d
00000270: 670e 9b3d 9648 15bd 6b60 a83d 1d99 39bd
00000280: 8d27 65bd 3489 ca3c 7908 b33d 17ff 9f3d
00000290: b250 8ebd 7d5e cb3d 75aa b53d 415b c63d
000002a0: 0db5 41bd 9528 c4bd d869 c7bd 1b8a ac3d
000002b0: 9c4d ea3c 6d4e 2cbd d89d 283c e0ce a0bc
000002c0: 621a 583d 5831 c6bc ec2e 91bc d70a 943d
000002d0: c078 a7bc d86c e3bc 41e4 b23d 5012 06bd
000002e0: 331c bb3d f727 6cbd 9619 84bd 4c2d 8b3c
000002f0: edf1 75bd d8a0 c93c aa43 46bd 7db2 8a3d
00000300: 729f 4e3d 50a8 53bd cad2 45bd 21af 8f3d
00000310: f60f 663d ebdd a83d 18dd 0ebc b79f 9f3d
00000320: a7b9 78bd 58cb f1bc 1a31 55bd 5800 a13c
00000330: b172 913d ad09 aa3d 59d2 a83d cf96 b1bd
00000340: 285c 043c 5b8e bdbd 400e 193c 2adc 05bd
00000350: 35a8 a43d b103 cc3d 5d08 c8bd 651b b93d
00000360: b02f 593c 259e b13d c062 723b 73c9 ba3d
00000370: 5844 86bc c4b6 dc3c be3a 7d3d d3eb 963d
00000380: 215b bf3d 18bf ebbc 553b a8bd c047 4cbd
00000390: 028b 573d e306 29bd f6dd 0fbd 5674 0a3d
000003a0: 3c5f 0fbd 0023 15bb 0d0c 8e3d 83c9 1fbd
000003b0: 6003 973b 40f2 5cbc 9a3c 80bd d776 b0bd
000003c0: 6417 e93c 920a 9ebd 8007 80bd cadf 6fbd
000003d0: 3d57 7fbd 57ec a03d 4c02 cc3c 883e aabc
000003e0: 129e 97bd ad73 c3bd da93 4d3d f4ea cf3c
000003f0: cacf 94bd 78f1 e6bc 4c78 943c 86fd 2b3d
-0.092236735 0.034715734 0.08893017 -0.08295037 -0.05279113 -0.08425723 -0.00706245 -0.005595781
0.071718104 0.059832163 -0.0018847808 0.074222095 -0.009929635 -0.075849935 0.06886763 0.041572563
-0.0869387 -0.018187478 0.0659324 -0.097008124 0.008145988 -0.048586477 0.08090737 -0.017668746
-0.04356159 0.072216116 0.07593525 -0.014374934 0.0886986 0.03106118 -0.021999136 0.08294416
0.08498097 -0.04904902 0.073617555 0.0070845336 0.031047635 0.048746236 -0.04403272 -0.05040134
-0.038692843 0.0015314817 -0.07520733 0.005753733 -0.037378512 0.06974613 -0.043911934 -0.02633699
0.054209 0.06639806 0.082597174 0.05794532 0.053235196 0.079360776 0.0618959 -0.013750687
0.03881233 -0.010239884 0.074984886 -0.03545419 0.019215405 0.029523514 0.010745145 0.09777946
0.091638096 0.006557867 -0.08170216 0.050648667 0.049981274 0.049212553 -0.07489232 0.0843611
0.025875784 -0.06474011 -0.05192715 -0.0033525974 -0.00091187656 0.047731318 -0.034364246 0.09952194
0.024259843 0.028600343 0.03646148 0.058797322 -0.023305453 -0.0752102 -0.005027093 0.008587994
-0.06664893 -0.012110852 -0.041145828 0.06374002 0.07322376 0.035259686 -0.02916722 0.07526081
-0.030361354 0.05006904 0.031197406 -0.05439737 0.009319663 -0.07274337 0.076601245 -0.06426473
0.0859425 -0.05647576 -0.004873112 0.023761474 0.018708386 0.013261102 -0.05632713 0.01067587
-0.032112956 0.0004637614 0.07384872 -0.077503845 -0.07188187 0.07190629 0.093389876 -0.09084362
0.058001526 0.02009201 0.017498195 0.019292295 -0.06333615 0.007873297 -0.094099395 -0.019748151
0.09237706 0.09746466 -0.05386442 0.02590359 0.025812112 0.023365438 0.018284544 -0.07399782
-0.08828236 -0.070628546 -0.054120935 -0.089436926 0.0597431 -0.009402275 -0.032021716 -0.011736691
0.021775618 -0.0704842 0.07730117 -0.04769026 -0.05530102 0.06812895 0.033467762 0.08011127
-0.0034919977 -0.012486659 -0.092559114 0.05473932 0.075711064 -0.036446176 0.08221515 -0.045312036
-0.05594592 0.024723627 0.087418504 0.078123264 -0.06948985 0.099301316 0.08870403 0.09685374
-0.047291804 -0.09578053 -0.09736985 0.08424779 0.02860146 -0.04206698 0.010291539 -0.019629896
0.052759536 -0.02419345 -0.01772257 0.0722863 -0.02044332 -0.027761862 0.08734942 -0.032732308
0.09136238 -0.0576553 -0.06450193 0.016989373 -0.06004517 0.02461283 -0.048404373 0.06772325
0.050445028 -0.051674187 -0.048296727 0.07015825 0.056167565 0.082454525 -0.008719705 0.07794135
-0.060723927 -0.029515907 -0.05204878 0.019653484 0.07101954 0.08302627 0.08243246 -0.086713426
0.008078612 -0.09255668 0.009341776 -0.032680668 0.080398954 0.099616416 -0.0976722 0.09038428
0.0132559985 0.08672742 0.003698513 0.09120455 -0.01639001 0.026942618 0.0618236 0.07369199
0.09343553 -0.028777644 -0.08214442 -0.049873114 0.052622803 -0.041266333 -0.035123788 0.033802353
-0.035002932 -0.0022756457 0.06935892 -0.039010536 0.0046085566 -0.013485491 -0.06261559 -0.08616417
0.028453536 -0.0771686 -0.062514305 -0.05856303 -0.062339056 0.07857578 0.024903439 -0.02078177
-0.074031964 -0.09543548 0.05018983 0.025380589 -0.07266195 -0.028191313 0.018123768 0.041989826

l3.bias f4 [20]
00000000: 6c41 01bd 7970 bd3d a319 cb3d f07b 2bbd
00000010: 40b1 d5ba 9b95 9a3d bb2a aa3d 18f4 bbbc
00000020: ac50 8d3c ba61 9dbd f2f9 183d b963 bf3d
00000030: 6bbb a63d e037 a0bd 6806 2b3c 2d29 7dbd
00000040: 3d2b 903d fa23 563d cdec a8bd 509a 083c
-0.03155653 0.09249968 0.09916999 -0.041866243 -0.0016303435 0.07548066 0.083089314 -0.022943541
0.017250381 -0.076846555 0.03734774 0.093451925 0.08141216 -0.07823157 0.010438539 -0.061806846
0.07039497 0.052280404 -0.08248291 0.008337572

output.weight f4 [8, 20]
00000000: 56e0 c7bd e8ab b33c f367 fcbd 64ea 8f3d
00000010: 38e8 6a3d 90e5 663c f0ac b53d 0083 183d
00000020: f077 bb3d 624c 153e 2c6e 3ebd a233 d2bd
00000030: 3089 1a3c c072 8cbc 52c4 5b3e f0af f13d
00000040: 7e1c 9dbd 0208 1b3e 5080 613e 3cff ef3d
00000050: cd69 d3bd a094 1a3d 901e da3d 90c8 1f3e
00000060: f6e7 453e 0073 30bd 6abb c2bd 88d5 4dbd
00000070: 9059 b63c c05c 43be 50a5 543d 50a3 1bbe
00000080: e050 613e 5079 4c3d fe0e 053e 3568 2fbe
00000090: ca81 cdbd e493 56bd 8808 0a3e 5e6f 3a3e
000000a0: ec63 08be d834 3d3d 9434 563e d033 4dbe
000000b0: 54e8 18be 601f ba3c 541a f83d 8cd4 073e
000000c0: faea 10be fc2a 25be 700b f1bc 8035 85bc
000000d0: 7c86 d23d b897 363e acb7 02be f4d6 f13d
000000e0: f09a dd3d 1884 123e f43b 22be cc7d e93d
000000f0: 3a48 103e 942d e33d 78e1 cb3d 9892 403e
00000100: 2877 a13c 3e60 40be cac7 e4bd a8b3 553e
00000110: e029 fa3b 16c2 1b3e 8805 94bc 18b3 4a3d
00000120: 0820 5dbe 0666 c9bd a4f7 5fbd 2849 083e
00000130: 8204 37be 1464 c03d cbd0 33be e06f ea3b
00000140: faa0 5ebe f096 c93d f0c5 c13d 58e1 59bd
00000150: 8c32 5cbe 084d 903c 7a3a b1bd c2d9 193e
00000160: 304e 173e f25e 4a3e 2046 a0bd fead 043e
00000170: e680 373e b82c bebc 60f7 4abd 202a 883b
00000180: 2086 c4bc ec06 473e 8a80 05be 100a 743d
00000190: 0ad2 c1bd 3c57 debd a030 aabd 6080 353d
000001a0: 0050 3ebe d7bf ecbd 20a0 90bb 3049 11bd
000001b0: 70e6 ea3d 6c3b f73d 1677 273e 803a a03a
000001c0: d74b 50be 2821 703d 383b 4a3e 80b7 083b
000001d0: 1ce9 0dbe 3fa4 28be e0af b73b ac3d 30bd
000001e0: c1ef e8bd 780a 073e e9f2 00be 9094 543e
000001f0: 04ed e83d 8009 bfbd 1603 583e d43c 553e
00000200: 0008 5c3b a013 173e 9f61 62be 045d b3bd
00000210: b605 ebbd 222d 15be 232d 5fbe 50e4 223e
00000220: e2ab a7bd dcd0 ac3d 5035 373c 00a4 253e
00000230: 0cb9 5f3e 3ebd 133e f084 31be 7894 0f3e
00000240: 9a01 9fbd dc4b b63d 3c30 c73d d889 473e
00000250: e08a dd3d b6c5 2b3e 4886 47bd baa4 153e
00000260: cc58 603e d64b a4bd 0ccc 4c3e 3c36 86bd
00000270: ce14 4b3e 629b 473e 5e63 553e c644 473e
-0.097595856 0.021932557 -0.12324514 0.07027128 0.057350367 0.014092818 0.08870876 0.037234306
0.09153736 0.14579919 -0.046491787 -0.102637544 0.009432122 -0.01714456 0.21461609 0.118011355
-0.0767145 0.15139773 0.22021604 0.11718604 -0.10322914 0.037739396 0.106503606 0.15603852
0.19326767 -0.043078423 -0.09508403 -0.050252467 0.022259504 -0.1907835 0.051915467 -0.15199018
0.22003508 0.04992038 0.12994 -0.17129596 -0.10034521 -0.052387133 0.13479817 0.18206546
-0.13319367 0.046192974 0.20918494 -0.20039296 -0.14932376 0.022720039 0.12114397 0.13264674
-0.14152136 -0.16129678 -0.0294244 -0.016260862 0.10279557 0.17831314 -0.12765378 0.11808577
0.108205676 0.14308202 -0.15843183 0.11400947 0.14090052 0.11092678 0.09955114 0.18805921
0.019710138 -0.18786713 -0.11170919 0.20869315 0.0076343864 0.15210757 -0.018069044 0.049487203
-0.2159425 -0.098339126 -0.054679528 0.13309157 -0.17872813 0.093940884 -0.17560117 0.00715445
-0.21741095 0.09843242 0.09461582 -0.05319342 -0.21503657 0.017614856 -0.08653732 0.15024474
0.1477592 0.19762781 -0.07825875 0.12956998 0.17920265 -0.023214683 -0.04955232 0.0041554123
-0.023989737 0.19436234 -0.13037315 0.05957991 -0.0946389 -0.108564824 -0.08310056 0.04431188
-0.18585205 -0.11560028 -0.0044136196 -0.035470188 0.11469734 0.12071881 0.16354021 0.0012224466
-0.2034143 0.05862537 0.19749153 0.0020861328 -0.13858455 -0.16468905 0.0056056827 -0.043027565
-0.113738544 0.13187587 -0.12592663 0.20759797 0.11373332 -0.09327984 0.21094927 0.20823985
0.0033574104 0.1475358 -0.22107552 -0.08757976 -0.11475699 -0.14567998 -0.21794562 0.15907407
-0.08187081 0.08438274 0.011182144 0.16175842 0.21847934 0.14427659 -0.17335868 0.1402148
-0.07763977 0.08901188 0.09725997 0.19486177 0.10817504 0.1677464 -0.048712045 0.1461362
0.21908873 -0.08022277 0.19999713 -0.06553313 0.19832155 0.19492868 0.20838687 0.19459829

output.bias f4 [8]
00000000: 402d 063e 402d 703c 619f 5cbe 008b e93d
00000010: 6ee5 d3bd 70d2 ae3d a613 373e 4c01 a53d
0.13103199 0.014659226 -0.21545173 0.11403465 -0.103464946 0.085362315 0.17878589 0.08056888
