my_transformer/saved_model/simpleANNlr=0.005bs=512_MSE.pt (torch, 34575 bytes, 8 tensors)

l1.weight f4 [50, 14]
-0.20097893 -0.23458675 0.14878994 -0.13205451 -0.2108648 -0.079693064 -0.06913087 -0.24524918
0.23720166 0.22689575 0.0062282085 0.1728741 0.21425492 -0.25199416 -0.010705262 -0.16157666
0.24415693 0.016898543 0.22129133 0.2553893 0.015244454 0.0019019246 0.1592713 -0.031559363
0.26688913 0.26203313 -0.16695377 -0.03230329 -0.077031955 -0.17453742 -0.20575228 0.0003424883
-0.22071636 0.108886 0.14295995 -0.18574706 0.23771986 0.16214222 -0.22582904 0.20888194
0.08045873 -0.23427688 0.23420951 -0.16922922 0.16022545 0.009551913 -0.21503021 0.2023966
0.080853045 -0.20907614 0.14170954 0.09680706 0.21385711 0.16129467 -0.096664295 0.21179667
0.14534128 -0.0869444 -0.24737772 -0.095624834 -0.20620129 -0.25352564 0.16031131 -0.24765381
0.12112731 0.03527978 -0.15099484 -0.18840837 -0.19690889 0.21516559 -0.15849335 -0.14195204
0.17164174 -0.2579175 0.18148163 -0.17517728 0.020569563 0.18260133 -0.16345769 -0.13203755
0.2444897 0.16576639 -0.09878044 -0.14605536 -0.005242467 -0.13679014 0.1028879 -0.025253907
-0.18037957 0.18423823 0.058709294 -0.109313905 -0.07379368 0.16011128 0.11070648 -0.16348445
-0.21623996 -0.038991794 -0.14991826 0.036168814 -0.2524758 -0.13070485 0.20346272 0.11949691
0.15985134 -0.10908951 -0.020771518 0.26378885 -0.12856959 0.05991912 0.25483277 -0.25092646
0.058911353 -0.20780018 0.12197101 0.18133134 0.016418427 -0.2149883 -0.1681742 0.18333307
0.09405768 -0.15367356 -0.0065253377 -0.11686151 -0.07657525 -0.19097617 0.019305527 0.21374777
0.19534537 0.20862567 0.24945173 -0.23682523 0.091573775 0.23978856 -0.2634184 -0.10418329
-0.17420445 -0.17585391 0.027895182 0.05150518 0.18961447 -0.1522155 -0.24273469 0.16856775
0.08994013 -0.22976963 0.13089824 0.022676408 0.22846451 -0.03735794 -0.24400501 -0.023660466
0.21574008 0.17367747 -0.24484122 0.19432628 0.16097513 -0.06372005 0.2645568 -0.17220676
-0.1144267 -0.07190272 0.0056101084 -0.18499973 -0.20091778 0.03265968 0.23244709 0.11789459
-0.16295013 0.025140285 -0.1454182 0.03375262 0.09185758 0.094332665 -0.23813735 0.257565
-0.20980315 -0.20052874 0.26501122 0.044553965 -0.045915574 0.07286891 0.18715325 0.06817442
-0.07775085 -0.06911121 -0.1356611 0.12934104 0.13001105 0.25775334 -0.26273838 -0.19769892
-0.2573065 0.08689779 -0.030627161 0.13556686 -0.16990331 0.20866826 -0.04122646 0.06676841
0.15771624 -0.064906284 -0.15695256 0.12871733 -0.25603887 0.1729627 -0.087442726 0.040852666
-0.2180773 -0.2280627 0.08548319 0.12405279 -0.13252185 0.0052988827 -0.20939356 -0.1439529
0.01289022 -0.15728244 0.23265007 -0.22329329 0.018640488 -0.12420279 0.1660125 0.21392724
0.025049984 -0.20038387 0.1840905 0.25286308 -0.22458449 0.18989399 -0.026667029 0.17969239
0.031963885 -0.25332385 0.029729128 -0.1533683 0.08421317 -0.24627188 0.19012174 0.07409719
0.118882 -0.18760978 -0.030588299 -0.026011482 -0.08190179 -0.053879023 -0.12690519 -0.14242724
0.22911537 0.07810801 0.05639875 -0.09316097 0.24959508 0.19368592 0.18907014 -0.11841163
00000000: 6ccd 4dbe 8237 70be 645c 183e 4c39 07be
00000010: f1ec 57be 1e36 a3bd 7c94 8dbd 9a22 7bbe
00000020: fee4 723e 5c57 683e 0016 cc3b e805 313e
00000030: a465 5b3e 6105 81be 2065 2fbc 5a74 25be
00000040: 4604 7a3e d06e 8a3c 329a 623e 63c2 823e
00000050: e0c3 793c 004a f93a 0418 233e 6444 01bd
00000060: b1a5 883e 3529 863e eef5 2abe 7450 04bd
00000070: eec2 9dbd f0b9 32be bab0 52be 0090 b339
00000080: 7803 62be a0ff de3d 1864 123e 7a34 3ebe
00000090: d66c 733e 9c08 263e ba3f 67be 26e5 553e
000000a0: 8cc7 a43d 47e6 6fbe 9ed4 6f3e 6d4a 2dbe
000000b0: 2412 243e a07f 1c3c e130 5cbe 0e41 4f3e
000000c0: 4896 a53d 0e18 56be 4e1c 113e c842 c63d
000000d0: 5cfd 5a3e 6e2a 253e eef7 c5bd 3ae1 583e
000000e0: 58d4 143e e80f b2bd 9650 7dbe f4d6 c3bd
000000f0: 6e26 53be 1dce 81be a628 243e f698 7dbe
00000100: 9811 f83d 8881 103d 649e 1abe 20ee 40be
00000110: 7ca2 49be 5e54 5c3e 154c 22be e05b 11be
00000120: dac2 2f3e c30d 84be 52d6 393e ac61 33be
00000130: 8081 a83c d8fb 3a3e 7461 27be da34 07be
00000140: 825b 7a3e aabe 293e 664d cabd 898f 15be
00000150: 00c9 abbb b712 0cbe e4b6 d23d 48e1 cebc
00000160: 6cb5 38be f2a8 3c3e 2879 703d f8df dfbd
00000170: 2421 97bd 36f4 233e 14ba e23d 7868 27be
00000180: 026e 5dbe dcb5 1fbd 2c84 19be c025 143d
00000190: 8244 81be 7ed7 05be 8858 503e ccba f43d
000001a0: 12b0 233e 526a dfbd 0829 aabc 550f 873e
000001b0: bfa7 03be c06d 753d 7179 823e 6f79 80be
000001c0: 084d 713d 92c9 54be f0cb f93d ecae 393e
000001d0: f07f 863c e525 5cbe dc35 2cbe aabb 3b3e
000001e0: 50a1 c03d 9a5c 1dbe 80d2 d5bb 1655 efbd
000001f0: 7cd3 9cbd 428f 43be a026 9e3c b2e0 5a3e
00000200: 9e08 483e f8a1 553e 4670 7f3e 5082 72be
00000210: 088b bb3d 228b 753e c7de 86be 0c5e d5bd
00000220: a762 32be 0c13 34be 7084 e43c 18f7 523d
00000230: 4c2a 423e 61de 1bbe 718f 78be 069d 2c3e
00000240: 8832 b83d bb48 6bbe 300a 063e e0c3 b93c
00000250: 9af2 693e a404 19bd 73dc 79be 98d3 c1bc
00000260: f8ea 5c3e 82d8 313e a8b7 7abe 78fd 463e
00000270: aad6 243e a87f 82bd fd73 873e f856 30be
00000280: 8c58 eabd bc41 93bd 00d5 b73b 9270 3dbe
00000290: 64bd 4dbe 28c6 053d 9c06 6e3e b872 f13d
000002a0: 66dc 26be 00f3 cd3c 82e8 14be 3040 0a3d
000002b0: d41f bc3d 7c31 c13d 47da 73be 8fdf 833e
000002c0: a3d6 56be 6857 4dbe 8daf 873e 387e 363d
000002d0: f811 3cbd 4c3c 953d 1aa5 3f3e 089f 8b3d
000002e0: d63b 9fbd 2e8a 8dbd beea 0abe fa71 043e
000002f0: 9e21 053e 3ff8 833e a585 86be 9671 4abe
00000300: adbd 83be 78f7 b13d d0e5 fabc 0ad2 0a3e
00000310: 22fb 2dbe 22ad 553e 14dd 28bd e0bd 883d
00000320: 5e80 213e 96ed 84bd 2cb8 20be 7ace 033e
00000330: 8717 83be 221d 313e 2c15 b3bd 2055 273d
00000340: a84f 5fbe 4589 69be d011 af3d 640f fe3d
00000350: cfb3 07be 40a2 ad3b 446b 56be 6468 13be
00000360: 8031 533c a60e 21be d23b 6e3e ffa6 64be
00000370: f0b3 983c 085e febd 2eff 293e be0f 5b3e
00000380: a035 cd3c 6e31 4dbe 3882 3c3e 4577 813e
00000390: 7af9 65be 9273 423e d074 dabc 4801 383e
000003a0: 90ec 023d aab3 81be 808a f33c 940c 1dbe
000003b0: f477 ac3d b22e 7cbe 46af 423e 44c0 973d
000003c0: 6878 f33d c71c 40be 5094 fabc 0816 d5bc
000003d0: 20bc a7bd 40b0 5cbd 6ff3 01be 72d8 11be
000003e0: 389d 6a3e 18f7 9f3d 6002 673d 2ecb bebd
000003f0: da95 7f3e 9a55 463e 9a9b 413e cc81 f2bd

l1.bias f4 [50]
0.099313855 -0.20302439 -0.14639178 -0.03367302 0.20812944 -0.222157 -0.009671211 0.14230943
0.2149826 0.0406895 -0.12568472 -0.012108982 0.0021351576 0.24522856 0.016645968 -0.21010882
0.2113364 -0.03849955 -0.15319204 0.21751481 -0.08307102 0.08684835 -0.17431176 -0.0819816
0.00525856 0.19185078 0.029480875 -0.1436823 0.15352625 -0.12338947 -0.20627096 0.019786447
-0.03708063 0.14207089 0.1839745 -0.054950476 0.094096124 0.0138525665 -0.1834875 -0.13257411
-0.24493797 0.11853677 -0.1114766 0.10483837 0.16964921 -0.1710931 -0.048380807 -0.058463976
-0.021979436 0.18166035
00000000: 1065 cb3d a0e5 4fbe bae7 15be b8ec 09bd
00000010: e21f 553e 207d 63be 0074 1ebc 90b9 113e
00000020: 6624 5c3e 08aa 263d 7fb3 00be c064 46bc
00000030: 00ee 0b3b 321d 7b3e 205d 883c c426 57be
00000040: 9268 583e b4b1 1dbd 60de 1cbe 34bc 5e3e
00000050: 2421 aabd 8cdd b13d c87e 32be f8e5 a7bd
00000060: 0050 ac3b 8874 443e e081 f13c 7421 13be
00000070: fc35 1d3e 9eb3 fcbd b238 53be 3017 a23c
00000080: dce1 17bd 087b 113e d063 3c3e c013 61bd
00000090: 78b5 c03d e0f5 623c 26e4 3bbe 82c1 07be
000000a0: 05d1 7abe 68c3 f23d d84d e4bd 80b5 d63d
000000b0: 86b8 2d3e 0833 2fbe f42a 46bd ec77 6fbd
000000c0: 380e b4bc 2c05 3a3e

l2.weight f4 [100, 50]
-0.0024744272 -0.09203574 -0.107281215 0.08904353 0.11984904 0.11970307 -0.0950076 0.067197904
-0.017215975 -0.110522054 0.10629147 0.093126 0.12142019 -0.12139229 0.04143025 -0.08344498
-0.1073837 -0.07247584 -0.00038827956 -0.05679883 -0.077752 -0.03102716 -0.016882345 0.02869229
0.04897839 0.0013623983 -0.07952821 -0.14121091 0.076857895 -0.07604745 0.10394688 0.03166105
0.08878492 -0.1186167 0.043311432 -0.009211391 0.073366106 0.078997985 -0.1266956 -0.104737744
0.03730388 -0.11295046 0.04631087 0.10255374 -0.11726893 0.023694098 0.118913755 -0.024300173
-0.12921184 0.099426985 0.04305066 -0.07204741 0.040461987 -0.09212451 0.100338876 -0.13850364
0.032916114 -0.13042136 0.050845236 0.056592643 0.11062141 0.058963105 -0.077743925 0.03987448
-0.05281671 -0.08840662 0.14116837 -0.1372851 -0.015697196 -0.009939745 0.07383582 -0.14084187
-0.044840336 0.085030586 0.0064232945 -0.10021877 0.10862999 -0.010687098 -0.057374865 -0.04169394
-0.13258922 -0.008364812 -0.07208524 0.096726835 -0.09516041 0.04008192 -0.097964585 -0.034775503
-0.070139915 -0.04553298 0.08338888 0.103135794 0.100410014 -0.059396073 -0.12909968 0.035962835
0.027058393 -0.05576404 -0.05120033 -0.006280899 0.12842275 -0.06008128 -0.08462997 0.07268372
-0.09148486 0.10220127 -0.0902999 0.09095481 -0.12719837 0.03867291 -0.026143424 -0.029036261
-0.09665439 -0.04982408 0.019518867 -0.09721247 0.13248993 0.13254644 -0.024848215 0.10082154
0.07658319 0.108930066 0.029209763 -6.309152e-05 -0.12043112 -0.08087221 0.0705678 -0.119611055
0.08907406 0.07035336 0.008466005 -0.028449662 -0.051127687 -0.049360387 -0.015722886 0.059063315
0.06506464 -0.106696054 -0.12193495 0.121585324 -0.03173747 -0.03935282 0.107087195 -0.042352915
-0.07452817 -0.11721487 0.118603036 0.07445714 0.08965957 -0.1318386 0.12606554 0.048785463
-0.1333485 -0.004092291 -0.033705294 -0.13969891 -0.051829226 -0.00042283535 -0.0024325997 -0.08398441
-0.04807187 -0.035153292 0.12521775 -0.04056073 0.10700184 0.03225942 -0.07250106 0.004704401
0.07190436 -0.10514344 0.066197634 -0.011942223 0.038270727 -0.12700166 -0.022177622 0.07159419
-0.108350955 0.07056065 -0.021318115 0.09267613 0.12382962 -0.06576723 -0.054129876 -0.1301113
0.0018911511 -0.12135009 -0.090663575 0.061807215 0.09213014 -0.025076166 -0.013853446 0.044227943
-0.022641152 0.07621209 0.0865003 0.012081772 -0.117104396 -0.09491014 0.09045336 -0.122737646
0.032332137 0.002512738 -0.10161768 0.062460333 -0.074056216 0.07025047 0.028117642 0.002396673
-0.12528853 0.0487054 0.039203122 0.05674842 -0.0049523115 0.004162073 0.03944345 -0.025848173
0.04122886 -0.052773185 -0.13950217 -0.1268188 0.094946355 0.13493718 -0.098252565 -0.021922715
-0.12049085 0.12784137 0.06358278 -0.09275458 0.011583179 -0.0841634 0.045776412 -0.008348301
0.04659438 -0.10923712 0.0933453 -0.08325374 0.093290284 -0.13136782 0.106690556 0.08479953
-0.08355942 0.044305623 0.12525456 0.028355315 0.11378382 -0.05805902 0.049720973 0.12448348
0.10451861 0.06965116 -0.0020843446 0.07666895 0.11281787 -0.12000887 0.0799713 0.06085001
00000000: 002a 22bb 3c7d bcbd 41b6 dbbd 745c b63d
00000010: 6a73 f53d e226 f53d 5893 c2bd 0e9f 893d
00000020: 8408 8dbc 6359 e2bd 58af d93d d8b8 be3d
00000030: 26ab f83d 859c f8bd c4b2 293d 34e5 aabd
00000040: fceb dbbd 376e 94bd 0092 cbb9 e4a5 68bd
00000050: 713c 9fbd ac2c febc d84c 8abc 180c eb3c
00000060: 909d 483d 8092 b23a b0df a2bd 9899 10be
00000070: ac67 9d3d c4be 9bbd 1ae2 d43d 04af 013d
00000080: ded4 b53d 50ed f2bd 5467 313d 60eb 16bc
00000090: f840 963d b2c9 a13d 7ebc 01be be80 d6bd
000000a0: f4cb 183d 9252 e7bd 78b0 3d3d b207 d23d
000000b0: b12a f0bd 201a c23c 0e89 f33d 2811 c7bc
000000c0: 1c50 04be 60a0 cb3d e455 303d 988d 93bd
000000d0: 78bb 253d c6ab bcbd 787e cd3d e6d3 0dbe
000000e0: 0cd3 063d 2d8d 05be 1843 503d b0cd 673d
000000f0: 7a8d e23d 4c83 713d 3538 9fbd 6c53 233d
00000100: 5656 58bd 880e b5bd 718e 103e 7794 0cbe
00000110: 6897 80bc 50da 22bc 3c37 973d da38 10be
00000120: 80aa 37bd 8424 ae3d 807a d23b 803f cdbd
00000130: 6679 de3d f018 2fbc e801 6bbd 44c7 2abd
00000140: 78c5 07be 900c 09bc 6da1 93bd b818 c63d
00000150: 76e3 c2bd f02c 243d a8a1 c8bd c270 0ebd
00000160: 84a5 8fbd ca80 3abd cac7 aa3d dc38 d33d
00000170: c4a3 cd3d 4c49 73bd b532 04be c44d 133d
00000180: 90a9 dd3c d668 64bd 70b7 51bd 00d0 cdbb
00000190: 4181 033e ca17 76bd 7a52 adbd 34db 943d
000001a0: 6a5c bbbd e64e d13d 27ef b8bd 8446 ba3d
000001b0: 4a40 02be 7c67 1e3d bc2a d6bc 74dd edbc
000001c0: bdf2 c5bd 5614 4cbd 08e6 9f3c 5517 c7bd
000001d0: 71ab 073e 41ba 073e 7c8e cbbc 867b ce3d
000001e0: a6d7 9c3d ba16 df3d 5049 ef3c 0050 84b8
000001f0: 97a4 f6bd 54a0 a5bd da85 903d a4f6 f4bd
00000200: 766c b63d 6c15 903d 00b5 0a3c 440f e9bc
00000210: 446b 51bd 1e2e 4abd 48cd 80bc 60ec 713d
00000220: 9c40 853d 7683 dabd 08b9 f9bd ba01 f93d
00000230: 26ff 01bd 6c30 21bd 8850 db3d 407a 2dbd
00000240: 3aa2 98bd 5a0e f0bd 26e6 f23d fc7c 983d
00000250: 709f b73d b300 07be 5317 013e 44d3 473d
00000260: 828c 08be a018 86bb 900e 0abd 3b0d 0fbe
00000270: e24a 54bd 00b0 ddb9 406c 1fbb 0500 acbd
00000280: 02e7 44bd e6fc 0fbd 1539 003e 0223 26bd
00000290: c823 db3d 7422 043d 707b 94bd 6027 9a3b
000002a0: 9842 933d 7255 d7bd a092 873d 50a9 43bc
000002b0: c4c1 1c3d b90c 02be d8ad b5bc fa9f 923d
000002c0: 1be7 ddbd 1a82 903d 54a3 aebc fccc bd3d
000002d0: 629a fd3d f8b0 86bd 4ab7 5dbd e63b 05be
000002e0: 80e0 f73a 6586 f8bd d3ad b9bd 9029 7d3d
000002f0: baae bc3d 886c cdbc 90f9 62bc 5c28 353d
00000300: f079 b9bc 1615 9c3d 1227 b13d a0f2 453c
00000310: 6ed4 efbd 3f60 c2bd 9c3f b93d e05d fbbd
00000320: b46e 043d c0ac 243b ee1c d0bd 68d6 7f3d
00000330: c9aa 97bd 7adf 8f3d f856 e63c 8011 1d3b
00000340: a34b 00be 507f 473d 7493 203d 0871 683d
00000350: 0047 a2bb 0062 883b 748f 213d 8cbf d3bc
00000360: 98df 283d b228 58bd a8d9 0ebe cadc 01be
00000370: 3c73 c23d f92c 0a3e a438 c9bd 4497 b3bc
00000380: e8c3 f6bd d9e8 023e b037 823d 1df6 bdbd
00000390: 60c7 3d3c dc5d acbd 0c80 3b3d 50c7 08bc
000003a0: c0d9 3e3d b6b7 dfbd d22b bf3d f080 aabd
000003b0: fa0e bf3d 4985 06be 9480 da3d 60ab ad3d
000003c0: 3421 abbd d079 353d bb42 003e 6849 e83c
000003d0: 7e07 e93d 4ccf 6dbd 38a8 4b3d 32f1 fe3d
000003e0: da0d d63d 44a5 8e3d 8099 08bb 9c04 9d3d
000003f0: 0e0d e73d 36c7 f5bd fec7 a33d dc3d 793d

l2.bias f4 [100]
0.070847064 0.023884058 -0.13555823 0.038645566 0.045428976 0.03301969 -0.002699554 -0.075309694
0.10115278 -0.079874456 -0.06389844 0.011552304 0.09596008 0.039573833 0.11133252 -0.010828465
-0.060918316 0.10636483 -0.05972647 -0.12599824 0.0935362 -0.1360594 0.050208867 0.008988291
0.1063886 -0.125498 0.11526124 0.09109561 -0.023997895 -0.12051735 -0.10717063 -0.13023205
-0.1219405 -0.049912475 0.13723804 0.107945606 -0.09096615 -0.1381374 -0.13628669 0.034299225
0.06588112 -0.043961152 -0.115009904 -0.092853874 0.049851835 -0.10561018 -0.0848119 -0.07779766
0.13529412 -0.009707838 -0.116679594 0.034772173 0.057314143 0.056293204 -0.08468986 0.124384776
0.124813125 0.026500508 0.080929175 -0.004325956 0.052321583 0.08082825 0.103863314 0.11776151
-0.12483916 -0.0791312 -0.03836313 0.008434862 0.042367563 -0.103842825 -0.06381028 0.09509747
0.043702304 -0.0021164268 0.062781245 -0.07555969 -0.0629285 0.026378945 0.061621338 -0.123236805
0.12784831 -0.003868103 0.002637297 0.14119832 0.11932321 0.05414103 -0.13908145 -0.0003145039
0.1061897 0.058598295 0.09855363 -0.10447926 0.111075 -0.019698322 0.04757668 0.039616913
0.08105111 0.119209036 -0.041408032 -0.046162352
00000000: 4418 913d 80a8 c33c c7cf 0abe d04a 1e3d
00000010: bc13 3a3d a83f 073d 00eb 30bb f83b 9abd
00000020: 3029 cf3d 3895 a3bd 2fdd 82bd e045 3d3c
00000030: b886 c43d 2c18 223d 4e02 e43d e069 31bc
00000040: 7c85 79bd ced5 d93d bea3 74bd af05 01be
00000050: e88f bf3d 2853 0bbe d0a7 4d3d a043 133c
00000060: 44e2 d93d 8c82 00be 160e ec3d 5690 ba3d
00000070: 3c97 c4bc cdd1 f6bd 467c dbbd 8d5b 05be
00000080: f1bb f9bd 0671 4cbd 2188 0c3e 9612 dd3d
00000090: 764c babd e473 0dbe bd8e 0bbe 587d 0c3d
000000a0: aeec 863d 9c10 34bd 508a ebbd 2c2a bebd
000000b0: 7031 4c3d 264a d8bd ddb1 adbd 6154 9fbd
000000c0: 8b8a 0a3e a00d 1fbc b6f5 eebd 446d 0e3d
000000d0: 3cc2 6a3d b493 663d e171 adbd 72bd fe3d
000000e0: 069e ff3d 9817 d93c 32be a53d c0c0 8dbb
000000f0: 284f 563d 4889 a53d 4ab6 d43d f22c f13d
00000100: acab ffbd 8a0f a2bd a822 1dbd 6032 0a3c
00000110: 9c89 2d3d 8cab d4bd f7ae 82bd 76c2 c23d
00000120: 3001 333d c0b3 0abb 7493 803d 0abf 9abd
00000130: a8e0 80bd a818 d83c a866 7c3d 9463 fcbd
00000140: abea 023e 0080 7dbb 80d6 2c3b 4b96 103e
00000150: ba5f f43d fcc2 5d3d 5e6b 0ebe 00e4 a4b9
00000160: fc79 d93d c404 703d 7cd6 c93d 39f9 d5bd
00000170: 4a7b e33d 605e a1bc c4df 423d 5845 223d
00000180: 20fe a53d de23 f43d 789b 29bd bc14 3dbd

l3.weight f4 [20, 100]
0.071990095 -0.057888713 -0.094803706 -0.0007433519 0.040540166 0.04025062 0.07217147 -0.03676238
0.062940635 0.06646944 0.044707306 -0.061054733 -0.09515931 0.06681193 0.0155668855 0.08873477
-0.08949434 0.010487415 -0.0057435185 0.033721514 0.03971135 -0.046305824 0.09360356 -0.098174706
0.023605704 0.038099878 0.057720013 -0.083146706 0.0012091398 -0.08888485 -0.08296783 0.0745733
-0.049918115 0.0576578 -0.036396906 -0.07672827 -0.039581683 -0.09461514 0.062658556 -0.020524524
0.0068546906 0.065523274 -0.029925942 -0.062182486 0.07207533 0.007341005 -0.061952796 0.047600336
0.052142404 -0.08750514 0.060485072 -0.07469455 -0.095658444 -0.035145894 0.067579575 0.03498114
-0.073264875 0.07554104 -0.013923667 0.06584553 -0.050802138 -0.05285281 -0.056391824 -0.09953856
-0.05808399 0.01990737 0.054618962 -0.0063532814 0.053067975 0.086358406 0.033444054 0.008535683
-0.07670679 0.07895065 0.015087925 -0.038472664 -0.08586526 -0.051511634 -0.09727285 0.031160407
-0.045583334 0.05416449 -0.040027715 -0.086563885 0.0426938 -0.019986078 -0.09325351 0.019771889
0.05885888 -0.052157845 0.06639119 0.08322758 -0.05938361 0.0674805 0.0702535 0.042632826
-0.01357162 -0.008708335 0.0014360398 -0.022407554 0.092914544 0.07249365 -0.03419502 0.094619595
-0.052959528 -0.0828642 -0.05704073 -0.083701335 0.07731298 -0.09799379 -0.08857262 0.061030276
0.03852188 -0.07789545 -0.06981846 -0.027255394 -0.089671396 -0.0083114505 0.026136361 0.05106113
0.024716869 0.01852081 0.07755344 0.058060847 -0.03543794 0.06109915 -0.071950495 -0.09125191
-0.09060887 -0.07758151 -0.05877329 0.020266771 -0.09093823 -0.008028865 -0.061127793 0.060471825
0.055708 -0.047907174 0.0633092 0.022237942 -0.05221511 -0.023056135 -0.065716125 0.0625434
0.040484346 0.0071125776 -0.00874009 -0.0073883533 -0.08858874 -0.038975563 -0.042163577 0.039714523
-0.016105652 0.07735015 0.009614721 0.06781814 0.015506886 0.019801006 -0.009380475 0.013104439
-0.09587865 0.0023190975 0.015958525 -0.06933384 0.06496637 0.099216454 0.04096181 -0.05984477
-0.058362793 0.04869225 -0.0020723343 -0.018986486 0.077337645 0.035577677 0.09771808 0.060518913
-0.018340565 0.077878304 -0.052209377 0.096101664 -0.054036975 -0.0007112995 0.014740154 -0.008422695
0.053266115 -0.05344094 -0.08424338 -0.007098876 0.019856073 0.055580206 -0.04544566 -0.03044729
0.08892498 0.094464906 -0.06381272 0.09661991 -0.055094432 0.057793073 -0.009079695 0.027457364
0.025215827 -0.086598836 -0.07069214 0.09998239 -0.082367614 -0.03224089 0.024429083 0.091045864
-0.09577894 -0.08918835 0.040460624 -0.03904728 0.0113652125 0.05281312 0.014553763 -0.00065517426
-0.052121818 -0.09007185 0.0049645305 0.08878376 0.055818878 0.045779027 0.069176264 0.06135925
0.06261704 0.0723101 -0.09345746 6.748736e-05 0.081485204 -0.057661977 -0.08341509 0.01028277
-0.03681151 0.07067952 0.051374875 -0.0060628876 -0.02259995 0.042314135 -0.09292438 0.07189412
0.021643206 -0.080051504 -0.06262175 -0.03370551 -0.08842567 -0.033890687 -0.064204395 0.08275106
0.082816906 0.056329183 -0.05335952 -0.016540661 0.08731461 -0.027220942 -0.0779071 -0.0830255
00000000: 8b6f 933d b71c 6dbd 7228 c2bd 80dd 42ba
00000010: 720d 263d d6dd 243d a3ce 933d 2694 16bd
00000020: 05e7 803d 2121 883d 021f 373d 8714 7abd
00000030: e2e2 c2bd b1d4 883d 400c 7f3c 93ba b53d
00000040: cf48 b7bd 68d3 2b3c 2034 bcbb 921f 0a3d
00000050: 5ea8 223d 2dab 3dbd 39b3 bf3d d20f c9bd
00000060: c060 c13c 9e0e 1c3d d26b 6c3d d248 aabd
00000070: 007c 9e3a 4309 b6bd 0aeb a9bd e3b9 983d
00000080: f076 4cbd 962a 6c3d ec14 15bd b623 9dbd
00000090: 6720 22bd 95c5 c1bd 2153 803d 0c23 a8bc
000000a0: 509d e03b 1131 863d 4027 f5bc 10b3 7ebd
000000b0: 3b9c 933d d08c f03b 37c2 7dbd 92f8 423d
000000c0: 4693 553d e535 b3bd 32bf 773d 75f9 98bd
000000d0: 93e8 c3bd 24f5 0fbd 2967 8a3d 6248 0f3d
000000e0: e50b 96bd 43b5 9a3d 1820 64bc 05da 863d
000000f0: e715 50bd 307c 58bd 1dfb 66bd dfda cbbd
00000100: 7ae9 6dbd c814 a33c 22b8 5f3d 302f d0bb
00000110: ce5d 593d addc b03d a2fc 083d 40d9 0b3c
00000120: 7318 9dbd e1b0 a13d 5833 773c 8395 1dbd
00000130: 20da afbd ddfd 52bd fd36 c7bd 1c44 ff3c
00000140: 97b5 3abd 96db 5d3d 1af4 23bd 6848 b1bd
00000150: b2df 2e3d d8b9 a3bc b2fb bebd a8f8 a13c
00000160: 0216 713d 77a3 55bd 1bf8 873d 3973 aa3d
00000170: 3a3c 73bd 3733 8a3d 11e1 8f3d c29f 2e3d
00000180: 805b 5ebc 68ad 0ebc 8039 bc3a 0c90 b7bc
00000190: fb49 be3d 8d77 943d 1410 0cbd ebc7 c13d
000001a0: 17ec 58bd b5b4 a9bd 8aa3 69bd 9b6b abbd
000001b0: 4556 9e3d f8b0 c8bd 9065 b5bd e2fa 793d
000001c0: 1ec9 1d3d a687 9fbd fbfc 8ebd b446 dfbc
000001d0: a3a5 b7bd c02c 08bc ec1b d63c 7a25 513d
000001e0: 087b ca3c f4b8 973c 57d4 9e3d 36d1 6d3d
000001f0: 6027 11bd 1a43 7a3d c85a 93bd 48e2 babd
00000200: 2591 b9bd 0ee3 9ebd 43bc 70bd 8006 a63c
00000210: d33d babd 808b 03bc 2361 7abd 4eb1 773d
00000220: 122e 643d 503a 44bd 41a8 813d 582c b63c
00000230: 83df 55bd 38e0 bcbc 2d96 86bd c116 803d
00000240: ead2 253d a010 e93b 9832 0fbc 001a f2bb
00000250: 036e b5bd d7a4 1fbd b7b3 2cbd b2ab 223d
00000260: 00f0 83bc c169 9e3d 1087 1d3c 3de4 8a3d
00000270: 9810 7e3c b835 a23c 90b0 19bc 00b4 563c
00000280: 075c c4bd 00fc 173b 74bb 823c e6fe 8dbd
00000290: 170d 853d ff31 cb3d 92c7 273d ca1f 75bd
000002a0: d30d 6fbd 8671 473d 00d0 07bb 8c89 9bbc
000002b0: 3363 9e3d e6b9 113d 6b20 c83d aee2 773d
000002c0: f43e 96bc a97e 9f3d 80d9 55bd f3d0 c43d
000002d0: e055 5dbd 8076 3aba b080 713c 58ff 09bc
000002e0: 922d 5a3d e3e4 5abd cb87 acbd b09d e8bb
000002f0: 34a9 a23c 12a8 633d 3a25 3abd 986c f9bc
00000300: 4d1e b63d d176 c13d 3eb0 82bd a9e0 c53d
00000310: b3aa 61bd 6eb8 6c3d 00c3 14bc 44ee e03c
00000320: 6c91 ce3c bb5a b1bd 0ac7 90bd 91c3 cc3d
00000330: 5ab0 a8bd 060f 04bd 801f c83c 4176 ba3d
00000340: c027 c4bd 62a8 b6bd 0aba 253d 0af0 1fbd
00000350: 2835 3a3c 9252 583d e872 6e3c 00c0 2bba
00000360: b07d 55bd 9777 b8bd 80ad a23b 43d4 b53d
00000370: 56a2 643d ca82 3b3d 49ac 8d3d d653 7b3d
00000380: 5d3d 803d 5117 943d a066 bfbd 0088 8d38
00000390: b7e1 a63d f72e 6cbd 88d5 aabd 1079 283c
000003a0: aac7 16bd 6dc0 903d 766e 523d 30ab c6bb
000003b0: 8823 b9bc 9651 2d3d 234f bebd 393d 933d
000003c0: 184d b13c 0bf2 a3bd d53f 80bd ca0e 0abd
000003d0: 8518 b5bd f6d0 0abd 987d 83bd 6379 a93d
000003e0: e99b a93d 6eb9 663d 838f 5abd 4880 87bc
000003f0: 01d2 b23d 74fe debc c28d 9fbd 4609 aabd

l3.bias f4 [20]
-0.07642982 0.078937925 0.02326034 0.0388105 0.0857422 -0.08618807 -0.083711006 -0.08025529
0.03398796 -0.084658556 0.060026295 -0.04833999 -0.0060755387 -0.07225843 -0.07230697 -0.04970601
-0.009976193 -0.03468381 0.06616787 0.05309663
00000000: 3d87 9cbd 35aa a13d 788c be3c c2f7 1e3d
00000010: 9b99 af3d 5f83 b0bd ad70 abbd e35c a4bd
00000020: f636 0b3d 7761 adbd 22de 753d 2700 46bd
00000030: 5015 c7bb 3afc 93bd ad15 94bd 8798 4bbd
00000040: 3073 23bc 9c10 0ebd 0583 873d da7b 593d

output.weight f4 [8, 20]
0.19494349 0.20478156 0.045283407 -0.19274695 -0.08703679 0.001930058 0.046670467 0.16626546
-0.19074877 0.074071646 -0.17198472 -0.06163858 0.041889906 0.20948568 0.017634764 -0.18187806
-0.1977702 -0.0050130635 -0.12934601 0.06635019 -0.13509297 -0.03731574 -0.13915974 0.18090722
0.18157238 0.15024617 -0.16520585 -0.13059938 0.004654959 0.07031095 -0.01645726 0.08650705
0.14964533 -0.12380225 -0.08628057 -0.12858485 -0.027655452 -0.121578425 0.18059003 0.06350124
0.012239635 0.08219105 -0.0513459 0.039229363 0.148651 -0.09422752 -0.18783316 -0.05891943
-0.1535103 0.005473435 -0.010960892 -0.10797445 -0.15231618 -0.1472598 0.1849027 0.22151169
0.20250872 -0.06317535 -0.053225562 0.052339315 0.021522403 0.21731246 0.08884436 -0.21863103
-0.034324244 0.012234464 0.20126191 -0.14702076 0.04212904 -0.21965273 -0.068515554 -0.083703294
-0.078309625 0.065421194 -0.09050587 -0.016191438 0.12205678 0.09811401 0.034778357 0.13081247
-0.09025055 -0.07182032 -0.0155527145 0.16871783 0.027038723 -0.13377805 0.17649242 -0.12204314
0.036506593 -0.0456457 0.10587397 0.168562 0.056479186 0.07507762 0.223109 0.19192103
-0.08286606 0.19885847 0.09539494 0.18297613 0.13565317 0.083153635 0.11321947 -0.08950661
-0.18563524 -0.18412477 0.04393199 0.04326406 -0.08113147 0.19569021 0.03973207 -0.10390909
0.09522405 0.05821863 0.101599365 0.17240644 -0.16499975 0.13763851 0.08118051 -0.107601985
0.067242265 0.1417822 0.21545431 -0.2214114 -0.006133169 -0.09078249 0.07601681 -0.16003568
0.16561222 -0.07854052 0.049503863 -0.09083384 -0.12938645 -0.17834803 -0.17454042 -0.0443642
0.04420224 0.14633161 0.10698283 -0.14024389 -0.15759203 0.082915545 0.15567896 -0.15291631
-0.046883017 -0.13972 -0.12542641 0.13298321 0.056598753 -0.10522949 0.1324383 -0.031537384
-0.061276987 -0.12616445 0.202775 -0.14061207 -0.12435926 0.09254727 -0.05001706 0.09013069
00000000: 449f 473e 42b2 513e 187b 393d 755f 45be
00000010: 5840 b2bd 00fa fc3a 8829 3f3d 7e41 2a3e
00000020: a553 43be e0b2 973d c31c 30be bc78 7cbd
00000030: c094 2b3d 6a83 563e c876 903c 3e3e 3abe
00000040: 4584 4abe a044 a4bb 4873 04be 9ce2 873d
00000050: d055 0abe 64d8 18bd e47f 0ebe be3f 393e
00000060: 1cee 393e 22da 193e b92b 29be d8bb 05be
00000070: a088 983b 30ff 8f3d 60d1 86bc 9c2a b13d
00000080: a03c 193e 098c fdbd deb3 b0bd bfab 03be
00000090: b08d e2bc 1cfe f8bd 98ec 383e f00c 823d
000000a0: c088 483c c853 a83d 1450 52bd f8ae 203d
000000b0: f837 183e 5cfa c0bd 5657 40be 8055 71bd
000000c0: ce31 1dbe 805a b33b 5095 33bc b521 ddbd
000000d0: c6f8 1bbe 46cb 16be 2257 3d3e f6d3 623e
000000e0: 725e 4f3e 1462 81bd 0c03 5abd c061 563d
000000f0: c04f b03c 2887 5e3e 08f4 b53d d0e0 5fbe
00000100: 9497 0cbd 1073 483c 9a17 4e3e 9c8c 16be
00000110: 808f 2c3d a5ec 60be e251 8cbd a26c abbd
00000120: cc60 a0bd 8cfb 853d 245b b9bd e8a3 84bc
00000130: e8f8 f93d 00f0 c83d c073 0e3d b4f3 053e
00000140: 48d5 b8bd 8816 93bd d0d0 7ebc 5ec4 2c3e
00000150: 5080 dd3c 1dfd 08be 6eba 343e c1f1 f9bd
00000160: f087 153d fcf6 3abd 74d4 d83d 849b 2c3e
00000170: b856 673d 4cc2 993d b076 643e f286 443e
00000180: aeb5 a9bd 8ea1 4b3e 6c5e c33d 185e 3b3e
00000190: aae8 0a3e 744c aa3d 9cdf e73d 3e4f b7bd
000001a0: 2a17 3ebe 348b 3cbe 08f2 333d a835 313d
000001b0: 4228 a6bd 0463 483e 18be 223d 4ace d4bd
000001c0: d404 c33d a876 6e3d 5413 d03d 508b 303e
000001d0: b2f5 28be 1cf1 0c3e f841 a63d 6e5e dcbd
000001e0: 50b6 893d 5a2f 113e 0ea0 5c3e acb9 62be
000001f0: c0f8 c8bb 2cec b9bd b4ae 9b3d 65e0 23be
00000200: 4096 293e dad9 a0bd 90c4 4a3d 1807 babd
00000210: e27d 04be dea0 36be b9ba 32be 3cb7 35bd
00000220: 680d 353d f4d7 153e d019 db3d 189c 0fbe
00000230: ce5f 21be a0cf a93d 4e6a 1f3e 1896 1cbe
00000240: 6808 40bd c212 0fbe c86f 00be c02c 083e
00000250: 18d4 673d 8f82 d7bd e89d 073e 582d 01bd
00000260: 94fd 7abd 4131 01be 40a4 4f3e 9cfc 0fbe
00000270: 11b0 febd 6c89 bd3d b0de 4cbd 7096 b83d

output.bias f4 [8]
0.11175811 0.061643362 -0.15149248 0.04923463 0.02115807 -0.1951507 -0.13022003 -0.0867109
00000000: 70e1 e43d c07d 7c3d d820 1bbe 40aa 493d
00000010: b053 ad3c 96d5 47be 6658 05be 7c95 b1bd
