my_transformer/saved_model/simpleANNlr=0.002bs=512_mse_data.pt (torch, 34575 bytes, 8 tensors)

l1.weight f4 [50, 14]
0.12946647 0.14259055 0.25182644 -0.018557087 -0.20292157 0.0031026006 0.11425361 0.2515299
0.114694536 -0.09991491 0.0909667 0.017505676 0.012643874 -0.065479994 0.0686596 0.23048505
-0.19798309 0.10043648 0.2120845 0.2120907 -0.12665245 -0.12512545 -0.21217227 -0.107751206
-0.1852096 -0.096029356 0.021596283 -0.07093972 -0.027570382 0.08417064 -0.24333137 0.08805165
-0.16188313 -0.13402145 0.09766695 0.19920412 0.016253054 0.17445204 0.07131368 0.09134275
-0.15682898 -0.15793303 0.12084353 0.17973855 0.23951784 0.10489783 -0.030621588 -0.15452206
0.11445826 -0.24536729 0.057810128 0.042894065 -0.16639735 -0.03008172 0.1769762 -0.08120559
-0.08079845 0.038244307 0.09990707 -0.110667765 -0.24585184 0.24208274 -0.12772268 -0.2057632
0.24845323 0.13612795 -0.12022936 0.17755005 -0.100857645 0.012740731 0.10630298 -0.21102259
-0.10157415 0.16728789 -0.069457814 0.07210451 -0.10508767 -0.127793 0.23744681 0.06339198
-0.058527976 0.15475103 -0.25456652 -0.16151763 0.13498887 -0.14011808 -0.03773026 0.056878626
0.11276564 -0.13987486 -0.23053701 0.18108219 -0.07413645 -0.11801994 0.10811052 -0.17735337
0.24195036 0.13954201 -0.041947857 -0.09772201 0.15425968 0.23556021 -0.046341643 0.088749915
-0.091123834 -0.25505576 -0.13424787 0.238709 -0.13692644 0.20074952 0.01186347 0.26136866
-0.07059175 -0.2546274 -0.25319046 -0.06836937 0.10392785 -0.2542239 -0.14580175 -0.23411986
0.19116643 -0.25879735 0.026448488 -0.18024307 -0.13653967 0.2420207 0.2470977 -0.21650717
0.00088077784 -0.07543877 0.12909478 -0.100271106 -0.20307578 -0.1668013 0.026043117 0.15226844
-0.2396465 0.08770272 -0.02415894 0.14958537 -0.21045575 0.26209846 0.250272 0.059741735
0.0013284981 0.09907633 0.23829147 -0.16250166 0.21690872 0.18641925 0.19474828 -0.038714066
-0.13285993 -0.08923575 0.09394276 -0.21231627 -0.19366032 0.048041254 0.2457532 -0.005001694
-0.08011046 0.25794145 0.17318356 -0.12464115 0.23450169 0.18880272 -0.01768811 -0.20440397
-0.24821454 -0.2557346 -0.21621045 -0.1632297 -0.15422991 -0.1998556 -0.002855301 -0.13496128
0.2140769 -0.11572768 -0.043622613 0.16248384 -0.20306629 0.065914065 -0.13347916 0.20273349
0.08394253 -0.15286082 -0.24045832 0.03284812 -0.24798745 0.1511434 -0.09465836 -0.12895882
0.21817666 0.08425826 -0.0805257 -0.17376839 0.0005763471 0.004379928 0.1877059 -0.0055788457
-0.074046075 -0.09633769 0.09746754 -0.23819423 0.23765132 0.24325839 0.14052328 -0.09657021
0.22115448 0.08371478 0.03414181 0.016275048 0.2055088 -0.0025925338 0.25747475 -0.1838358
0.15121529 0.14164653 0.07026139 0.0017436147 0.11308202 -0.25675744 -0.17508662 -0.0086737275
-0.013597608 0.23347118 0.24450192 0.11925322 0.0828574 0.12951839 -0.047789812 0.26204827
-0.25742027 0.011794776 0.14784834 0.13146955 -0.08064364 -0.13844757 -0.18418735 0.011803031
0.005723685 -0.24335392 0.19165227 0.1839509 -0.05943404 -0.15652591 -0.16681394 -0.08990468
0.06661707 0.01594907 0.108912885 -0.008278042 -0.17916808 0.026484996 -0.21801202 0.23932567
00000000: dc92 043e 4203 123e 65ef 803e 0805 98bc
00000010: acca 4fbe 0055 4b3b ccfd e93d 87c8 803e
00000020: f8e4 ea3d 30a0 ccbd c04c ba3d 1068 8f3c
00000030: 4028 4f3c 601a 86bd 689d 8c3d 4604 6c3e
00000040: 14bc 4abe a4b1 cd3d ae2c 593e 4e2e 593e
00000050: 2eb1 01be e320 00be b043 59be aaac dcbd
00000060: 96a7 3dbe 0aab c4bd b0ea b03c d848 91bd
00000070: 48db e1bc a861 ac3d dc2b 79be 6c54 b43d
00000080: b1c4 25be eb3c 09be 9c05 c83d 2afc 4b3e
00000090: 2025 853c 8ea3 323e e80c 923d e811 bb3d
000000a0: c797 20be 32b9 21be d07c f73d 620d 383e
000000b0: 2a44 753e acd4 d63d 20da fabc 083b 1ebe
000000c0: 1869 ea3d 9041 7bbe 50ca 6c3d b0b1 2f3d
000000d0: 1164 2abe f06d f6bc 4039 353e 1e4f a6bd
000000e0: a879 a5bd 10a6 1c3d 149c cc3d c8a5 e2bd
000000f0: 96c0 7bbe 8ae4 773e bcc9 02be 97b3 52be
00000100: 866a 7e3e 2065 0b3e d03a f6bd aecf 353e
00000110: 748e cebd 80be 503c 60b5 d93d 4e16 58be
00000120: 1c06 d0bd 844d 2b3e e63f 8ebd 88ab 933d
00000130: 3438 d7bd 2bdc 02be 4225 733e a8d3 813d
00000140: 08bb 6fbd 0e77 1e3e 8b56 82be e164 25be
00000150: 863a 0a3e 1d7b 0fbe 0c8b 1abd 90f9 683d
00000160: acf1 e63d 5b3b 0fbe e511 6cbe 9c6d 393e
00000170: dad4 97bd 70b4 f1bd 0c69 dd3d 1f9c 35be
00000180: d6c1 773e 1ae4 0e3e 84d1 2bbd 7a22 c8bd
00000190: 40f6 1d3e b236 713e bcd0 3dbd 84c2 b53d
000001a0: 229f babd ab96 82be 4678 09be 2270 743e
000001b0: 7236 0cbe 4891 4d3e 005f 423c 1dd2 853e
000001c0: 6892 90bd 865e 82be 2ea2 81be 3e05 8cbd
000001d0: 20d8 d43d a329 82be 0e4d 15be 1ebd 6fbe
000001e0: 22c1 433e 1681 84be 80aa d83c a491 38be
000001f0: 0ed1 0bbe 46d4 773e 2e07 7d3e 0eb4 5dbe
00000200: 00e4 663a a47f 9abd 6c31 043e f05a cdbd
00000210: 19f3 4fbe f6cd 2abe 6058 d53c 42ec 1b3e
00000220: e465 75be 7c9d b33d f8e8 c5bc e82c 193e
00000230: b681 57be c531 863e a723 803e c0b3 743d
00000240: 0021 ae3a 88e8 ca3d ae02 743e d666 26be
00000250: 521d 5e3e b0e4 3e3e 186c 473e a492 1ebd
00000260: 6f0c 08be 3cc1 b6bd 1065 c03d 7069 59be
00000270: e44e 46be e8c6 443d baa6 7b3e 40e5 a3bb
00000280: f410 a4bd e710 843e 0857 313e dc43 ffbd
00000290: 3621 703e 8055 413e a8e6 90bc 464f 51be
000002a0: f42b 7ebe a5ef 82be 4666 5dbe b025 27be
000002b0: 72ee 1dbe f2a6 4cbe 0020 3bbb 4a33 0abe
000002c0: fa36 5b3e a202 edbd a0ad 32bd 2a62 263e
000002d0: 9cf0 4fbe f4fd 863d c3ae 08be 5e99 4f3e
000002e0: 10ea ab3d 8c87 1cbe b53a 76be c08b 063d
000002f0: 6cf0 7dbe 56c5 1a3e 3edc c1bd c80d 04be
00000300: b469 5f3e 988f ac3d a8ea a4bd 57f0 31be
00000310: 0016 173a 8085 8f3b fa35 403e c0ce b6bb
00000320: 78a5 97bd b24c c5bd 109d c73d 30e9 73be
00000330: de5a 733e ba18 793e 56e5 0f3e 9ac6 c5bd
00000340: 5276 623e a872 ab3d 48d8 0b3d 4053 853c
00000350: e670 523e 80e7 29bb bbd3 833e 743f 3cbe
00000360: 2ed8 1a3e ca0b 113e 34e5 8f3d 008a e43a
00000370: 8c97 e73d b675 83be e849 33be 401c 0ebc
00000380: 80c8 5ebc 1213 6f3e b65e 7a3e 083b f43d
00000390: 24b1 a93d 78a0 043e 40bf 43bd 312b 863e
000003a0: 97cc 83be e03e 413c 8e65 173e f49f 063e
000003b0: 7e28 a5bd 33c5 0dbe 9c9b 3cbe 8061 413c
000003c0: c08d bb3b c531 79be 7e40 443e a05d 3c3e
000003d0: 1c71 73bd 5448 20be 46d1 2abe f21f b8bd
000003e0: 886e 883d a0a7 823c b80d df3d a0a0 07bc
000003f0: d677 37be 10f7 d83c 8b3e 5fbe ca11 753e

l1.bias f4 [50]
0.09588012 0.003112346 0.06082982 -0.22143786 0.23996809 0.253769 -0.055652454 0.09599143
-0.21956679 0.05536565 -0.17240258 -0.2559834 -0.015387803 -0.1558007 0.22105625 -0.10898715
-0.19628784 0.07097247 -0.24632862 -0.09918006 0.2058439 -0.023224235 -0.25588578 -0.13857313
-0.060378373 0.2571039 0.014046609 -0.17363225 0.1340388 -0.2628079 0.07517627 0.19611877
0.1870166 0.14030716 -0.23251393 -0.07489854 -0.0007171631 0.04408753 -0.19413325 0.05001855
0.20718724 -0.10771966 0.13732511 0.21808323 0.22411475 0.24359968 -0.18689701 -0.2103803
-0.025684819 0.08562946
00000000: cc5c c43d 80f8 4b3b b028 793d 9bc0 62be
00000010: 32ba 753e 03ee 813e d4f3 63bd 2897 c43d
00000020: 1ed6 60be 18c7 623d 4d8a 30be 4210 83be
00000030: 201d 7cbc 388a 1fbe 925c 623e a834 dfbd
00000040: aeff 48be 045a 913d 923d 7cbe ea1e cbbd
00000050: bec8 523e c040 bebc 7603 83be 1de6 0dbe
00000060: 504f 77bd 1fa3 833e c023 663c a7cc 31be
00000070: 7841 093e c28e 86be 04f6 993d 5cd3 483e
00000080: 4881 3f3e aeac 0f3e 2218 6ebe 6864 99bd
00000090: 0000 3cba 2095 343d deca 46be 40e0 4c3d
000000a0: e428 543e 209c dcbd f49e 0c3e 3651 5f3e
000000b0: 567e 653e 3272 793e ee61 3fbe ef6d 57be
000000c0: f868 d2bc 805e af3d

l2.weight f4 [100, 50]
-0.07038006 -0.0065310895 0.07387084 -0.086036325 -0.1384639 0.07894774 -0.1228989 0.02866681
-0.036678232 0.09712194 0.122661665 0.13285778 -0.10749411 -0.0018579215 0.07986446 0.023432165
-0.11709206 -0.0062481463 -0.117156595 0.09276886 -0.04086891 0.029059976 0.04001057 -0.08475822
0.10411811 0.06163007 0.081676066 0.118767366 0.023067474 0.03579226 -0.04727622 -0.0670551
0.026962638 0.013371885 0.11200316 0.13923274 -0.08870776 -0.03454213 -0.011263028 0.045429334
-0.011008471 0.123924 0.10360129 -0.101465866 0.08271511 -0.10926433 -0.028075129 0.042389855
0.09156935 -0.048561655 -0.0952581 0.11725919 -0.070014685 0.13042377 -0.09283363 0.0043212622
0.10448611 0.05994004 -0.08624724 -0.033241056 -0.07520411 0.08877231 0.0833987 0.064839214
0.049079344 0.113971755 0.079970166 -0.012696207 0.11308353 -0.060952283 -0.07741195 0.048682228
-0.032722324 -0.058512233 -0.07152243 0.0163631 -0.13820474 0.055969194 0.115220085 -0.05452504
-0.015407383 -0.015248895 0.11108954 0.13137503 -0.003967285 0.029466003 -0.058057256 -0.09328376
0.039071575 0.06855188 0.06831096 0.020143315 -0.06361345 -0.12690088 -0.04546313 -0.029660188
0.1080032 -0.072895795 -0.022024244 0.11008568 0.13136269 0.057844102 -0.02985391 -0.09719335
-0.06042827 0.040512502 0.014858365 -0.009367406 -0.087480396 0.13843144 -0.066219464 -0.0031231642
-0.115262784 0.045130208 -0.018228449 -0.038563944 0.0452199 -0.09990368 -0.02218303 -0.04616469
0.018759862 0.038780585 -0.08492496 -0.105595425 -0.09190203 -0.06541893 -0.05781196 0.07724176
0.116527036 -0.045576423 -0.054186873 0.0006301403 0.057196543 0.015169397 -0.022328593 -0.11832125
-0.037206754 0.052651733 0.07796137 0.03647931 0.05813165 0.1228504 0.13140352 0.07843839
-0.13059883 0.04288958 -0.08311838 -0.04614593 0.047580823 -0.11275108 -0.13839689 0.07659042
0.12567554 -0.04611039 -0.039139844 0.1062631 -0.1149348 0.13662644 -0.08710326 -0.06966815
-0.075179696 0.05646339 0.013950422 -0.13272277 -0.1311803 0.121134 0.13851862 -0.13466612
0.11143936 0.10189891 -0.0959304 -0.037420318 -0.10537562 0.13934855 -0.039897695 0.08540338
0.0016849786 -0.07455744 -0.005460933 0.11788906 -0.050252244 -0.09124422 -0.0498007 0.012895554
0.07042681 0.08360134 -0.08121103 0.10252002 0.12168886 -0.014910057 -0.0871362 0.110134825
-0.055225544 -0.117784835 0.048670337 0.039306134 -0.037576295 0.078157395 0.043160215 0.014764816
0.01651296 0.13004924 -0.03326182 0.010171726 0.021574527 0.008335367 -0.029356614 -0.054548092
-0.10404987 -0.020948753 0.046435967 0.08178355 0.078310266 -0.13632108 -0.12180168 0.0014400929
0.08653627 0.13150199 0.028213605 -0.12964538 0.013833031 -0.031162925 0.08276059 0.11876865
-0.056965515 -0.02165357 -0.1247547 -0.03976368 -0.04073301 -0.079163045 -0.124008946 0.0016257614
0.03331986 -0.12582265 -0.058120273 0.013898432 0.054923147 0.031392828 0.04532592 0.046068266
0.035990134 -0.11063707 -0.015649661 -0.12758966 -0.006290406 0.05120416 -0.09894275 0.059976563
-0.12623265 -0.10487114 -0.12371974 -0.050286658 -0.045305975 0.00022225082 -0.09287623 0.037402853
00000000: 6c23 90bd c002 d6bb 9849 973d d033 b0bd
00000010: 7bc9 0dbe 5aaf a13d 6bb2 fbbd a8d6 ea3c
00000020: ea3b 16bd dee7 c63d 0a36 fb3d df0b 083e
00000030: df25 dcbd 8085 f3ba fa8f a33d d0f4 bf3c
00000040: f6cd efbd 40bd ccbb ccef efbd 9afd bd3d
00000050: 2866 27bd 300f ee3c 20e2 233d b895 adbd
00000060: e03b d53d d06f 7c3d c845 a73d 4e3c f33d
00000070: 00f8 bc3c e89a 123d b6a4 41bd 2f54 89bd
00000080: c0e0 dc3c c015 5b3c ea61 e53d 0793 0e3e
00000090: 6aac b5bd 0c7c 0dbd 9088 38bc 1c14 3a3d
000000a0: e05c 34bc decb fd3d ea2c d43d 56cd cfbd
000000b0: 8a66 a93d fac5 dfbd d0fd e5bc fca0 2d3d
000000c0: b688 bb3d 96e8 46bd ae16 c3bd 9625 f03d
000000d0: dc63 8fbd cf8d 053e 8f1f bebd 6099 8d3b
000000e0: d0fc d53d b083 753d 65a2 b0bd c627 08bd
000000f0: 9d04 9abd 42ce b53d f0cc aa3d 6cca 843d
00000100: 6c07 493d 066a e93d 66c7 a33d c003 50bc
00000110: 5698 e73d 1aa9 79bd 288a 9ebd 0467 473d
00000120: d807 06bd 86aa 6fbd 5a7a 92bd e80b 863c
00000130: 8b85 0dbe f43f 653d 82f8 eb3d a655 5fbd
00000140: 406f 7cbc 80d6 79bc ea82 e33d 2d87 063e
00000150: 0000 82bb b062 f13c 72cd 6dbd 8e0b bfbd
00000160: 8409 203d ee64 8c3d 9ee6 8b3d 9803 a53c
00000170: c547 82bd 4ef2 01be 8c37 3abd ecf9 f2bc
00000180: c830 dd3d 644a 95bd 306c b4bc 9a74 e13d
00000190: f183 063e f0ed 6c3d 3090 f4bc 4f0d c7bd
000001a0: a283 77bd 70f0 253d 8070 733c c079 19bc
000001b0: ec28 b3bd f9c0 0d3e 129e 87bd 00ae 4cbb
000001c0: e50e ecbd 74da 383d d453 95bc 3af5 1dbd
000001d0: 8038 393d 4d9a ccbd 30b9 b5bc 3017 3dbd
000001e0: 48ae 993c 64d8 1e3d 23ed adbd 6a42 d8bd
000001f0: 2237 bcbd 5cfa 85bd 3ccc 6cbd ee30 9e3d
00000200: baa5 ee3d 58ae 3abd 0ef3 5dbd 0030 253a
00000210: ec46 6a3d 1089 783c 74ea b6bc 6952 f2bd
00000220: 1c66 18bd 58a9 573d 36aa 9f3d 546b 153d
00000230: 741b 6e3d fe98 fb3d a58e 063e 4ea4 a03d
00000240: b3bb 05be fcac 2f3d f839 aabd 8403 3dbd
00000250: 1ce4 423d 0aea e6bd eab7 0dbe 70db 9c3d
00000260: 17b1 003e 40de 3cbd 1a51 20bd 78a0 d93d
00000270: f062 ebbd cde7 0b3e 3263 b2bd 2dae 8ebd
00000280: d0f7 99bd 2846 673d 5090 643c 7ae8 07be
00000290: 2154 06be 1a15 f83d d3d7 0d3e eae5 09be
000002a0: 523a e43d 60b0 d03d 2877 c4bd 0c46 19bd
000002b0: 2ccf d7bd 63b1 0e3e c46b 23bd f8e7 ae3d
000002c0: 80da dc3a 92b1 98bd a0f1 b2bb d26f f13d
000002d0: 4cd5 4dbd 40de babd d2fb 4bbd e047 533c
000002e0: ee3b 903d 2e37 ab3d f851 a6bd 04f6 d13d
000002f0: 0238 f93d 5049 74bc 7774 b2bd 5e8e e13d
00000300: 2e34 62bd 2d39 f1bd 8c5a 473d 78ff 203d
00000310: 9ae9 19bd fc10 a03d c4c8 303d 20e8 713c
00000320: 3046 873c a12b 053e 8c3d 08bd 50a7 263c
00000330: 10bd b03c 1091 083c 487d f0bc d26d 5fbd
00000340: 1918 d5bd b89c abbc a433 3e3d 227e a73d
00000350: 2261 a03d c197 0bbe 2973 f9bd 80c1 bc3a
00000360: ee39 b13d 75a8 063e 3820 e73c c2c1 04be
00000370: f0a3 623c 6449 ffbc 627e a93d fa3c f33d
00000380: ac54 69bd d462 b1bc 647f ffbd 3edf 22bd
00000390: a8d7 26bd 3c20 a2bd 67f8 fdbd 8017 d53a
000003a0: 687a 083d a7d7 00be 860f 6ebd 40b6 633c
000003b0: 18f7 603d c495 003d aca7 393d 14b2 3c3d
000003c0: 646a 133d b095 e2bd b833 80bc dda6 02be
000003d0: c01f cebb 74bb 513d 7fa2 cabd fca9 753d
000003e0: 2243 01be aec6 d6bd c660 fdbd 62f9 4dbd
000003f0: c292 39bd 000c 6939 e535 bebd bc33 193d

l2.bias f4 [100]
0.07285702 -0.063783035 -0.02955649 0.061088875 0.055551603 -0.11009139 -0.09440689 0.029776946
-0.13068779 -0.047527216 0.054832265 -0.01367268 -0.068909764 0.038576484 0.0864287 -0.11243955
0.06987995 -0.10902922 0.01055187 -0.13609418 0.10601404 0.07383311 0.07526404 0.11128871
0.10599433 0.071744815 0.018881619 0.020250276 -0.006438762 -0.12892829 -0.057431273 0.12427865
-0.08867529 0.1098976 -0.13430296 0.083915964 0.11854936 -0.09841919 -0.1299718 -0.10082671
0.030852005 0.023018971 -0.098360494 0.11186053 -0.06524847 0.13913558 -0.018697709 0.06256701
-0.016778663 -0.086327285 0.009267122 0.034513175 0.08743706 -0.024179362 -0.08547109 -0.019648612
-0.07457324 0.124942854 0.13502075 0.003407821 0.13797794 -0.103770405 -0.12789005 0.12769224
-0.015587777 0.12979029 0.05394192 0.021450624 -0.012648225 0.005096078 0.059029296 -0.08478173
0.022210822 0.02303435 0.081414476 -0.07534817 -0.035013646 0.08512211 -0.03369587 -0.05372493
-0.051443115 -0.06164965 0.12104349 0.13806267 0.07629119 -0.05827696 0.03709784 -0.11786397
0.12663747 -0.026011012 -0.076542035 0.11052562 0.0033521056 0.12930913 -0.12582968 -0.124098584
-0.056786478 -0.121491954 0.03302543 0.10740434
00000000: 1036 953d aea0 82bd 7420 f2bc 5438 7a3d
00000010: 148a 633d 9877 e1bd 6658 c1bd c8ee f33c
00000020: 05d3 05be e6ab 42bd cc97 603d 6003 60bc
00000030: 9020 8dbd 6002 1e3d 8801 b13d b546 e6bd
00000040: 381d 8f3d b64a dfbd c0e1 2c3c 465c 0bbe
00000050: e41d d93d d035 973d 0824 9a3d 56eb e33d
00000060: 8e13 d93d f2ee 923d a0ad 9a3c e8e3 a53c
00000070: 40fc d2bb c705 04be 0e3d 6bbd ce85 fe3d
00000080: 649b b5bd fe11 e13d b786 09be 22dc ab3d
00000090: 02ca f23d 0090 c9bd 5417 05be 3c7e cebd
000000a0: 58bd fc3c 4892 bc3c 3a71 c9bd 2217 e53d
000000b0: fda0 85bd 8f79 0e3e f02b 99bc 2223 803d
000000c0: 6873 89bc 5ccc b0bd 20d5 173c b05d 0d3d
000000d0: 3412 b33d cc13 c6bc 780b afbd 20f6 a0bc
000000e0: dbb9 98bd 0ae2 ff3d e142 0a3e c055 5f3b
000000f0: 174a 0d3e 9485 d4bd 9cf5 02be c1c1 023e
00000100: e063 7fbc bfe7 043e 34f2 5c3d 38b9 af3c
00000110: 803a 4fbc 00fd a63b b4c8 713d 0ba2 adbd
00000120: 78f3 b53c 88b2 bc3c a2bc a63d 2450 9abd
00000130: 786a 0fbd 8054 ae3d ae04 0abd ac0e 5cbd
00000140: 04b6 52bd 5884 7cbd a6e5 f73d 4d60 0d3e
00000150: 8e3e 9c3d d2b3 6ebd e8f3 173d aa62 f1bd
00000160: 41ad 013e 0c15 d5bc 12c2 9cbd 425b e23d
00000170: 00af 5b3b 9d69 043e 7fd9 00be 6627 febd
00000180: f098 68bd c6d0 f8bd ac45 073d cef6 db3d

l3.weight f4 [20, 100]
0.080058895 0.016546592 0.020580135 0.04066158 -0.05342995 0.048825093 0.031320162 0.00021978468
0.010019481 -0.09064875 -0.0572817 0.050725378 -0.06855726 -0.053441834 -0.095642745 -0.05488807
-0.053746033 0.07629586 -0.062431242 -0.014452696 0.077889375 -0.03885156 0.07516328 0.09787618
0.052527316 -0.045988835 -0.017119922 0.063668676 -0.067085244 0.0032006875 0.0009347573 0.075387426
-0.08417052 0.04433141 0.06023983 0.042825572 -0.07960258 0.044474535 0.038064606 -0.014461733
0.050212093 -0.098121606 -0.09258933 -0.015178859 -0.03284792 -0.041144896 -0.052016463 0.03806048
-0.05199497 0.021383882 0.03219322 0.084461786 -0.09881579 -0.021194577 0.03841888 -0.06346284
-0.096029334 0.06715626 -0.09823672 0.013693497 -0.08145283 -0.0037018433 0.06525517 -0.034741893
0.09808371 0.028467275 0.023531005 -0.05958066 0.017952278 -0.054917444 0.050543465 -0.00046189874
-0.001066722 -0.05314758 0.077398054 0.021602646 0.01990594 0.061595656 0.08297732 0.07356996
-0.049277425 0.018078968 -0.08208287 0.077554934 0.039921187 0.08426074 0.03206774 0.062678434
0.0445695 -0.04090135 -0.0022696033 0.06464494 0.02669958 -0.0025031194 -0.052281596 0.01201836
0.089351945 0.0961493 -0.0054485574 0.0571089 0.011907458 0.06387875 -0.021230437 0.0037005767
0.08209332 0.086656 0.07883509 -0.04691875 0.0068930164 -0.03743048 0.05552066 0.0680526
-0.019369937 0.05851739 -0.05256443 -0.011025406 -0.053004693 0.018772386 0.013948239 -0.09506997
-0.035904206 0.007680021 0.096753605 0.080011405 0.088876925 -0.0890378 0.0706647 0.02873344
0.068515114 -0.080316566 -0.07643 -0.04996225 0.092479296 0.020878337 -0.0525254 -0.055656232
0.017909184 0.0416976 -0.0047046095 -0.040542733 -0.068715304 0.008338079 0.062212773 0.084302954
-0.03368695 0.048478417 0.07064546 0.033479236 -0.024031162 -0.081834234 0.025544576 0.03726632
0.026352458 -0.06950964 -0.018483713 0.00017873943 -0.0644407 0.07348896 0.050552048 0.03338989
-0.06999888 -0.049129464 0.0064391717 0.057372816 -0.03905691 -0.025654793 0.005184293 -0.053040113
0.07154124 -0.067495406 0.005663313 0.05473169 -0.06510623 -0.010082029 -0.014650859 0.013815619
-0.060543776 0.050953276 0.082680516 0.009271815 0.0030759424 -0.0019101277 -0.04911233 0.010627732
-0.012871757 0.08181692 0.0700657 -0.055590834 0.09459435 -0.0017605796 0.03530053 0.02036585
-0.044428993 0.05680705 -0.07252444 -0.08572855 0.09482295 -0.011464976 0.050231405 0.0786519
0.050891332 -0.0418622 -0.038857546 -0.09525478 -0.035461865 0.05153493 0.012971699 0.0842442
0.076139085 0.09806729 0.04221987 -0.089152135 -0.08774241 0.020366028 0.09806649 -0.019871935
0.072059624 0.025308542 0.06068123 0.07198628 -0.093236044 0.08868312 -0.023630641 0.032759614
0.08411882 -0.024599612 0.005129181 0.09991758 0.018335126 -0.035379842 0.011028372 0.0985586
-0.06936474 -0.096400075 -0.06492661 0.0389845 -0.02273947 -0.027987644 -0.049789537 -0.05693494
0.0355827 0.09540097 -0.0828457 -0.04666629 0.076411285 -0.028151825 -0.054224696 -0.089899175
0.059456863 0.053314425 -0.0625857 0.0044615716 -0.041936338 -0.04805137 0.0018925294 -0.04297929
00000000: ebf5 a33d b88c 873c ac97 a83c c28c 263d
00000010: 5dd9 5abd d2fc 473d 9249 003d 0076 6639
00000020: c028 243c 0da6 b9bd 37a0 6abd 6ac5 4f3d
00000030: c067 8cbd d3e5 5abd 58e0 c3bd 50d2 60bd
00000040: cd24 5cbd 0141 9c3d e7b7 7fbd 00cb 6cbc
00000050: 7784 9f3d d022 1fbd 35ef 993d 4f73 c83d
00000060: e226 573d ca5e 3cbd 143f 8cbc b964 823d
00000070: fd63 89bd a0c2 513b 800a 753a b964 9a3d
00000080: 9861 acbd da94 353d 0abe 763d de69 2f3d
00000090: ad06 a3bd ee2a 363d a2e9 1b3d e8f0 6cbc
000000a0: 32ab 4d3d fbf3 c8bd 7a9f bdbd c0b0 78bc
000000b0: 8a8b 06bd 8d87 28bd 370f 55bd 4ee5 1b3d
000000c0: adf8 54bd 402d af3c 0add 033d 4dfa ac3d
000000d0: ef5f cabd 40a0 adbc 1e5d 1d3d cef8 81bd
000000e0: 07ab c4bd 3989 893d 5530 c9bd b05a 603c
000000f0: bed0 a6bd a09a 72bb 81a4 853d 844d 0ebd
00000100: 1de0 c83d 3434 e93c 18c4 c03c da0a 74bd
00000110: a810 933c 1df1 60bd aa06 4f3d 002b f2b9
00000120: 40d1 8bba 47b1 59bd df82 9e3d 08f8 b03c
00000130: c811 a33c ba4b 7c3d 03f0 a93d d9ab 963d
00000140: 20d7 49bd 581a 943c 101b a8bd 1fd5 9e3d
00000150: 6684 233d e590 ac3d 7659 033d 8d5d 803d
00000160: 828e 363d 2d88 27bd a0bd 14bb 9164 843d
00000170: 14b9 da3c 600b 24bb 3a25 56bd a8e8 443c
00000180: 27fe b63d ede9 c43d d089 b2bb 06eb 693d
00000190: 8017 433c ddd2 823d 74eb adbc 6085 723b
000001a0: 8b20 a83d b378 b13d 4b74 a13d e02d 40bd
000001b0: d0de e13b b450 19bd a269 633d 295f 8b3d
000001c0: b4ad 9ebc eeaf 6f3d cd4d 57bd e8a3 34bc
000001d0: 731b 59bd 8cc8 993c 2887 643c 0bb4 c2bd
000001e0: 4a10 13bd b0a8 fb3b c126 c63d 05dd a33d
000001f0: 1b05 b63d 7359 b6bd a7b8 903d 6462 eb3c
00000200: a751 8c3d 037d a4bd 5587 9cbd 37a5 4cbd
00000210: c965 bd3d 0c09 ab3c e024 57bd caf7 63bd
00000220: 48b6 923c 1acb 2a3d 2029 9abb 2310 26bd
00000230: 9cba 8cbd 709c 083c d2d2 7e3d 07a7 ac3d
00000240: 54fb 09bd 4e91 463d 91ae 903d 8621 093d
00000250: 00dd c4bc b598 a7bd dc42 d13c 92a4 183d
00000260: 1ce1 d73c 125b 8ebd 286b 97bc 006c 3b39
00000270: 7cf9 83bd 6181 963d aa0f 4f3d d6c3 083d
00000280: 935b 8fbd fa3b 49bd b0ff d23b c2ff 6a3d
00000290: 23fa 1fbd 002a d2bc 00e1 a93b 9740 59bd
000002a0: 3784 923d 083b 8abd 5093 b93b 562e 603d
000002b0: 6a56 85bd 182f 25bc 280a 70bc e85a 623c
000002c0: c0fc 77bd 62b4 503d 6754 a93d d0e8 173c
000002d0: c095 493b 405d faba 032a 49bd f01f 2e3c
000002e0: 10e4 52bc a18f a73d 9b7e 8f3d 37b3 63bd
000002f0: afba c13d 40c3 e6ba 4a97 103d 48d6 a63c
00000300: 2dfb 35bd 82ae 683d b287 94bd 7392 afbd
00000310: 8932 c23d 98d7 3bbc 72bf 4d3d 3f14 a13d
00000320: 6e73 503d b377 2bbd 1729 1fbd f014 c3bd
00000330: 7640 11bd 4a16 533d 4087 543c 3988 ac3d
00000340: cfee 9b3d 81d7 c83d beee 2c3d 6595 b6bd
00000350: 4bb2 b3bd a8d6 a63c 15d7 c83d 78ca a2bc
00000360: ff93 933d dc53 cf3c e28c 783d 8b6d 933d
00000370: 8af2 bebd 7f9f b53d 0c95 c1bc f22e 063d
00000380: 7d46 ac3d 2085 c9bc b012 a83b 97a1 cc3d
00000390: 8c33 963c 74ea 10bd 58b0 343c 17d9 c93d
000003a0: 1a0f 8ebd 676d c5bd 3ef8 84bd 36ae 1f3d
000003b0: 2048 babc 5846 e5bc 1df0 4bbd 9d34 69bd
000003c0: 2abf 113d 9561 c33d 02ab a9bd 2725 3fbd
000003d0: 857d 9c3d a89e e6bc b71a 5ebd 0f1d b8bd
000003e0: 0a89 733d 3a60 5a3d ee2c 80bd 6032 923b
000003f0: 70c5 2bbd 83d1 44bd c00e f83a 0d0b 30bd

l3.bias f4 [20]
0.031159528 0.042002298 -0.07105096 0.006351128 0.07180115 0.055352636 -0.025770053 0.06702169
0.023303285 0.09324423 -0.028515384 -0.011464968 -0.025694512 -0.0663018 -0.045877147 0.037466057
-0.09142872 -0.020573199 -0.06102077 -0.039563574
00000000: 4442 ff3c 9a0a 2c3d 2a83 91bd 201d d03b
00000010: 7b0c 933d 72b9 623d b81b d3bc ab42 893d
00000020: 88e6 be3c d5f6 be3d 1899 e9bc 90d7 3bbc
00000030: 4c7d d2bc 3dc9 87bd ade9 3bbd 0276 193d
00000040: fb3e bbbd 2089 a8bc eaf0 79bd 6a0d 22bd

output.weight f4 [8, 20]
0.11294475 -0.058546647 0.14954293 0.11398557 -0.1574339 -0.051076323 -0.08477621 0.016807944
0.07416803 0.14584205 0.10253498 -0.112657696 0.119375795 -0.16264813 -0.10258047 0.061835527
0.21860993 -0.10436093 -0.07561265 0.13938126 -0.10688611 -0.21263316 -0.045496494 -0.07193524
-0.03187464 0.09365484 -0.17625766 -0.035913214 0.18606037 0.12818995 0.12604687 -0.084821865
0.076479614 0.17301023 -0.17035398 0.047845364 -0.12037066 -0.12318599 0.13074309 0.13530782
0.16785643 0.055458218 0.065696806 -0.20712125 -0.21374804 0.044656992 0.107967585 0.039697528
-0.056020245 0.022559643 -0.13784859 -0.05468221 -0.06537156 0.07192221 -0.11216173 -0.008609146
0.014828071 -0.1490919 0.20190677 -0.1640498 -0.09430538 -0.07645142 -0.17596486 -0.1399998
-0.060865283 -0.15702726 0.19365418 0.17092988 0.1940513 -0.014292583 -0.0083245635 -0.058551192
0.18690428 0.03996262 0.19478211 0.05373329 0.2034316 -0.13663219 0.10175848 0.13564357
0.019568339 0.14789549 -0.19006096 -0.060647875 0.18356016 0.1905407 -0.06537604 -0.00046133995
0.07772848 -0.07658036 0.20986217 -0.081812486 -0.108090885 0.026690394 -0.19777262 0.1759899
-0.13932934 0.13395822 -0.089276746 -0.1836307 -0.00052699447 -0.112075314 0.14411327 0.08326119
0.08123502 -0.015660375 0.077212214 -0.05301304 -0.08927435 0.10976404 0.035835207 -0.07490632
0.15138793 0.21005839 -0.20697203 -0.20962295 -0.15078613 -0.04124607 -0.18614012 0.018936053
-0.18853511 -0.15927383 -0.08363283 0.17043906 -0.04763548 0.16612151 -0.22300842 0.19642013
-0.018291906 -0.15720591 0.16692385 0.13846847 -0.18704467 -0.10107305 -0.027035609 0.034668118
-0.080725685 0.2011902 0.21986124 -0.21365027 0.05818215 0.11605927 -0.10528118 -0.038487196
-0.050843507 0.117946774 -0.028760344 0.07204476 0.08279073 -0.106684566 -0.110238396 0.21540281
-0.1727845 -0.17552799 -0.082171515 -0.040309638 0.084270716 0.020764545 0.12693715 -0.12292399
00000000: 944f e73d 9cce 6fbd c821 193e 4471 e93d
00000010: 5a36 21be 6835 51bd 269f adbd d0b0 893c
00000020: 68e5 973d 9e57 153e dcfd d13d 14b9 e6bd
00000030: 4c7b f43d 3b8d 26be b615 d2bd 4047 7d3d
00000040: 48db 5f3e 2fbb d5bd ceda 9abd f6b9 0e3e
00000050: 1be7 dabd 82bc 59be 885a 3abd c852 93bd
00000060: fc8e 02bd 1cce bf3d e37c 34be bc19 13bd
00000070: 9c86 3e3e 3a44 033e 6e12 013e 16b7 adbd
00000080: 58a1 9c3d 9829 313e 4671 2ebe 80f9 433d
00000090: e584 f6bd f048 fcbd 84e1 053e 228e 0a3e
000000a0: 8ee2 2b3e 2828 633d 0c8c 863d 9817 54be
000000b0: c4e0 5abe 40ea 363d 1c1e dd3d e099 223d
000000c0: 7c75 65bd 00cf b83c 2e28 0dbe 74fa 5fbd
000000d0: 86e1 85bd f44b 933d 0db5 e5bd 600d 0dbc
000000e0: 70f1 723c 8cab 18be a6c0 4e3e acfc 27be
000000f0: 2e23 c1bd 9092 9cbd 2230 34be 1c5c 0fbe
00000100: e04d 79bd c1cb 20be 484d 463e 3e08 2f3e
00000110: 62b5 463e 702b 6abc c063 08bc 60d3 6fbd
00000120: d663 3f3e d8af 233d f674 473e 7017 5c3d
00000130: 6050 503e 4fe9 0bbe c066 d03d 26e6 0a3e
00000140: c84d a03c ea71 173e 579f 42be e869 78bd
00000150: 32f7 3b3e 1a1d 433e e0e3 85bd 00e0 f1b9
00000160: 1c30 9f3d 2ad6 9cbd 1ce6 563e 4e8d a7bd
00000170: c15e ddbd d0a5 da3c e884 4abe b236 343e
00000180: 5aac 0ebe 582c 093e bad6 b6bd b009 3cbe
00000190: 0026 0aba be87 e5bd 6e92 133e d884 aa3d
000001a0: 8c5e a63d 304a 80bc 7021 9e3d 3424 59bd
000001b0: 78d5 b6bd f8cb e03d f0c7 123d 7c68 99bd
000001c0: 7005 1b3e 8c19 573e 7af0 53be 66a7 56be
000001d0: ae67 1abe a4f1 28bd 849b 3ebe c81f 9b3c
000001e0: 590f 41be ae18 23be b047 abbd 9487 2e3e
000001f0: 6c1d 43bd c21b 2a3e 525c 64be 5c22 493e
00000200: e8d8 95bc 96fa 20be 16ee 2a3e aeca 0d3e
00000210: a388 3fbe 63ff cebd c879 ddbc 2800 0e3d
00000220: 8253 a5bd ce04 4e3e 4e23 613e 23c7 5abe
00000230: 6850 6e3d 7cb0 ed3d a99d d7bd c0a4 1dbd
00000240: 4841 50bd 148e f13d d09a ebbc 348c 933d
00000250: 308e a93d 707d dabd abc4 e1bd 8e92 5c3e
00000260: 6cee 30be 9cbd 33be 8a49 a8bd b81b 25bd
00000270: 2096 ac3d 681a aa3c d0fb 013e 93bf fbbd

output.bias f4 [8]
0.03091389 0.038256377 0.1488842 -0.0048151165 -0.162802 0.019188568 0.04887417 0.15803805
00000000: 203f fd3c b8b2 1c3d 1a75 183e 20c8 9dbb
00000010: 91b5 26be 5831 9d3c 4830 483d bad4 213e
