my_transformer/saved_model/simpleANNlr=0.001bs=64_mse_data.pt (torch, 34575 bytes, 8 tensors)

l1.weight f4 [50, 14]
-0.16065645 0.15604585 0.158032 -0.13698624 0.15637055 0.24505761 0.20193979 -0.098985896
0.23414114 0.01027438 -0.21573533 0.24544242 -0.16203281 0.10968882 -0.07161884 -0.031691745
0.18767032 -0.079873845 0.23040679 0.04817587 0.099188775 -0.10886513 0.020735413 0.24113229
0.23355338 -0.2330659 0.2286632 -0.18343586 -0.046940356 -0.1438502 -0.105252266 -0.24716407
-0.09864892 -0.2562658 0.1745896 0.2351664 -0.15084174 0.030202866 -0.15399806 -0.03577766
0.002515316 -0.071048334 0.17222732 0.26302698 0.015213668 -0.0087786615 0.015567601 -0.05281487
0.18118346 0.22663215 0.033664554 -0.21283588 -0.24916682 -0.12946011 0.19248563 -0.16077481
-0.22218978 -0.0901306 -0.18315902 0.20486194 -0.2632069 -0.24280167 0.042942017 -0.083228886
0.04003969 -0.19883272 0.07813549 -0.25565672 0.0841974 0.1288374 0.07133606 -0.13396347
-0.015541166 0.22345716 -0.040234968 0.1998975 0.21833882 0.15293735 -0.04899195 0.068633944
0.13636258 0.08129451 -0.006273508 -0.17528135 0.20569786 -0.24238458 0.13391867 -0.18972531
0.24141786 -0.12839958 -0.24772015 -0.01957266 -0.24747232 0.20522243 -0.25885373 -0.04036455
0.034757882 -0.0999957 -0.0050266683 -0.18061763 0.03815022 0.1856783 -0.16365537 0.23294464
-0.21854064 -0.23282531 -0.08478242 0.055450797 0.08433846 0.23097152 -0.17140147 -0.11018206
0.09840387 -0.0048603714 -0.036582917 0.23738715 0.25742325 0.13632134 0.048684478 -0.1678586
-0.17586696 -0.18980557 0.05078751 -0.11456992 0.006296009 -0.1557497 0.17294887 -0.071867794
0.18264726 -0.19051723 -0.23126334 -0.19997707 0.035119712 0.039593816 0.011244267 -0.1428368
-0.005497247 0.15841368 0.024602473 -0.16437748 0.116470814 0.18354851 -0.15136409 0.062823355
-0.17755285 0.010902703 -0.14928919 -0.09990637 0.25779876 0.11450368 0.09401801 0.26377717
-0.12918264 -0.14160891 0.092339635 -0.25404114 0.023482293 0.07387349 -0.063274965 -0.026219085
-0.18139201 -0.048942953 0.26286033 0.16422513 -0.1586712 0.25580665 0.23300073 -0.029654667
-0.14262196 0.18328503 -0.23772289 -0.0033421516 0.093979895 -0.08519752 -0.20731851 0.14989203
0.04295844 -0.2394093 -0.10689002 -0.12158622 0.0693641 -0.24749446 0.04923266 -0.13176063
-0.09196226 0.17454833 -0.122339845 0.10581854 0.2633337 -0.12764695 -0.08183546 -0.1283365
0.19797629 0.0024373531 -0.02808617 0.13494042 -0.13312751 -0.1702153 0.20773807 -0.16516258
-0.061316773 0.105558306 0.2455807 -0.035838008 0.11803031 -0.1139316 -0.23124418 0.04230556
-0.23123842 -0.19026959 -0.21441251 0.08937436 0.031016618 0.17416275 0.15654328 -0.1979922
0.20628268 -0.08826433 0.15754774 0.12067339 -0.07553725 -0.004758477 -0.10986291 0.16080797
-0.23066296 -0.24122013 -0.23731253 -0.25413987 0.2660233 -0.19632715 0.20508784 -0.24323133
0.055868298 0.12296921 -0.16476086 -0.15644678 -0.0023006499 -0.06912698 -0.2236887 -0.023049295
-0.17767353 -0.25722265 0.11048868 -0.21795934 0.21509835 -0.08059661 0.053803384 0.21476257
-0.1904737 -0.24766481 0.17280322 0.14572498 0.013413519 0.16889134 0.09097642 -0.22875044
00000000: 2083 24be 7cca 1f3e 24d3 213e 1f46 0cbe
00000010: 9a1f 203e 62f0 7a3e 4ec9 4e3e 1eb9 cabd
00000020: b2c2 6f3e e055 283c b9e9 5cbe 4255 7b3e
00000030: eeeb 25be 88a4 e03d e6ac 92bd 34cf 01bd
00000040: a62c 403e e694 a3bd c2ef 6b3e 1054 453d
00000050: 7c23 cb3d aef4 debd 50dd a93c 62eb 763e
00000060: 9e28 6f3e d4a8 6ebe b026 6a3e 9cd6 3bbe
00000070: 8844 40bd 784d 13be 808e d7bd 9418 7dbe
00000080: 7208 cabd 4535 83be 9ec7 323e 76cf 703e
00000090: 4276 1abe 006c f73c abb1 1dbe 988b 12bd
000000a0: 00d8 243b ca81 91bd 5c5c 303e 79ab 863e
000000b0: c042 793c 60d4 0fbc 400f 7f3c 6854 58bd
000000c0: 2888 393e 4212 683e d8e3 093d a6f1 59be
000000d0: 9625 7fbe 3191 04be f41a 453e 27a2 24be
000000e0: b885 63be 6496 b8bd 0a8e 3bbe 54c7 513e
000000f0: 0ec3 86be 00a1 78be f8e3 2f3d e873 aabd
00000100: a800 243d ce9a 4bbe 8005 a03d 70e5 82be
00000110: b06f ac3d f4ed 033e a418 923d b82d 09be
00000120: 60a0 7ebc f4d1 643e 6ccd 24bd eeb1 4c3e
00000130: 3694 5f3e 9c9b 1c3e c8ab 48bd f48f 8c3d
00000140: a2a2 0b3e bc7d a63d 0092 cdbb f47c 33be
00000150: 76a2 523e aa33 78be fa21 093e 5a47 42be
00000160: 3e36 773e 2e7b 03be 5aaa 7dbe d856 a0bc
00000170: 6269 7dbe d425 523e 7a88 84be 4c55 25bd
00000180: 485e 0e3d 8cca ccbd c0b6 a4bb d4f3 38be
00000190: 6843 1c3d 7422 3e3e 4695 27be 0a89 6e3e
000001a0: 1ec9 5fbe c269 6ebe 68a2 adbd 6020 633d
000001b0: a4b9 ac3d cc83 6c3e de83 2fbe 22a7 e1bd
000001c0: f887 c93d c043 9fbb f8d7 15bd 9e15 733e
000001d0: fbcc 833e d297 0b3e 6069 473d 20e3 2bbe
000001e0: 7816 34be 645c 42be 9006 503d a2a3 eabd
000001f0: c04e ce3b d97c 1fbe 8219 313e 6c2f 93bd
00000200: e207 3b3e f316 43be 4cd0 6cbe cac6 4cbe
00000210: b0d9 0f3d 202d 223d e039 383c cf43 12be
00000220: 4022 b4bb 3237 223e 208b c93c 9252 28be
00000230: 4088 ee3d 24f4 3b3e 30ff 1abe 88a9 803d
00000240: 6ad0 35be 40a1 323c 44df 18be b69b ccbd
00000250: 33fe 833e e880 ea3d 848c c03d cd0d 873e
00000260: 7448 04be ed01 11be 901c bd3d ae11 82be
00000270: f05d c03c fc4a 973d 4e96 81bd 68c9 d6bc
00000280: d4be 39be 6878 48bd a195 863e a22a 283e
00000290: b47a 22be 17f9 823e be97 6e3e 58ee f2bc
000002a0: 7e0b 12be 12af 3b3e a16d 73be 0008 5bbb
000002b0: 8878 c03d 0a7c aebd 4e4b 54be 4c7d 193e
000002c0: 30f5 2f3d b627 75be 28e9 dabd 3202 f9bd
000002d0: c40e 8e3d 306f 7dbe 30a8 493d 42ec 06be
000002e0: b656 bcbd ccbc 323e 508d fabd 64b7 d83d
000002f0: add3 863e e2b5 02be 5a99 a7bd a56a 03be
00000300: 4cba 4a3e 00bc 1f3b f814 e6bc d22d 0a3e
00000310: 9452 08be eb4c 2ebe 4ab9 543e 6120 29be
00000320: 4c27 7bbd f42e d83d 8279 7b3e e0ca 12bd
00000330: e0b9 f13d f854 e9bd 46cb 6cbe 9848 2d3d
00000340: c4c9 6cbe 08d6 42be f48e 5bbe e809 b73d
00000350: 9016 fe3c b857 323e e24c 203e 78be 4abe
00000360: c43b 533e eec3 b4bd 3254 213e 9c23 f73d
00000370: 46b3 9abd 00ed 9bbb ceff e0bd d8aa 243e
00000380: e932 6cbe 6902 77be 0e02 73be 9f1e 82be
00000390: 3534 883e fc09 49be 8c02 523e a211 79be
000003a0: 28d6 643d 48d7 fb3d 12b7 28be 9633 20be
000003b0: 80c6 16bb 7292 8dbd a70e 65be e0d1 bcbc
000003c0: 0df0 35be b0b2 83be e447 e23d bc30 5fbe
000003d0: be42 5c3e d60f a5bd f060 5c3d b8ea 5b3e
000003e0: 8a0b 43be d89b 7dbe 54f3 303e ee38 153e
000003f0: 60c4 5b3c daf1 2c3e d851 ba3d 8e3d 6abe

l1.bias f4 [50]
0.11782557 -0.19464311 -0.13706227 -0.1140455 0.2594774 -0.067673326 0.16556782 0.0297665
-0.24523163 -0.25376445 0.16749233 0.06894073 0.113563925 -0.24189885 0.26338103 0.15092033
-0.015293717 0.062357664 0.24410692 0.26041648 0.16795686 0.09063277 0.24463502 0.20135391
-0.26664287 0.19758192 -0.19140288 -0.07118039 -0.03796774 -0.24274345 0.19225204 -0.047515467
-0.10611312 0.2530119 -0.19657111 0.26331034 -0.21292202 -0.006767124 0.25932077 -0.019680068
0.0818409 0.015067786 -0.031192556 0.17685735 0.23708531 0.12271124 -0.060200974 -0.12307489
0.07823944 0.19888088
00000000: 884e f13d 8650 47be 0d5a 0cbe b090 e9bd
00000010: 39da 843e 5098 8abd 9c8a 293e e0d8 f33c
00000020: 001e 7bbe 6aed 81be 1c83 2b3e cc30 8d3d
00000030: 3494 e83d 55b4 77be e1d9 863e dc8a 1a3e
00000040: 8092 7abc c06a 7f3d 2af7 793e 4f55 853e
00000050: e2fc 2b3e ac9d b93d 9a81 7a3e b82f 4e3e
00000060: 6a85 88be ea52 4a3e 1eff 43be 06c7 91bd
00000070: 1084 1bbd bd91 78be b8dd 443e 949f 42bd
00000080: d651 d9bd c78a 813e f049 49be 9dd0 863e
00000090: 3b08 5abe c0be ddbb b1c5 843e 1838 a1bc
000000a0: 349c a73d e0de 763c 8887 ffbc 181a 353e
000000b0: 7ec6 723e 0850 fb3d 4c95 76bd b00e fcbd
000000c0: 003c a03d 6ea7 4b3e

l2.weight f4 [100, 50]
0.10034998 -0.10937202 -0.13448167 -0.13736926 -0.13631408 0.029049158 -0.094694786 0.052123666
-0.055484407 -0.08538072 -0.052379265 -0.07176177 -0.11180228 -0.087813035 -0.014334023 0.025965437
-0.024968319 -0.02149117 0.029757813 0.11694069 -0.02817665 0.037240997 -0.0386372 0.10665108
-0.057802178 -0.0393115 0.036353543 0.06535177 0.06880303 -0.11795231 -0.07131709 0.034678847
0.13620086 -0.068282045 -0.018671378 0.092843875 -0.09079124 -0.06744575 -0.0066600293 0.109421566
0.07555349 -0.13978334 -0.08852181 0.07604316 0.12959863 0.022187844 -0.018064663 0.08609928
0.072481826 0.13441367 0.02674961 -0.12853107 -0.11209197 -0.02463232 -0.03273236 -0.04769198
0.062199444 -0.049260125 0.09906627 -0.08436825 0.107923895 -0.046186678 -0.035893336 0.07614638
0.12512682 0.13621967 0.028900102 0.092548564 0.009718731 -0.02779878 -0.011120662 0.044937417
0.026498377 0.067000225 0.13739114 -0.02244623 -0.047484025 -0.03208547 -0.11570012 0.0514735
0.09768891 -0.021554455 0.04108323 -0.09698548 -0.0075071454 -0.010845467 -0.0044532716 -0.087683424
0.054770336 0.03892377 -0.0070351213 -0.0135436505 -0.007070139 -0.07062443 0.13129242 0.058993235
-0.09426448 0.0840994 0.04606378 -0.034929894 0.11852418 -0.092521 -0.08695085 -0.03330844
-0.13231267 -0.07867193 0.057263166 -0.13676897 0.004608199 0.01890774 -0.068655975 -0.016491674
0.05095744 0.09439491 0.0135811865 -0.076917194 0.10305856 0.022446081 -0.121394716 -0.12631251
-0.13728616 -0.05430332 -0.020872079 0.05793102 -0.027273111 0.057037592 -0.008102238 -0.018089138
-0.10870068 -0.09867532 -0.08073283 -0.028597973 -0.04212662 -0.0012400299 -0.12220629 -0.019045793
0.036539063 -0.12714049 -0.0047635585 0.040573865 -0.009732857 0.12348284 0.10549189 0.11277725
-0.12551709 -0.1068683 -0.119653895 -0.117845565 -0.05650837 0.061086297 0.058695287 -0.024338998
-0.057792485 0.07789524 -0.10275558 -0.12173396 -0.041997142 -0.056021392 0.07735042 0.08158006
0.03185764 -0.067362875 0.039366677 0.13671716 0.017917931 -0.004962608 0.11923237 0.043647677
0.020826146 -0.034159787 -0.07155598 0.01151073 0.078807846 -0.014418721 0.09487714 -0.07627966
0.07336451 0.08350189 0.085072935 -0.114050575 0.054601282 0.013555303 -0.045412876 -0.14032558
0.04552962 0.044702142 0.023404807 -0.11378458 -0.011060372 0.044176996 0.09303324 0.05441302
-0.09484978 0.07394077 -0.0351237 0.022381231 0.13873585 0.13774092 -0.014482364 0.011309698
0.02887085 0.13617866 -0.01512152 0.008131996 0.072876334 0.07064293 0.12937523 0.01783657
0.016905427 0.119676426 0.09448443 0.13433094 -0.081464805 -0.0026019663 -0.042716876 -0.017627314
-0.05679863 0.113539204 0.0943761 0.094494134 0.053442538 -0.13136236 0.1299422 0.033965915
0.003976837 -0.03174063 -0.027252965 0.047052726 0.055071935 -0.096152864 -0.018717885 0.013042152
-0.054848462 0.0075047463 -0.010798261 0.039599016 -0.010501906 -0.1275654 -0.10786019 -0.038365684
0.0988006 0.023574114 -0.024197921 0.055290207 0.004905954 -0.085386634 0.07454617 -0.06267823
-0.13406768 -0.04206588 -0.021529302 -0.106774226 -0.12843646 -0.00986895 -0.0130408555 -0.1361022
00000000: 4a84 cd3d 70fe dfbd 90b5 09be 87aa 0cbe
00000010: eb95 0bbe 80f8 ed3c 57ef c1bd a07f 553d
00000020: 9e43 63bd 16dc aebd a48b 56bd d6f7 92bd
00000030: 98f8 e4bd 52d7 b3bd 40d9 6abc 78b5 d43c
00000040: 5c8a ccbc 400e b0bc a8c6 f33c 9a7e ef3d
00000050: b8d2 e6bc 048a 183d 0a42 1ebd e26b da3d
00000060: fac1 6cbd 1805 21bd 74e7 143d 26d7 853d
00000070: 9ae8 8c3d fb90 f1bd b20e 92bd 680b 0e3d
00000080: 3d78 0b3e 75d7 8bbd b8f4 98bc ee24 be3d
00000090: c2f0 b9bd ff20 8abd 603c dabb 6a18 e03d
000000a0: cabb 9a3d 5d23 0fbe ec4a b5bd 84bc 9b3d
000000b0: 81b5 043e 48c3 b53c 58fc 93bc d254 b03d
000000c0: 5a71 943d bda3 093e 0022 db3c a69d 03be
000000d0: 7a90 e5bd b8c9 c9bc 5e12 06bd aa58 43bd
000000e0: d8c4 7e3d fcc4 49bd 42e3 ca3d 43c9 acbd
000000f0: 3407 dd3d 3e2e 3dbd e404 13bd a2f2 9b3d
00000100: 3f21 003e 2b7d 0b3e e8bf ec3c 1a8a bd3d
00000110: 503b 1f3c 44ba e3bc 7033 36bc 4c10 383d
00000120: 2013 d93c 6a37 893d 43b0 0c3e 28e1 b7bc
00000130: 9c7e 42bd 0e6c 03bd 2ff4 ecbd e0d5 523d
00000140: 2011 c83d f892 b0bc e446 283d 53a0 c6bd
00000150: 80fe f5bb 30b1 31bc c0ec 91bb 5e93 b3bd
00000160: dc56 603d 886e 1f3d e086 e6bb 30e6 5dbc
00000170: a0ac e7bb 8ba3 90bd 8571 063e e4a2 713d
00000180: bc0d c1bd 4e3c ac3d 60ad 3c3d a612 0fbd
00000190: cebc f23d a67b bdbd 4a13 b2bd 6e6e 08bd
000001a0: f97c 07be c01e a1bd c88c 6a3d 2a0d 0cbe
000001b0: 6000 973b 68e4 9a3c 819b 8cbd 8c19 87bc
000001c0: c0b8 503d 1e52 c13d a083 5e3c c386 9dbd
000001d0: 5e10 d33d d8e0 b73c cb9d f8bd 1158 01be
000001e0: be94 0cbe 286d 5ebd ecfb aabc 1449 6d3d
000001f0: dc6b dfbc 40a0 693d 40bf 04bc ac2f 94bc
00000200: 769e debd 4916 cabd 4157 a5bd 4c46 eabc
00000210: f68c 2cbd 8088 a2ba 4b47 fabd ec05 9cbc
00000220: fca9 153d 1e31 02be a017 9cbb c830 263d
00000230: 9076 1fbc 92e4 fc3d 220c d83d c2f7 e63d
00000240: 8d87 00be c4dd dabd 1a0d f5bd 0459 f1bd
00000250: 5275 67bd a035 7a3d 786a 703d 9462 c7bc
00000260: d0b7 6cbd 8a87 9f3d 8471 d2bd a84f f9bd
00000270: 3205 2cbd b076 65bd e669 9e3d 7213 a73d
00000280: 287d 023d 8cf5 89bd f43e 213d 95ff 0b3e
00000290: a0c8 923c 609d a2bb 1a30 f43d e8c7 323d
000002a0: 989b aa3c 22eb 0bbd f18b 92bd 8097 3c3c
000002b0: 0266 a13d 803c 6cbc f24e c23d 8338 9cbd
000002c0: 2240 963d 0a03 ab3d b83a ae3d 5993 e9bd
000002d0: 98a5 5f3d 1017 5e3c da02 3abd 82b1 0fbe
000002e0: 447d 3a3d 9819 373d 70bb bf3c e407 e9bd
000002f0: 9036 35bc f0f2 343d 3688 be3d 30e0 5e3d
00000300: 9a40 c2bd 426e 973d dedd 0fbd d858 b73c
00000310: c510 0e3e f50b 0d3e 7047 6dbc 504c 393c
00000320: 9082 ec3c 6b72 0b3e 40c0 77bc 103c 053c
00000330: 3040 953d 3ead 903d f17a 043e 001e 923c
00000340: 407d 8a3c ea18 f53d 0e81 c13d 0d8e 093e
00000350: 05d7 a6bd c085 2abb e4f7 2ebd 2867 90bc
00000360: aea5 68bd 3e87 e83d 4248 c13d 2486 c13d
00000370: 90e6 5a3d db83 06be 910f 053e d81f 0b3d
00000380: 2050 823b 7602 02bd 9c41 dfbc 5cba 403d
00000390: 1c93 613d cbeb c4bd 4056 99bc c0ae 553c
000003a0: c8a8 60bd 60ea f53b 30eb 30bc 9432 223d
000003b0: 3010 2cbc 81a0 02be cee5 dcbd 5625 1dbd
000003c0: f857 ca3d 801e c13c b83a c6bc fc77 623d
000003d0: 20c2 a03b 30df aebd aaab 983d 725d 80bd
000003e0: 0a49 09be 464d 2cbd 385e b0bc 72ac dabd
000003f0: d984 03be 60b1 21bc 50a9 55bc 605e 0bbe

l2.bias f4 [100]
-0.11173142 0.026960745 -0.044787012 0.011173129 0.01687032 -0.10198523 -0.06589979 0.0041490197
-0.00066931546 0.11000265 -0.084060594 0.08943306 0.098712966 -0.08266151 0.13333951 -0.11182192
-0.10103094 -0.026887193 0.036395684 -0.011780143 -0.051366 0.071300715 0.13742359 -0.120321065
-0.05043675 -0.12331091 0.13131778 0.14030634 0.09358816 0.054585934 0.07675482 0.14081328
-0.08002332 -0.12038642 0.09273319 -0.070578456 -0.06443935 0.069135904 0.070057556 0.057321355
-0.02892147 -0.10253081 0.029538453 0.07436365 -0.07561858 0.10746761 -0.00500305 -0.0063874424
0.13672782 -0.13645744 -0.0627399 0.11650242 -0.07641148 -0.138746 0.12657355 -0.066890895
0.13438655 -0.076654166 0.08384335 -0.049733482 -0.071000904 -0.14108716 -0.068690985 -0.122048244
0.06456342 0.06007865 0.13873504 -0.12910298 -0.03523212 -0.08705564 0.08302301 0.07247536
0.09836173 -0.04195419 0.08975467 -0.02169256 -0.10085413 -0.046399347 0.027251124 -0.13094912
0.046273276 0.09356193 0.13367222 -0.04370846 -0.035985388 0.1336957 -0.019523516 0.09041171
-0.031247273 -0.04132595 -0.0068262666 0.107023835 0.09930466 0.02483441 -0.00922367 -0.0677532
-0.05083573 -0.12524323 0.11398016 -0.067919515
00000000: 71d3 e4bd c8dc dc3c 9672 37bd 800f 373c
00000010: a033 8a3c a2dd d0bd 78f6 86bd 80f4 873b
00000020: 0075 2fba 1249 e13d f627 acbd ae28 b73d
00000030: 062a ca3d 704a a9bd 278a 083e e402 e5bd
00000040: 4fe9 cebd 8842 dcbc a413 153d 8001 41bc
00000050: 2865 52bd 1c06 923d c5b8 0c3e e46a f6bd
00000060: c496 4ebd 6e8a fcbd 2b78 063e 77ac 0f3e
00000070: 26ab bf3d 8095 5f3d a231 9d3d 5b31 103e
00000080: 44e3 a3bd 288d f6bd e6ea bd3d 708b 90bd
00000090: c7f8 83bd 2097 8d3d 567a 8f3d ccc9 6a3d
000000a0: b8ec ecbc acfb d1bd a0fa f13c f84b 983d
000000b0: eadd 9abd fa17 dc3d a0f0 a3bb c04d d1bb
000000c0: 6102 0c3e 80bb 0bbe c77d 80bd d298 ee3d
000000d0: 9f7d 9cbd 6e13 0ebe 7f9c 013e 18fe 88bd
000000e0: a19c 093e dcfc 9cbd 10b6 ab3d 56b5 4bbd
000000f0: ec68 91bd 2779 10be dcad 8cbd 6ef4 f9bd
00000100: d439 843d 0815 763d 8f10 0e3e 9233 04be
00000110: 8e4f 10bd 3a4a b2bd f807 aa3d f66d 943d
00000120: e071 c93d 28d8 2bbd 4cd1 b73d 98b4 b1bc
00000130: 9c8c cebd 3e0d 3ebd c03d df3c 8717 06be
00000140: 0c89 3d3d 669d bf3d 5fe1 083e a407 33bd
00000150: 6a65 13bd 87e7 083e c8ef 9fbc c629 b93d
00000160: 48fa ffbc 6645 29bd e0ae dfbb 502f db3d
00000170: 3e60 cb3d 8871 cb3c e01e 17bc 31c2 8abd
00000180: 2039 50bd c33f 00be 6e6e e93d 6319 8bbd

l3.weight f4 [20, 100]
-0.09170927 -0.014129832 0.01156006 -0.06385753 -0.023406848 -0.00656756 0.013756692 0.0027527958
-0.0034535378 -0.0577281 -0.009731032 0.07981522 -0.06566028 -0.057282258 0.05814559 0.0008206144
0.031359173 0.0023982674 0.097627245 -0.09363154 0.030790813 0.08542771 -0.02214811 0.00026682764
0.001973465 0.014667228 -0.0962502 -0.020236768 -0.072468504 -0.033799194 -0.06846368 -0.07372602
-0.015051737 0.010878012 0.0845838 -0.088413976 0.052654736 0.04702065 -0.07941856 0.07730969
0.041164376 -0.0867296 -0.07711109 -0.042152192 0.015991092 -0.026651219 -0.059190776 -0.03296472
-0.045209 0.057528548 0.09554709 -0.050932635 0.09075164 0.012420595 -0.020449892 -0.038021147
0.041063122 0.017728709 0.0675483 -0.048476815 -0.07950894 0.072210066 -0.06621565 0.0063746944
0.09167022 -0.08682387 -0.061615 0.087786 -0.054488398 0.09405146 0.052352197 0.07874019
-0.08348988 -0.041217197 0.027788438 0.058007397 0.0020480976 -0.09717568 0.027939 0.024891183
0.07527835 -0.04922073 -0.036971092 -0.014779054 -0.045984697 -0.00023899972 -0.06089559 -0.042447604
-0.0017366856 -0.053276956 0.08659095 -0.0032872409 -0.065086454 -0.09250517 -0.0669736 0.09314046
-0.06680249 0.054543503 -0.033928372 -0.0116264075 -0.058333516 -0.09176119 0.02024816 0.027977131
-0.081842996 0.07028092 -0.02419839 -0.0957361 0.09565211 0.04124569 0.093423314 0.01670698
0.09006227 0.024206877 -0.010386422 0.025571175 0.015203461 -0.020313248 -0.048566043 -0.0039914846
-0.08602754 0.036204226 -0.050118662 0.021923207 -0.03143259 -0.09764192 0.08785487 -0.015528798
-0.046697047 0.014562264 -0.07663669 -0.04484997 0.056484185 0.09189584 -0.031435944 -0.08733032
-0.034471646 0.008238092 -0.013036095 0.020567082 0.071686335 0.09208476 -0.050808813 -0.05073098
-0.033119917 -0.075145066 0.049293645 -0.09907848 0.08296307 -0.08102727 0.080380075 -0.051782202
0.013898909 -0.04489993 -0.08727419 -0.02284883 -0.07549362 0.0035651922 0.07029151 -0.037436545
-0.062417805 0.07121595 -0.05390152 0.08375128 0.09992763 0.07572495 -0.08051963 -0.0036320537
0.004591681 -0.06522289 -0.0505453 -0.0027673468 -0.039552655 0.03896553 -0.011003152 -0.056528557
-0.011567973 -0.08922627 0.07015594 0.08051128 0.04307329 -0.09934554 0.030641384 -0.099015824
0.0062485784 -0.043543648 0.036596067 -0.056162704 -0.016280614 -0.079793036 -0.084526055 -0.072149575
0.08703185 0.039192297 -0.097975396 -0.018785633 0.09168214 -0.0086414665 0.09068369 -0.0058187693
0.09885313 -0.073327005 -0.091927804 0.071987875 -0.06690343 -0.050397873 0.09614257 -0.06287415
0.052397676 -0.024291374 -0.06585172 -0.09298136 -0.026809074 0.091263644 -0.022460379 0.07155267
-0.05336367 0.08447749 0.05617828 -0.07872746 0.09157958 0.09882992 -0.0026251301 -0.006630197
-0.013232529 0.026152276 0.0835601 -0.084480144 0.06131435 -0.06926087 -0.021376386 -0.09291913
-0.074425794 -0.08997583 -0.08066666 0.034787603 0.037896164 0.06559492 0.06265 -0.07333247
0.09406849 -0.08470571 0.04384584 -0.034156248 -0.031187378 0.028281815 -0.05385306 0.07702764
0.029563285 -0.054313328 0.0122132525 0.07634812 -0.017497674 0.059639283 -0.04308647 -0.05126815
00000000: 12d2 bbbd d080 67bc 6866 3d3c bdc7 82bd
00000010: b8bf bfbc b034 d7bb c063 613c 4068 343b
00000020: c054 62bb 4d74 6cbd e86e 1fbc 2976 a33d
00000030: e678 86bd cda0 6abd 122a 6e3d 801e 573a
00000040: 7a72 003d 402c 1d3b cbf0 c73d e5c1 bfbd
00000050: 043d fc3c b9f4 ae3d f46f b5bc 00e5 8b39
00000060: 4055 013b d04e 703c d31e c5bd 94c7 a5bc
00000070: 5e6a 94bd 0671 0abd b036 8cbd abfd 96bd
00000080: 909b 76bc b039 323c 453a ad3d 6312 b5bd
00000090: 7eac 573d ba98 403d 33a6 a2bd 8b54 9e3d
000000a0: fa9b 283d 4a9f b1bd 6bec 9dbd c7a7 2cbd
000000b0: c0ff 823c a853 dabc 0772 72bd 0406 07bd
000000c0: 132d 39bd 0ea3 6b3d 31ae c33d bd9e 50bd
000000d0: ffdb b93d c07f 4b3c 8886 a7bc 10bc 1bbd
000000e0: ce31 283d cc3b 913c c356 8a3d a08f 46bd
000000f0: 95d5 a2bd dfe2 933d 129c 87bd d0e2 d03b
00000100: 99bd bb3d b7d0 b1bd 0360 7cbd 25c9 b33d
00000110: 3a2f 5fbd 0d9e c03d 426f 563d 8942 a13d
00000120: befc aabd 5dd3 28bd 94a4 e33c 2a99 6d3d
00000130: 6039 063b 0b04 c7bd 54e0 e43c 98e8 cb3c
00000140: 892b 9a3d ad9b 49bd 006f 17bd d823 72bc
00000150: 735a 3cbd 009c 7ab9 a76d 79bd 8add 2dbd
00000160: 80a1 e3ba f038 5abd 9956 b13d c06e 57bb
00000170: 0c4c 85bd 5a73 bdbd 7429 89bd 6dc0 be3d
00000180: becf 88bd 0269 5f3d 7af8 0abd b07c 3ebc
00000190: 20ef 6ebd 4aed bbbd 78df a53c 4c30 e53c
000001a0: 4d9d a7bd 71ef 8f3d b43b c6bc 4a11 c4bd
000001b0: 41e5 c33d 3ef1 283d b954 bf3d 14dd 883c
000001c0: 9172 b83d 804d c63c d02b 2abc a47a d13c
000001d0: f017 793c f867 a6bc 30ed 46bd 00cb 82bb
000001e0: 352f b0bd e24a 143d 3a49 4dbd 4c98 b33c
000001f0: 76bf 00bd 7df8 c7bd 41ed b33d 806c 7ebc
00000200: 6745 3fbd 9096 6e3c b2f3 9cbd 9ab4 37bd
00000210: f65b 673d e333 bc3d fac2 00bd 3dda b2bd
00000220: 2432 0dbd 10f9 063c 5895 55bc 4c7c a83c
00000230: 49d0 923d ef96 bc3d e71c 50bd 4acb 4fbd
00000240: c0a8 07bd a8e5 99bd 22e8 493d a8e9 cabd
00000250: 8be8 a93d a0f1 a5bd 4f9e a43d 9319 54bd
00000260: 40b8 633c fde8 37bd cfbc b2bd 782d bbbc
00000270: 669c 9abd 00a6 693b fff4 8f3d 1057 19bd
00000280: d0a9 7fbd abd9 913d d7c7 5cbd cb85 ab3d
00000290: dba6 cc3d af15 9b3d 7ae7 a4bd c007 6ebb
000002a0: d075 963b 9493 85bd 9708 4fbd 605c 35bb
000002b0: f701 22bd 529a 1f3d 9046 34bc 7d8a 67bd
000002c0: 9887 3dbc 43bc b6bd ebad 8f3d 19e3 a43d
000002d0: 9e6d 303d ad75 cbbd a403 fb3c cfc8 cabd
000002e0: e0c0 cc3b d35a 32bd c2e5 153d dd0a 66bd
000002f0: ec5e 85bc 886a a3bd ff1b adbd 28c3 93bd
00000300: c13d b23d 1a88 203d 53a7 c8bd 54e4 99bc
00000310: d9c3 bb3d f094 0dbc 5fb8 b93d 60ab bebb
00000320: 8373 ca3d 782c 96bd a544 bcbd 616e 933d
00000330: aa04 89bd 006e 4ebd 65e6 c43d 2ac4 80bd
00000340: f29e 563d b4fe c6bc 44dd 86bd 036d bebd
00000350: b49e dbbc 6fe8 ba3d d4fe b7bc 358a 923d
00000360: dd93 5abd 8902 ad3d 321b 663d dd3b a1bd
00000370: 138e bb3d 5767 ca3d 600a 2cbb 2042 d9bb
00000380: 40cd 58bc 4c3d d63c 8f21 ab3d ed03 adbd
00000390: c224 7b3d a5d8 8dbd 881d afbc 634c bebd
000003a0: 8d6c 98bd 3f45 b8bd 9034 a5bd 727d 0e3d
000003b0: 0239 1b3d a156 863d a54e 803d 562f 96bd
000003c0: fba6 c03d 307a adbd b297 333d 6ce7 0bbd
000003d0: ac7c ffbc 44af e73c 0795 5cbd abc0 9d3d
000003e0: b42e f23c a777 5ebd 181a 483c 675c 9c3d
000003f0: 4857 8fbc 5248 743d 707b 30bd 8dfe 51bd

l3.bias f4 [20]
-0.059489574 0.07175324 -0.08920502 -0.050702084 0.04917658 -0.003145814 -0.027200326 -0.020116508
-0.07498308 0.020319 0.08835214 -0.033729807 -0.028429553 0.028135858 -0.04729725 0.08510373
0.025579639 -0.077977896 0.03845633 0.064772196
00000000: 57ab 73bd 5df3 923d 1fb1 b6bd fdac 4fbd
00000010: 626d 493d 002a 4ebb 38d3 debc 60cb a4bc
00000020: bb90 99bd 0874 a63c f7f1 b43d 4428 0abd
00000030: 18e5 e8bc 2c7d e63c c3ba 41bd dd4a ae3d
00000040: 648c d13c e0b2 9fbd 6284 1d3d 49a7 843d

output.weight f4 [8, 20]
0.21270871 0.076878905 0.191773 0.008255124 0.057332426 0.0283387 -0.057612166 -0.07839273
0.13766816 -0.018744737 0.06537023 -0.03928837 0.1985997 0.081795245 0.14352906 -0.050015032
-0.16214316 -0.12708497 0.09228 -0.02290681 0.10891366 -0.16989441 -0.08317047 -0.12639098
0.09811053 -0.032460675 0.044622272 0.006503448 -0.09498778 -0.13207078 0.082592726 0.22085866
-0.07099576 -0.06851278 -0.1677019 -0.19863275 0.06599957 -0.058618993 -0.08912367 -0.0048398823
0.20743889 -0.06748766 -0.22061905 -0.09773065 -0.0069495738 -0.09204085 -0.11914857 0.16876334
0.10688278 0.21257845 -0.0009073913 0.16315275 -0.12494068 0.16651106 0.12306872 0.16572261
-0.01312691 0.05177909 0.090914905 -0.027109504 -0.14644516 0.17076129 -0.20103806 0.22263533
0.10435307 -0.0339195 -0.03068231 0.12058309 0.10763121 -0.08851269 0.12033948 0.011833429
0.21604723 0.04567033 -0.10906513 0.113946766 0.13396496 0.09846118 0.15952167 0.07025698
0.08260578 -0.1551116 -0.010237753 -0.1289323 -0.14950638 0.06406629 0.07663739 -0.18289998
0.06009972 0.086377144 -0.17554154 0.10888377 -0.13245285 -0.079995185 0.2069121 0.21026671
-0.17510787 0.089022815 0.14718375 0.1671642 0.15514597 -0.16237266 -0.10104935 0.17098811
-0.016109005 0.094171286 -0.092686996 -0.07439785 0.17838752 -0.16503829 0.09340498 -0.20438792
0.0047476143 -0.01170145 0.19173977 0.06523085 -0.13987932 -0.1766199 -0.031262755 -0.097786516
0.0053655356 0.22119689 -0.14928389 0.0319784 -0.16702706 -0.073816106 -0.15986168 0.13706246
0.053105146 0.042402565 0.061744124 0.17157835 -0.061576948 0.21503812 0.09536487 0.13479048
-0.11506073 0.122291416 -0.0042714924 -0.03842376 -0.099633224 -0.08645308 0.0078057796 -0.0814566
-0.022024363 -0.055521205 0.21866629 0.04069245 -0.07066652 0.21003458 0.13984609 -0.07762122
-0.20159954 -0.14541778 -0.114280246 0.07199019 0.21559986 -0.18487325 -0.030877605 0.18955001
00000000: 50d0 593e b072 9d3d 2460 443e 8040 073c
00000010: 68d5 6a3d 9026 e83c bcfa 6bbd 5e8c a0bd
00000020: e2f8 0c3e 908e 99bc d4e0 853d d8ec 20bd
00000030: b85d 4b3e 4484 a73d 48f9 123e 90dc 4cbd
00000040: db08 26be 9022 02be 4cfd bc3d 10a7 bbbc
00000050: 200e df3d cdf8 2dbe 4855 aabd a36c 01be
00000060: 2cee c83d 7cf5 04bd d8c5 363d e01a d53b
00000070: f488 c2bd 903d 07be 6026 a93d c628 623e
00000080: 3a66 91bd 6e50 8cbd 0cba 2bbe 6266 4bbe
00000090: c82a 873d 781a 70bd 7886 b6bd e097 9ebb
000000a0: dc6a 543e f836 8abd f6e9 61be 0227 c8bd
000000b0: 40b9 e3bb ea7f bcbd 2a04 f4bd 4cd0 2c3e
000000c0: 5ce5 da3d 2aae 593e 00de 6dba 8411 273e
000000d0: e6e0 ffbd e081 2a3e 740b fc3d 30b3 293e
000000e0: 4012 57bc 5016 543d 9831 ba3d c014 debc
000000f0: b8f5 15be 0cdc 2e3e ecdc 4dbe 84fa 633e
00000100: 10b7 d53d 2cef 0abd 7859 fbbc 44f4 f63d
00000110: c06d dc3d 2446 b5bd 8c74 f63d 00e1 413c
00000120: 7c3b 5d3e d010 3b3d 8a5d dfbd ec5c e93d
00000130: 1c2e 093e 04a6 c93d a659 233e e4e2 8f3d
00000140: 382d a93d 93d5 1ebe 40bc 27bc d406 04be
00000150: 3318 19be 3035 833d 10f4 9c3d 224a 3bbe
00000160: 202b 763d 80e6 b03d 29c1 33be 74fe de3d
00000170: b8a1 07be 84d4 a3bd c4e0 533e 2850 573e
00000180: 7a4f 33be 9851 b63d 56b7 163e 182d 2b3e
00000190: 96de 1e3e 0545 26be f6f2 cebd 8217 2f3e
000001a0: 08f7 83bc e0dc c03d aed2 bdbd e65d 98bd
000001b0: 38ab 363e ccff 28be 1c4b bf3d 114b 51be
000001c0: e091 9b3b 70b7 3fbc 6e57 443e c097 853d
000001d0: 863c 0fbe d9db 34be 600d 00bd 4c44 c8bd
000001e0: 60d1 af3b 7081 623e e0dd 18be c8fb 023d
000001f0: 2409 2bbe e62c 97bd c8b2 23be 1a5a 0c3e
00000200: c884 593d 50ae 2d3d 68e7 7c3d 3cb2 2f3e
00000210: 1c38 7cbd f432 5c3e a84e c33d 8406 0a3e
00000220: f6a4 ebbd ec73 fa3d e0f7 8bbb 3c62 1dbd
00000230: 810c ccbd 500e b1bd a0c7 ff3b b8d2 a6bd
00000240: 706c b4bc 346a 63bd 0eea 5f3e 20ad 263d
00000250: 9cb9 90bd 4e13 573e d033 0f3e e0f7 9ebd
00000260: 1c70 4ebe 66e8 14be c30b eabd 986f 933d
00000270: 36c6 5c3e 6a4f 3dbe 08f3 fcbc 6619 423e

output.bias f4 [8]
-0.13869777 -0.035091758 0.20387694 -0.05612868 0.0277825 0.09982228 -0.025191665 -0.21564694
00000000: ca06 0ebe 60bc 0fbd 1ec5 503e 30e7 65bd
00000010: 2098 e33c a06f cc3d c05e cebc 8dd2 5cbe
