my_transformer/saved_model/simpleANNlr=0.002bs=64_MSE.pt (torch, 34575 bytes, 8 tensors)

l1.weight f4 [50, 14]
000000 f2 27 23 3e b5 b6 4d be 24 7d 51 be 72 e9 d0 bd
       0.15933207 -0.20089228 -0.20457894 -0.10200776
000010 02 2c 79 be 0c 36 13 be c0 b8 39 3d 8a 87 4e be
       -0.24333194 -0.14376086 0.045342207 -0.20168892
000020 ca 36 04 3e 06 7e 75 3e 52 31 01 3e b4 c4 e5 3d
       0.12911525 0.23973855 0.1261647 0.11219159
000030 92 6a 20 be 18 da 6a be b0 01 ec 3c c8 95 31 3e
       -0.15665653 -0.22934759 0.028809398 0.17342293
000040 60 47 54 3e 30 b0 a0 3c d4 4d 12 3e 40 23 14 3c
       0.20730352 0.019615263 0.14287502 0.009041607
000050 58 95 5f 3d fd 1f 4d be a8 4c c3 3d d2 27 55 3e
       0.054585785 -0.20031734 0.095361054 0.20815971
000060 4c 16 e9 3d e6 d3 e7 bd 98 28 00 bd 74 f6 9a 3d
       0.11381206 -0.11319713 -0.031288713 0.075665385
000070 f0 a3 27 3e bc ac c0 3d 0a 4c 63 3e 96 33 5a be
       0.16371131 0.094079465 0.22196975 -0.21308741
000080 ee cf 78 3e ac cf 1f 3e b6 a2 97 bd ba d9 48 3e
       0.24298069 0.15606564 -0.074040815 0.19614306
000090 9e e5 4e 3e 98 c3 a1 bc 58 19 0a bd 8c 83 47 3e
       0.2020478 -0.019746587 -0.033715576 0.19483775
0000a0 30 b2 6a be 4a d5 7c 3e ca c2 08 3e 00 ef 95 ba
       -0.22919536 0.24690738 0.13355556 -0.0011439025
0000b0 f0 86 b5 3c 6e 03 3d be 28 91 f3 3d 38 56 91 3d
       0.02215907 -0.1845834 0.11892921 0.07096523
0000c0 ca 27 6b 3e e0 1b b2 3c a2 e7 1e be 24 9f 88 bd
       0.22964397 0.021741807 -0.15518048 -0.06670979
0000d0 28 3b 6c be 48 70 36 3d 60 05 a8 3d 98 6b 90 bc
       -0.23069441 0.044540673 0.0820415 -0.01762943
0000e0 18 8b 57 3e 38 2e 58 3e 9b 3e 78 be fc 1a d4 bd
       0.21049154 0.21111381 -0.24242632 -0.10356709
0000f0 d3 67 36 be 32 38 49 3e ba 39 0b be 50 ed 73 3d
       -0.17813043 0.19650343 -0.1359624 0.05955249
000100 03 88 84 be 2a 9a 20 3e c4 7d 28 be 76 ca 71 be
       -0.2588502 0.15683809 -0.16454226 -0.23612389
000110 a0 ff 26 3c b0 8d cd 3d 32 dc 55 be a4 4d df bd
       0.010192782 0.1003679 -0.20884779 -0.10903481
000120 44 56 2a 3e b4 51 cd bd 8c 32 8d bd fb 64 1d be
       0.1663447 -0.10025349 -0.06894407 -0.15370552
000130 d6 ff 75 3e 90 90 c7 3c 7a 28 78 3e a7 05 83 3e
       0.24023375 0.024360925 0.2423419 0.2559025
000140 a2 41 c3 bd e8 e6 76 be 39 51 81 be a8 bb 3c be
       -0.09534003 -0.24111521 -0.2525728 -0.1843096
000150 00 db f8 3b 08 bf 87 3d 80 fb 5c 3b 48 0f 80 bd
       0.007594466 0.06628233 0.0033719242 -0.06252915
000160 b0 e6 33 3d 10 88 4c 3e e0 6a 49 3d fa c3 69 be
       0.043921173 0.19973779 0.04917419 -0.22828665
000170 97 e7 58 be ca a9 6c 3e 38 f0 a9 bd 98 7e 40 bd
       -0.21182095 0.23111644 -0.08297771 -0.04699573
000180 c8 74 61 3d 6a 5c 71 3e 34 27 40 3e 3a 9a 3b be
       0.055043012 0.2357041 0.18764955 -0.18320552
000190 cc 3b af 3d 58 47 06 3e f8 b0 5d 3d 10 88 1b 3d
       0.08556327 0.13113153 0.05412385 0.037971556
0001a0 bc 2d 73 be f0 0d d7 3d b4 15 41 3e 12 e4 19 3e
       -0.23747915 0.10500705 0.18855935 0.15028408
0001b0 17 45 82 3e 76 33 86 bd 18 30 bb bd a4 ce 2f be
       0.25443336 -0.06552784 -0.091400325 -0.17168671
0001c0 9d e1 36 be ae a5 3f be 30 12 4e bd a5 67 3d be
       -0.17859502 -0.18715546 -0.050310314 -0.18496569
0001d0 aa 00 78 3e 90 56 95 3c 35 ad 08 be 88 28 32 be
       0.24219003 0.018229753 -0.13347323 -0.17398274
0001e0 6a af 66 3e 24 3e c5 3d a0 d5 78 bc a0 31 f1 3d
       0.22527853 0.09630993 -0.015187651 0.11777043
0001f0 12 a8 25 be a8 c2 90 3d 50 90 8b 3d d8 36 5d be
       -0.16177395 0.07068378 0.06814635 -0.21602952
000200 3a ee af bd 98 54 3c be fe 8d 69 3e 80 7c 54 bc
       -0.0859036 -0.18391645 0.22808072 -0.012969136
000210 60 2e 2f 3e d2 d7 4f 3e b7 f2 12 be 42 34 48 3e
       0.17107534 0.20297173 -0.14350401 0.19551185
000220 f4 15 89 bd bc 33 38 3e 8c 0f 58 3e f2 d9 38 be
       -0.0669364 0.17988485 0.2109968 -0.1805189
000230 4a c2 1b 3e d8 0e c0 bd 62 47 17 3e 49 a0 0e be
       0.15210834 -0.09377831 0.14773324 -0.13928331
000240 98 8c 97 3d ae 32 71 3e cc 56 00 bd da 31 b1 bd
       0.07399863 0.23554489 -0.031332776 -0.086520866
000250 92 fe 7b 3e aa 5e 1a be b0 6e a1 3d 03 9d 48 be
       0.2460883 -0.15075174 0.0788244 -0.19591145
000260 cb 72 6e be 7b 1b 68 be 1c f3 12 3e 8c fd c4 3d
       -0.23285978 -0.22666733 0.14350551 0.09618673
000270 94 4b b7 3d a8 86 0e 3d b6 a3 48 3e 0c dc 21 be
       0.08949962 0.034796387 0.19593701 -0.15806597
000280 dc 29 1e 3e e8 c0 03 3d 3e 19 1e be 2c ed 7a bd
       0.15445656 0.03216639 -0.15439317 -0.06126134
000290 20 a7 2b be b4 02 d6 bd f8 d5 3a 3d 8a c2 58 be
       -0.16762972 -0.10449734 0.045614213 -0.21167961
0002a0 b0 57 7b 3d d6 74 2d be be 60 06 3e 00 62 44 3b
       0.061362922 -0.169391 0.13122842 0.002996564
0002b0 8e 26 c1 bd 1f ee 84 3e 3c 81 03 bd 18 82 23 bd
       -0.09431182 0.25962922 -0.03210567 -0.03991899
0002c0 80 e0 c1 3c df 02 4c be 1e a0 51 3e 02 3f 16 3e
       0.02366662 -0.1992297 0.20471236 0.14672473
0002d0 f4 36 92 bd e8 1d f3 bd 5a f0 7f 3e d0 72 22 3e
       -0.07139388 -0.118709385 0.2499403 0.1586411
0002e0 38 35 e3 3d 3e fc cc bd d8 60 72 bd e8 93 fd 3d
       0.11094135 -0.10009049 -0.05917439 0.123817265
0002f0 d6 a9 7d 3e aa 4d 7c be 1e a5 97 bd bb 41 84 3e
       0.24771819 -0.24639001 -0.074045405 0.25831398
000300 50 94 69 be 80 ba 53 3e 00 e5 cf 3c 94 7f fa bd
       -0.22810483 0.20676613 0.02537775 -0.12231365
000310 40 9d 26 bc 6e 90 19 3e c8 8c 50 3d d4 f0 52 3e
       -0.010169327 0.14996502 0.05091551 0.20599681
000320 dd 56 25 be 48 21 e7 3d 20 15 02 3d 08 5b 2f bd
       -0.16146417 0.11285645 0.031758428 -0.042811424
000330 fc 1a e5 3d 00 b2 55 3a 18 bd 92 bc b8 91 fc 3d
       0.111867875 0.0008151829 -0.017912433 0.12332481
000340 a0 8e 32 bd 6e b6 9f bd 8c 13 fe 3d a6 08 05 3e
       -0.04359305 -0.077984676 0.12406072 0.1299158
000350 3a d2 3c be ac 45 41 3e c0 a6 c6 bd c8 29 4d 3e
       -0.1843957 0.18874234 -0.09699774 0.2003547
000360 8c 64 0d 3e 30 26 25 3e 86 39 39 3e 64 fa 6c 3e
       0.13807887 0.16127849 0.1808835 0.23142391
000370 00 a7 cf ba ca 68 5a 3e 40 0e 80 bb 4a b5 6f 3e
       -0.0015842617 0.21329036 -0.0039079487 0.23409
000380 38 cf 2c be c6 8a 43 3e 2c b5 c1 3d 60 e9 04 3c
       -0.16875923 0.19095907 0.09458384 0.008112282
000390 a2 5b b5 bd 5c e8 98 3d e0 82 1a 3d 70 fc ac bd
       -0.08855368 0.07466194 0.03772247 -0.08446586
0003a0 b8 c8 c6 3d 30 66 dd 3d 70 6c f9 bd 84 b8 cd 3d
       0.09706253 0.10810506 -0.12178886 0.10044959
0003b0 f2 df 26 be 55 44 1a be 5e 2d e5 bd 80 05 a1 3c
       -0.16296366 -0.15065129 -0.11190294 0.019655943
0003c0 28 37 bf bc 44 aa 63 3e 60 eb 30 bc 2e 79 c5 bd
       -0.02334173 0.2223292 -0.010798305 -0.09642254
0003d0 49 8e 68 be 65 79 3b be 50 4d 83 bc fd 02 86 3e
       -0.22710527 -0.18308027 -0.016028076 0.26174155
0003e0 90 f4 82 3c 2c ab 23 be e4 1c 23 bd a9 95 1c be
       0.015985757 -0.15983266 -0.039822474 -0.15291466
0003f0 fa 85 42 3e fc a4 3b 3e 43 78 39 be fc 1b 54 3e
       0.1899642 0.18324655 -0.18112282 0.207138

l1.bias f4 [50]
000000 b8 a9 e8 bd ea 70 47 3e 20 b2 76 bc ba fa 9f bd
       -0.11360496 0.19476667 -0.015057117 -0.07811494
000010 46 a3 6a 3e d0 7a 89 bd d0 47 34 3e e0 24 04 be
       0.22913846 -0.06712878 0.1760552 -0.12904692
000020 78 62 82 be 35 55 88 3e 10 53 54 3d 34 69 f9 3d
       -0.2546575 0.26627508 0.051837027 0.12178269
000030 18 44 32 3d 30 d7 75 3d 40 69 18 bc 70 b7 67 bd
       0.04352197 0.060019672 -0.009302437 -0.056571424
000040 3a 13 59 3e bc a2 e6 bd 82 24 5f be b8 f9 c1 3d
       0.2119874 -0.11261508 -0.2179127 0.09471458
000050 de 09 74 be 94 7a 9c 3d 3c 17 d2 bd c2 54 08 3e
       -0.23831889 0.076405674 -0.10258338 0.13313583
000060 10 69 5c bd 96 02 40 be 44 2d 6f be 8a 60 40 be
       -0.053811133 -0.18750986 -0.23357111 -0.18786827
000070 3b f8 7f be 78 48 52 be 40 8b f0 bb cc 20 20 be
       -0.24997036 -0.20535457 -0.0073408186 -0.15637511
000080 34 4b 88 bd ba 96 12 3e 08 75 0c 3d 20 8c f0 bc
       -0.06654969 0.1431531 0.034291297 -0.029363692
000090 18 37 af 3d 75 d0 83 be fe 17 4b 3e 58 c0 fb 3d
       0.0855543 -0.25744978 0.19833371 0.12292546
0000a0 74 3e 33 bd 63 ed 83 be ea 81 30 be 01 6e 83 be
       -0.04376073 -0.2576705 -0.17237058 -0.25669864
0000b0 d4 09 28 bd 64 54 78 bd 53 41 22 be 22 1d 7b 3e
       -0.041024998 -0.060627356 -0.15845232 0.24522832
0000c0 54 7a 70 bd 34 0d a6 3d
       -0.05871041 0.08107987

l2.weight f4 [100, 50]
000000 6a f0 0c be 10 32 7b bd 18 80 87 3d e5 11 06 3e
       -0.13763586 -0.06132704 0.06616229 0.13092764
000010 73 a7 84 bd 78 b3 b6 bc 90 f6 a1 bd 18 e2 b2 bd
       -0.06477251 -0.022302374 -0.07908356 -0.0873453
000020 68 d1 c2 3c c7 eb f7 bd 84 6c 98 bc 4e e1 96 3d
       0.023781493 -0.12105518 -0.018606432 0.07367192
000030 21 ee 0a be 14 5f e3 bd dc c5 7b 3d 76 f9 ed 3d
       -0.13567401 -0.11102119 0.06146799 0.116198465
000040 10 c9 61 3d 24 42 97 3d d0 63 73 3d 40 8a d2 3b
       0.05512339 0.07385662 0.05942136 0.006425172
000050 8d 80 0e 3e a0 ad c1 bb c4 a0 56 bd 5e b0 f9 3d
       0.13916226 -0.0059105903 -0.05239941 0.121918425
000060 e4 ed bc 3d 1d 9d a1 bd 50 a9 46 3c 15 12 a6 bd
       0.092250615 -0.07891295 0.012125328 -0.081089176
000070 db e9 04 3e ea f2 ad 3d 76 c4 ad 3d 00 95 3a ba
       0.12979834 0.08493598 0.084847376 -0.00071175396
000080 9c b8 54 3d be 37 0e be f0 00 d3 3c c6 0e e2 3d
       0.05193387 -0.13888451 0.025757283 0.11037974
000090 68 f9 8d 3c 70 55 9c 3c 1a a0 9e bd 1c 98 32 bd
       0.01733084 0.019083709 -0.07745381 -0.043602094
0000a0 1a bc 20 bd 00 24 a9 b9 96 b6 95 3d 1a 84 c0 bd
       -0.039241888 -0.00032261014 0.07310216 -0.094001964
0000b0 20 0c b3 bb 5c 0b 10 be 26 8b c7 3d ab 4a b0 bd
       -0.005464092 -0.14066833 0.09743337 -0.08607992
0000c0 cd 34 99 bd 80 7b e0 3c 48 9f d2 bd b4 b2 41 3d
       -0.07480774 0.02740264 -0.10284287 0.047289565
0000d0 ec f3 4e 3d b0 af ba bc 34 dc de bc 74 69 13 3d
       0.05052559 -0.022788852 -0.02720461 0.03598924
0000e0 d8 34 b4 bd b8 dc a1 3c 97 46 aa bd 2c c3 be bd
       -0.08799142 0.019758567 -0.08314245 -0.0931457
0000f0 e2 5f df 3d f8 6c 5a 3d d9 8d 0b be 00 15 eb 3a
       0.1090696 0.053326577 -0.1362833 0.0017935336
000100 82 54 e1 3d 95 96 91 bd b6 f6 f6 bd e0 36 fe 3b
       0.11002447 -0.07108799 -0.12058775 0.0077580065
000110 e8 80 3c 3d fe 33 b2 bd 3e f5 4d bd 70 e1 36 bd
       0.046021372 -0.08701323 -0.05028271 -0.044648588
000120 ec 5a f9 bc 58 54 27 3d 60 da 82 3d 5b aa 10 be
       -0.030438863 0.04085192 0.06389308 -0.14127485
000130 8f a2 07 be e4 ec 6b bd 90 d5 c9 bc 20 f4 c4 bd
       -0.13245605 -0.057598963 -0.024637967 -0.09616876
000140 84 bf 0a be 48 fb 34 3d 3c 2a c3 bd 86 51 c2 3d
       -0.1354962 0.044184953 -0.0952954 0.094882056
000150 2c 88 76 3d fd c5 fb bd 00 d6 5c 3d 62 82 38 bd
       0.060188457 -0.12293623 0.053915024 -0.045046218
000160 22 b6 e8 3d c4 73 c0 bd 9c c6 20 3d 38 4e 85 3c
       0.11362864 -0.093970805 0.03925191 0.01627265
000170 e6 fe de bd 46 27 cf 3d 40 8c 77 3d 0a ec f7 3d
       -0.10888462 0.10114913 0.060436487 0.12105568
000180 70 4c 0d be 5a c8 ee 3d a4 d0 0c be ee bb b2 bd
       -0.1379869 0.11659308 -0.13751465 -0.08727251
000190 6c 93 1d 3d 40 b5 d6 3d 00 8f 22 3d b2 2e b5 bd
       0.03847067 0.104837894 0.039687157 -0.08846797
0001a0 23 ac 03 3e b2 37 3a bd 94 1a cd bd 01 f7 9f bd
       0.12858634 -0.04546327 -0.10014835 -0.07810784
0001b0 00 22 f5 b9 e0 1c f8 bd e5 5d 03 3e eb f7 9c bd
       -0.00046755373 -0.121148825 0.12828787 -0.07664474
0001c0 1a 05 e4 3d d4 b5 69 3d 3b 15 fa bd df 59 10 be
       0.111337855 0.05705817 -0.12211081 -0.14096783
0001d0 7e ad fc 3d 7a 7d c9 3d a0 63 81 3d db 95 06 be
       0.123377785 0.09838386 0.0631783 -0.13143103
0001e0 70 03 da bd c0 9b 5f 3b d2 c8 35 bd e1 c2 8a bd
       -0.10645187 0.0034119934 -0.04438097 -0.067754515
0001f0 6e f9 8e 3d 60 f2 5f bc 2e 2b c4 3d 09 e2 04 3e
       0.06981169 -0.013668627 0.09578548 0.1297685
000200 9e da d0 bd c4 55 9f 3d c5 70 ea bd 88 a4 9f 3c
       -0.10197948 0.0778003 -0.1144729 0.019487634
000210 40 c6 d1 3b 20 7a c3 3b 7f 28 03 3e 4c f9 c6 3d
       0.006401807 0.005965486 0.12808417 0.09715518
000220 ec 3e 9d 3d 54 97 6d bd 80 2d 29 3d 3a 1a e2 bd
       0.07678017 -0.058005646 0.041303158 -0.110401586
000230 4c 02 a3 bc f1 fb f8 bd 20 d2 82 3b 38 4b 84 3d
       -0.019898556 -0.12157429 0.003992334 0.06459659
000240 67 13 10 be 70 d6 f2 3c 9e ae e0 3d 82 a4 99 bd
       -0.14069901 0.029643267 0.109708056 -0.075020805
000250 93 81 0b 3e ba f8 82 3d cf 87 0b 3e 88 71 05 3d
       0.13623647 0.06395097 0.13626026 0.032578975
000260 b8 13 c6 bc 32 7e 38 bd 8c fe 07 be f4 04 10 bd
       -0.024179325 -0.045042224 -0.13280696 -0.035160974
000270 4a d3 fb 3d 88 40 ea bc d6 26 fb 3d 72 ca 37 bd
       0.122961596 -0.028595224 0.12263267 -0.0448708
000280 f5 1e 09 be ba 78 3c bd 30 92 f7 bd ec 59 bb bc
       -0.13390715 -0.04601357 -0.1208843 -0.022870027
000290 14 f2 5d 3d 8a 7e e9 3d 5c 5b eb bd 50 d9 73 3c
       0.05418594 0.114010885 -0.11492035 0.014883354
0002a0 10 94 cb 3d 3c 8a ee bc 30 6e 87 3d b0 44 05 3d
       0.0994035 -0.02911865 0.066128135 0.03253621
0002b0 60 84 8a bc 00 71 ee bb 46 af bb bd 3c 0a ec bc
       -0.016908824 -0.0072766542 -0.0916429 -0.028813474
0002c0 66 47 f3 bd c5 3c a1 bd 56 fc f4 3d e0 59 a0 bd
       -0.118788525 -0.07872919 0.11962192 -0.07829642
0002d0 44 37 86 bd 0e db 8f 3d 20 df b9 3d f6 8b b4 3d
       -0.0655351 0.07024203 0.09075761 0.08815758
0002e0 00 e5 af 3a 16 3a ec 3d 40 a6 d3 3b 2a 94 82 3d
       0.0013419688 0.115345165 0.0064590275 0.06375916
0002f0 62 d2 65 bd cc a9 3a 3d ec 56 8e 3d a0 b6 04 3d
       -0.05610884 0.045572087 0.06950173 0.032400727
000300 40 85 3d 3b 74 8d 72 3d 50 4a 21 bc ba 3c f2 3d
       0.0028918535 0.05921693 -0.009844378 0.11827989
000310 37 ad 08 be 68 d6 8a bd 9d 5f 91 bd 30 f5 d2 bd
       -0.13347326 -0.06779176 -0.07098315 -0.10300672
000320 f5 14 e3 bd cc 6f 44 3d d6 d7 83 bd 34 30 34 bd
       -0.110879816 0.04795818 -0.06437652 -0.043991283
000330 30 24 99 3c 80 f4 a2 bd fc dc 08 bd 30 fb 62 3d
       0.018694013 -0.07956791 -0.033413872 0.055415332
000340 0a 70 23 bd b0 74 dc 3d 24 eb 10 3d 24 c8 16 3d
       -0.03990177 0.10764444 0.035380498 0.036811963
000350 a8 e5 57 3d 8b e3 c7 bd c4 f0 8f 3d 4c 93 d1 bd
       0.05270925 -0.09760197 0.07028344 -0.10233173
000360 15 05 ae bd 00 7a 71 bb a0 92 87 bb b6 e4 01 be
       -0.08497063 -0.00368464 -0.004137352 -0.12684903
000370 a0 7c 1a 3d 7e dd 0e bd c8 97 ff 3c 8e 08 8f bd
       0.037716508 -0.0348792 0.031200305 -0.069840536
000380 64 54 c6 bc 88 42 a2 bd d4 9b 48 3d 59 d3 06 3e
       -0.024210162 -0.07922846 0.048976734 0.1316656
000390 f4 19 17 3d 7a 26 94 3d 70 2e 76 3c 82 bb ad bd
       0.036889985 0.07233901 0.01502572 -0.0848303
0003a0 15 d7 0b be 6f ad fa bd c5 21 06 be 5d ef c5 bd
       -0.13656266 -0.12240111 -0.1309882 -0.096647955
0003b0 68 08 dc 3d af 54 10 3e ea c4 f2 3d b8 1d 5d 3d
       0.10743791 0.14094804 0.118539646 0.05398342
0003c0 20 f3 b0 bb a2 40 93 bd 28 65 fa 3c 28 98 dc 3d
       -0.0054000765 -0.07190062 0.030565813 0.10771209
0003d0 40 84 7d 3b 73 5e e6 bd ca 22 ea 3d 22 fd 0c be
       0.0038683563 -0.112484835 0.11432417 -0.13768438
0003e0 9e 36 f6 3d 08 bb dd 3d 31 8c 85 bd 5e 89 5c bd
       0.12022136 0.10826689 -0.0652088 -0.05384194
0003f0 e0 9f c6 3b 54 38 71 bd ce a3 a5 3d b0 c4 28 3d
       0.006061539 -0.05889161 0.08087884 0.0412032

l2.bias f4 [100]
000000 c6 ad 82 3d ac f2 e2 bd 76 f4 e0 3d 24 64 dc 3d
       0.06380801 -0.11081442 0.10984127 0.10761288
000010 0c 06 b2 3d bc dd 0b 3d b6 a6 db 3d 9e 28 bb 3d
       0.086925596 0.03414701 0.10725157 0.091386065
000020 a8 40 a8 3c e4 14 0c be d2 8b e8 3d 00 5f c8 bb
       0.020538643 -0.13679844 0.113547936 -0.0061148405
000030 e4 48 7a bd 00 54 75 3d 2e ca a2 bd 92 f4 2a bd
       -0.06110467 0.05989456 -0.07948719 -0.041737147
000040 00 26 cc ba 60 ca ce 3d e2 12 88 3d 58 14 8e 3c
       -0.001557529 0.10097194 0.066442266 0.017343685
000050 67 6e 08 be 34 31 2b 3d ce 8e d3 bd ce 50 09 bd
       -0.13323365 0.04179497 -0.10329972 -0.033524327
000060 80 ff ab bb b7 7f 03 3e 06 2f 04 bd 90 ff ae 3d
       -0.005248964 0.12841688 -0.032271408 0.085448384
000070 9c ea a2 bd d0 b0 17 bc 76 38 ab 3d ac 5d bd bd
       -0.079549044 -0.009258464 0.083603784 -0.09246382
000080 a8 07 56 bd 8e 5c df bd db 34 0e be 82 a8 80 3d
       -0.052253395 -0.10906325 -0.1388735 0.0628214
000090 8c 05 99 bc f6 d7 f0 3d e0 a7 d8 bd 38 2b e5 bd
       -0.018679403 0.11759941 -0.105788946 -0.11189884
0000a0 28 e3 04 3d 00 72 b1 ba 70 b2 2e 3c 76 fb d1 bd
       0.032443196 -0.0013538003 0.01066266 -0.102530405
0000b0 7c e8 c4 bd 72 34 a1 3d 1c f8 90 bc 48 32 99 bd
       -0.096146554 0.07871331 -0.017696433 -0.074802935
0000c0 04 5a d0 bc e4 76 62 bd 02 42 fb bd 51 58 04 be
       -0.025433548 -0.055289164 -0.12268449 -0.12924315
0000d0 ff ae 0a 3e 00 45 d3 bd 18 83 cb bd 58 f4 a4 bc
       0.13543318 -0.10315895 -0.099371135 -0.020136043
0000e0 a0 08 a8 3c 48 58 07 3d 7e 68 c6 bd 21 5e 88 bd
       0.020511925 0.033043176 -0.09687899 -0.06658579
0000f0 c0 86 37 3c e1 21 a2 bd 3a d7 da bd e0 b6 88 bb
       0.0112015605 -0.07916618 -0.106855825 -0.004172191
000100 c0 a4 ed bd 39 d7 0b 3e f0 ee 13 3d 1c 7c c0 3d
       -0.11603689 0.1365632 0.03611654 0.09398672
000110 c8 d2 c7 3c 5c 59 8d bd 7e 8b 9a 3d 38 37 91 3c
       0.0243925 -0.069018096 0.07546137 0.017726526
000120 67 93 a6 bd a6 84 e9 3d 00 f3 dd ba 80 ac c2 ba
       -0.081335835 0.11402254 -0.0016933382 -0.0014852434
000130 0e 93 1e bd 00 93 14 3b ae e8 de 3d 30 2e 11 bc
       -0.03871446 0.0022670627 0.10884224 -0.00886111
000140 ce e4 39 bd 48 66 be 3c 66 e5 c7 bd 7a 90 0e be
       -0.04538422 0.02324213 -0.09760551 -0.13922301
000150 c0 c8 8a 3b de 1e 89 bd 08 1d 3c bd 0a 22 ea 3d
       0.004235357 -0.066953406 -0.045926124 0.11432274
000160 b0 3d af bd 66 bb 84 3d da 7e c7 bd e0 8f a4 bb
       -0.08556688 0.06481056 -0.09740992 -0.005022034
000170 66 a6 0f bd 6b ad 0f 3e 64 47 f3 bc 12 3d dd 3d
       -0.0350708 0.14030997 -0.029697128 0.10802664
000180 e0 fb ab bb 24 ea 4f 3d 08 2b 96 3d 86 fa f8 3d
       -0.0052485317 0.050760403 0.07332426 0.121571586

l3.weight f4 [20, 100]
000000 64 48 0a bd 1d 68 a1 3d 30 4d 39 3c b3 86 83 3d
       -0.033760443 0.07881186 0.011309907 0.06422176
000010 f4 c5 e9 bc 40 4a 89 3c 17 7a b5 3d 6f cb 9a 3d
       -0.028536774 0.016759038 0.088611774 0.07558333
000020 fe 4e 22 3d 15 3b a8 3d d0 fe a5 bb 2a 56 4b 3d
       0.039626114 0.08214394 -0.0050657764 0.04964272
000030 29 a8 b4 3d d8 52 2a bc b2 7f 3d 3d 63 93 9a bd
       0.088211365 -0.010395728 0.046264358 -0.07547643
000040 03 9f b7 3d b3 c7 66 bd 78 cc de bc 63 2a bf bd
       0.08965876 -0.05634279 -0.027197108 -0.093342565
000050 56 7d 41 3d 8b 42 c4 3d 4d d7 cb bd 94 51 c5 bc
       0.04723867 0.095830046 -0.09953175 -0.024086751
000060 97 4f b1 3d 75 2a a3 bd 48 7f c0 3c 89 65 c1 3d
       0.08657759 -0.079670824 0.023498192 0.094431944
000070 67 5d c0 3d a1 b9 9b 3d d1 89 8c 3d ef 0c 92 3d
       0.09392815 0.07603765 0.06862224 0.07131373
000080 a2 12 67 3d e8 e2 64 bc 52 ab 2a 3d 67 83 5b bd
       0.056414254 -0.013970114 0.04166729 -0.053592112
000090 3f ea 93 3d e5 0e 96 bd 10 89 9d bd 00 3f ce bb
       0.07222413 -0.0732706 -0.07692158 -0.0062941313
0000a0 2f 96 ad bd 6e 45 44 3d 17 83 c6 3d 95 ce 92 3d
       -0.08475911 0.047917776 0.09692972 0.07168309
0000b0 05 16 87 bd cc 40 95 bc f8 17 9d bc 87 a6 3b bd
       -0.06595997 -0.018219374 -0.019176468 -0.04581311
0000c0 59 fe 9c 3d 68 ff c7 bc b1 d6 84 3d 39 87 c6 3d
       0.076657005 -0.02441378 0.06486262 0.096937604
0000d0 e3 2c b6 bd c8 99 f5 bc e8 4f 66 bc 33 3b 7b bd
       -0.0889528 -0.029980555 -0.014057137 -0.061335754
0000e0 42 a7 0a 3d b8 3e c0 3c 4e f1 5d 3d 7a 1f 63 3d
       0.033850916 0.023467407 0.054185204 0.05544994
0000f0 02 05 1f 3d d7 bc 98 3d 20 71 df bb be 75 a8 bd
       0.038823135 0.07457893 -0.0068189055 -0.082255825
000100 bd 56 bc 3d 5a 10 63 bd 91 d2 95 3d 73 3c c8 3d
       0.091962315 -0.055435516 0.07315553 0.09777155
000110 3a 30 68 3d 1d 7d 69 bd 14 2f dd 3c b0 8d f0 3b
       0.056686617 -0.057004083 0.026999988 0.007341109
000120 98 95 34 bc eb aa bb 3d 85 3c b6 bd c5 0e c2 bd
       -0.011021994 0.091634594 -0.08898262 -0.09475473
000130 20 da 86 bd 0a 85 7f 3d 58 1e e5 bc d0 36 05 bd
       -0.06584573 0.062382735 -0.02796857 -0.032522976
000140 54 fe 8a bc 1d 89 63 bd bf 7f bd bd 0a b4 18 3d
       -0.016966976 -0.055550683 -0.09252881 0.037281074
000150 86 87 03 3d 9b 64 c7 3d c8 b7 88 bc 69 ec 85 3d
       0.032111667 0.09735986 -0.016689196 0.06539232
000160 00 47 46 3c 88 e1 c3 3c 88 b6 9c bc a3 52 2f bd
       0.012101889 0.023911253 -0.019130006 -0.042803418
000170 00 1f 6f bd d3 d4 26 bd 8d 54 85 3d f4 af 89 bd
       -0.058379173 -0.04073031 0.065102674 -0.067230135
000180 d6 5a 83 bd d5 07 88 3d c3 9a c0 bd 0e 26 24 3d
       -0.0641381 0.06642119 -0.094045185 0.040075354
000190 75 13 aa bd 49 da af 3d c3 2c b2 3d ec d8 ce 3c
       -0.083044924 0.085865565 0.08699944 0.02524992
0001a0 79 7b c8 3d 8d d1 6e bd c2 3b 41 3d 50 fe 4a 3c
       0.097891755 -0.058305312 0.04717613 0.012389734
0001b0 95 d9 89 bd 03 4d a3 3d aa 64 9c bd bc ee e9 3c
       -0.067309536 0.07973673 -0.07636388 0.02855622
0001c0 59 40 94 3d 40 7f fb 3a fc 74 e2 3c 48 95 91 bc
       0.07238836 0.0019187704 0.027643673 -0.017771378
0001d0 f2 63 20 3d e1 97 b0 3d 18 20 03 bc 00 fa 89 b9
       0.039157815 0.086227186 -0.008003257 -0.0002631694
0001e0 e1 35 91 3d 63 ce ad bd 34 11 a9 bc 9c 75 84 bd
       0.07090355 -0.08486631 -0.020638086 -0.06467745
0001f0 dd ab 6c bd 62 71 1d 3d f8 41 83 bc ac b7 f0 3c
       -0.05778109 0.03843821 -0.016022667 0.029384457
000200 ba 9d b7 bd 06 4c 8d bd 00 0e da b9 1f d8 ad bd
       -0.08965631 -0.06899266 -0.0004159063 -0.084884875
000210 65 40 87 3d 82 9b b2 bd e7 80 58 bd 6a 43 49 bd
       0.06604079 -0.08721067 -0.052857306 -0.049136557
000220 6e 7f 52 3d f0 71 67 bc a8 3d 65 bc 8e f9 8e bd
       0.051391058 -0.014126286 -0.013991751 -0.069811925
000230 29 b4 ae 3d 20 0d bf bc 4e ea 4b 3d 74 c5 9c 3c
       0.085304566 -0.023321688 0.049783997 0.019137122
000240 00 a3 0e bb 80 3a 79 ba b9 4b b3 3d 27 73 bc bd
       -0.0021764636 -0.00095073134 0.08754677 -0.09201651
000250 23 16 7f bd e8 13 79 bc c3 33 b1 bd 7a c2 38 bd
       -0.06227697 -0.0152025 -0.08652451 -0.045107342
000260 71 76 94 3d d3 65 4f bd 35 13 bb 3d 37 d6 c7 bd
       0.072491534 -0.050634217 0.09134523 -0.09757655
000270 c0 b7 71 3b cc de 87 bc ea 52 a6 bd b2 b9 1d 3d
       0.0036883205 -0.01658573 -0.08121283 0.03850717
000280 f2 47 14 3d 9f 98 c5 3d c1 70 cc 3d c9 68 a6 3d
       0.036201425 0.09648251 0.099824436 0.08125455
000290 18 eb b3 bd e0 7d ac 3b df 4b 9c 3d c4 c4 11 bd
       -0.08785075 0.005264029 0.07631659 -0.03558804
0002a0 49 70 a4 3d 10 d6 3d bc 38 a5 b6 3c e0 99 83 bb
       0.08029229 -0.011586681 0.02229558 -0.004016146
0002b0 08 c3 b4 bc 70 1b 2b bd 6f f5 98 3d 48 89 a8 bd
       -0.022065654 -0.041774213 0.07468688 -0.08229309
0002c0 f1 a9 b2 3d 62 d7 27 3d 27 6c ba 3d 4b aa 88 3d
       0.0872382 0.04097689 0.0910266 0.06673106
0002d0 71 10 81 3d 80 4b b5 bb ca 0c 7d 3d b1 5b 87 3d
       0.06301964 -0.005532682 0.061779775 0.066092856
0002e0 17 47 a5 3d d0 58 cc bd b0 42 33 bd 54 a0 10 bd
       0.080702 -0.09977877 -0.04376477 -0.03530915
0002f0 30 89 5d bd 1b 76 c9 bd 54 20 b4 3c 22 ad a4 bd
       -0.05408591 -0.0983698 0.021988072 -0.08040835
000300 cc 51 ea bc 05 58 af 3d b2 b4 83 bd a4 2b 8b bd
       -0.028603457 0.0856171 -0.06430949 -0.06795433
000310 91 11 a5 3d 5d ef 49 bd e2 17 c1 bd 45 98 b5 bd
       0.08059991 -0.04930054 -0.094283834 -0.08866934
000320 e8 1b 78 3c 86 03 0a bd 21 6e 90 3d 5b 57 b8 3d
       0.015143372 -0.033694766 0.070522554 0.09001037
000330 8a 2a 27 bd f8 5a c5 bc 93 3a 92 bd 56 31 17 3d
       -0.040812053 -0.024091229 -0.071400784 0.036912285
000340 ed 2f 9a 3d a0 c0 14 3b 44 33 eb 3c d0 10 80 bb
       0.07528672 0.0022697821 0.028710969 -0.003908254
000350 e0 3f 8c 3c 3b f8 a3 bd 20 3d ea bc e9 4d a7 3d
       0.017120302 -0.080063306 -0.0285936 0.08169157
000360 5b 14 b6 3d 60 ca 3f bb 1a eb a2 bd c3 1e ba bd
       0.08890601 -0.0029264912 -0.07954998 -0.090878986
000370 34 8b 90 bc c7 ba ae bd 77 ae b8 3d 9f 88 9e 3d
       -0.017644502 -0.08531719 0.090176515 0.07740902
000380 da d6 26 3d c0 2b 60 bb 4b af c5 3d 68 c3 77 bc
       0.040732242 -0.0034205765 0.09652575 -0.015122272
000390 bd ef 91 bd cd 99 c1 3d 5e fb 30 3d e5 aa b5 3d
       -0.071258046 0.09453163 0.043208472 0.08870486
0003a0 1d a6 ca bd b2 d8 6d 3d f6 3a 3c 3d 89 15 9b 3d
       -0.09894965 0.058067985 0.045954667 0.07572467
0003b0 50 e4 35 3c a0 01 b1 3b 0c be 90 3c 28 72 c4 bd
       0.011101797 0.005401805 0.017668746 -0.09592086
0003c0 08 44 96 bd c9 ae a7 3d 33 9f 33 bd 32 c7 0f 3d
       -0.07337195 0.081876345 -0.043852996 0.035102077
0003d0 5e cf a4 bd 50 36 39 bc a5 9a 94 3d 60 a9 cb bb
       -0.08047365 -0.011304453 0.072560586 -0.0062152594
0003e0 82 40 89 bd 5a 2b 74 3d 1b 1b ba bd ab 51 b5 bd
       -0.06701757 0.059611656 -0.09087201 -0.088534676
0003f0 58 c4 09 bc 2e 6e 15 3d b4 e8 c3 bc ac 41 fb bc
       -0.008408628 0.03648203 -0.023914672 -0.030670963

l3.bias f4 [20]
000000 67 a0 be bd 8f f9 8c 3d c2 f5 6e 3d fa f6 30 bd
       -0.09307938 0.06883537 0.05833984 -0.043204285
000010 f5 1d 8e bd 69 bd ba 3d d7 26 80 3d 6d a4 6d bd
       -0.069393076 0.09118158 0.06257408 -0.058018137
000020 33 b5 91 bd 2a c8 67 3d 74 2f d8 3c 7d 73 c1 bd
       -0.07114639 0.056587376 0.026389815 -0.09445856
000030 22 8a 15 3d 72 40 aa bd fb 7e c0 3d 11 29 b9 3d
       0.036508687 -0.08313073 0.093992196 0.09041036
000040 0c 47 8b 3c ec c1 8b 3c 7b 0c c2 3d 80 1a 8d bd
       0.017001651 0.017060243 0.09475037 -0.0688982

output.weight f4 [8, 20]
000000 08 da 4f be 84 dd c3 3d 2a a6 53 be 40 39 8f 3b
       -0.20298016 0.09563735 -0.20668855 0.0043708384
000010 54 82 45 bd 70 a0 1a 3e 74 9b aa bd b9 07 e1 bd
       -0.048219994 0.15100265 -0.083304316 -0.10987801
000020 15 d7 ce bd 0e 39 c2 bd 68 fb 30 bd 26 ba 08 3e
       -0.100996174 -0.094835386 -0.04320851 0.1335226
000030 92 cc bd bd 40 87 7b 3c 26 63 03 3e 20 3f ab bc
       -0.09267534 0.01535207 0.12830791 -0.020904124
000040 bc 5f d0 bd ce 80 00 3e 28 a6 95 bc 58 5d cf bd
       -0.1017451 0.12549135 -0.018267706 -0.10125226
000050 54 e4 cd bd 00 d3 b5 3d 5e e0 61 be f0 50 2f be
       -0.10053316 0.08878136 -0.22058246 -0.17120719
000060 5c b4 b5 bd 6a 2f 9c bd 80 14 d1 3d c8 88 2e 3e
       -0.088722914 -0.07626231 0.10208988 0.17044365
000070 5a d0 57 3e 19 9c 2b be 64 d4 11 be 8a 24 0c be
       0.21075574 -0.16758765 -0.14241177 -0.13685814
000080 a8 94 cb 3d 00 f7 b9 ba 98 7f f3 bd 0c a3 04 be
       0.09940463 -0.0014187992 -0.11889571 -0.12952822
000090 8d 32 5f be 1b 2c 5d be 87 42 36 be d0 02 e7 3c
       -0.21796627 -0.21598856 -0.17798816 0.028199583
0000a0 96 d7 4b be 9c 30 99 bd bc 64 2a bd 3e 72 48 3e
       -0.19906458 -0.07479975 -0.041599974 0.1957483
0000b0 00 69 f7 3a 88 22 dc bd bf e1 43 be 28 73 cd bc
       0.0018875897 -0.10748774 -0.19129084 -0.025079325
0000c0 84 9e a8 3d 52 9c 3a 3e d8 da 5e bd 20 fb 5d bc
       0.082333595 0.18223694 -0.054407924 -0.013548642
0000d0 31 a8 db bd 58 6a ba bc 82 3f 5b be c5 d6 2d be
       -0.10725439 -0.022755787 -0.21410945 -0.1697646
0000e0 2a d3 cb bd 80 6e 57 3e f0 41 8a 3d 28 4c 3b 3d
       -0.09952386 0.21038246 0.06750858 0.045726925
0000f0 62 46 8d bd 68 07 2c 3d e4 13 d6 3d 5e 41 22 be
       -0.0689819 0.04199925 0.104530126 -0.15845248
000100 d6 82 61 3e 68 25 94 bd 20 2f f8 3d 00 2a 16 bb
       0.22022566 -0.07233697 0.121183634 -0.0022913218
000110 9d 30 4b be 51 a5 3c be 3f a8 fa bd a0 95 ee 3c
       -0.19842763 -0.18422438 -0.12239122 0.029124081
000120 ac 0a d1 3d f4 99 fd bd 6e 70 b6 bd 10 3c b1 3d
       0.102071136 -0.1238288 -0.08908163 0.08654034
000130 fc 86 08 3e 10 89 ec bc 73 ac f8 bd 5c 42 29 be
       0.13332742 -0.02887395 -0.12142267 -0.1652922
000140 98 9e e6 3d 83 66 35 be c0 58 9d 3b f8 5e 9c 3c
       0.11260718 -0.17714886 0.0048018396 0.019088253
000150 d4 24 a1 bd f2 6c 46 3e a7 32 10 be 80 ad 55 3c
       -0.078683525 0.19377497 -0.14081822 0.013041854
000160 b0 16 44 3e 00 9c 3f be e4 3a 66 bd 96 19 0b be
       0.1914928 -0.18711853 -0.056208506 -0.13583979
000170 0a 42 08 be 40 cc 07 3e 3d 74 63 be 2e 6b 4f 3e
       -0.13306442 0.13261509 -0.2221231 0.2025573
000180 01 09 d0 bd 88 d9 30 3e 68 80 92 3c 92 b5 3a 3e
       -0.10157967 0.17270482 0.017883494 0.18233326
000190 4f be 18 be 90 3b 27 bd f6 70 16 be f0 88 0c be
       -0.14916347 -0.040828288 -0.14691529 -0.13724113
0001a0 24 55 fd bd 7e 0a f2 bd 28 11 e1 3d ce 31 91 bd
       -0.12369755 -0.118184075 0.109896004 -0.070895776
0001b0 65 7a f4 bd 1c 47 21 3e dc ad 5c bd 7c 98 8f bd
       -0.119374074 0.15749782 -0.053876743 -0.07011506
0001c0 43 85 28 be 14 e1 05 3e 98 35 40 3e ae 66 18 3e
       -0.16457085 0.13074142 0.18770444 0.14882919
0001d0 14 a2 17 bd 46 77 24 3e 88 45 29 be 47 29 2c be
       -0.037019804 0.16061124 -0.1653043 -0.16812621
0001e0 3e 2f 12 3e a6 64 1f be e4 10 83 3d 9b b6 f6 bd
       0.14275834 -0.15565738 0.06399706 -0.12046548
0001f0 fb 2b fb bd 11 f8 40 be 94 cb fb bd 66 74 38 3e
       -0.12264248 -0.1884463 -0.12294689 0.18013152
000200 98 40 4e 3d 00 d6 54 3d c0 e4 45 3e f0 23 04 3c
       0.05035457 0.0519619 0.19325542 0.008065209
000210 74 bd 40 be a8 62 8c 3c 16 52 08 3e c1 5b 09 be
       -0.1882227 0.017136887 0.13312563 -0.13413908
000220 08 49 42 3d 98 bb cb 3d 55 36 58 be f8 3f d1 bc
       0.04743293 0.0994789 -0.21114476 -0.025543198
000230 c4 d8 ac bd ec 99 b1 3d 40 51 08 3e ce 07 3a be
       -0.08439782 0.086719364 0.13312244 -0.1816704
000240 38 f6 43 3e 2a 74 0a be 78 90 3b 3e 6e 36 42 3e
       0.19136894 -0.13520876 0.18316829 0.18966076
000250 40 7e 88 3d 18 d4 96 3d f8 e5 a3 bd 00 03 61 3e
       0.06664705 0.073646724 -0.080028474 0.219738
000260 f8 07 ab bd b6 5d 59 be f2 a2 52 3e c8 21 1f bd
       -0.08351129 -0.21227154 0.20569971 -0.038850576
000270 54 2b 5c 3e a2 6f 5e 3e e0 57 38 bc 60 9a 09 3e
       0.21500903 0.21722272 -0.01125142 0.13437796

output.bias f4 [8]
000000 0c cd 75 bd f8 6b 6c 3d 1c 12 98 bd 0c 55 22 bd
       -0.06001 0.057720155 -0.07425329 -0.03963189
000010 e0 84 d6 bb c4 c7 1a be 8c b2 73 bd 80 eb 55 3e
       -0.0065466017 -0.15115267 -0.059496447 0.20890617
