PINN_experience/saved_model/simpleANNlr=0.002bs=512My_Mass_Balance_loss.pt (torch, 34575 bytes, 8 tensors)

l1.weight f4 [50, 14]
-0.24159484 0.12282705 0.014483362 -0.035515636 -0.16420643 0.16338488 -0.23648292 0.10893658
-0.23746055 -0.17739488 0.10570258 -0.2374847 -0.26724184 -0.2136976 -0.19098917 -0.10122812
0.0699895 0.13627392 -0.103105724 0.12140027 0.24019161 -0.25377876 -0.1371393 0.13189602
0.20974013 -0.0994343 -0.15842628 -0.02805221 -0.21995038 0.17160591 -0.0981161 -0.26298502
-0.19639027 -0.18869984 -0.073470324 -0.13557826 -0.08490199 -0.073979065 -0.032091543 -0.015333891
0.15600243 -0.059310198 -0.047409147 -0.2183899 0.11841604 -0.02100709 0.08889407 -0.2455906
0.056112498 0.262745 0.054944307 -0.22824383 -0.18623081 0.24054977 0.022513151 -0.012535006
-0.0363909 -0.12501131 0.22675261 -0.06934962 -0.10164392 -0.25686 0.0916262 0.22605076
-0.015586346 -0.11510411 0.13272771 0.1735191 0.024072647 0.053907216 -0.18229705 -0.02063796
-0.019091994 -0.14117105 -0.23875034 0.12648469 -0.17614049 -0.07834455 -0.17747107 -0.012013495
-0.021303296 -0.23727168 -0.07137199 -0.2575134 -0.048795223 0.19817889 -0.061274827 -0.035216823
0.088440835 0.17344046 -0.1993206 -0.19779748 -0.08990356 -0.1393101 -0.012877971 -0.13902615
-0.08407593 -0.059371024 -0.015073299 0.036404014 0.009974778 -0.25637686 0.007475972 -0.031681225
0.25792906 -0.13947362 0.019776136 -0.25215325 -0.23132932 -0.05191797 0.17474183 -0.21011609
-0.01781568 -0.22042628 -0.12261294 -0.18616349 0.06322542 0.16853222 0.058177143 -0.045531347
-0.17548046 0.05878973 0.10222307 -0.08807506 0.22268876 -0.2284894 -0.10753532 0.10229656
-0.07560027 0.09609774 0.1301189 0.08237365 -0.21310905 -0.11602232 -0.018584013 0.15047851
0.10771665 -0.24779776 -0.06314653 -0.17288882 0.11372104 0.0050790906 0.23718122 -0.17918044
0.18288946 -0.1466326 0.08189097 0.1278244 0.15540773 -0.24973449 0.24843016 -0.025732636
-0.18884856 -0.21089353 0.06717032 0.21059185 -0.119220614 0.13556275 0.037133068 0.14231959
0.043096125 0.065915406 -0.09378737 0.10903895 0.04811129 0.23845091 0.008742958 -0.018651232
-0.0149719715 -0.24203935 -0.009177655 -0.24356025 0.12360525 0.093976825 -0.060826555 -0.2278586
-0.17490697 0.24280271 0.24528608 0.22910538 0.07576534 -0.14474887 -0.2670836 0.09357077
-0.23408444 0.06521186 0.13137609 0.22661602 -0.17312519 0.0416885 0.14856029 0.18100345
0.06193602 -0.17104247 -0.09675717 -0.16537061 0.10972884 -0.24339002 -0.16827616 -0.0675406
-0.09308386 0.15087667 0.1446827 -0.21766828 0.25924715 0.24254182 -0.17777883 0.09762034
-0.023185045 0.17185542 0.22069469 0.20996979 0.07474071 -0.043615475 0.015108168 -0.25862116
-0.087531105 0.01219511 -0.2397648 0.23508152 -0.22420707 -0.25941724 -0.23373818 -0.07908772
0.25336233 0.0447973 -0.20929973 -0.08593629 -0.04479529 0.2204226 -0.26329473 -0.13387616
0.23782828 0.07107893 -0.14703673 0.1965299 0.035881877 0.19240183 0.17814904 -0.12656754
0.06342751 0.25875297 -0.07099901 -0.09637676 0.1678178 0.14737502 -0.2636794 0.10840458
0.19685641 -0.13199455 0.21644428 0.017531931 -0.0669235 -0.06187223 -0.09546544 -0.17569509
00000000: a364 77be c08c fb3d a04b 6d3c d878 11bd
00000010: bb25 28be 5e4e 273e 9428 72be 241a df3d
00000020: dc28 73be 01a7 35be 987a d83d 302f 73be
00000030: ecd3 88be 8bd3 5abe aa92 43be b050 cfbd
00000040: a856 8f3d 648b 0b3e 1829 d3bd b4a0 f83d
00000050: caf4 753e 4aef 81be 3f6e 0cbe c00f 073e
00000060: 1ec6 563e 36a4 cbbd 803a 22be c0cd e5bc
00000070: ac3a 61be 76b9 2f3e 18f1 c8bd f9a5 86be
00000080: 881a 49be 883a 41be 9c77 96bd 07d5 0abe
00000090: 18e1 adbd 5682 97bd 6c72 03bd 003b 7bbc
000000a0: 1abf 1f3e 40ef 72bd 1830 42bd 9aa1 5fbe
000000b0: 1c84 f23d 1017 acbc 180e b63d 1a7c 7bbe
000000c0: 38d6 653d 8386 863e 480d 613d c0b8 69be
000000d0: 4ab3 3ebe ae52 763e 806d b83c a05f 4dbc
000000e0: a00e 15bd f702 00be d631 683e 2c07 8ebd
000000f0: b02a d0bd 2783 83be 84a6 bb3d da79 673e
00000100: e05d 7fbc b4bb ebbd c6e9 073e feae 313e
00000110: 0034 c53c d0cd 5c3d 14ac 3abe f010 a9bc
00000120: d066 9cbc 258f 10be f87a 74be 3485 013e
00000130: 2c5e 34be 1c73 a0bd faba 35be 40d4 44bc
00000140: 4084 aebc 59f7 72be 7a2b 92bd ccd8 83be
00000150: 80dd 47bd 68ef 4a3e 50fb 7abd 843f 10bd
00000160: 7820 b53d 609a 313e b31a 4cbe 6c8b 4abe
00000170: 5c1f b8bd 4fa7 0ebe 20fe 52bc df5c 0ebe
00000180: 0030 acbd 082f 73bd 00f6 76bc 601c 153d
00000190: 406d 233c d443 83be 00f9 f43b 2cc4 01bd
000001a0: 470f 843e 2cd2 0ebe 9001 a23c 3b1a 81be
000001b0: 98e1 6cbe f0a7 54bd 86ef 323e ac28 57be
000001c0: 30f2 91bc 6db7 61be 7e1c fbbd a4a1 3ebe
000001d0: 547c 813d b693 2c3e 284b 6e3d 147f 3abd
000001e0: 26b1 33be 80cd 703d 545a d13d b260 b4bd
000001f0: 8608 643e 20f9 69be 7a3b dcbd dc80 d13d
00000200: 50d4 9abd e4ce c43d e43d 053e 84b3 a83d
00000210: 4239 5abe 1c9d edbd 803d 98bc 0a17 1a3e
00000220: 8c9a dc3d b2be 7dbe f852 81bd c409 31be
00000230: 94e6 e83d 806e a63b a2df 723e 147b 37be
00000240: 6047 3b3e db26 16be 74b6 a73d 66e4 023e
00000250: 3423 1f3e 66ba 7fbe 7a64 7e3e 40cd d2bc
00000260: 8461 41be 79f4 57be 9890 893d 64a5 573e
00000270: f029 f4bd f6d0 0a3e d818 183d 3abc 113e
00000280: 9085 303d a8fe 863d 9813 c0bd d04f df3d
00000290: 5810 453d 7a2c 743e a03e 0f3c 78ca 98bc
000002a0: 004d 75bc 2ad9 77be e05d 16bc dc67 79be
000002b0: c024 fd3d ec76 c03d 4425 79bd c453 69be
000002c0: d01a 33be 46a1 783e 462c 7b3e 9a9a 6a3e
000002d0: dc2a 9b3d 0c39 14be 2ebf 88be 08a2 bf3d
000002e0: d5b3 6fbe cc8d 853d 7487 063e 080e 683e
000002f0: bb47 31be 90c1 2a3d 3020 183e f858 393e
00000300: a0b0 7d3d c225 2fbe a028 c6bd ea56 29be
00000310: 84b9 e03d 3c3b 79be 9650 2cbe ba52 8abd
00000320: c0a2 bebd 6a7f 1a3e b427 143e 6fe4 5ebe
00000330: 0bbc 843e e25c 783e a70b 36be 2ced c73d
00000340: 90ee bdbc defa 2f3e cafd 613e 5202 573e
00000350: a811 993d 24a6 32bd 4088 773c fe69 84be
00000360: 8243 b3bd 00ce 473c e784 75be 36b9 703e
00000370: 8a96 65be 56d2 84be 1059 6fbe bef8 a1bd
00000380: b5b8 813e 607d 373d ab52 56be 5eff afbd
00000390: 447b 37bd 76b6 613e 91ce 86be d516 09be
000003a0: 4289 733e d491 913d cc90 16be 223f 493e
000003b0: e0f8 123d fc04 453e b46c 363e ec9a 01be
000003c0: 48e6 813d 457b 843e ee67 91bd 2e61 c5bd
000003d0: 6ed8 2b3e 7ae9 163e fc00 87be 3803 de3d
000003e0: ba94 493e 9429 07be 92a3 5d3e 209f 8f3c
000003f0: 300f 89bd bc6d 7dbd 6283 c3bd 6ae9 33be

l1.bias f4 [50]
0.22855356 0.07915437 0.17647788 -0.06740363 -0.21004662 -0.23134358 0.15519184 0.1691935
0.19024083 -0.0886413 -0.115412265 0.13784564 -0.0029157698 0.05445236 0.2540196 0.20330757
0.1763936 0.24551931 -0.23613861 0.107642174 0.15700144 0.17129776 -0.11036156 -0.019417346
-0.21958572 -0.25175256 -0.26548183 0.18895128 0.12656283 0.22145176 -0.18941545 0.26422378
0.23563662 -0.08053933 0.076625526 0.0077592432 0.1369277 0.248009 -0.00014013052 -0.054063916
-0.12075518 -0.040150255 -0.15568244 0.12881017 -0.11260195 -0.103306755 0.10665962 0.120185494
0.07562971 0.21586072
00000000: f209 6a3e b01b a23d 9eb6 343e ea0a 8abd
00000010: 7616 57be 55e5 6cbe 9cea 1e3e 1041 2d3e
00000020: 7ece 423e 9289 b5bd 445d ecbd 6827 0d3e
00000030: 8016 3fbb 7009 5f3d db0e 823e dc2f 503e
00000040: 86a0 343e 6a69 7b3e 52ce 71be 8073 dc3d
00000050: fcc4 203e ae68 2f3e 3e05 e2bd 2011 9fbc
00000060: 14db 60be b6e5 80be 3ced 87be 727c 413e
00000070: b099 013e 40c4 623e 20f6 41be 5748 873e
00000080: ba4a 713e cef1 a4bd d8ed 9c3d 4041 fe3b
00000090: c636 0c3e 12f6 7d3e 00f0 12b9 2072 5dbd
000000a0: 7e4e f7bd 9874 24bd 386b 1fbe d0e6 033e
000000b0: da9b e6bd 7e92 d3bd 5c70 da3d d023 f63d
000000c0: c0e3 9a3d 980a 5d3e

l2.weight f4 [100, 50]
0.14098342 0.06331055 -0.06987319 0.047302365 -0.07924304 0.027012125 -0.056686066 0.0010979474
0.03576091 -0.1095442 0.071754366 0.11277677 0.04242161 -0.025739774 0.052408725 -0.071732506
-0.011282951 0.0071472824 -0.076174416 0.054749697 0.060008258 0.0145061165 -0.14038692 0.041744143
-0.004867375 -0.093382135 -0.054108113 0.12804686 -0.12330869 0.09840807 0.11213778 0.015581459
0.006665513 -0.058305413 0.109595016 0.0024130642 0.008220807 -0.12023306 -0.019054137 -0.06600536
0.12681864 -0.03697951 0.099482596 -0.016200677 -0.026117742 0.04810372 0.07631044 -0.09835148
-0.011771321 0.1193382 -0.14075637 0.06335878 0.053842187 -0.06082785 -0.053071126 -0.13083927
-0.05595942 0.0689847 -0.0681762 0.07471511 -0.07656565 0.006963536 -0.087620385 0.052373856
-0.07040783 0.08711019 0.09761062 -0.06939666 0.009088546 0.052372992 0.12825035 -0.13532491
0.1171505 -0.0657357 -0.12434882 0.034104005 0.09750755 0.097834855 -0.09909858 -0.003231153
0.069685996 -0.10366675 -0.06594303 0.08828084 -0.11485598 0.045620307 -0.105079904 -0.09969905
-0.13360108 0.13587244 0.08461946 -0.020419843 0.12970014 -0.05089128 -0.06460514 -0.08601248
0.13423754 -0.12992664 0.12374209 0.010418639 0.10077348 -0.023704886 -0.030526288 0.09836297
0.11793141 -0.013739958 0.034435406 -0.016199112 0.12849854 -0.095782295 0.06865412 -0.0080503225
0.05099754 -0.049853288 0.07168141 0.062132955 -0.013635755 0.109962866 -0.11405793 -0.13982406
0.009202614 0.08477552 0.09252505 -0.10470461 0.08567378 0.058635116 -0.021314844 -0.0032752752
-0.04872877 -0.038780868 0.019073442 -0.121581845 0.0012572706 0.13515745 -0.12715626 -0.052191257
0.0869578 -0.07876021 0.08156733 -0.056043558 0.065878004 -0.083894216 0.030048177 0.0739145
0.11438502 0.078807324 0.10811512 -0.052041464 0.11714332 0.07382271 -0.11830872 0.0007356107
-0.12505627 0.055910483 -0.109363884 -0.14009413 0.033230722 0.13419901 0.041214615 0.061707214
0.12986372 0.05707167 -0.1407057 0.13262863 0.006237313 0.113429174 0.00022239983 0.06199287
0.027577043 0.11827262 0.0022116303 -0.07518084 -0.08430517 -0.024494044 0.13772573 0.0009916425
-0.13266116 0.117391035 0.10289869 -0.07187685 -0.02396106 0.037772477 -0.06806278 -0.11414753
-0.04145918 -0.11075786 0.13911937 0.040474474 0.033898875 0.030760273 -0.09044377 -0.08229309
-0.06844913 0.02640143 -0.08288158 -0.021467395 0.08286376 -0.06012956 -0.04465378 0.051833585
-0.0839356 0.11841829 -0.118533075 0.080311656 -0.087446585 -0.012822509 -0.1273278 0.094518825
0.04482554 0.09494574 0.047400743 0.06981462 0.11473234 -0.12160668 0.0894613 -0.1286151
0.09380236 -0.13210456 0.07625121 -0.008495644 0.01522319 -0.11749584 0.066664636 0.026039675
-0.03445611 -0.056461655 -0.13205472 0.13372035 0.050367072 0.10088554 -0.12607828 0.110368535
-0.0015159845 0.016088188 -0.090629704 0.13275479 0.082710415 0.13385592 0.116675094 0.07882956
-0.0042988807 -0.011302337 0.07337317 -0.1182648 0.017253876 -0.10107492 -0.09625408 0.086287096
0.12252389 -0.013496935 -0.10561828 0.057305753 -0.10434 0.071749076 0.09171118 0.047759965
00000000: f55d 103e f6a8 813d ad19 8fbd 20c0 413d
00000010: 2d4a a2bd 8848 dd3c a62f 68bd 00e9 8f3a
00000020: 087a 123d b658 e0bd f4f3 923d 82f7 e63d
00000030: 48c2 2d3d 38dc d2bc 88aa 563d 7ee8 92bd
00000040: 20dc 38bc c033 ea3b 5501 9cbd 3841 603d
00000050: 38cb 753d 10ab 6d3c 97c1 0fbe e8fb 2a3d
00000060: 807e 9fbb 223f bfbd 78a0 5dbd b71e 033e
00000070: 4489 fcbd 2c8a c93d 7ea8 e53d 6049 7f3c
00000080: 606a da3b a8d1 6ebd 5a73 e03d 8024 1e3b
00000090: 90b0 063c c03c f6bd 6c17 9cbc d12d 87bd
000000a0: bfdc 013e d477 17bd 88bd cb3d 48b7 84bc
000000b0: e0f4 d5bc 6808 453d a648 9c3d 806c c9bd
000000c0: 80dc 40bc 9667 f43d 7022 10be 40c2 813d
000000d0: a089 5c3d a026 79bd 1c61 59bd bbfa 05be
000000e0: b435 65bd da47 8d3d f79f 8bbd 3c04 993d
000000f0: 74ce 9cbd 602e e43b 5172 b3bd f885 563d
00000100: fb31 90bd d466 b23d 14e8 c73d d61f 8ebd
00000110: 20e8 143c 1085 563d 0f54 033e 9d92 0abe
00000120: 9aec ef3d 70a0 86bd 98aa febd a4b0 0b3d
00000130: 0ab2 c73d a45d c83d 32f4 cabd c0c1 53bb
00000140: 88b7 8e3d 3c4f d4bd 240d 87bd 96cc b43d
00000150: 9d39 ebbd 5cdc 3a3d 2234 d7bd 042f ccbd
00000160: b9ce 08be 2522 0b3e f84c ad3d 8447 a7bc
00000170: 1dd0 043e 6073 50bd b34f 84bd 5027 b0bd
00000180: 9175 093e 7d0b 05be 7e6c fd3d f0b2 2a3c
00000190: 5462 ce3d c030 c2bc 4412 fabc 8672 c93d
000001a0: 0686 f13d 901d 61bc 240c 0d3d 00b4 84bc
000001b0: 1f95 033e 8229 c4bd 889a 8c3d 80e5 03bc
000001c0: cce2 503d f632 4cbd b4cd 923d 207f 7e3d
000001d0: 8068 5fbc 3634 e13d 3497 e9bd 0a2e 0fbe
000001e0: 90c6 163c ca9e ad3d c67d bd3d 5f6f d6bd
000001f0: bc75 af3d 602b 703d 789c aebc 00a6 56bb
00000200: d297 47bd b0d8 1ebd e83f 9c3c e7ff f8bd
00000210: 00cb a43a b766 0a3e 4035 02be 80c6 55bd
00000220: ee16 b23d 084d a1bd c60c a73d ee8d 65bd
00000230: 0ceb 863d bbd0 abbd 9827 f63c 7c60 973d
00000240: b242 ea3d bc65 a13d 766b dd3d 6e29 55bd
00000250: d6e8 ef3d 5c30 973d d84b f2bd 00d6 403a
00000260: c00e 00be 6402 653d 2cfa dfbd d674 0fbe
00000270: f01c 083d 776b 093e a8d0 283d b4c0 7c3d
00000280: fffa 043e fcc3 693d 2815 10be cdcf 073e
00000290: 6062 cc3b 8e4d e83d 0034 6939 3cec 7d3d
000002a0: 40e9 e13c ea38 f23d 00f1 103b 6af8 99bd
000002b0: 30a8 acbd bca7 c8bc f907 0d3e 00fa 813a
000002c0: 54d8 07be b66a f03d 8cbc d23d 2c34 93bd
000002d0: fc49 c4bc 50b7 1a3d 8064 8bbd 2ec6 e9bd
000002e0: 1ad1 29bd 04d5 e2bd 4f75 0e3e 90c8 253d
000002f0: 8cd9 0a3d f8fc fb3c 953a b9bd 4889 a8bd
00000300: 0f2f 8cbd d047 d83c d1bd a9bd 64dc afbc
00000310: 7ab4 a93d 6a4a 76bd e2e6 36bd 744f 543d
00000320: 6ee6 abbd 4a85 f23d 78c1 f2bd 707a a43d
00000330: 3217 b3bd 8015 52bc 3862 02be 1693 c13d
00000340: fc9a 373d ea72 c23d 4827 423d f8fa 8e3d
00000350: caf8 ea3d ec0c f9bd 7c37 b73d adb3 03be
00000360: 741b c03d 6b46 07be 9829 9c3d 5031 0bbc
00000370: b06a 793c a9a1 f0bd 7887 883d 2851 d53c
00000380: da21 0dbd 5644 67bd 5a39 07be fded 083e
00000390: b44d 4e3d 149d ce3d aa1a 01be e608 e23d
000003a0: 00b4 c6ba 60cb 833c 119c b9bd dff0 073e
000003b0: 1464 a93d 8711 093e 5af3 ee3d 6471 a13d
000003c0: a0dd 8cbb 702d 39bc ac44 963d d134 f2bd
000003d0: 0058 8d3c 5e00 cfbd dc20 c5bd 4ab7 b03d
000003e0: ceed fa3d 4022 5dbc 664e d8bd 70b9 6a3d
000003f0: 36b0 d5bd 2ef1 923d 12d3 bb3d f49f 433d

l2.bias f4 [100]
0.056933865 0.09908028 0.072957754 -0.017295755 0.11642484 0.013771787 -0.073861174 0.11203252
0.03394881 0.11667527 -0.0072459728 -0.11291839 0.09396809 0.04008916 0.07591441 -0.111105725
-0.054974027 -0.10434191 -0.051211305 0.053046867 0.116866395 -0.074630454 0.1403936 -0.10963399
0.11185981 -0.105651736 0.06373538 0.083645016 0.1296887 0.06644508 0.11750446 0.06282735
-0.042574756 -0.086352125 0.0436147 0.12627064 -0.030366264 -0.09908878 -0.067468494 -0.14062612
0.050617352 -0.0019652694 0.1388592 -0.0772077 0.109430924 -0.122998044 -0.096364126 0.07828155
0.03534384 0.029281676 -0.0190714 -0.074859954 -0.11588885 0.057182163 0.035505697 0.12541808
-0.11697437 -0.089402825 -0.091433614 0.07368684 0.004831508 0.0558642 0.10040091 -0.113210015
0.105118245 0.1241446 -0.013281733 -0.058664486 -0.041490167 -0.078534685 0.00058859587 -0.048381902
-0.034362614 -0.09880147 0.018150434 0.081084505 -0.10298885 -0.07867957 0.13649304 0.108294174
0.10457687 0.13078643 0.12188713 -0.030241325 -0.08706941 0.022083461 -0.051234826 -0.029575087
-0.01626134 0.08645244 -0.10174222 0.042532608 -0.054645635 0.043929413 -0.04848656 -0.028391622
0.09798938 -0.10087901 0.018430486 -0.01378496
00000000: 7c33 693d 9aea ca3d e06a 953d d4af 8dbc
00000010: 2670 ee3d 10a3 613c 8744 97bd 4e71 e53d
00000020: e80d 0b3d 72f3 ee3d a06f edbb c241 e7bd
00000030: 5872 c03d 8834 243d 0479 9b3d 668b e3bd
00000040: 722c 61bd 36b1 d5bd f2c2 51bd ac47 593d
00000050: a657 ef3d dad7 98bd 57c3 0f3e c987 e0bd
00000060: c216 e53d f05f d8bd b287 823d 144e ab3d
00000070: 1dcd 043e 5c14 883d 2ea6 f03d a0ab 803d
00000080: de62 2ebd 62d9 b0bd 54a5 323d 174d 013e
00000090: acc2 f8bc 0fef cabd ec2c 8abd 4b00 10be
000000a0: 2454 4f3d c0cb 00bb 1b31 0e3e 121f 9ebd
000000b0: 521d e03d 66e6 fbbd 8e5a c5bd 1452 a03d
000000c0: b4c4 103d 20e0 ef3c a03b 9cbc 2d50 99bd
000000d0: 2257 edbd d837 6a3d 6c6e 113d 996d 003e
000000e0: 4290 efbd d418 b7bd 8c41 bbbd 20e9 963d
000000f0: a051 9e3b dcd1 643d fe9e cd3d a7da e7bd
00000100: 3c48 d73d 863f fe3d a09b 59bc 2c4a 70bd
00000110: 98f1 29bd cbd6 a0bd 004c 1a3a 1a2c 46bd
00000120: d0bf 0cbd 6d58 cabd 38b0 943c a20f a63d
00000130: d1eb d2bd c122 a1bd d5c4 0b3e 56c9 dd3d
00000140: 662c d63d e1ec 053e f69f f93d a8bc f7bc
00000150: 7251 b2bd 60e8 b43c 9cdb 51bd 7447 f2bc
00000160: 8036 85bc fa0d b13d 3a5e d0bd ac36 2e3d
00000170: 1ad4 5fbd 54ef 333d d899 46bd 8c95 e8bc
00000180: a8ae c83d a899 cebd 88fb 963c 50da 61bc

l3.weight f4 [20, 100]
-0.051420834 -0.015480891 -0.06960039 -0.011824347 -0.04479468 0.045459457 0.022679307 0.03199882
0.09055514 0.097363 0.09060652 -0.05432389 -0.0033101663 0.058158793 0.025583215 0.08577705
-0.04167241 0.009055272 -0.01628735 -0.098165944 0.05596397 0.07840378 0.025676794 0.06704683
0.011627123 0.054936074 -0.0425802 -0.021183625 -0.051089466 -0.076563835 -0.069017395 0.06569386
0.059984483 0.009993911 -0.051558733 -0.036610708 -0.008643672 0.061006077 -0.03666184 -0.08793248
0.08621263 -0.050015856 0.049810313 -0.007916167 0.03641016 -0.012001194 -0.08109206 0.055306308
0.07766331 0.0032576546 -0.01415728 0.044724904 -0.035913467 -0.08066386 0.057406493 -0.09842004
0.055102877 0.017463326 -0.08302239 -0.07432834 0.020232119 0.021939732 0.039825507 0.023665234
0.02348695 -0.077427566 0.07767267 -0.0339787 -0.090314426 -0.032099105 -0.016957045 0.050466053
-0.05542773 0.0637381 -0.07237587 0.040885963 0.087260924 0.031102665 0.0983301 0.03786985
-0.04652345 -0.079431176 0.012242794 -0.09144606 -0.054410603 -0.015578292 -0.06537346 -0.01196114
0.070952736 0.038592197 -0.09151329 -0.0749969 -0.0955591 0.052396186 -0.019391082 0.053107508
0.06683839 0.002650775 0.042124845 -0.09166868 0.08121354 -0.07080702 0.08878786 -0.09234996
0.055349 -0.094807185 0.013741888 -0.059602823 -0.07700211 0.06310452 -0.078909434 -0.098934256
-0.012661733 -0.061082114 0.057161905 -0.082656145 0.095782734 0.08788883 0.011178933 -0.042945612
0.046130426 0.08661053 -0.05889368 -0.02969364 0.06599983 -0.03343419 0.051580004 0.064991735
-0.034994528 -0.06885333 0.06431449 0.0149156 0.049264215 0.068179764 0.021553352 0.06734384
-0.0006510988 0.066085346 0.07564706 -0.035312667 0.049146153 0.014903203 0.03194589 0.057596304
0.0790026 0.02108363 0.05545304 -0.059533406 -0.06655908 -0.060561575 -0.016654372 -0.08881607
0.088431485 0.027708061 -0.045461036 -0.0077218562 0.09599032 0.013184369 0.09281512 -0.070475735
0.0920152 -0.082958534 0.097886615 0.06737337 -0.0768586 -0.07873645 -0.09462259 0.074969016
-0.06622986 0.02585689 0.017902613 0.0133090615 -0.0896194 -0.09914674 -0.044361975 0.032704957
-0.034570433 0.08808387 0.0021889657 0.023325302 -0.088232175 -0.06514577 0.029056735 -0.047879945
0.020844698 0.075932465 -0.077261075 0.04419843 0.041498624 -0.08773315 0.02405008 -0.07605916
0.010261759 0.026273377 0.02118282 -0.0060980693 0.004318103 0.060706563 0.077152215 -0.058315158
0.028689452 -0.0074990243 -0.09080932 -0.018536583 -0.08613043 0.06307126 0.039467655 -0.08972954
0.0034879595 -0.0028923973 -0.018336676 -0.02614025 0.055824183 0.09758405 -0.081595734 0.0016355962
-0.07273225 0.0726716 -0.011583127 0.08842816 -0.02812437 0.00084233284 -0.055337083 0.028114907
0.039414175 -0.092212595 -0.06314613 -0.098566234 0.031333335 -0.0070946217 0.040034898 -0.06806852
0.048493244 0.06993262 0.07977142 -0.08199698 0.03895203 -0.084688894 0.09427994 -0.0018328279
-0.0039672256 -0.040862452 -0.00535021 0.08184517 0.038472556 0.0248603 0.03980588 -0.06210294
0.04765434 -0.0047716126 0.058093376 -0.0049025193 0.09373728 0.045760132 -0.06320864 0.08013523
00000000: a79e 52bd 90a3 7dbc a68a 8ebd e8ba 41bc
00000010: a07a 37bd b233 3a3d f4c9 b93c 3211 033d
00000020: f974 b93d 4166 c73d e98f b93d ba82 5ebd
00000030: 60ef 58bb ea37 6e3d e493 d13c e1ab af3d
00000040: b0b0 2abd 905c 143c 0c6d 85bc 3a0b c9bd
00000050: 7a3a 653d 2992 a03d 2458 d23c d94f 893d
00000060: b07f 3e3c a604 613d 9368 2ebd 4889 adbc
00000070: 3043 51bd 80cd 9cbd fe58 8dbd 818a 863d
00000080: 4ab2 753d 80bd 233c 402f 53bd 1cf5 15bd
00000090: 309e 0dbc 82e1 793d ba2a 16bd f215 b4bd
000000a0: 3f90 b03d 6ddd 4cbd e605 4c3d d0b2 01bc
000000b0: d222 153d a8a0 44bc 9813 a6bd de88 623d
000000c0: f10d 9f3d 607e 553b f0f3 67bc 7631 373d
000000d0: 001a 13bd 1833 a5bd 1223 6b3d 7290 c9bd
000000e0: 8eb3 613d 400f 8f3c a507 aabd 7539 98bd
000000f0: d4bd a53c f4ba b33c 1220 233d 98dd c13c
00000100: b467 c03c 5892 9ebd d912 9f3d 402d 0bbd
00000110: c5f6 b8bd 5a7a 03bd 80e9 8abc 7eb5 4e3d
00000120: 3008 63bd 1f89 823d cd39 94bd 0a78 273d
00000130: dbb5 b23d 04cb fe3c 4b61 c93d 6a1d 1b3d
00000140: 608f 3ebd d0ac a2bd 0096 483c 1248 bbbd
00000150: a7dd 5ebd 183c 7fbc 85e2 85bd a8f8 43bc
00000160: ab4f 913d da12 1e3d 526b bbbd fa97 99bd
00000170: 7db4 c3bd 629d 563d 0cda 9ebc 4287 593d
00000180: 91e2 883d a0b8 2d3b 1a8b 2c3d cabc bbbd
00000190: 4953 a63d 4503 91bd 69d6 b53d fa21 bdbd
000001a0: a2b5 623d 452a c2bd a825 613c 1722 74bd
000001b0: 48b3 9dbd f13c 813d 459b a1bd 0b9e cabd
000001c0: 2873 4fbc 3d31 7abd 9a22 6a3d a047 a9bd
000001d0: bd29 c43d 0fff b33d d827 373c bde7 2fbd
000001e0: 42f3 3c3d dd60 b13d 803a 71bd 1440 f3bc
000001f0: eb2a 873d 4af2 08bd 8e45 533d 631a 853d
00000200: 6c56 0fbd fa02 8dbd 51b7 833d 9060 743c
00000210: 46c9 493d d5a1 8b3d a890 b03c 91eb 893d
00000220: 80ae 2aba c157 873d d9ec 9a3d 04a4 10bd
00000230: 7a4d 493d 902c 743c b2d9 023d 1aea 6b3d
00000240: 1dcc a13d 94b7 ac3c ba22 633d 4dd9 73bd
00000250: 2050 88bd 6a0f 78bd c06e 88bc 33e5 b5bd
00000260: 911b b53d 04fc e23c 5a35 3abd a007 fdbb
00000270: 9396 c43d 4003 583c db15 be3d 9555 90bd
00000280: 7772 bc3d 2ae6 a9bd c778 c83d 0dfb 893d
00000290: 0b68 9dbd 9340 a1bd 7dc9 c1bd 5b89 993d
000002a0: 85a3 87bd d4d1 d33c 80a8 923c 400e 5a3c
000002b0: 608a b7bd 720d cbbd e7b4 35bd a2f5 053d
000002c0: ba99 0dbd 5165 b43d c074 0f3b b414 bf3c
000002d0: 12b3 b4bd 256b 85bd 6408 ee3c c31d 44bd
000002e0: 80c2 aa3c 7b82 9b3d 0e3b 9ebd 6a09 353d
000002f0: 76fa 293d 70ad b3bd ac04 c53c e8c4 9bbd
00000300: f020 283c 443b d73c 9887 ad3c 50d2 c7bb
00000310: e07e 8d3b 72a7 783d fb01 9e3d e0db 6ebd
00000320: 2406 eb3c 60ba f5bb 3dfa b9bd 08da 97bc
00000330: 2765 b0bd 812b 813d d6a8 213d 1fc4 b7bd
00000340: 4096 643b 608e 3dbb cc36 96bc 1424 d6bc
00000350: e6a7 643d 25da c73d aa1b a7bd 8061 d63a
00000360: a5f4 94bd d9d4 943d 28c7 3dbc d319 b53d
00000370: 1465 e6bc 00d0 5c3a 23a9 62bd 3c51 e63c
00000380: c270 213d f5d9 bcbd c252 81bd 18dd c9bd
00000390: 6257 003d 007a e8bb a2fb 233d 8267 8bbd
000003a0: daa0 463d d538 8f3d 335f a33d 08ee a7bd
000003b0: 2a8c 1f3d 5f71 adbd d715 c13d 803b f0ba
000003c0: 80ff 81bb 635f 27bd d050 afbb 719e a73d
000003d0: 6695 1d3d d4a7 cb3c 7e0b 233d a75f 7ebd
000003e0: 3231 433d 305b 9cbb 52f3 6d3d 50a5 a0bb
000003f0: 55f9 bf3d fa6e 3b3d 8873 81bd f11d a43d

l3.bias f4 [20]
0.021552548 -0.020342514 -0.031186625 0.03360922 0.019529723 0.053453334 0.03558875 -0.035220407
0.010363832 0.07413418 0.049704187 0.026712514 0.06575603 0.08762873 -0.07478432 -0.07987271
-0.09953567 0.07613241 0.051035278 0.051863067
00000000: f88e b03c 58a5 a6bc 187b ffbc d2a9 093d
00000010: ccfc 9f3c e2f1 5a3d 82c5 113d 4643 10bd
00000020: 10cd 293c a9d3 973d 9e96 4b3d 34d4 da3c
00000030: 19ab 863d b176 b33d 8628 99bd 4e94 a3bd
00000040: 5bd9 cbbd 4feb 9b3d 5e0a 513d 5e6e 543d

output.weight f4 [8, 20]
-0.07487646 -0.15150078 -0.16909902 -0.20757598 -0.14565688 0.22264946 -0.009726062 0.12475872
-0.021911204 0.13441432 -0.10028598 0.031384528 0.17436182 -0.18625487 0.1253008 -0.020209625
0.073455036 -0.02782388 -0.06320824 -0.053810075 0.0070713907 -0.06875184 -0.16826946 -0.05815205
-0.10244682 0.10583255 -0.17492948 -0.07788259 -0.19448665 0.2066527 0.190011 0.070063114
0.05361709 0.099684566 0.097997576 -0.15364751 0.013048172 0.015030146 -0.03922455 -0.026956454
-0.08491103 0.11378679 -0.017402858 0.029982537 -0.13501854 0.15297398 0.07386199 -0.10331733
0.2124264 0.090109855 0.010459527 -0.17596392 -0.17436886 0.1950329 -0.09848246 -0.032317236
-0.11126079 0.0800142 0.008568019 -0.16550088 0.020198375 0.07908976 -0.087642014 -0.014586464
0.12743941 -0.06246625 0.12451172 0.009454399 -0.111390576 0.16266766 -0.0715283 0.046302408
0.22289419 0.16025403 -0.003624767 -0.20622626 -0.14525194 0.080381215 -0.048224106 0.057204932
-0.17414036 -0.118236855 0.1733864 -0.21277344 0.20626828 -0.1457741 -0.004468426 0.16064021
0.022018343 -0.04245068 -0.01400499 -0.16134076 0.015463144 0.088309646 -0.17936334 -0.1740787
-0.15193743 0.06462881 0.20576137 -0.009544507 -0.08346142 0.016508564 -0.109136224 0.14111978
-0.11214707 -0.14659196 0.17815065 0.19301686 -0.09872082 0.023748323 -0.1928168 -0.2166884
0.19340152 0.14147583 -0.09628396 0.18334916 0.09285653 -0.049268246 -0.04256548 -0.21065718
-0.12172858 0.17718112 -0.03785743 -0.1865157 0.102048546 0.097816974 0.19581321 -0.098254874
0.09616116 -0.17910792 0.20271772 0.098756015 0.0072242618 -0.014263555 0.16395542 0.00207147
0.1514585 0.16213757 0.1915971 0.003425777 -0.19345275 -0.069664255 0.035485953 0.16642341
0.08894029 0.08220753 -0.12590414 -0.19758543 0.03696084 -0.049091175 -0.121141024 0.015360385
-0.14980578 -0.18646637 -0.04719387 0.03188473 -0.14275575 0.2155537 0.19113058 -0.16340165
00000000: d458 99bd 0523 1bbe 4b28 2dbe cc8e 54be
00000010: 1427 15be 38fe 633e 105a 1fbc 8081 ff3d
00000020: 207f b3bc e8a3 093e bc62 cdbd 108d 003d
00000030: e88b 323e 99b9 3ebe da4e 003e a88e a5bc
00000040: 986f 963d e8ee e3bc 5273 81bd f467 5cbd
00000050: 20b7 e73b c4cd 8cbd d44e 2cbe d830 6ebd
00000060: a3cf d1bd bcbe d83d b720 33be e880 9fbd
00000070: 8227 47be c49c 533e 3e92 423e 407d 8f3d
00000080: 989d 5b3d 6c27 cc3d f4b2 c83d c655 1dbe
00000090: 00c8 553c 0041 763c eca9 20bd c8d3 dcbc
000000a0: d6e5 adbd 0c09 e93d 7090 8ebc f09d f53c
000000b0: 4d42 0abe 36a5 1c3e f444 973d 0998 d3bd
000000c0: 4e86 593e 848b b83d 705e 2b3c e32f 34be
000000d0: c08d 32be b4b6 473e 2cb1 c9bd 145f 04bd
000000e0: b2dc e3bd 7cde a33d e060 0c3c 1079 29be
000000f0: 1077 a53c d0f9 a13d a87d b3bd 10fc 6ebc
00000100: 7a7f 023e 9cdc 7fbd 0000 ff3d a0e6 1a3c
00000110: be20 e4bd 5a92 263e 6e7d 92bd 98a7 3d3d
00000120: 603e 643e a219 243e 808d 6dbb fa2c 53be
00000130: edbc 14be e89e a43d a486 45bd b84f 6a3d
00000140: da51 32be 2a26 f2bd 348c 313e 48e1 59be
00000150: fe37 533e ce45 15be e06b 92bb de7e 243e
00000160: d05f b43c c4e0 2dbd 3075 65bc 8336 25be
00000170: 2059 7d3c b0db b43d 06ab 37be b041 32be
00000180: 7c95 1bbe 1c5c 843d 1cb3 523e 9060 1cbc
00000190: d2ed aabd f83c 873c d082 dfbd b481 103e
000001a0: 5dad e5bd 341c 16be 206d 363e 36a6 453e
000001b0: 242e cabd d88b c23c c471 45be 90e3 5dbe
000001c0: 0c0b 463e 0adf 103e 8630 c5bd e2bf 3b3e
000001d0: 902b be3d 80cd 49bd 2459 2ebd 84b6 57be
000001e0: d54c f9bd f86e 353e 6410 1bbd f9fd 3ebe
000001f0: d4fe d03d 4454 c83d 4283 483e da39 c9bd
00000200: 24f0 c43d 1168 37be 3c95 4f3e 9840 ca3d
00000210: 80b9 ec3b b0b1 69bc eee3 273e 80c1 073b
00000220: f017 1b3e 6407 263e 0832 443e 0083 603b
00000230: 7a18 46be 22ac 8ebd b859 113d e66a 2a3e
00000240: 5426 b63d 6c5c a83d 04ed 00be d653 4abe
00000250: 4064 173d d413 49bd c918 f8bd 20aa 7b3c
00000260: b066 19be 0af1 3ebe 5c4e 41bd 9099 023d
00000270: 902e 12be 1cba 5c3e bcb7 433e c352 27be

output.bias f4 [8]
0.039366692 -0.19283968 -0.04960741 -0.10962704 0.08995861 -0.0086043775 -0.19863822 -0.06763069
00000000: f83e 213d c477 45be 2431 4bbd 2484 e0bd
00000010: 383c b83d 60f9 0cbc d167 4bbe f681 8abd
