PINN_experience/saved_model/simpleANNlr=0.005bs=64_mass_balance.pt (torch, 34575 bytes, 8 tensors)

l1.weight f4 [50, 14]
00000000: cc5f 263e d422 f83d 1a34 6dbe b1ed 08be
00000010: 149d ae3d 980a 5dbe 54ce 2ebd a48c 84bd
00000020: eac8 723e 80e2 903b 8a93 b3bd cfde 833e
00000030: d099 82be 2043 82be d09f be3d dcf0 d13d
00000040: d2c3 38be 961f 7bbe c0cf e1bd c0c6 933d
00000050: 57a2 813e 34f2 5dbe 2592 6bbe 2c3c 4c3e
00000060: 05e4 57be 80a4 353d 6a30 63be 1843 6ebe
00000070: d066 8abc 6899 5f3d 007d 153b 0648 7f3e
00000080: 742c 5c3e ba86 a1bd 5f1d 4cbe 9410 ec3d
00000090: 58d1 b73d 4073 c33d 8084 363d d0a7 f3bd
000000a0: d424 973d a63c 11be f207 453e 2abe 60be
000000b0: c0f3 86bb 1bb3 29be 7448 403e 64bc 27bd
000000c0: a32a 38be e402 d3bd ee5b 5ebe 8742 2ebe
000000d0: 5cd8 aebd 18cf f6bc 5ef2 6bbe b2be 26be
000000e0: f2d0 523e 1e82 aebd c69b 0d3e ac45 fa3d
000000f0: e4bc ecbd caf1 0f3e 789a 3d3d e018 57bd
00000100: b8f3 bbbc aeae 773e 10c0 5c3d 287d e03d
00000110: 8a66 c4bd a085 6b3c 5c84 f63d 0030 023e
00000120: b848 64bd 38f9 48bd ee1a 7d3e 12c1 6d3e
00000130: 7d37 5bbe a0b6 82be 882b 2b3e 7edb f6bd
00000140: dae6 5d3e a405 193e c8d9 613e 1827 11be
00000150: 8c59 693e 10f7 c63d 23e8 6ebe c818 3f3e
00000160: 75bf 58be 8f5c 80be c8ab 253d 8096 e1bb
00000170: 008d ce3b e250 4ebe 9ca7 f7bd 5c5f c0bd
00000180: 2085 7c3c 94a6 e2bd 56ca 68be 8381 883e
00000190: b257 b4bd 30c7 27bd 6617 063e f05f 9b3d
000001a0: b044 b1bd 6673 3b3e 90b6 aabc 642e ad3d
000001b0: e270 003e 18a9 363d a6c1 6e3e f850 5d3d
000001c0: cce2 9d3d 889b 853d b8ad 47bd 44d4 8abd
000001d0: 3877 263d acb7 b53d 8d9c 0abe 6697 793e
000001e0: 9810 223e ca87 cfbd e08f 22bd be9a 51be
000001f0: 2035 173c 7e37 533e 8e2f 0c3e b839 173e
00000200: 887e 56be 8c36 acbd 8940 5bbe 92db 383e
00000210: c26c 85be 24f9 7cbd 5203 313e 4009 a2bb
00000220: 66af 293e 20f0 383c 0041 0abd c028 c5bc
00000230: a417 82bd 30a9 4a3e 95b8 823e e841 073d
00000240: 5211 363e 4c62 153e 9476 11bd 17d6 43be
00000250: e046 983d e6c4 6dbe 6c5b 353e 864b 4e3e
00000260: 80ea 183b 0810 2ebe 1063 f43d d2a4 773e
00000270: 540c f23d 3844 433e 46d5 543e a0fc 1abc
00000280: 70fa 4b3d 90fd 76bd a6b3 8bbd e328 65be
00000290: a5e2 83be a8e0 fe3d b099 ef3c a66d acbd
000002a0: 786d 2cbd 14df 7abd bc86 ac3d 206e 193c
000002b0: 86f1 7c3e cc2f 553e 7a3c 203e 06c5 24be
000002c0: 308f b23d c090 163e 8854 d83d 30f5 773d
000002d0: d82b 103e 8022 b4bb 6ec4 bdbd 44ae 83be
000002e0: 920e 85be 0689 4bbe 6e44 3a3e 9a7a 31be
000002f0: d03e 753d 68da 6ebe f2a7 82be 78f6 c7bd
00000300: f049 febd 80d0 eabd 567e bcbd 1636 f4bd
00000310: 42c0 7e3e 6017 35bc 9ce9 8fbd 7c4c 4dbd
00000320: f0ea 9b3d 6cd4 143e 4cea 643e 9148 0ebe
00000330: 5286 5dbe 50ac 923c d8f0 ca3d a495 cfbd
00000340: 6c4d 6fbe fad1 6dbe e2f4 1abe 2838 45bd
00000350: ac8c 2cbd 3df3 3abe 3ab0 7b3e c89d 623e
00000360: 00ca 063b d458 8bbd ec22 34bd 0f0f 863e
00000370: 2047 bd3c 80fd 13be d0e1 c13c 9ab6 63be
00000380: 7e8c 37be 7c2d 11bd e019 c6bd 00f8 d039
00000390: ae81 fdbd 28ff f1bd f82a e63d c661 23be
000003a0: 826c 3abe f6c0 773e 7249 66be ff30 863e
000003b0: 4e07 633e ef06 13be 91c7 63be e092 803c
000003c0: d7cb 02be e8e1 6a3e 4618 7f3e 807c 93bb
000003d0: e6b6 07be 04d6 e63d 9747 3dbe ba85 14be
000003e0: 0fcd 79be 8084 94bb 2003 3a3d d6de 26be
000003f0: 60fe d7bd 1819 63be 2fed 23be faf8 95bd
0.16247481 0.12116018 -0.23164406 -0.13371922 0.08526054 -0.21586072 -0.04267724 -0.064721376
0.23709455 0.004421532 -0.08768375 0.25755927 -0.25507975 -0.25441837 0.093078256 0.102510184
-0.1804345 -0.24523768 -0.11025953 0.07215643 0.25319168 -0.21674424 -0.23004968 0.19944829
-0.21083076 0.044346333 -0.22186437 -0.23267782 -0.016894728 0.05458966 0.0022810102 0.24929819
0.21501333 -0.07887025 -0.19933079 0.115265995 0.08975476 0.095434666 0.044559956 -0.11897242
0.07380071 -0.14183292 0.19241312 -0.21947542 -0.0041184127 -0.1657223 0.18777639 -0.040951148
-0.17985015 -0.10303286 -0.21714756 -0.17017566 -0.08537361 -0.030128047 -0.23041674 -0.16283682
0.20587519 -0.08520912 0.13828954 0.1222032 -0.115594655 0.14057079 0.04628989 -0.052513957
-0.022943363 0.24187729 0.053894103 0.10961372 -0.0958987 0.01437512 0.12036964 0.12713623
-0.055733413 -0.0490658 0.24717304 0.23218182 -0.21407886 -0.25529957 0.16715825 -0.120535836
0.21670094 0.14943558 0.22055733 -0.1417507 0.22788066 0.09715092 -0.2333074 0.18661797
-0.21166785 -0.25070617 0.040447026 -0.006884396 0.0063034296 -0.20148042 -0.12092516 -0.09393188
0.015412599 -0.110669285 -0.22733435 0.2666131 -0.08805789 -0.040961444 0.13094863 0.07586658
-0.08655679 0.1830574 -0.020839006 0.08456114 0.12543061 0.044594854 0.23316059 0.054032296
0.07709274 0.06523806 -0.048749655 -0.06778768 0.04064104 0.08872923 -0.13536282 0.2437416
0.15826643 -0.101333216 -0.03968799 -0.20469186 0.009228975 0.20626637 0.13690016 0.14768112
-0.20946705 -0.084088415 -0.21411337 0.1805251 -0.26059538 -0.061761037 0.17286423 -0.0049449503
0.16570815 0.011287719 -0.033753395 -0.024067283 -0.06352165 0.19791102 0.2553145 0.033021837
0.17780045 0.14588279 -0.035513476 -0.19124638 0.07435393 -0.23219642 0.17710656 0.20145997
0.0023333132 -0.16998303 0.11932957 0.24183968 0.11818758 0.19068992 0.20784482 -0.009459645
0.049799383 -0.06030041 -0.068213746 -0.22378878 -0.25758854 0.124451935 0.029248089 -0.08419351
-0.042096585 -0.0612479 0.08424136 0.009364635 0.24701509 0.20819014 0.1564807 -0.16090783
0.08718717 0.14703655 0.10562998 0.060536563 0.14079225 -0.005497277 -0.092659816 -0.25718892
-0.2598768 -0.19876489 0.18190166 -0.17331925 0.059874356 -0.23325503 -0.25518757 -0.09763807
-0.12416446 -0.114655495 -0.09203784 -0.119243786 0.24878028 -0.011052936 -0.07026979 -0.05012177
0.0761317 0.14534158 0.22355002 -0.1389487 -0.2163327 0.01790443 0.099092185 -0.101359636
-0.23369378 -0.23224631 -0.15132478 -0.048149258 -0.042126343 -0.1825685 0.24578944 0.22130501
0.0020567179 -0.06804052 -0.043978617 0.26183364 0.023105204 -0.14452171 0.023667246 -0.22237626
-0.17924687 -0.035443768 -0.09672904 0.00039857626 -0.1237825 -0.11816245 0.112386644 -0.15955266
-0.18205455 0.24194703 -0.22488955 0.26209256 0.22170755 -0.14358114 -0.22244097 0.015695035
-0.12773071 0.22937739 0.24911603 -0.0045009255 -0.13253364 0.11271289 -0.1848434 -0.14504138
-0.2439463 -0.004532397 0.045413136 -0.16295943 -0.10546565 -0.22177541 -0.16008447 -0.07322879

l1.bias f4 [50]
00000000: 02fb 2fbe 8ac1 6f3e c49b 65be bca0 85be
00000010: b69f 25be 80c6 3a3c 96c9 88bd 3a4d 4e3e
00000020: 2cc2 63bd 8427 5dbd 64cb 233e 8838 233e
00000030: 14a7 82bd 0c11 32bd de42 343e 9092 3f3d
00000040: b45f 563e e479 e73d f837 193d b8f0 73be
00000050: 84da 3cbd e051 d8bc 1dc2 86be 29f7 873e
00000060: 2c07 12bd 39d8 3bbe ecb2 3e3e 1698 193e
00000070: c098 f43b 0023 263c 7044 8a3c d37f 7bbe
00000080: 4080 373c 64bf 9dbd 58f1 423e 36f9 61be
00000090: 6e76 9dbd 625f a0bd d24c 663e 6032 fbbd
000000a0: 7838 06bd 922b 713e ba79 3c3e e030 69be
000000b0: f881 463e f890 043d 21f2 6fbe e7ed 66be
000000c0: b8e9 efbd 8817 b23d
-0.17185596 0.23413673 -0.22422701 -0.26099193 -0.16174206 0.011399865 -0.066790745 0.20146647
-0.0556051 -0.053992763 0.15995556 0.15939534 -0.06379524 -0.04347329 0.17603633 0.046770632
0.20934945 0.11302546 0.03740689 -0.23822296 -0.04610683 -0.026406229 -0.26319972 0.26555756
-0.03565137 -0.18344201 0.18622941 0.14999422 0.0074644983 0.010140181 0.016878337 -0.2456048
0.011200011 -0.077025205 0.19037378 -0.22067723 -0.07688604 -0.07830693 0.22490242 -0.12265468
-0.032768697 0.23551777 0.1840581 -0.2277255 0.19385517 0.032364815 -0.23432209 -0.2255169
-0.117145 0.086958945

l2.weight f4 [100, 50]
00000000: c92a a6bd 0257 923d b0f6 aebc b0f3 183d
00000010: c69e ea3d eac5 e43d 38a0 9c3c 9ad7 cb3d
00000020: 48a1 3f3d e92f bebd 6493 cbbd 804e 92bc
00000030: 30e2 02bc 982d 75bd 405b 733c c2bb 87bd
00000040: 53e0 0a3e b5be adbd 40d1 56bd 4423 583d
00000050: 5816 a2bd df9f 0c3e 389b 753d dc77 c3bc
00000060: e49f b23d 084e 8e3c 74da 19bd 70da 31bc
00000070: 68a3 633d bc54 cb3d 60ba f4bc bca9 cc3d
00000080: 5256 01be c2c0 1fbd c089 213b 40ed a13b
00000090: 4671 893d 248f 10bd 5e81 e63d baef 5abd
000000a0: 24a0 adbd a043 823c 42e9 eebd 2b82 003e
000000b0: 103b 0d3c 0c4a c6bd e1a1 b2bd 10c5 f5bc
000000c0: 8c09 493d 30d3 193d 6cab 293d 6c71 783d
000000d0: f4d3 a8bc dd27 0b3e 1b17 81bd 121f bdbd
000000e0: 39ed 0d3e eb31 0d3e 3243 0bbd ba96 b63d
000000f0: 9009 0a3c 3eb2 8dbd 9c50 97bd bed2 66bd
00000100: 8027 123d a0e5 5f3c e296 893d da78 41bd
00000110: 3002 0fbd ac2b 0cbd bcf3 08bd 989d f3bd
00000120: f8d3 f2bd 53d8 eabd 5c09 a6bd 5ada ff3d
00000130: ee29 b73d a649 b03d 982a 91bc 0ace a63d
00000140: 06f7 a73d deea c23d 5a0c 5ebd 5061 02bd
00000150: c8b6 08be fdb3 f5bd 5680 f3bd 248a 163d
00000160: 0deb 053e 3c3e d53d 00eb 523b d01a 57bc
00000170: 4e6c 893d 2400 db3d 8e46 8bbd af69 84bd
00000180: e025 0dbe 304e 58bc c856 f6bd e2ea cbbd
00000190: 60bf 003d 2426 6d3d 6df1 0d3e 4bb0 013e
000001a0: ba15 6ebd 6882 51bd 4e31 993d d80a fcbd
000001b0: d1c5 bebd 27f5 073e 8e7b bfbd b005 763d
000001c0: 2e41 f33d 3348 9ebd f04c d4bc 7635 e1bd
000001d0: da60 ba3d 4668 fa3d 0b1a 0d3e 30a6 00bc
000001e0: 59d7 fabd fae4 e9bd ba8f 903d d6e1 91bd
000001f0: 682f e03c e09c 483d a965 debd 38a2 f4bc
00000200: dad7 19bd 4c7d 3bbd fdfd 083e 72e6 44bd
00000210: c61a c03d 24d7 75bd d0de 983d a07e ad3c
00000220: f0bc 743d e899 7ebd 5228 79bd d8b4 0abe
00000230: 6855 613d 62f8 b13d 5060 16bd 5209 833d
00000240: eb23 e6bd ee45 70bd 76c4 0abd 6284 e43d
00000250: be3e bfbd c810 f5bd 80c0 953c 0c6f 213d
00000260: 58e7 003d c4bf 883d 1c37 1d3d 0103 0cbe
00000270: 00ae 09be 14ee d8bc a71d 083e bb78 81bd
00000280: 2066 843c 4e46 803d 0458 58bd 7063 b73c
00000290: 2a8b f13d 78fd bebd 002e a539 6457 cabc
000002a0: dfe5 0bbe 83a5 10be ebe6 0dbe fe8e d2bd
000002b0: 6090 afbb e42f 683d aae6 68bd 405e 30bb
000002c0: 087c 4c3d f20b c9bd 6270 ea3d b0ae aebd
000002d0: 802f ccbd c67c abbd e087 f0bb a80f a73d
000002e0: 6827 21bd 6251 38bd 6e10 d93d 0eb4 85bd
000002f0: 98ef 9abd 39ca 98bd fa19 4ebd 8083 01bb
00000300: 4438 4dbd 5f6f 083e 1060 0abe 34d6 f0bc
00000310: a40d 09be 30e8 c4bc 2fee 0f3e 87e0 043e
00000320: d6a8 fbbd cca3 57bd f89e b13d e095 2abd
00000330: 7116 0dbe 0440 0cbe 1459 7bbd 8c6d d73d
00000340: 045f 093d b46e 383d 901f bcbc 7408 633d
00000350: 85d7 0e3e a8aa 10be b2d3 08be 4e44 3dbd
00000360: 0f4f 0c3e ce43 cf3d 08ba 0c3d 4aea debd
00000370: a237 6ebd f1b4 083e e145 063e 5a54 32bd
00000380: 80b8 dd3b 7422 903d c6b4 913d 3787 003e
00000390: 61ef 0cbe e8fe a23d ca63 a7bd e8af a83c
000003a0: 0cad c53d a09e 40bd 5e6e 91bd 932f febd
000003b0: da42 a7bd 4ab3 ff3d 9c69 b9bc b8ff 9fbd
000003c0: 189d ae3d e561 ffbd 3f60 043e 6cdf 733d
000003d0: 60f0 83bc 808c f6bc 4a66 de3d 00f8 a43d
000003e0: 8c80 94bd 0079 e83a 30e5 0e3c c8a1 023d
000003f0: 300c 7a3d 32e9 d8bd 986a 3dbd 644f 843d
-0.08113629 0.07145502 -0.021357864 0.037341774 0.11456065 0.111705616 0.019119367 0.09953232
0.04678467 -0.09286482 -0.09940222 -0.017859697 -0.007988498 -0.059857935 0.014853299 -0.06627609
0.13562135 -0.0848364 -0.05244565 0.052768007 -0.07914418 0.13732861 0.05996248 -0.023860864
0.08721903 0.017371193 -0.03756185 -0.010855302 0.05557576 0.09928271 -0.029874027 0.09993312
-0.12630585 -0.039002188 0.0024648756 0.0049416125 0.06711058 -0.03529276 0.112551436 -0.053451277
-0.0847781 0.015901387 -0.11665584 0.12549655 0.008620039 -0.09682092 -0.08722282 -0.030001193
0.04908137 0.03755492 0.041423246 0.060655043 -0.02060888 0.13589425 -0.06303235 -0.09234442
0.13860025 0.13788573 -0.03399963 0.089154676 0.008425131 -0.069187626 -0.07388422 -0.056353323
0.0356822 0.013665587 0.06718232 -0.047234394 -0.034914196 -0.034221336 -0.03343557 -0.11895293
-0.11856836 -0.11467042 -0.08107254 0.12492819 0.08943544 0.08607797 -0.017720506 0.081447676
0.08201413 0.095174536 -0.054210998 -0.031831086 -0.13350976 -0.11997221 -0.118897125 0.036752835
0.13077946 0.10412261 0.0032183528 -0.013128951 0.067101106 0.10693386 -0.068005666 -0.0646547
-0.1378398 -0.013202235 -0.12028271 -0.0995691 0.03143251 0.0578977 0.13861628 0.12664907
-0.05812619 -0.051149756 0.07480107 -0.12306756 -0.09315074 0.13277112 -0.09349738 0.060064018
0.118776664 -0.07728615 -0.025915593 -0.10996525 0.09100504 0.1222692 0.13779466 -0.007852122
-0.122481056 -0.11420627 0.07058664 -0.07123153 0.027366355 0.048977733 -0.10859234 -0.029862508
-0.037559368 -0.04577379 0.13378139 -0.048071332 0.09380107 -0.060019627 0.07464373 0.021178544
0.059750497 -0.062158495 -0.060829468 -0.13545549 0.05501309 0.086899534 -0.036712945 0.06398262
-0.112373196 -0.05866044 -0.033878766 0.111580625 -0.09338139 -0.119660914 0.018280268 0.039412543
0.031470627 0.066772014 0.038382635 -0.13673021 -0.13445282 -0.026480712 0.13292561 -0.06321856
0.016161978 0.062634096 -0.052818313 0.022386283 0.117941216 -0.09325689 0.00031505525 -0.024699874
-0.13661908 -0.14125638 -0.1385762 -0.1028118 -0.005357787 0.056686297 -0.056860603 -0.0026911646
0.049922973 -0.098167315 0.114472166 -0.08529413 -0.099699974 -0.08373408 -0.0073404163 0.08157283
-0.03934422 -0.044999488 0.10598837 -0.06528483 -0.0756523 -0.07460446 -0.050317742 -0.0019762218
-0.050102487 0.13323735 -0.13513207 -0.029399015 -0.1338411 -0.024036497 0.14055704 0.12976275
-0.12288062 -0.052646443 0.08672899 -0.04164684 -0.13778092 -0.13696295 -0.06136425 0.10518941
0.03353788 0.04502745 -0.022964269 0.055427983 0.13949402 -0.141276 -0.13362005 -0.04620772
0.13702033 0.101203546 0.0343571 -0.10884531 -0.058158524 0.13350274 0.13112594 -0.043537475
0.006766379 0.070378214 0.07114558 0.1255158 -0.13763191 0.07958776 -0.0817333 0.020591691
0.09652147 -0.047026277 -0.07101129 -0.12411418 -0.08167048 0.124853685 -0.022633366 -0.07812446
0.08526057 -0.12469844 0.1292734 0.059539244 -0.01610583 -0.030096292 0.10859354 0.08055115
-0.07251081 0.0017736256 0.008721635 0.031892568 0.06104678 -0.105913535 -0.046244234 0.06460455

l2.bias f4 [100]
00000000: 66f4 0bbe 2834 4b3d 5cb2 57bd 8111 96bd
00000010: fc53 063d 3a4c 9d3d 8c0b 75bd 94ac 1f3d
00000020: 4cac 0d3d 40f2 12bb f21e f03d d0cd 52bd
00000030: aa6b 36bd bf5c efbd 5e75 e9bd f007 2b3d
00000040: ce6f 983d 04bf 553d 9f5c 85bd 0afc fc3d
00000050: dcdb c1bd a0d4 5c3c d44a 4e3d 8c8b 39bd
00000060: 1220 06be 9cd7 fdbd 3ca8 1cbd c435 193d
00000070: 3019 30bd 5448 9abc 8688 bdbd 63bb 87bd
00000080: 387e 233d ba06 d8bd fa04 3cbd 3662 f7bd
00000090: 72ce e03d 4078 dc3c 40fb a5bd 0489 163d
000000a0: 72b4 82bd 188d 783d e49c 293d b09b 4bbc
000000b0: 34e4 58bd 6af7 bcbd 4ed3 bc3d 6813 a33d
000000c0: 26c6 04be cb48 ffbd faf9 a53d 408c 923c
000000d0: ec92 273d 00ae dc39 b0c0 893d 480e a83c
000000e0: 9485 93bc 8c22 be3d 3897 de3c f295 913d
000000f0: 4eff febd 49e6 a5bd 56c9 bb3d f650 bcbd
00000100: a0d8 023c 100f b5bd 5494 cdbc a6c7 fc3d
00000110: 1c1b d6bc b0c5 c4bd fd46 87bd 609e fa3c
00000120: 0ddd 083e 954c 093e c025 2bbd 88d3 b9bc
00000130: 60ef 473d 4c35 803d 2c42 9c3d cf46 95bd
00000140: 4bbe 023e a064 f6bb 0054 69b9 28a5 e13c
00000150: 57ab 03be 1ae1 b23d 185e aabc 507c f43c
00000160: 79a0 093e 9017 6a3d e01d 3d3d f2f6 f63d
00000170: 80fa e1ba 0e33 943d f04c 82bc 088f a53d
00000180: e1f0 0f3e d4b6 873d fc8c 9f3d c9c8 eabd
-0.1366745 0.049610287 -0.05266033 -0.07327557 0.032794937 0.07680555 -0.059825465 0.038982943
0.034588143 -0.0022422224 0.11724652 -0.05146581 -0.04453627 -0.11687612 -0.11399339 0.041755617
0.074432 0.05218412 -0.06511807 0.1235276 -0.09465763 0.013478428 0.05036433 -0.045299098
-0.13098171 -0.1239464 -0.03824638 0.03740479 -0.04299277 -0.018833317 -0.092545554 -0.06627538
0.039915293 -0.10548158 -0.045903184 -0.12079279 0.10976876 0.026912808 -0.08104563 0.036751762
-0.063820735 0.060681432 0.04140939 -0.0124272555 -0.052952006 -0.09226878 0.09219991 0.07962686
-0.12966213 -0.12465056 0.0810432 0.017889142 0.0409116 0.0004209131 0.06726205 0.020514622
-0.018008031 0.09283933 0.027171716 0.07108678 -0.12451039 -0.08100564 0.09169261 -0.091951296
0.007986218 -0.088407636 -0.025095142 0.123427674 -0.026135974 -0.096080184 -0.06605337 0.030593097
0.13365574 0.1340812 -0.041784048 -0.022683874 0.04881227 0.062601656 0.07629809 -0.07288896
0.12767904 -0.0075193197 -0.00022251904 0.027544573 -0.1285833 0.08734341 -0.02079682 0.029844433
0.13440122 0.057151377 0.04617107 0.1205882 -0.0017240793 0.072363004 -0.015905827 0.08083922
0.14056732 0.066266686 0.077905625 -0.11464078

l3.weight f4 [20, 100]
00000000: 9ef5 263d cc4e d2bc 02e2 b5bd cc8c fc3c
00000010: 3d3b aabd f0f8 a4bd 8cff f7bc 40b6 2dbc
00000020: 000c fd38 c611 423d 6681 0ebd 18b4 3e3c
00000030: c9be c93d 7aac 503d e39c 55bd 7829 b7bd
00000040: 5221 9bbd d822 083c f088 2d3c 98d1 bbbd
00000050: 5ae4 3ebd 0ed8 633d 63ef 2cbd 4099 733b
00000060: 4bca b73d 4037 5f3c a3c5 b73d 9a18 513d
00000070: 4df3 54bd 88ff 99bc 80d3 cc3b cc4b a9bc
00000080: 5ea1 1d3d 4976 853d f3a3 41bd 1320 2ebd
00000090: 91f5 ae3d b710 c93d 4d59 b2bd b00d 123c
000000a0: 077e 3abd 00a4 9dba ed58 a6bd ba0c 3f3d
000000b0: 9048 8cbd 9247 083d 79b6 9e3d 3061 19bc
000000c0: 0093 113b aee2 513d cd8a 31bd 4d54 4cbd
000000d0: 6d2b b93d 585f 66bc 06f4 0e3d 8cb1 f5bc
000000e0: 3d0f 33bd b058 a53b 4e8e 3d3d 8826 dcbc
000000f0: 9099 033c a764 5abd 3b50 b1bd 402f 17bb
00000100: d65e 9dbd cd72 76bd 0bdf acbd 4720 5abd
00000110: 2252 003d 8146 c73d dd25 72bd 5b59 c93d
00000120: b012 5ebd 5138 be3d f92d 8a3d 8246 4e3d
00000130: 9d37 c3bd cd30 1ebd 2213 5f3d 3a9f 1dbd
00000140: ab8c bfbd 0839 88bc 44bb d53c 1828 e9bc
00000150: 9617 613d a8f7 803c 4a64 44bd 1786 2dbd
00000160: 4ed7 163d caba bfbd 121d a1bd 926b 7c3d
00000170: 0ffd b8bd e0c2 fa3b c37a a9bd fa03 bfbd
00000180: 7756 973d 8c6a 953c d08b 84bd 6592 943d
00000190: 0968 a53d f407 dabc 661c 243d a0b9 8b3b
000001a0: 0d98 94bd 4d87 a3bd c07f c4bc a5f3 83bd
000001b0: 828b 1f3d f3b3 1cbd 76e2 753d 00f5 8dbc
000001c0: 00cf 7ebb 1e04 333d fa89 403d b70c 53bd
000001d0: 2858 203c 7020 7dbd b6b1 94bd 6e26 94bd
000001e0: bc97 fb3c e8c7 ebbc 3373 9f3d 8055 973c
000001f0: b52e ca3d 6045 c4bb 5810 97bd 3ecc 663d
00000200: b21b 4e3d 9322 af3d 5b58 c23d e87a 25bc
00000210: 7835 90bc cdec a3bd 615c bc3d 9106 bf3d
00000220: 6bbf 8ebd ec60 a0bc e0d0 b0bb 30a7 d6bb
00000230: ed4a 95bd 58a6 073c 00f8 b8bd d864 e1bc
00000240: 8444 dc3c 801e b5bc d7f4 883d 8a43 b2bd
00000250: 4a83 0d3d 6faf c8bd ed20 6abd d08b aa3b
00000260: 5075 903b 8386 a7bd b61b 2a3d 0867 8cbc
00000270: d25f 613d 038a afbd a839 26bc b631 723d
00000280: a071 96bd 3d64 3dbd b04e dabb 6013 5cbd
00000290: f2e2 153d 40d2 7e3b d358 1fbd 6708 75bd
000002a0: 90ec 043c e8c0 38bc 30a3 4c3c 5874 783c
000002b0: f2d5 a3bd f056 763c 790d 903d ba8d 43bd
000002c0: 7112 b03d 020e 533d 1ee6 663d 5ac5 753d
000002d0: c038 b8bc 2bbf 9cbd 82a2 773d 3909 a03d
000002e0: 73ec b6bd 2054 b3bc c146 973d ba1d 103d
000002f0: 0db0 afbd 6de7 2abd 1d05 c6bd 31e8 9f3d
00000300: ba32 28bd 5638 a8bd eaff 98bd 8fe1 853d
00000310: f068 703c 008a eb39 34a1 babc 6abb bbbd
00000320: 00d3 5eba 6864 613c 104f 62bc 9483 8c3c
00000330: 71f2 883d 5010 03bc b747 903d fe0f 86bd
00000340: 927f 543d 2aa3 4c3d 4a26 1cbd 8955 943d
00000350: 5444 e83c 34c0 89bc d2c1 96bd 367e 18bd
00000360: b1d2 bc3d 0928 873d ec7e 923c 2c3d 02bd
00000370: 5a80 6dbd 782c c83c c078 f7ba 1837 7e3c
00000380: 4318 35bd b250 6f3d aa03 bcbd c94b bf3d
00000390: 38e5 81bc 11b4 b13d c08c 16bc 804c aeba
000003a0: 371b be3d 57b6 a33d a670 4a3d 6fc2 8d3d
000003b0: b52e 913d 473f 4cbd 809a 803a 7d30 a13d
000003c0: 4a88 babd 58b6 2dbc 4ac3 3f3d 7607 273d
000003d0: 361f 95bd 80f8 19bc 3e1b 91bd 8015 48bd
000003e0: 00cf 96bb c612 6c3d 6053 a5bd fda8 6bbd
000003f0: d286 623d a018 36bd 0e87 283d be3e 553d
0.040761583 -0.025672339 -0.08880998 0.030828856 -0.0831208 -0.080552936 -0.030273221 -0.010602534
0.00012066215 0.04738023 -0.034791373 0.011639617 0.098508425 0.050945736 -0.052151572 -0.089434564
-0.07574715 0.008309089 0.0105917305 -0.09170836 -0.04660449 0.055625968 -0.042220484 0.0037170202
0.08974131 0.0136240125 0.08973243 0.051048853 -0.051989842 -0.018798605 0.0062507987 -0.020666026
0.03848397 0.06516702 -0.047275495 -0.042511057 0.08542932 0.09817641 -0.08708439 0.008914396
-0.045530345 -0.0012027025 -0.0812243 0.046642996 -0.06849778 0.03327138 0.07749648 -0.00936155
0.0022212863 0.05124157 -0.04334526 -0.049885083 0.09041486 -0.014060818 0.034900688 -0.029991888
-0.043715704 0.0050459728 0.04627829 -0.026873842 0.008032218 -0.053318646 -0.08657881 -0.0023068935
-0.07684104 -0.060168076 -0.084409796 -0.05325344 0.031328328 0.097302444 -0.05911814 0.09831496
-0.05421704 0.09288085 0.0674705 0.05036021 -0.09532092 -0.03862076 0.054461606 -0.03848193
-0.09353002 -0.016628757 0.026090272 -0.028461501 0.054954134 0.015743092 -0.047947206 -0.042364206
0.036826424 -0.09361799 -0.07866873 0.061626025 -0.09032642 0.0076526254 -0.08275368 -0.0932693
0.07389539 0.018239282 -0.064719796 0.07254485 0.08076484 -0.02661512 0.040066145 0.0042640716
-0.07255564 -0.07984791 -0.023986697 -0.06442956 0.038951404 -0.03825755 0.060030423 -0.01732874
-0.0038880706 0.0437051 0.047006585 -0.051525798 0.009786643 -0.061798513 -0.07260458 -0.072338924
0.030712001 -0.028781846 0.077856444 0.018473387 0.0987219 -0.0059897155 -0.07376164 0.056347124
0.05031938 0.085515164 0.09489509 -0.010100104 -0.01760362 -0.080041505 0.091973074 0.09327424
-0.06970104 -0.019577466 -0.0053959936 -0.006550692 -0.072896816 0.0082794055 -0.09031677 -0.027513906
0.02688814 -0.02210927 0.066873245 -0.08704288 0.034549035 -0.09799086 -0.057160307 0.005204655
0.004408516 -0.08179953 0.041530333 -0.017138973 0.055023022 -0.085712455 -0.010145582 0.05912944
-0.07345891 -0.046238173 -0.0066622123 -0.053729415 0.036593385 0.0038882643 -0.03890307 -0.059822466
0.0081130415 -0.011276461 0.012490079 0.015164457 -0.07999791 0.015035376 0.0703382 -0.047742583
0.085972674 0.05152703 0.0563718 0.060002662 -0.022487998 -0.0765365 0.060457714 0.07814259
-0.08931818 -0.0218907 0.07386542 0.0351846 -0.08578501 -0.04172461 -0.09668944 0.07807959
-0.041064 -0.0821387 -0.07470687 0.065371625 0.014673457 0.0004492551 -0.022781946 -0.09166606
-0.00085000694 0.013756849 -0.013812795 0.017152585 0.06686867 -0.007999495 0.070449285 -0.06546019
0.051879473 0.049960293 -0.038122453 0.07242877 0.028352894 -0.016815282 -0.07361187 -0.03722974
0.09219874 0.06599433 0.017882787 -0.03179662 -0.057983734 0.024435267 -0.0018880591 0.015516065
-0.04421259 0.058426566 -0.09180386 0.09340627 -0.01585637 0.08676923 -0.009188831 -0.0013297945
0.092825346 0.07993763 0.049423836 0.06921851 0.07088987 -0.049865033 0.000981167 0.078705765
-0.09108026 -0.010602556 0.0468171 0.0407786 -0.07281344 -0.009397626 -0.07085274 -0.04884863
-0.004602313 0.05763509 -0.08072543 -0.057534207 0.055304356 -0.044457078 0.041144423 0.05206179

l3.bias f4 [20]
00000000: a047 ebbc 4ca0 c03c 20aa aebb f2a0 063d
00000010: dd8b 6bbd ee3b 253d a011 52bb c156 833d
00000020: d06c 40bd 476c 5ebd 1e98 a8bd e0f8 86bd
00000030: e159 b33d 61de 863d ba3b 5ebd 43ce c63d
00000040: 18ed 583c c0b1 6b3b 80f3 b5bd 1326 55bd
-0.028720677 0.023513936 -0.005330339 0.032868333 -0.05750643 0.040340357 -0.0032053962 0.06413031
-0.04697877 -0.05430248 -0.08232139 -0.06590438 0.087573774 0.06585384 -0.05425618 0.0970731
0.013240121 0.0035964102 -0.088843346 -0.052038264

output.weight f4 [8, 20]
00000000: b633 07be 5086 783c 0861 b8bc 3406 3ebe
00000010: 008a 8e39 d57a 40be 1089 903d 4cda d13d
00000020: 0064 2a3e da33 92bd 380e cabc b0bc adbc
00000030: e299 5f3e 5688 3b3e e8b2 403e a010 e53d
00000040: 1806 b8bc 60e6 5fbc d0f9 c3bc c6cc 83bd
00000050: 1870 ee3d 842b 76bd ca31 1e3e 2650 60be
00000060: c057 bfbb 9024 04bc a227 4a3e a062 f4bc
00000070: 66a5 2c3e b44f e13d b08d 3dbe ec43 d33d
00000080: 0040 3a38 e090 8ebc b46a 03be f0e8 bd3d
00000090: d61a 0abe a7e2 4abe e92c 06be 6014 43be
000000a0: 8472 04be d8f3 e13d 418f 5abe 18a8 493d
000000b0: 88a1 f9bc bfca e7bd 00d2 443c 00df 3abd
000000c0: b953 1ebe be9b 59be 1eda c8bd c326 2cbe
000000d0: e070 7f3d f259 24be 78fc 33bd c87a c1bd
000000e0: f0d9 423d f896 283d 3404 e33d c0f0 da3c
000000f0: 9a3b 4d3e 0e25 333e 9bc2 60be 4ccf 9f3d
00000100: 5c37 ef3d 8c0a 3c3e d881 78bd fa36 81bd
00000110: d263 023e 16d7 17be 38b1 b73d f882 8bbc
00000120: 48f7 e13d 2c67 3a3e 8083 88bc e6b9 343e
00000130: 6353 58be c0c0 6ebb 0090 feb9 f062 9cbd
00000140: 3813 7fbd a4f4 883d c850 1f3d 4051 173b
00000150: e8e5 e3bc de7f e1bd e0d8 55be 380e bebc
00000160: 0857 833d a0bd 0f3d 7e3d 373e 1067 f53c
00000170: a41a abbd 80aa 1b3e 480e c23c b22c d0bd
00000180: 3048 da3d d4bb d63d e438 b63d 189d 34be
00000190: f411 b4bd d0f8 d6bc 86fe 32be 5029 373c
000001a0: a03a bf3d 40c5 66bc 88e0 3abd 2edc 10be
000001b0: f8f4 033e e09f 803b 6633 573e 59a0 dabd
000001c0: 466e 043e 087b e53d 4814 b03c 5c6a af3d
000001d0: 869b e1bd e023 833b e8cc 14be 645a f73d
000001e0: b37b eebd 808a 833b 70d9 7a3c d7c4 2dbe
000001f0: 4c56 02bd 8939 4dbe a8da 153e 74af 033e
00000200: a142 61be f848 8dbd d284 073e cdfc f4bd
00000210: bf91 07be 1cf6 e6bd 58bb 26be 0e97 09be
00000220: 608f c0bd d6b4 61be aec7 153e f813 7abd
00000230: 38ef 4c3e 28fb 263e da18 593e e8ec ce3d
00000240: 7a11 96bd b02b f53c 1cff 933d b982 2abe
00000250: b7e9 2abe 28db 3d3d 167b 08be 2726 edbd
00000260: 9478 96bd 1fc9 2dbe 7599 52be 5850 513e
00000270: aecc 203e d668 1b3e a687 1fbe 4efe 4fbe
-0.1320332 0.015168741 -0.022507206 -0.18557054 0.0002718717 -0.18796857 0.070573926 0.10246715
0.1663971 -0.07138796 -0.024664983 -0.021208137 0.21836045 0.18313727 0.18818247 0.111848116
-0.022463843 -0.0136657655 -0.02392283 -0.06435542 0.11642474 -0.060100093 0.1544868 -0.21905574
-0.005839318 -0.008065358 0.19741681 -0.029832184 0.1685997 0.1100153 -0.1851108 0.103156894
4.440546e-05 -0.017403066 -0.12833673 0.09272945 -0.134868 -0.19813024 -0.1310307 -0.19050741
-0.12934309 0.11032838 -0.2134371 0.049232572 -0.030472532 -0.113179676 0.0120129585 -0.045622826
-0.15461625 -0.21250817 -0.098072276 -0.16811661 0.062363505 -0.16049936 -0.043941945 -0.09447247
0.047571123 0.0411596 0.11084786 0.026726127 0.20042267 0.17494604 -0.21949236 0.078032106
0.11680481 0.18363398 -0.060670704 -0.06309314 0.12733391 -0.14828143 0.08969349 -0.017030224
0.11033493 0.1820342 -0.016664267 0.1764904 -0.2112556 -0.0036430806 -0.00048553944 -0.07636058
-0.062274188 0.066872865 0.0388954 0.00230892 -0.027819589 -0.11010717 -0.20883512 -0.02320014
0.06413084 0.03509295 0.17894551 0.02995637 -0.08354691 0.1520176 0.02368845 -0.10164775
0.106583 0.10485044 0.0889757 -0.17638052 -0.08792487 -0.02624169 -0.17479905 0.011179283
0.09337354 -0.014085114 -0.045624286 -0.14146492 0.12886417 0.0039253086 0.210157 -0.10675115
0.12932691 0.11205107 0.021494046 0.08565208 -0.11015992 0.0040020794 -0.1453129 0.120777875
-0.116446875 0.004014313 0.01531063 -0.1696962 -0.03182058 -0.20041479 0.14634192 0.12859899
-0.21998073 -0.06898683 0.1323426 -0.119622804 -0.13239191 -0.112774104 -0.16282403 -0.13436529
-0.094023466 -0.2204164 0.14626953 -0.0610542 0.2001313 0.16306746 0.21200886 0.1010378
-0.07327552 0.029928058 0.072263926 -0.16651429 -0.16690718 0.04635158 -0.13328204 -0.115795426
-0.07347217 -0.16971253 -0.20566352 0.20440805 0.15703079 0.1517671 -0.1557909 -0.20311853

output.bias f4 [8]
00000000: 6688 213e e3e4 dbbd 2418 0d3e d62f 3a3e
00000010: 1815 51bd eed2 22be 38fe 693d d07a 343e
0.15774688 -0.10737016 0.1377874 0.1818231 -0.051045507 -0.15900776 0.057127208 0.17624974
