PINN_experience/saved_model/simpleANNlr=0.005bs=512_mse_data.pt (torch, 34575 bytes, 8 tensors)

l1.weight f4 [50, 14]
0	0x3bebeec0	0.007200092
1	0x3d5a4ca8	0.05329576
2	0xbe65f84c	-0.22457999
3	0xbe13033c	-0.14356703
4	0xbdeb250e	-0.11481677
5	0x3e24195c	0.16025299
6	0x3e6a16f4	0.22860318
7	0x3e1d7514	0.15376693
8	0x3d9ab4f0	0.07554042
9	0xbda7334a	-0.081640795
10	0xbe59e64a	-0.21279255
11	0xbccdab98	-0.025106236
12	0xbdde8678	-0.10865492
13	0x3dc4976c	0.09599194
14	0x3dda7840	0.10667467
15	0x3dae25a0	0.0850327
16	0xbe60ce24	-0.21953636
17	0xbe244316	-0.16041216
18	0x3e4dfc5e	0.20115802
19	0xbe01d12b	-0.12677447
20	0xbe03c8b0	-0.12869525
21	0x3d15c850	0.036567986
22	0x3b88d5c0	0.0041758716
23	0xbdd24250	-0.10266554
24	0xbe6a7c58	-0.22898996
25	0x3e4052b2	0.18781546
26	0x3c6ff200	0.0146451
27	0xbe835a1f	-0.25654694
28	0xbc9797c0	-0.018504977
29	0x3e23bae4	0.15989262
30	0x3dce18f0	0.1006335
31	0x3dc0e700	0.0941906
32	0x3cee3c70	0.029081553
33	0xbe28d0c7	-0.16485892
34	0xbe61e2ca	-0.2205917
35	0x3c8ef230	0.017449468
36	0x3d90df98	0.07073897
37	0x3dc7db44	0.097586185
38	0x3d240008	0.040039092
39	0x3db88e88	0.09011561
40	0x3e50c0ac	0.20385998
41	0xbd13fe0c	-0.03613095
42	0xbd7fc5f8	-0.062444657
43	0xbe2d4dac	-0.1692416
44	0xbe518e5d	-0.20464464
45	0x3e357c46	0.17723188
46	0xbd1a0bf8	-0.03760907
47	0xbe04fdf5	-0.12987502
48	0xbd2858b4	-0.04110022
49	0xbd3090d4	-0.04310687
50	0xbe1c2b66	-0.1525093
51	0xbe2eaa5c	-0.17057174
52	0xbbc853c0	-0.0061134994
53	0xbdd737e4	-0.10508707
54	0x3d0c0058	0.034180015
55	0xbe69be96	-0.22826609
56	0xbd9e146e	-0.077187404
57	0x3da2eecc	0.07955703
58	0x3cda6760	0.026660621
59	0x3e1bd4ba	0.15217867
60	0xbe3242ae	-0.17408249
61	0x3dc27854	0.09495607
62	0x3e73121a	0.23737374
63	0xbdf6cf6e	-0.12051283
64	0x3e241136	0.1602219
65	0x3e33f852	0.17575195
66	0xbcd2e4f8	-0.025743946
67	0xbd444a90	-0.04792267
68	0x3e736afe	0.23771283
69	0xbe6c815c	-0.23096222
70	0xbbef6400	-0.007305622
71	0xbd8c459a	-0.06849213
72	0xbdccf520	-0.100076914
73	0x3cb6e0f0	0.022324055
74	0xbd18b49c	-0.037281618
75	0x3d757ef0	0.05993551
76	0x3e36b3ba	0.17841998
77	0xbd5f7bc8	-0.054561406
78	0xbe1a95a6	-0.15096149
79	0x3dcc2504	0.09967998
80	0x3e590f44	0.2119723
81	0xbd3d8950	-0.04627353
82	0xbe6abd36	-0.2292374
83	0xbe15d1ea	-0.14630857
84	0x3e400dea	0.18755308
85	0xbd8a26d0	-0.06745684
86	0xbdc42482	-0.09577276
87	0x3e2173ac	0.15766782
88	0x3e08640a	0.13319412
89	0xbe32736e	-0.17426845
90	0xbe111285	-0.14167221
91	0xbcd3b118	-0.02584128
92	0x3e834b67	0.25643465
93	0xbd3f0340	-0.04663396
94	0xbd614908	-0.05500129
95	0xbdbabacc	-0.0911766
96	0x3daad35c	0.08341095
97	0x3db1bc8c	0.086785406
98	0xbe6e8fee	-0.23297092
99	0xbe7201be	-0.23633477
100	0xbc6dd6a0	-0.014516503
101	0xbe51ee0b	-0.20500962
102	0xbe04a6dd	-0.12954278
103	0x3e21b0f6	0.15790161
104	0xbdc83a80	-0.09776783
105	0xbe137c50	-0.1440289
106	0x3e2ed4ee	0.17073414
107	0xbe88ce01	-0.26719669
108	0xbe5db0f3	-0.21649532
109	0x3e2043de	0.1565089
110	0xbe1b3927	-0.1515852
111	0x3e62cad2	0.22147682
112	0x3e3c6090	0.1839621
113	0x3dcec978	0.10097021
114	0xbbbd4a00	-0.0057766438
115	0xbe55a555	-0.2086385
116	0xbdc3e7d2	-0.095657006
117	0xbe0653bc	-0.1311788
118	0x3c62a920	0.013834268
119	0xbe01d086	-0.12677202
120	0x3deba9ac	0.11506972
121	0x3e1d5674	0.1536501
122	0x3e26d9ee	0.16294071
123	0xbe4949df	-0.19657086
124	0xbe32b99f	-0.17453621
125	0xbe2d8f30	-0.16949153
126	0x3d009550	0.031392395
127	0x3cca8b20	0.024724543
128	0xbd59c728	-0.053168446
129	0x3e6ec0ca	0.2331573
130	0x3e6aa80e	0.2291567
131	0x3dcf6630	0.101269126
132	0xbe2a92ee	-0.16657612
133	0xbe3290d8	-0.17438066
134	0xbe843eb3	-0.25829086
135	0xbe0c3d92	-0.13695362
136	0x3e11e086	0.14245805
137	0x3e7f31be	0.24921319
138	0xbd6f39b4	-0.05840464
139	0xbde8d8ba	-0.11369462
140	0x3e3e284c	0.1857006
141	0x3d46d298	0.04854068
142	0xbe6a4697	-0.2287849
143	0xbe87d38c	-0.26528585
144	0xbdd8c31e	-0.10584091
145	0xbe85f284	-0.26161587
146	0x3d8446d0	0.06458819
147	0xbe61f4b8	-0.22066009
148	0xbe7c083a	-0.24612513
149	0xbe6170da	-0.22015706
150	0x3e4e2cd0	0.20134282
151	0xbe79b463	-0.24385218
152	0xbe114bb7	-0.14189039
153	0x3d4c60e8	0.049897105
154	0xbe6912fe	-0.22761151
155	0x3e845011	0.25842336
156	0x3d9400d8	0.072267234
157	0xbe87cb42	-0.2652226
158	0x3e6bcf38	0.23028266
159	0xbd9755ac	-0.073893875
160	0xbe3dc61d	-0.18532605
161	0xbe4c4606	-0.19948587
162	0x3c8a87b0	0.016910404
163	0x3e79f82e	0.2441108
164	0xbe41a128	-0.18909132
165	0x3d4020e8	0.04690638
166	0x3e73ade6	0.23796806
167	0xbd588300	-0.052859306
168	0xbd0368ac	-0.032082245
169	0xbe6ae1a3	-0.22937636
170	0x3deba488	0.11505991
171	0x3e4c3522	0.19942144
172	0xbe1dac79	-0.15397824
173	0xbcde8398	-0.027162358
174	0xbc028900	-0.007967234
175	0x3e217742	0.1576815
176	0xbdf438a8	-0.11924869
177	0xbe5789d2	-0.21048668
178	0xbe83b2d9	-0.25722387
179	0xbe538f74	-0.20660192
180	0xbe81c3f2	-0.25344807
181	0xbcefad08	-0.029257312
182	0xbe0f556e	-0.13997433
183	0x3e0c520e	0.13703176
184	0xbe3e17c3	-0.18563752
185	0x3e7e8d6a	0.24858633
186	0xbe25c9ae	-0.16190216
187	0x3e3860ce	0.18005678
188	0x3e1f1ede	0.15539119
189	0x3df30484	0.11866096
190	0x3b8e9d40	0.0043522418
191	0xbe6082df	-0.21924923
192	0x3e5b7ed2	0.21435097
193	0xbe232340	-0.15931416
194	0x3e4cdb9c	0.2000565
195	0x3cbc2620	0.022967398
196	0x3c78ed00	0.015193224
197	0x3e52af0e	0.2057459
198	0xbde9e50a	-0.11420639
199	0xbd88b4a4	-0.066750795
200	0xbd7a4f7c	-0.06111096
201	0xbdaa0cfa	-0.08303256
202	0x3d0e89c8	0.034799367
203	0x3a475800	0.00076043606
204	0xbe4a2dbc	-0.19744009
205	0xbe2e2f38	-0.170102
206	0xbe42d252	-0.19025543
207	0x3d2213a0	0.039569497
208	0x3dae14cc	0.085000604
209	0xbd4b4288	-0.049623996
210	0xbc3fd2a0	-0.011707932
211	0x3dc4890c	0.09596452
212	0xbe3c5260	-0.18390799
213	0xbdcba594	-0.09943691
214	0x3e29d5ea	0.16585508
215	0x3d9410b4	0.07229748
216	0xbe728b42	-0.23685935
217	0xbe09a052	-0.13440064
218	0xbe5eb565	-0.21748884
219	0xbe00c3ad	-0.12574644
220	0x3e1776ac	0.14791363
221	0xbe37d89c	-0.17953724
222	0x3e673736	0.22579655
223	0xbdc87dc4	-0.09789613
224	0xbe060541	-0.13087942
225	0xbe26101c	-0.16217083
226	0xbe52a108	-0.20569241
227	0xbe1bb85c	-0.15207046
228	0x3d57fde8	0.05273238
229	0xbc8b1b60	-0.016980827
230	0x3e2d15f8	0.16902912
231	0x3e73d9fa	0.2381362
232	0x3d163070	0.036667287
233	0xbe53fdef	-0.20702337
234	0xbe098474	-0.13429433
235	0xbe0e1f6b	-0.13879173
236	0x3d58bd58	0.052914947
237	0x3d9f1bcc	0.07768974
238	0xbb6d0980	-0.0036168993
239	0x3e0b7692	0.1361945
240	0xbd88519e	-0.06656192
241	0xbcee4048	-0.029083386
242	0xbe763db9	-0.24046983
243	0xbdf80eac	-0.121121734
244	0x3d85cde0	0.06533408
245	0xbe645c2c	-0.22300786
246	0x3d865f28	0.06561118
247	0xbe739039	-0.23785485
248	0x3e542ecc	0.20720977
249	0xbe3795db	-0.17928259
250	0xb90b8800	-0.00013306737
251	0xbe368c4c	-0.17826957
252	0xbe4ffa8a	-0.20310417
253	0x3e6cf5ee	0.2314069
254	0x3c17f180	0.009273887
255	0x3da00510	0.078134656

l1.bias f4 [50]
0	0x3a0d0a00	0.0005380213
1	0x3e4f024a	0.20215717
2	0x3dbf23d4	0.093330055
3	0x3e593dd6	0.21214995
4	0x3e7ba0ae	0.24573013
5	0xbe44ea34	-0.19229966
6	0x3e4c0628	0.19924223
7	0x3d283e38	0.04107496
8	0x3e072b98	0.13200223
9	0x3e6ffb6a	0.2343575
10	0x3e62f2ec	0.2216298
11	0xbd3de990	-0.04636532
12	0xbe15cc74	-0.14628774
13	0x3dc6012c	0.09668192
14	0xbd2a3280	-0.041552067
15	0xbe262474	-0.16224843
16	0xbd39c644	-0.045355096
17	0xbcbc94f0	-0.023020238
18	0x3d226cc0	0.039654493
19	0x3e87cde3	0.26524267
20	0xbe66c9f0	-0.2253797
21	0x3d2ad248	0.041704446
22	0x3e485b1e	0.19566008
23	0x3c884960	0.01663655
24	0xbe88caa7	-0.2671711
25	0x3e258d3e	0.16167161
26	0xbe0732cc	-0.13202971
27	0x3df15f84	0.11785796
28	0x3d943c6c	0.07238087
29	0xbdab9db4	-0.08379689
30	0xbe25f8a0	-0.16208124
31	0x3d751680	0.05983591
32	0xbdd24248	-0.102665484
33	0x3d6b5b98	0.057460397
34	0xbe06ecab	-0.13176219
35	0xbe647efc	-0.22314066
36	0xbdfea3be	-0.12433575
37	0xbe42e72d	-0.19033499
38	0xbe4b33fe	-0.19844052
39	0x3e83c9c9	0.25739887
40	0x3dd8d4f0	0.105874896
41	0x3dfd4098	0.12365836
42	0x3e2bb7ba	0.16769305
43	0xbe7718a0	-0.24130487
44	0xbd0c2e4c	-0.03422384
45	0x3ddf479c	0.1090233
46	0x3e64ee26	0.22356471
47	0xbc8b7b00	-0.017026424
48	0x3ca75fc0	0.0204314
49	0x3cbb73f0	0.022882432

l2.weight f4 [100, 50]
0	0xbd9be700	-0.07612419
1	0xbdcffb3e	-0.101553425
2	0xbd43e1ae	-0.047822647
3	0x3d8a9d8c	0.06768331
4	0xbd8e9365	-0.06961707
5	0xbd53eca6	-0.051739357
6	0xbd948b7d	-0.07253168
7	0xbe039ac2	-0.12852004
8	0x3d79e3ac	0.06100814
9	0x3d3f54bc	0.04671167
10	0x3be15320	0.0068763644
11	0xbdc5e4e1	-0.09662796
12	0x3dceb744	0.10093549
13	0xbddf9d09	-0.10918624
14	0xbe0b78c9	-0.13620295
15	0xbe012f76	-0.12615761
16	0xbcd55940	-0.026043534
17	0x3cb16cc8	0.021658316
18	0x3dd94742	0.106092945
19	0x3d7386a0	0.05945456
20	0x3d71a978	0.05899951
21	0xbd63764c	-0.05553274
22	0x3d04ce14	0.032423094
23	0xbe0fee14	-0.14055663
24	0x3dfeb69e	0.12437175
25	0x3c0432c0	0.00806874
26	0x3d630a68	0.055429846
27	0x3d9a2500	0.075265884
28	0xbdf58dc3	-0.119899295
29	0xbd06fc22	-0.032955296
30	0x3df22f0e	0.11825381
31	0xbd8ba732	-0.06818999
32	0x3d82dd8c	0.06389913
33	0x3df9d08e	0.12197982
34	0x3d948a42	0.07252933
35	0x3dc0b0c8	0.09408718
36	0xbd99bdd0	-0.07506907
37	0x3d929e68	0.0715912
38	0x3dfe000e	0.12402354
39	0x3d9e47fc	0.07728574
40	0xbdf35491	-0.11881364
41	0x3d0d2880	0.034462452
42	0x3e09e4fd	0.13466258
43	0xbde1a2f9	-0.11017413
44	0xbd5d14ea	-0.053975023
45	0xbe093510	-0.13399148
46	0xbda59d1c	-0.08086607
47	0x3d003640	0.031301737
48	0x3cede8f0	0.029041737
49	0x3e01b295	0.1266578
50	0x3b7ddb00	0.003873527
51	0xbd01a0ae	-0.031647377
52	0xbe09a0bd	-0.13440223
53	0xbdeb18c5	-0.11479334
54	0xbd5fe7a6	-0.054664277
55	0x3d88b01c	0.06674215
56	0xbdcc5f29	-0.09979088
57	0x3dd6acfe	0.104822144
58	0xbcdf5994	-0.027264394
59	0xbcab11d8	-0.020882532
60	0x3d2887bc	0.04114507
61	0x3ca24ee0	0.019813001
62	0x3d070e80	0.032972813
63	0xbe037232	-0.12836531
64	0xbd6702a6	-0.05639901
65	0xbdfe3881	-0.12413121
66	0x3c269a70	0.010168657
67	0x3dc895d4	0.097942024
68	0x3dbdb30a	0.092626646
69	0xbd382aae	-0.044962578
70	0xbd18e152	-0.037324257
71	0x3dfa9276	0.122349665
72	0x3d6616a4	0.056173936
73	0x3d8d92a0	0.06912732
74	0x3db89456	0.09012668
75	0xbd0ac89e	-0.03388273
76	0xbdb0f9a9	-0.08641369
77	0x3e0b26a9	0.13588966
78	0xbd9fa5c0	-0.07795286
79	0x3d75d7ac	0.060020134
80	0x3ca5bfb0	0.020233005
81	0xbbdf2c20	-0.00681068
82	0xbe091efd	-0.13390727
83	0x3ddd7938	0.10814136
84	0xbd2eff84	-0.042724147
85	0xbdd037f7	-0.101669244
86	0xbdf8778a	-0.12132175
87	0x3d00b838	0.031425685
88	0xbe0f8bdc	-0.14018196
89	0x3db63fb2	0.08898868
90	0x3db726c0	0.08942938
91	0xbddea825	-0.10871915
92	0x3e09e7b9	0.13467301
93	0xbd368a92	-0.044565745
94	0x3e0e6b9f	0.13908242
95	0xbdcdd0ec	-0.10049614
96	0xbd955c28	-0.07292968
97	0xbe03d459	-0.12873973
98	0xbdee42bc	-0.11633822
99	0x3d35cfd8	0.04438767
100	0x3db4803a	0.0881352
101	0x3d75bb54	0.059993103
102	0x3d32e144	0.04367186
103	0x3c7451c0	0.014912069
104	0xbdf79d2a	-0.120905235
105	0x3d96ae52	0.07357468
106	0x3de5e996	0.112261936
107	0x3c930d68	0.017950729
108	0xbd9423bb	-0.072333775
109	0xbd292188	-0.041291744
110	0x3c4807d0	0.012208894
111	0x3d3e286c	0.046425268
112	0x3d8254ae	0.063638076
113	0xbdbc189f	-0.091843836
114	0xbdd44bbc	-0.10366008
115	0x3c379e30	0.011207148
116	0xbe02ea4f	-0.12784694
117	0xbc9ff17c	-0.019524328
118	0xbdc636bc	-0.096784085
119	0xbdf0854e	-0.11744176
120	0x3c0d49a0	0.008623511
121	0x3dabd966	0.08391075
122	0x3d633a24	0.05547537
123	0xbc8ea018	-0.017410323
124	0x3df2810a	0.118410185
125	0xbd14bd48	-0.036313325
126	0x3da2a958	0.07942456
127	0xbe0df5b6	-0.13863263
128	0xbdf81706	-0.12113766
129	0x3d43983c	0.047752604
130	0xbda2860f	-0.07935726
131	0xbd345920	-0.04403031
132	0xbdf4b8be	-0.11949299
133	0x3dc4683e	0.09590195
134	0x3d891eae	0.06695305
135	0x3d9ece74	0.077542216
136	0x3c9f8678	0.0194733
137	0xbca8f774	-0.020625807
138	0xbe009fe4	-0.12560993
139	0x3da7b8c4	0.08189538
140	0xbdf57d94	-0.11986843
141	0x3d15b73c	0.0365517
142	0x3e09de41	0.1346369
143	0x3d1deef4	0.03855796
144	0x3df5c462	0.12000348
145	0x3d96b220	0.073581934
146	0x3e0d6fbf	0.13812159
147	0x3dd4a362	0.10382725
148	0x3c11fba0	0.00891009
149	0x3cfe0cf0	0.031012028
150	0xbd57f03c	-0.05271934
151	0x3dfc9566	0.12333183
152	0x3caf9918	0.021435305
153	0x3dd43de0	0.10363364
154	0xbd357b6a	-0.04430715
155	0xbbff5d20	-0.007793084
156	0xbddf6c53	-0.10909333
157	0xbddcf943	-0.107897304
158	0x3dd54ade	0.104146704
159	0xbc176e10	-0.00924255
160	0x3da1c02c	0.07897982
161	0xbd629b1e	-0.055323713
162	0x3be587c0	0.007004708
163	0xbd99b7eb	-0.07505783
164	0xbdec3da7	-0.11535197
165	0xbd07e3b2	-0.03317613
166	0x3dea074a	0.114271715
167	0x3dc589ca	0.09645422
168	0xbde88592	-0.113536015
169	0xbe0c1d42	-0.13683036
170	0xbd2719e4	-0.040796176
171	0x3d372ac8	0.044718534
172	0xbd023bee	-0.031795435
173	0x3dfafa0a	0.122547224
174	0x3cead710	0.028667003
175	0x3db3d038	0.08779949
176	0xbc5936e0	-0.013257712
177	0xbdd48cc1	-0.10378409
178	0x3d018ea8	0.03163019
179	0xbdb7cc17	-0.08974474
180	0x3ccfb5e0	0.02535528
181	0xbda97a2e	-0.08275257
182	0xbcf91040	-0.030403256
183	0x3d14f190	0.036363184
184	0x3cb79978	0.022412047
185	0xbdabf90e	-0.08397113
186	0xbca9fd60	-0.020750701
187	0xbcfdbfdc	-0.030975275
188	0x3d1320fc	0.03592013
189	0xbcb1b694	-0.021693505
190	0x3d59dd64	0.05318965
191	0x3dcfd6d4	0.10148397
192	0xbdacac3c	-0.084312886
193	0x3d05a9d4	0.032632664
194	0x3daf5c2c	0.08562502
195	0xbd5014ec	-0.050801203
196	0x3e030acb	0.12797086
197	0xbd41b48e	-0.04729133
198	0xbd49ddb4	-0.0492837
199	0xbd6b6e68	-0.05747834
200	0x3c1c9c10	0.009558693
201	0x3e00e0f5	0.12585814
202	0x3d6f3314	0.05839832
203	0x3d93c9de	0.072162375
204	0x3e0d4387	0.13795291
205	0xbdfd2e1e	-0.12362312
206	0x3dd2f21e	0.103000864
207	0x3dc0e704	0.09419063
208	0x3d503f94	0.050841883
209	0x3e06459b	0.1311249
210	0xbdbb2648	-0.09138161
211	0x3c340550	0.010987595
212	0x3d1ce7fc	0.038307175
213	0x3d2623bc	0.040561423
214	0x3dea88b6	0.11451857
215	0x3e023e8f	0.12719177
216	0xbc084280	-0.008316636
217	0xbe09eaa8	-0.1346842
218	0xbe0f427a	-0.13990203
219	0xbdde03b3	-0.10840549
220	0x3dec5612	0.11539854
221	0x3db04f58	0.086088836
222	0xbd4924f4	-0.049107507
223	0x3a2c5f00	0.00065754354
224	0x3dd2e106	0.10296826
225	0x3d6da404	0.058017746
226	0xbdc3455a	-0.09534712
227	0x3d706ef0	0.05869955
228	0xbdfe693b	-0.12422415
229	0xbdc3f1c0	-0.095675945
230	0x3d3e2f6c	0.046431944
231	0xbc7c4dc0	-0.015399396
232	0xbdf5108f	-0.11966049
233	0xbe0ce3d2	-0.13758782
234	0xbd23da1c	-0.040002927
235	0xbdf87d51	-0.12133277
236	0xbd1f25fe	-0.03885459
237	0xbdc55cd3	-0.096368454
238	0xbda024e1	-0.07819534
239	0xbdf535cc	-0.119731516
240	0x3c8ebc58	0.017423794
241	0xbd049bb0	-0.032375038
242	0x3dc7e890	0.09761155
243	0x3cdb7328	0.02678831
244	0xbdad1de0	-0.08452964
245	0xbe0d8607	-0.13820659
246	0xbc7c09f0	-0.015383229
247	0xbd88b747	-0.066755824
248	0x3d9a5348	0.07535416
249	0x3dfa274a	0.12214525
250	0x3dcbf388	0.09958559
251	0xbda7f6f6	-0.08201401
252	0x3dae19c2	0.08501007
253	0xbcd06818	-0.02544026
254	0xbd194b70	-0.03742546
255	0xbdc112f6	-0.09427445

l2.bias f4 [100]
0	0x3df16d0a	0.11788376
1	0x3da1a0ca	0.07891996
2	0x3e0abc15	0.1354831
3	0x3dd9c652	0.1063353
4	0xbdf221c3	-0.11822846
5	0x3df0bf42	0.117552295
6	0x3cf43b60	0.029813468
7	0x3da1e62e	0.079052314
8	0xbe048728	-0.12942183
9	0x3dd225b6	0.10261099
10	0xbde7bf16	-0.113157436
11	0xbdad3b95	-0.0845863
12	0x3d04567c	0.03230904
13	0xba90f900	-0.0011060536
14	0x3d5cebf0	0.053935945
15	0xbd8edd13	-0.0697576
16	0x3d28069c	0.04102193
17	0xbbf1b560	-0.007376358
18	0x3defc99a	0.11708374
19	0xbda21baa	-0.07915433
20	0x3bf2df60	0.0074118823
21	0xbdbb29a8	-0.09138805
22	0x3dd1157a	0.102091745
23	0x3e0727d1	0.13198783
24	0x3e0df997	0.13864742
25	0x3bef8d80	0.0073105693
26	0xbd8a7a16	-0.06761567
27	0x3d4118c4	0.04714276
28	0xbe0bb570	-0.13643432
29	0x3cab5a20	0.020916998
30	0x3db1f266	0.08688812
31	0xbd9e00bf	-0.07714986
32	0x3d08ff6c	0.033446714
33	0x3cbbc138	0.022919282
34	0x3dc83cac	0.09777197
35	0xbdcc8862	-0.099869505
36	0xbde25b97	-0.110526256
37	0xbcf46738	-0.029834375
38	0xbdfa0449	-0.122078486
39	0x3db3c05a	0.087769225
40	0xbc3531a0	-0.011059195
41	0xbdca3af3	-0.09874525
42	0xbc05cf00	-0.008167028
43	0x3d71271c	0.05887519
44	0x3d912a6e	0.07088171
45	0x3e07b071	0.13250901
46	0xbd88d79a	-0.06681748
47	0xbd753806	-0.05986788
48	0xbcfc086c	-0.030765735
49	0x3b505640	0.003178969
50	0x3d3d63ec	0.04623787
51	0x3cca9c58	0.024732754
52	0xbe003d88	-0.12523472
53	0x3d2eb354	0.04265149
54	0x3de31766	0.11088447
55	0xbc263da0	-0.0101465285
56	0xbe0b55f4	-0.13607007
57	0x3d756dc8	0.05991915
58	0xbccdc4c4	-0.02511824
59	0xbc24c9b0	-0.010057852
60	0x3dc5d6e4	0.09660128
61	0xbc4ff9c0	-0.012693822
62	0x3e0d67cb	0.13809125
63	0xbd3f9318	-0.04677114
64	0x3c174b00	0.00923419
65	0xbd372482	-0.04471255
66	0xbc0777d0	-0.008268312
67	0xbd7e1cbc	-0.062039122
68	0xbd4a7ca0	-0.049435258
69	0x3e0db4ff	0.13838576
70	0xbd9ea7fa	-0.07746883
71	0xbd925bbe	-0.07146405
72	0x3dd59fbc	0.104308575
73	0xbe018ee7	-0.12652169
74	0xbd8e3815	-0.069442905
75	0xbde94ee6	-0.11392002
76	0xbc6a87f0	-0.014314637
77	0xbdc364fc	-0.095407456
78	0xbe103421	-0.14082386
79	0xbd1a825a	-0.03772197
80	0x3ce13948	0.027493134
81	0xbd37f160	-0.044907928
82	0xbd497438	-0.0491831
83	0x3d7bbd40	0.06145978
84	0xbdd7b615	-0.10532776
85	0xbcb44b94	-0.022008695
86	0xbe02f3f7	-0.12788378
87	0x3d3e6e5c	0.046491966
88	0x3de14b2e	0.110006675
89	0xbd2c2930	-0.042031467
90	0x3dc9a76a	0.09846385
91	0x3df3687e	0.11885165
92	0x3defd5d6	0.11710708
93	0x3d5223cc	0.05130367
94	0x3e015239	0.12629022
95	0x3cc39770	0.023875922
96	0xbe067cad	-0.13133498
97	0xbe037648	-0.1283809
98	0x3d02add8	0.03190407
99	0x3d926dc4	0.071498424

l3.weight f4 [20, 100]
0	0xbdb99b72	-0.09062852
1	0x3c1fd950	0.009756401
2	0x3d7cfdd2	0.0617655
3	0xbca39ef8	-0.019973263
4	0x3d3062da	0.043063022
5	0x3d42e3ce	0.047580533
6	0x3d11b53a	0.03557322
7	0x3d80c237	0.062870435
8	0xbc979f28	-0.018508509
9	0x3db133a1	0.086524256
10	0x3cf82544	0.030291207
11	0x3d944e59	0.07241506
12	0xbcb24108	-0.021759525
13	0x3d7179fe	0.05895423
14	0xbcab3c58	-0.020902798
15	0xbd9eac8e	-0.07747756
16	0x3c7c92e8	0.015415885
17	0xbd9a9b62	-0.07549168
18	0xbdc13b70	-0.09435165
19	0xbd6e2ab0	-0.05814618
20	0x3d75f84e	0.060051255
21	0x3c7fdb80	0.015616298
22	0x3dbeffc3	0.093261264
23	0x3da32a01	0.07966996
24	0xbb863800	-0.004096031
25	0xbd61ffe0	-0.055175662
26	0xbdafa953	-0.08577218
27	0xbd07e980	-0.033181667
28	0x3b759740	0.0037474185
29	0xbd5c3cf7	-0.053769078
30	0x3dbc8a83	0.092061065
31	0xbc99aa4c	-0.018757962
32	0x3c739e90	0.014869347
33	0xbd555197	-0.052079763
34	0xbd752377	-0.059848275
35	0xbd5043e0	-0.05084598
36	0x3d202012	0.039093085
37	0xbda52b2d	-0.08064876
38	0x3cf842d4	0.030305304
39	0x3dc487e3	0.09596231
40	0x3d6fdcc2	0.05856014
41	0xbc6b2a30	-0.01435332
42	0xbd95331d	-0.0728514
43	0x3cb09aa8	0.02155812
44	0xbdb0d858	-0.08635014
45	0x3dac0b9f	0.08400654
46	0xbd1a946a	-0.037739195
47	0x3cd14774	0.025546767
48	0x3d83e905	0.06440929
49	0xbd0d7d4c	-0.03454332
50	0xbc66aa10	-0.014078632
51	0xbd6974ea	-0.056996264
52	0x3c7e4028	0.015518226
53	0xbd783483	-0.060596954
54	0xbd920d9d	-0.07131503
55	0x3dc9c73b	0.09852453
56	0xbd76266d	-0.06009524
57	0xbd9112f0	-0.0708369
58	0x3cec0a54	0.028813519
59	0x3d8fb6b9	0.070172735
60	0xbc0441c0	-0.008072317
61	0x3b496200	0.0030728579
62	0xbd47d3d0	-0.048785985
63	0xbcf501a0	-0.029908001
64	0x3d2ef462	0.04271353
65	0xbd35b103	-0.044358265
66	0xbdbb65cb	-0.09150275
67	0x3cc262f8	0.023728833
68	0xb943ec00	-0.00018684566
69	0x3dc90f29	0.09817345
70	0xbca965ac	-0.020678364
71	0x3d0b12a6	0.03395333
72	0x3d3a85da	0.045537807
73	0xbdb9b1eb	-0.09067138
74	0x3bebd1d0	0.0071966425
75	0xbd4c901a	-0.049942113
76	0x3c1a7e50	0.009429529
77	0x3d7e765a	0.062124588
78	0x3b99a3b0	0.0046887025
79	0xbd5c378a	-0.053763904
80	0xbbb86a20	-0.0056278855
81	0x3c5ab540	0.013348877
82	0x3b9b2620	0.0047347695
83	0x3d0b2762	0.033973105
84	0xbdc545d7	-0.096324615
85	0xbd99c59e	-0.075083956
86	0x3d8ce167	0.068789296
87	0xbc1a4890	-0.009416714
88	0x3dc43887	0.09581094
89	0x3cb55000	0.022132874
90	0xbdaa0e1b	-0.08303472
91	0xbc71d990	-0.014761344
92	0xbd745e7a	-0.059660412
93	0xbcbe7eac	-0.023253761
94	0x3dbeed1f	0.09322571
95	0x3da1f6cb	0.079084
96	0x3dc0dee7	0.09417515
97	0xbd875e2d	-0.066097595
98	0xbcb718e0	-0.022350729
99	0xbdb71e05	-0.08941273
100	0xbdc5689a	-0.09639092
101	0x3d707b46	0.058711313
102	0xbc4b35b0	-0.012402937
103	0x3d8d8a7d	0.0691118
104	0xbd3d25b0	-0.04617852
105	0xbd9aebbe	-0.075644955
106	0xbd576acd	-0.052592088
107	0xbd9a545d	-0.07535622
108	0xbd1dcaf0	-0.038523614
109	0x3bb0ab60	0.0053915232
110	0x3db058c1	0.086106785
111	0xbd050ef6	-0.03248497
112	0xbd936f55	-0.07198969
113	0xbd0c0a2c	-0.03418939
114	0x3d6f4052	0.05841095
115	0xbdb2cfa0	-0.087310076
116	0x3896f400	7.198006e-05
117	0x3d0c1f8a	0.034209765
118	0x3dad2fe9	0.08456404
119	0xbc025a40	-0.007956088
120	0x3d6173d6	0.05504211
121	0x3d7c30b6	0.061569892
122	0xbdb6d317	-0.08926981
123	0xbb6688c0	-0.0035176724
124	0x3ce8058c	0.028322957
125	0x3d00a892	0.03141076
126	0xbd95d53b	-0.07316061
127	0xbc8305c0	-0.015993953
128	0xbdab7260	-0.08371425
129	0x3ceb17c4	0.028697856
130	0xbd4257cd	-0.047447015
131	0xbda6c693	-0.08143344
132	0xbc09a9d0	-0.008402303
133	0xbd06622c	-0.032808468
134	0xbbb2fc00	-0.0054621696
135	0x3d95bff5	0.073120035
136	0xbc5e52f0	-0.0135695785
137	0xbdaffdd2	-0.08593334
138	0xbda8121d	-0.0820658
139	0x3da88ce5	0.082299985
140	0xbc6c5dc0	-0.014426649
141	0x3d875a91	0.06609071
142	0x3ca44760	0.020053566
143	0xbd8600ec	-0.065431446
144	0x3d9d9831	0.07695044
145	0xbdb590f3	-0.088655375
146	0x3db17439	0.08664746
147	0x3dbb230b	0.09137543
148	0x3bd54360	0.006508276
149	0x3d46bdae	0.048520736
150	0x3c6d1e40	0.014472544
151	0x3c8c0b2c	0.01709517
152	0x3d88db21	0.066824205
153	0x3d456182	0.048188694
154	0xbd9b1446	-0.07572226
155	0x3da10bbb	0.078635655
156	0x3d98517f	0.07437419
157	0x3d8ad181	0.06778241
158	0x3c2380b0	0.009979412
159	0x3d6b37ee	0.057426386
160	0xbdc70e95	-0.09719578
161	0x3d9795b1	0.07401598
162	0x3cdd22fc	0.02699422
163	0xbd88f1ad	-0.06686721
164	0x3d14b44e	0.036304764
165	0xbd6aa407	-0.057285335
166	0xbd57441d	-0.052555192
167	0xbd9d5b9b	-0.07683488
168	0x3d107612	0.03526885
169	0xbb9e0630	-0.004822515
170	0xbb21e400	-0.002470255
171	0x3d6dec16	0.058086477
172	0xbd87f6f8	-0.066389024
173	0xbda4a5eb	-0.08039459
174	0xbcc66a68	-0.02422066
175	0x3d81348b	0.0630885
176	0x3db562ef	0.08856761
177	0x3c7e5018	0.0155220255
178	0x3cb8366c	0.022486888
179	0x3d647a02	0.05578042
180	0x3dc4704d	0.09591732
181	0x3c5be950	0.013422325
182	0x3c51ee10	0.012813106
183	0x3d47f696	0.048819147
184	0x3dc61f77	0.0967397
185	0xbd68ec5d	-0.05686604
186	0xbc4dea98	-0.012568139
187	0xbdac850b	-0.084238134
188	0x3caf9c68	0.021436885
189	0xbdc683cd	-0.09693108
190	0xbd93259a	-0.07184906
191	0x3d3dd962	0.04634989
192	0x39fbdd00	0.00048039109
193	0x3d0c3db2	0.034238525
194	0xbd8be19a	-0.068301395
195	0xbce07d28	-0.02740343
196	0xbb23f7a0	-0.0025019422
197	0xbda04ec3	-0.078275226
198	0xbc35d130	-0.0110972375
199	0xbd3e0540	-0.046391726
200	0xbdc1eea0	-0.09469342
201	0xbc0218e8	-0.007940508
202	0xbcd5b90c	-0.026089214
203	0xbb808380	-0.003921926
204	0x3dc15a99	0.09441108
205	0x3bff9020	0.0077991635
206	0x3d8d111d	0.0688803
207	0x3d80565d	0.062664725
208	0xbd8286ce	-0.06373368
209	0x3d1d5f62	0.038421042
210	0x3d85ec15	0.0653917
211	0xbcba6100	-0.022751331
212	0x3cabf5e0	0.020991266
213	0x3d77bef2	0.060484834
214	0x3dc5b495	0.09653584
215	0x3c829634	0.015940763
216	0xbd8bb9d2	-0.06822552
217	0x3da6ac1d	0.08138297
218	0x3d8c9785	0.068648376
219	0xbd82848c	-0.063729376
220	0x3cb3714c	0.02190461
221	0xbda3596d	-0.07976041
222	0xbd09b83a	-0.033622958
223	0xbd9e515b	-0.07730361
224	0xbd8db00b	-0.06918343
225	0xbd155124	-0.036454335
226	0xb96c1000	-0.00022512674
227	0xbd592afa	-0.0530195
228	0xbd8ca4a2	-0.06867339
229	0xbd13ea10	-0.03611189
230	0x3bd6d7e0	0.006556496
231	0xbda9970e	-0.082807645
232	0x3d7acc2e	0.061229877
233	0xbd9e8076	-0.07739346
234	0x3c34e618	0.011041187
235	0x3db7173b	0.08939978
236	0xbcc43da0	-0.023955166
237	0xbcee2ccc	-0.029074095
238	0xbd4f8580	-0.050664425
239	0xbda774d0	-0.08176577
240	0x3d4de5e2	0.05026806
241	0xbda47cf8	-0.080316484
242	0xbda207b6	-0.07911627
243	0x3c29bc70	0.010359868
244	0x3d11cce6	0.035595797
245	0xbd2c33ea	-0.042041697
246	0xbc77ffa8	-0.015136637
247	0xbce61518	-0.02808623
248	0xbd7bbb70	-0.06145805
249	0xbd81fbfa	-0.06346889
250	0xbd9e08d8	-0.077165306
251	0xbc7fc1d8	-0.015610181
252	0xbd9353a6	-0.07193689
253	0x3da48697	0.080334835
254	0xbd2ad8d0	-0.041710675
255	0x3c06aff0	0.008220658

l3.bias f4 [20]
0	0xbd1ebd4d	-0.03875475
1	0x3d70cee2	0.05879105
2	0x3d1a0546	0.037602685
3	0xbdc9b217	-0.09848421
4	0xbcaa9074	-0.020820834
5	0xbd4e8570	-0.050420225
6	0xbd2ad203	-0.04170419
7	0x3dbde3fb	0.092719994
8	0xbdc79290	-0.097447515
9	0x3d6e055e	0.058110587
10	0xbbe971d0	-0.007124163
11	0xbcf3d388	-0.029763952
12	0x3cd9d404	0.026590355
13	0xbc862fc8	-0.016380206
14	0x3b1cf400	0.0023949146
15	0x3b72b740	0.0037035495
16	0x3c1af430	0.009457633
17	0xbbe5c8b0	-0.007012449
18	0xbd744d6d	-0.05964415
19	0xbd88abdc	-0.066734046

output.weight f4 [8, 20]
0	0x3dc79520	0.0974524
1	0xbdc1087c	-0.094254464
2	0x3e53affa	0.20672598
3	0x3e1f8814	0.15579253
4	0xbdf9cd2b	-0.12197336
5	0x3dfba2a0	0.12286878
6	0xbd11e8bc	-0.035622343
7	0x3e53a95c	0.20670074
8	0xbe2bc6ce	-0.16775057
9	0x3e27d368	0.16389239
10	0xbbf437c0	-0.007452935
11	0x3dded718	0.108808696
12	0xbd8f7630	-0.07004964
13	0x3db0f44c	0.08640346
14	0x3db13f0c	0.08654603
15	0x3dc0c0b0	0.09411752
16	0xbdbfa27e	-0.09357165
17	0xbd0cb9a0	-0.034356713
18	0xbd797a58	-0.06090769
19	0xbe384f94	-0.17999107
20	0xbb9573a0	-0.0045609027
21	0x3e07f9f0	0.13278937
22	0xbdb75934	-0.08952561
23	0xbe4f5544	-0.2024737
24	0x3df88784	0.121352226
25	0x3e57828a	0.2104589
26	0xbe47b0a6	-0.1950098
27	0x3e5c711c	0.21527523
28	0xbc42eca0	-0.011897236
29	0xbe3f94a3	-0.18709044
30	0x3dbee64c	0.093212694
31	0xbda8b3c0	-0.082374096
32	0x3c840fa0	0.016120732
33	0x3e4b7d08	0.19871914
34	0xbe37c291	-0.17945315
35	0x3e2c4230	0.16822124
36	0x3e4aefb6	0.19818005
37	0x3d8f0854	0.0698401
38	0x3e369d5c	0.17833465
39	0x3d700f28	0.058608204
40	0x3e17a920	0.1481061
41	0xbdce1513	-0.10062613
42	0xbd914e96	-0.07095067
43	0x3e35e0d0	0.1776154
44	0x3bbf3c40	0.00583604
45	0x3cbc7138	0.023003206
46	0x3e3ff5c0	0.1874609
47	0xbe5a7a00	-0.21335602
48	0xbe2ae1b1	-0.16687657
49	0xbe19ae6e	-0.15007946
50	0x3e22c4bc	0.1589536
51	0x3e1a7584	0.15083891
52	0xbc1316b0	-0.008977577
53	0x3e2549ec	0.1614148
54	0xbe117fa8	-0.14208853
55	0x39a65a00	0.00031729043
56	0xbe1195c6	-0.1421729
57	0xbd67e8a4	-0.056618348
58	0x3e4114de	0.18855616
59	0x3debbee8	0.11511022
60	0xbd0ef328	-0.03489986
61	0xbe35b644	-0.1774531
62	0x3dcc235c	0.09967682
63	0xbdfe2661	-0.12409664
64	0xbe48a6ce	-0.19594881
65	0xbde638e9	-0.112413235
66	0x3d0e5208	0.0347462
67	0x3caf8510	0.021425754
68	0xbdc35f76	-0.09539692
69	0x3dbade90	0.09124482
70	0x3e494f4a	0.19659153
71	0xbde3da92	-0.11125673
72	0x3e2ce6ee	0.16884968
73	0xbe0d7742	-0.13815024
74	0x3e52b484	0.20576674
75	0xbd9573e4	-0.07297495
76	0xbe38e5a7	-0.18056355
77	0xbca65d08	-0.020308033
78	0xbdd64172	-0.104617015
79	0x3e64a3d4	0.2232812
80	0x3c9d4210	0.01919654
81	0xbd5a6f40	-0.053328753
82	0xbdd24bb6	-0.10268347
83	0x3da61270	0.081089854
84	0xbc5028f0	-0.012705073
85	0xba053700	-0.0005081743
86	0x3cdb29d0	0.026753336
87	0x3d99fd08	0.07518965
88	0x3e0c0296	0.13672861
89	0xbdb7522c	-0.0895122
90	0xbe64041b	-0.22267191
91	0x3c18ce90	0.009326592
92	0xbe23cd3a	-0.15996256
93	0x3e054cc0	0.13017559
94	0xbd9086fc	-0.07056996
95	0xbb2ca4c0	-0.0026343316
96	0xbcd3d5c8	-0.025858775
97	0xbe18611a	-0.14880791
98	0x3d76fdb8	0.06030056
99	0xbe59a609	-0.21254744
100	0xbd9e564e	-0.07731305
101	0x3d0af800	0.033927917
102	0xbc919da8	-0.017775372
103	0xbb9cd3e0	-0.0047859997
104	0xbe2035c7	-0.15645514
105	0x3cf0afb0	0.02938065
106	0xbe190ec4	-0.14947039
107	0xbd17fb04	-0.03710462
108	0xbda6a8e0	-0.08137679
109	0x39422000	0.00018513203
110	0x3d78b3a0	0.06071818
111	0x3ca3f030	0.020011991
112	0xbe43dc90	-0.19127107
113	0x3cb26cf0	0.021780461
114	0xbcb2ba70	-0.021817416
115	0x3e1c1612	0.15242794
116	0xbddc3212	-0.10751738
117	0x3dedd4d0	0.116128564
118	0xbcf84748	-0.030307427
119	0xbca6d2f0	-0.020364255
120	0x3e2900a2	0.16504148
121	0xbd3a0544	-0.045415178
122	0xbe293631	-0.16524579
123	0xbe34e100	-0.17663956
124	0xbcd2b758	-0.02572219
125	0xbd78e93c	-0.060769305
126	0xbdb5e344	-0.08881238
127	0x3d01cf00	0.03169155
128	0xbe5f6a19	-0.21817817
129	0x3dd8cebc	0.105863065
130	0x3d1f8db8	0.038953513
131	0xbe56e1d8	-0.2098459
132	0xbe0fdb6b	-0.14048545
133	0x3e07c1b0	0.1325748
134	0xbdedb485	-0.11606697
135	0xbdce1fcf	-0.10064661
136	0xbdf51bfb	-0.119682275
137	0xbcdedd80	-0.027205229
138	0xbe23aa52	-0.15982941
139	0x3dcec3fc	0.10095975
140	0x3e513974	0.20432073
141	0xbe3b68aa	-0.18301645
142	0x3d8a8b2c	0.06764826
143	0xbc9d41d8	-0.019196436
144	0xbcb481f8	-0.02203463
145	0x3e228bb4	0.15873605
146	0xbd3e960c	-0.046529815
147	0x3d600760	0.054694533
148	0x3d1325c8	0.035924703
149	0x3e54ae24	0.20769554
150	0xbe144b77	-0.14481913
151	0xbdf12b03	-0.11775782
152	0x3e0f53fa	0.13996878
153	0x3dd02f54	0.10165277
154	0x3c7e1010	0.015506759
155	0xbe103f42	-0.14086631
156	0x3e38731a	0.18012658
157	0x3ae10580	0.0017167777
158	0x3e248580	0.16066551
159	0x3e093b14	0.13401443

output.bias f4 [8]
0	0xbd25d408	-0.040485412
1	0x3ca671b0	0.020317882
2	0x3e5277c6	0.20553502
3	0x3da12404	0.078681976
4	0x3e62b6ce	0.22140047
5	0xbe61b935	-0.22043307
6	0xbddddd37	-0.10833209
7	0xbe61cb0e	-0.22050115
