PINN_experience/saved_model/simpleANNlr=0.002bs=128_mass_balance.pt (torch, 34575 bytes, 8 tensors)

l1.weight f4 [50, 14]
0	0x3de9fa20	0.11424661
1	0x3e3ee9d6	0.18643889
2	0x3e642ad8	0.22281969
3	0xbe349c63	-0.17637782
4	0x3e1e467e	0.15456578
5	0xbd034508	-0.032048255
6	0x3dab17ec	0.08354172
7	0xbe70fec2	-0.23534682
8	0x3e539c28	0.20665038
9	0x3e344d32	0.17607573
10	0xbcd620a0	-0.026138604
11	0x3e1b23c4	0.15150362
12	0xbe449f6a	-0.19201437
13	0x3e87f4ad	0.2655386
14	0x3e3b9ff0	0.1832273
15	0xbde05e26	-0.109554574
16	0xbe6adada	-0.22935048
17	0xbe24dedd	-0.1610064
18	0x3dfc2870	0.123124
19	0xbcd37940	-0.025814652
20	0x3e41a214	0.18909484
21	0xbe19a40b	-0.15003984
22	0xbc928a10	-0.017888099
23	0xbe0e86a3	-0.13918547
24	0xbe0b34f5	-0.1359442
25	0x3e5a0366	0.21290359
26	0xbdf3697a	-0.118853524
27	0xbdce500c	-0.100738615
28	0x3e63ad10	0.22233987
29	0x3e456cfe	0.19279858
30	0x3d7a2fa8	0.061080605
31	0x3e0bf1a8	0.13666403
32	0xbd97b67c	-0.07407853
33	0xbe4ae426	-0.19813594
34	0xbddb274c	-0.10700855
35	0x3e632d7c	0.2218532
36	0x3e54fc96	0.20799479
37	0x3e174cee	0.1477544
38	0xbe764aaf	-0.24051927
39	0x3e88d339	0.2672365
40	0xbe5285d4	-0.20558864
41	0xbe4c8674	-0.19973165
42	0x3e084f2e	0.13311455
43	0x3dc28d04	0.09499553
44	0x3db169e8	0.08662778
45	0x3e854e89	0.2603648
46	0x3e82727d	0.25477973
47	0xb924a000	-0.00015699863
48	0x3d8b5d70	0.06804931
49	0x3e26495e	0.16238925
50	0xbd28e700	-0.041235924
51	0x3e54b6ac	0.20772809
52	0xbd35ee1c	-0.044416532
53	0xbcb2f150	-0.021843582
54	0xbcf32588	-0.029680982
55	0xbd8a32f4	-0.06748
56	0x3e82d44f	0.25552604
57	0xbe31f9a9	-0.17380394
58	0x3d42f6f0	0.04759878
59	0x3e81c5c3	0.25346193
60	0x3e591544	0.21199518
61	0xbe77a72b	-0.24184863
62	0xbe11940d	-0.14216633
63	0xbcb78600	-0.022402763
64	0xbe6f28aa	-0.23355356
65	0xbe1ee4c2	-0.15516952
66	0x3e6b4726	0.2297636
67	0xbe2f8118	-0.17139089
68	0xbe5a85e3	-0.21340136
69	0x3e53bfb0	0.20678592
70	0x3d3d23d8	0.04617676
71	0x3d8bbe28	0.06823379
72	0xbe5dc53c	-0.2165727
73	0xbd12e518	-0.035863012
74	0x3e48c7be	0.19607446
75	0x3dc45cdc	0.09588024
76	0x3d32ba08	0.043634444
77	0x3e5f016e	0.21777889
78	0x3e85253f	0.2600498
79	0x3e147304	0.14497
80	0x3dae9d18	0.08526057
81	0xbdff5eca	-0.124692515
82	0xbe1b7dca	-0.15184703
83	0xbcc68720	-0.024234354
84	0x3e2c9980	0.1685543
85	0x3d9eb62c	0.0774959
86	0x3debe410	0.11518109
87	0x3d39d7f0	0.04537195
88	0xbe20f2bf	-0.157176
89	0x3dac7c34	0.08422127
90	0x3e3839de	0.17990825
91	0xbe7dfb2c	-0.24802846
92	0x3db7f3fc	0.08982083
93	0xbd0a5eb4	-0.033781722
94	0xbdf3e05c	-0.119080275
95	0x3e3e83c0	0.18604946
96	0xbdd9bcce	-0.10631715
97	0x3e76bbda	0.24095097
98	0x3d74dad8	0.05977902
99	0x3d4ef7f0	0.05052942
100	0x3e09ec1e	0.13468978
101	0x3e0094f6	0.12556824
102	0x3e1fa2ba	0.15589419
103	0xbe8196d0	-0.25310373
104	0xbe0b6579	-0.13612927
105	0x3e434bda	0.19071904
106	0xbe3b5c5b	-0.1829695
107	0x3ddc13c4	0.107459575
108	0x3d008d60	0.031384826
109	0xbe116944	-0.14200312
110	0x3d718430	0.058963954
111	0x3d5e3fb0	0.054259956
112	0x3db90cec	0.09035668
113	0x3c998de0	0.01874441
114	0xbe4faf0c	-0.20281619
115	0x3de6c630	0.1126827
116	0x3e81092f	0.2520232
117	0xbe4ffe04	-0.20311743
118	0xbe26ec71	-0.16301133
119	0xba059400	-0.0005095601
120	0xbe44cabc	-0.19217962
121	0x3e39c0d2	0.18139961
122	0xbdd0ae84	-0.10189536
123	0x3e3f6acc	0.18693084
124	0x3d436bb8	0.04771015
125	0xbe7c5ebf	-0.24645518
126	0x3e7c83e2	0.24659684
127	0x3d898f60	0.067168
128	0x3e5d9420	0.21638536
129	0x3c518c60	0.012789816
130	0xbcbe14b8	-0.023203239
131	0xbe66e2ba	-0.22547427
132	0x3db0a1c0	0.08624601
133	0x3e00b954	0.12570697
134	0xbda99410	-0.08280194
135	0x3e4ce440	0.20008945
136	0xbe67a57e	-0.22621724
137	0x3e4661e4	0.1937328
138	0x3e77a2ee	0.24183246
139	0xbe22a6c4	-0.15883929
140	0xbda7b88e	-0.08189498
141	0xbdaee438	-0.08539623
142	0xbe08936f	-0.13337491
143	0xbd4569d4	-0.04819663
144	0xbe54db89	-0.20786871
145	0x3e65934e	0.22419474
146	0x3e86bfe7	0.26318285
147	0xbe21502a	-0.15753236
148	0x3e33ac5e	0.17546222
149	0xbdda21ee	-0.10651003
150	0xbe59c95a	-0.21268216
151	0x3e331336	0.17487797
152	0x3e810c17	0.25204536
153	0xbe27bdb7	-0.16380964
154	0xbe293802	-0.16525272
155	0x3da08c60	0.078392744
156	0x3e829dbf	0.25510976
157	0x3dd99ea8	0.106259644
158	0xbd5a23e8	-0.0532569
159	0xbe1ac534	-0.1511429
160	0x3c6ca2e0	0.014443129
161	0x3e79ba66	0.24387512
162	0x3e3212a4	0.17389923
163	0x3e6344f8	0.22194278
164	0x3c917430	0.017755598
165	0xbe1745be	-0.14772698
166	0xbc8301c0	-0.015992045
167	0x3ddc292c	0.107500404
168	0xbd97990e	-0.0740224
169	0xbd47310c	-0.04863076
170	0x3cb0e2d0	0.021592528
171	0xbe0bc6a8	-0.1365
172	0xbdfa03ce	-0.12207757
173	0x3e3663a6	0.1781145
174	0xbe588407	-0.21144114
175	0xbda93df8	-0.08263773
176	0xbe85c0f4	-0.26123774
177	0xbe33c296	-0.17554697
178	0xbd23fce4	-0.040036097
179	0xbddef6cc	-0.108869165
180	0x3d56b448	0.052418023
181	0x3e1a2784	0.15054137
182	0xbe61f3ef	-0.2206571
183	0xbc5e4560	-0.013566345
184	0xbdc9168e	-0.09818755
185	0xbe19e358	-0.15028131
186	0xbe04553c	-0.1292314
187	0xbe5b3d70	-0.21410155
188	0xbe0a92ab	-0.13532512
189	0xbe7c9f55	-0.24670155
190	0xbd10206c	-0.03518717
191	0xbe84c9b4	-0.25935137
192	0x3dd8c768	0.10584909
193	0xbe314262	-0.1731048
194	0x3da4602c	0.08026156
195	0x3d7747e8	0.06037131
196	0xbe00e3f2	-0.12586954
197	0xbbfefc00	-0.0077815056
198	0xbe725845	-0.23666485
199	0xbe633709	-0.22188963
200	0x3e122812	0.14273098
201	0xbd468a14	-0.048471525
202	0x3d8923ac	0.06696257
203	0x3e149db6	0.14513287
204	0x3e371994	0.17880851
205	0x3e3ef550	0.18648267
206	0xbe24979b	-0.16073458
207	0x3dae7ea4	0.085202485
208	0xbdcbdcda	-0.099542335
209	0xbe65838a	-0.2241346
210	0xbd850ca8	-0.064965546
211	0xbe485876	-0.19564995
212	0xbbda9640	-0.006670743
213	0xbdf4f56c	-0.11960873
214	0x3e29aa7c	0.16568941
215	0xbe38223e	-0.17981812
216	0xbda3d1de	-0.07999013
217	0xbe7cfc6e	-0.2470567
218	0xbe260146	-0.16211423
219	0x3c5a8520	0.013337404
220	0xbe24a87e	-0.160799
221	0x3e658ac2	0.22416213
222	0x3e00d154	0.12579852
223	0x3d9895e4	0.07450464
224	0xbe1b9cd3	-0.15196542
225	0xbe6d93bf	-0.23200892
226	0x3e1cfdd8	0.15331209
227	0xbd6c4608	-0.057683975
228	0x3e653890	0.22384858
229	0xbc983128	-0.018578127
230	0x3c9afb70	0.018918723
231	0x3d47ca80	0.048777103
232	0x3e619460	0.22029257
233	0xbe6c125b	-0.23053877
234	0x3e749396	0.23884425
235	0xbe02e5a4	-0.12782913
236	0x3e2bce5a	0.16777936
237	0x3e7179ae	0.23581573
238	0xbe85f7c4	-0.26165593
239	0xbe831189	-0.25599316
240	0x3de0a440	0.10968828
241	0x3e23767e	0.1596317
242	0xbdf6307a	-0.12020965
243	0xbe82a539	-0.2551668
244	0x3e4f2d00	0.2023201
245	0x3d61c740	0.05512166
246	0xbda09d9c	-0.078425616
247	0x3e0f0c8a	0.13969627
248	0x3e3646c4	0.17800432
249	0xbe3a165d	-0.18172593
250	0xbcf9d210	-0.030495673
251	0xbd811c6e	-0.06304251
252	0xbe0bd939	-0.13657083
253	0x3cf6aee0	0.030112684
254	0x3e164ec8	0.1467849
255	0xbded6f4a	-0.11593492

l1.bias f4 [50]
0	0x3dcea34c	0.1008974
1	0x3e441598	0.19148862
2	0xbdb971a2	-0.09054877
3	0x3e0535c6	0.13008794
4	0xbe07273b	-0.13198559
5	0x3cd99680	0.026561022
6	0xbdaf6a40	-0.085651875
7	0xbe70071e	-0.23440215
8	0x3d4e5388	0.05037263
9	0x3d99cc68	0.075096905
10	0xbe178316	-0.14796099
11	0xbe1b05b6	-0.15138897
12	0xbd8eab4e	-0.069662675
13	0x3e5d4e04	0.21611792
14	0x3e70534e	0.23469278
15	0x3dc66bec	0.09688553
16	0x3de05098	0.10952872
17	0xbd08dfdc	-0.033416614
18	0x3df9bcfc	0.12194249
19	0x3e42092e	0.18948814
20	0xbe6a562b	-0.22884433
21	0x3c956c60	0.018240154
22	0xbe84012f	-0.25782153
23	0xbd55e014	-0.05221565
24	0xbe77341a	-0.24140969
25	0xbe550c87	-0.2080556
26	0x3da0cc30	0.07851446
27	0xbe25c394	-0.16187888
28	0x3e7ec7b2	0.24880865
29	0x3db2cc94	0.087304264
30	0x3e224244	0.15845591
31	0x3dfb7ba4	0.12279442
32	0x3d044808	0.032295257
33	0xbd89693e	-0.067095265
34	0xbbb4c080	-0.005516112
35	0xbd062d38	-0.032757968
36	0xbe730559	-0.23732509
37	0xbe154b6f	-0.14579557
38	0xbe0c6162	-0.13709024
39	0x3e14c27c	0.14527315
40	0x3c980ae0	0.018559873
41	0x3d098e88	0.033583194
42	0xbda37710	-0.07981694
43	0x3e4b38c0	0.19845867
44	0xbd873326	-0.06601553
45	0x3e41f290	0.18940187
46	0x3e110c64	0.14164883
47	0xbe6318b6	-0.22177395
48	0xbdcd76c8	-0.10032421
49	0xbe5dcbf8	-0.21659839

l2.weight f4 [100, 50]
0	0xbdea8f65	-0.114531316
1	0xbda2cec0	-0.07949591
2	0xbde22945	-0.11043028
3	0xbd8e3302	-0.06943323
4	0x3d873926	0.06602697
5	0x3db9f110	0.09079182
6	0x3db78eec	0.08962807
7	0xbd8fa087	-0.0701304
8	0x3b61e5c0	0.0034469217
9	0x3d70f914	0.05883129
10	0x3d5b3228	0.05351463
11	0xbd5f97c0	-0.05458808
12	0x3db33cd6	0.08751838
13	0xbdc21175	-0.09475986
14	0xbd96c0db	-0.07361003
15	0x3dbe99d2	0.09306683
16	0xbc499040	-0.012302458
17	0xbd9fc6f5	-0.0780162
18	0xbcba89ec	-0.022770844
19	0xbda3afd2	-0.079925194
20	0x3dc449ec	0.09584412
21	0xbc326bc0	-0.010889947
22	0x3e0cb213	0.13739805
23	0xbd7aebfc	-0.06126021
24	0xbd95cb80	-0.07314205
25	0x3d7e88ac	0.06214206
26	0xbdef49d4	-0.116840035
27	0xbd73bfea	-0.059509195
28	0xbe0e92b2	-0.13923147
29	0xbd63c180	-0.055604458
30	0xbdca905c	-0.098908156
31	0xbd2b5080	-0.041824818
32	0x3e0e0cc9	0.13872065
33	0xbdd6302c	-0.10458407
34	0xbe0e4980	-0.13895226
35	0xbdea82a2	-0.114506975
36	0x3d61da90	0.055140078
37	0xbc7aa6e0	-0.015298575
38	0x3c03db50	0.008047894
39	0xbde76e8b	-0.11300381
40	0x3dd81dbc	0.105525464
41	0x3e070533	0.13185577
42	0xbd5a5272	-0.053301282
43	0x3d819c68	0.0632866
44	0xbd82b1fd	-0.06381605
45	0xbd8a4266	-0.06750946
46	0xbe0db711	-0.13839366
47	0x3cb0c800	0.021579742
48	0xbdc19184	-0.09451583
49	0xbdecd64a	-0.1156431
50	0x3e037803	0.1283875
51	0xbde5e6fc	-0.112256974
52	0x3d4d745c	0.050159797
53	0xbd12c678	-0.035833806
54	0xbdacd227	-0.08438521
55	0xbdb37232	-0.087620154
56	0x3de4e146	0.1117578
57	0xbdbc8116	-0.09204309
58	0x3d5e43e0	0.05426395
59	0xbabadc80	-0.0014256388
60	0x3e0bd89d	0.1365685
61	0xbd2ee966	-0.042703055
62	0xbd25f11a	-0.040513135
63	0x3d4a5aec	0.049403116
64	0x3d5f4ebc	0.054518446
65	0x3ce84940	0.02835524
66	0x3dab6a3e	0.083698735
67	0xbc922c60	-0.017843425
68	0xbe01b0db	-0.12665121
69	0xbd9fabd2	-0.07796444
70	0x3d092858	0.03348574
71	0xbd97436c	-0.073859066
72	0x3db89562	0.090128675
73	0xbe070fe1	-0.13189651
74	0x3d2d6adc	0.042338237
75	0x3e104071	0.14087082
76	0x3dca7b88	0.09886843
77	0xbd81d7e6	-0.063400075
78	0x3d7a56ec	0.06111805
79	0x3d0b228c	0.033968493
80	0x3d5f1688	0.054464847
81	0x3df78bfe	0.12087248
82	0x3deb7f06	0.11498837
83	0x3db1ea7e	0.08687304
84	0xbc23d320	-0.009999067
85	0xbd95e272	-0.07318582
86	0xbc4bae70	-0.012431726
87	0xbd2fa2c4	-0.042879835
88	0x3c89bf98	0.016814992
89	0xbb202300	-0.0024434924
90	0xbc62d5b0	-0.013844892
91	0xbcf4fccc	-0.0299057
92	0x3cc752f0	0.02433154
93	0x3d30c878	0.043159932
94	0x3d206004	0.039154068
95	0xbd990d8f	-0.07473289
96	0xbd95b1de	-0.07309316
97	0xbdbb8251	-0.09155715
98	0xbdc8a777	-0.097975664
99	0x3df5bcae	0.119988784
100	0xbdb58e1a	-0.08864994
101	0xbccbbca8	-0.024870232
102	0x3dd4fd4c	0.10399875
103	0x3c586340	0.013207257
104	0xbd825a87	-0.06364923
105	0xbda3e68b	-0.08002957
106	0xbd79972e	-0.06093519
107	0xbdfac32e	-0.12244259
108	0x3cbd9d08	0.023146167
109	0x3df0277e	0.117262825
110	0xbdedf6e8	-0.11619359
111	0xbd04bda0	-0.032407403
112	0x3db3251a	0.08747311
113	0xbd08d1ba	-0.033403136
114	0x3dd65b10	0.104665875
115	0x3dc47840	0.09593248
116	0xbe0878f7	-0.13327394
117	0xbde8070a	-0.113294676
118	0x3e0a72c3	0.1352034
119	0xbc89c128	-0.016815737
120	0xbc00c220	-0.007858783
121	0x3d99b3ce	0.07504998
122	0xbd178120	-0.036988378
123	0x3d57cb28	0.05268398
124	0xbe0b0d24	-0.13579232
125	0xbdfbe387	-0.12299257
126	0xbc5b9090	-0.013401166
127	0x3cffe208	0.03123571
128	0xbd1f505e	-0.038895003
129	0x3d8232ba	0.063573316
130	0x3d72fb8c	0.059321925
131	0xbd1b35d6	-0.03789314
132	0xbdd1215d	-0.10211442
133	0xbda45718	-0.08024424
134	0x3dbc9e00	0.092098236
135	0x3e01aa8d	0.12662716
136	0xbdb9e43c	-0.090767354
137	0x3d94fc02	0.07274629
138	0xbb77dbc0	-0.003782019
139	0x3e0bc027	0.13647519
140	0xba2c6600	-0.00065764785
141	0xbde85e77	-0.11346143
142	0x3d290520	0.041264653
143	0xbbc636c0	-0.006049007
144	0x3d7c679c	0.061622247
145	0x3da48056	0.08032291
146	0xbd958869	-0.07301409
147	0xbdc35e6f	-0.09539496
148	0x3c8019f0	0.015637368
149	0xbc3c8440	-0.01150614
150	0xbc338c80	-0.010958791
151	0x3b4a1180	0.0030833185
152	0xbe0d0bc1	-0.13774015
153	0xbe00aae2	-0.12565187
154	0x3e09a8a3	0.13443236
155	0x3db32480	0.08747196
156	0xbd324194	-0.04351957
157	0x3e078497	0.13234173
158	0xbddde9ef	-0.10835635
159	0x3da57452	0.08078827
160	0x3dc4e594	0.09614101
161	0x3d579938	0.052636355
162	0x3d4991dc	0.049211368
163	0xbd88436f	-0.06653487
164	0xbcf7e22c	-0.030259214
165	0xbd36178a	-0.044456042
166	0xbd16fed8	-0.03686413
167	0xbd5365f2	-0.051610895
168	0xbde6899a	-0.11256714
169	0xbdd39aca	-0.10332258
170	0x3cef58b8	0.02921711
171	0xbd85ba96	-0.06529729
172	0xbe0ac275	-0.13550742
173	0xbda6c495	-0.08142964
174	0xbc957260	-0.018243015
175	0x3decc2de	0.115606055
176	0x3da8afec	0.082366794
177	0x3d58da04	0.05294229
178	0x3dddbf64	0.108275205
179	0xbcdc05b8	-0.026858196
180	0xbdd38377	-0.10327809
181	0x3cbaa6d8	0.022784635
182	0x3dd193b8	0.10233253
183	0x3cbb04d0	0.022829443
184	0x3dd8daba	0.10588594
185	0xbcbdef80	-0.023185492
186	0x3bc17060	0.0059032887
187	0x3d8c08e0	0.0683763
188	0x3d04545c	0.032307014
189	0xbd88deaa	-0.06683095
190	0xbd2d3796	-0.04228934
191	0x3d67ea14	0.05661972
192	0x3dabe9da	0.08394213
193	0xbd1d62dc	-0.038424358
194	0x3ddb71ce	0.10715066
195	0x3d72c75c	0.059272155
196	0xbdaf434e	-0.08557759
197	0x3deb8b22	0.11501147
198	0xbe03fe92	-0.1289008
199	0x3d6fe470	0.058567464
200	0x3dc996aa	0.0984319
201	0x3dfa5b8e	0.12224494
202	0x3df6fb52	0.12059654
203	0x3e0031f3	0.12519054
204	0x3dd76472	0.10517205
205	0x3d95246e	0.07282339
206	0xbd925d3a	-0.07146688
207	0xbd99509c	-0.07486078
208	0x3df9ccea	0.121972874
209	0xbcb11b30	-0.02161941
210	0x3da7355c	0.08164474
211	0xbdb2909e	-0.0871899
212	0xbcb74df0	-0.02237603
213	0x3db37c7c	0.08763978
214	0xbdc7dce1	-0.09758926
215	0xbdbd4766	-0.09242134
216	0x3c4f14f0	0.012639269
217	0xbc18ce00	-0.009326458
218	0x3d8618de	0.06547712
219	0x3d6eeca4	0.058331147
220	0x3cacfd30	0.021116823
221	0x3cd58918	0.026066348
222	0xbe014fcb	-0.12628095
223	0x3db00b64	0.085959226
224	0xbd4576da	-0.04820905
225	0x3d7e8554	0.06213887
226	0xbce22eac	-0.027610146
227	0xbe0c2eee	-0.13689777
228	0xbd94be47	-0.07262855
229	0x3dea1972	0.114306346
230	0x3dbe39b2	0.09288348
231	0x3cddfc58	0.027097866
232	0x3cb89c60	0.022535503
233	0x3dec21c2	0.11529876
234	0xbd3cb8b4	-0.046074584
235	0xbdfc8109	-0.12329299
236	0x3d98b1b4	0.07455769
237	0x3cdaa0f8	0.026688084
238	0x3e0d8939	0.13821878
239	0x3d937100	0.071992874
240	0xbe0c3d62	-0.1369529
241	0xbe0cea9c	-0.13761371
242	0xbc4cef20	-0.012508184
243	0xbdd0afa0	-0.10189748
244	0x3e0e2c7b	0.13884155
245	0x3d100fec	0.035171434
246	0xbe0cc3b1	-0.13746525
247	0x3dfbfab6	0.12303679
248	0x3e082aff	0.13297652
249	0xbc658350	-0.014008358
250	0xbd05b968	-0.03264752
251	0xbca14dc4	-0.019690402
252	0x3dd8ddd2	0.10589184
253	0xbda5df39	-0.08099217
254	0xbdcccc54	-0.0999991
255	0xbd89f424	-0.06736019

l2.bias f4 [100]
0	0xbdfaec06	-0.12252049
1	0xbd8cd332	-0.0687622
2	0x3bf45de0	0.00745748
3	0xbd5cc1ac	-0.053895637
4	0x3d3d2678	0.046179265
5	0xbe0f938e	-0.14021131
6	0xbd25799e	-0.040399186
7	0xbc94ff1c	-0.018188052
8	0xbd9a2e2c	-0.07528338
9	0xbd7eb456	-0.0621837
10	0x3db2ca36	0.08729975
11	0xbd2535d8	-0.040334553
12	0x3d2855bc	0.041097388
13	0xbd98cbaf	-0.074607246
14	0xbd857089	-0.06515605
15	0xbe0aad5b	-0.13542692
16	0xbdabf9aa	-0.08397229
17	0xbb7998c0	-0.003808543
18	0xbcc0e810	-0.023548156
19	0xbcaaa808	-0.020832077
20	0xbd9abbe3	-0.07555368
21	0x3daa7132	0.083223715
22	0x3db2f2c4	0.0873771
23	0xbb604f80	-0.0034227073
24	0xbdaba4ae	-0.083810195
25	0x3db3c7cc	0.087783426
26	0x3e0091c9	0.12555613
27	0x3de5cbe2	0.11220528
28	0xbd4a26b6	-0.049353324
29	0x3dc13984	0.09434798
30	0xbcbc7b2c	-0.023007952
31	0x3d95559e	0.07291721
32	0x3db4e590	0.08832848
33	0xbdc84fe4	-0.09780863
34	0xbd939546	-0.07206206
35	0xbdb96fb6	-0.0905451
36	0xbe06a38b	-0.13148324
37	0x3d4a4ce4	0.049389735
38	0x3d68dbec	0.05685036
39	0xbd55f04a	-0.05223111
40	0x3d08ba00	0.03338051
41	0x3cf9cdb8	0.030493602
42	0x3df211ce	0.11819802
43	0x3bb11fa0	0.0054053813
44	0xbde6ce47	-0.11269813
45	0xbbe480e0	-0.006973371
46	0x3bc32300	0.0059551
47	0x3da709bc	0.081561536
48	0xbd0fcf88	-0.035110027
49	0x3dd765a0	0.1051743
50	0x3a6ea500	0.00091035664
51	0xbe075239	-0.13214959
52	0xbdc8bbbe	-0.09801434
53	0x3d87dd0e	0.0663396
54	0xbdc87ba6	-0.09789209
55	0x3dc8de4e	0.09808026
56	0xbb81dd60	-0.0039631575
57	0xbd0bd508	-0.03413871
58	0xbe073cd2	-0.13206795
59	0xbe0640ae	-0.13110611
60	0x3e0efff9	0.13964833
61	0x3a259600	0.0006316602
62	0xbd19ce78	-0.03755042
63	0xbd8d5f24	-0.06902912
64	0x3e0a3db5	0.13500102
65	0xbe074353	-0.13209276
66	0x3db4b638	0.08823818
67	0x3d46ba84	0.04851772
68	0xbd204546	-0.039128564
69	0x3da684f2	0.08130826
70	0xbbb184a0	-0.0054174215
71	0xbdd6f1ea	-0.1049536
72	0xbdc19932	-0.09453048
73	0x3e01766f	0.12642835
74	0xbd01467e	-0.031561367
75	0x3df361be	0.11883877
76	0xbe053054	-0.13006717
77	0xbdc3376e	-0.09532057
78	0x3cc482b8	0.023988113
79	0xbdff3b3e	-0.124624714
80	0xbddc164c	-0.1074644
81	0xbd4f6b36	-0.050639354
82	0xbdaaf18f	-0.08346855
83	0x3c705c40	0.014670432
84	0xbacffe80	-0.0015868694
85	0xbdb7a26a	-0.08966525
86	0xbc119f70	-0.0088881105
87	0xbdb932c0	-0.09042883
88	0xbd13fbe2	-0.036128886
89	0x3dbfc9c2	0.09364654
90	0x3d4aded4	0.04952891
91	0x3df0bb46	0.117544696
92	0xbd0e3d1e	-0.034726255
93	0x3e0597cf	0.13046192
94	0xbdf4aacc	-0.119466394
95	0x3dac8074	0.08422938
96	0x3d9e77f2	0.077377215
97	0x3d899cba	0.06719346
98	0xbd460b7c	-0.048350796
99	0x3d1705a0	0.0368706

l3.weight f4 [20, 100]
0	0xbd6fb003	-0.058517467
1	0x3cf2afc4	0.029624827
2	0x3d04c632	0.032415576
3	0x3c4dd790	0.012563601
4	0x3d5a6776	0.053321324
5	0x3d7563f2	0.05990977
6	0xbb3ba660	-0.0028633103
7	0x3d5320c2	0.051544912
8	0xbceae828	-0.028675154
9	0xbd602f70	-0.05473274
10	0x3d9d4c7b	0.07680603
11	0xbc8ed720	-0.017436564
12	0x3d825dfb	0.063655816
13	0x3cfd4c34	0.030920126
14	0xbd8a040a	-0.06739052
15	0xbdb46f2f	-0.08810269
16	0xbcd38240	-0.025818944
17	0x3d85b033	0.06527748
18	0x3d826a97	0.06367987
19	0x3da8ace1	0.08236099
20	0x3dbf696f	0.09346282
21	0xbd930f3e	-0.071806416
22	0x3db8359f	0.089946024
23	0x3d25eafa	0.040507294
24	0xbd4bb24d	-0.049730588
25	0xbd7e0baa	-0.062022842
26	0xbd135816	-0.035972677
27	0x3daa306f	0.08310019
28	0xbb27cda0	-0.002560474
29	0x3d2832fa	0.04106424
30	0x3d99c9a1	0.07509161
31	0x3d87b635	0.0662655
32	0x3bc91900	0.0061370134
33	0x3cf517e4	0.029918619
34	0x3d494bf2	0.049144693
35	0xbd101416	-0.035175405
36	0x3d6c2b0a	0.057658233
37	0xbd954735	-0.07288972
38	0x3c267c30	0.010161445
39	0x3d369432	0.044574924
40	0x3d539c12	0.051662512
41	0x3d9dbe21	0.0770228
42	0x3bf2d960	0.007411167
43	0xbcb19de0	-0.021681726
44	0x3dc94f85	0.0982962
45	0xbc862ea0	-0.016379654
46	0xbd5fb250	-0.05461341
47	0x3d267572	0.04063935
48	0xbc35ce10	-0.011096492
49	0x3da2994b	0.079393946
50	0xbdab5a1b	-0.08366796
51	0xbda25bc8	-0.07927662
52	0xbcadc798	-0.021213338
53	0x3d3d40a6	0.04620423
54	0xbda0c7ab	-0.07850584
55	0xbd8becf8	-0.068323076
56	0xbd332a37	-0.04374143
57	0x3d5253ca	0.05134944
58	0xbd8f1bcd	-0.069877245
59	0xbbdd1000	-0.006746292
60	0xbc02ad90	-0.007975951
61	0x3cc2efac	0.023795925
62	0xbd854b0a	-0.06508453
63	0x3d77add2	0.060468502
64	0xbc299628	-0.010350741
65	0x3d81d929	0.06340248
66	0xbcc99794	-0.02460841
67	0xbda41c98	-0.08013266
68	0x3d778582	0.060430057
69	0x3c989518	0.018625781
70	0x3db35ae1	0.08757568
71	0xbdb1bb83	-0.08678343
72	0xbdbbb98b	-0.09166249
73	0x3d902f3b	0.070402585
74	0xbd62ba83	-0.055353653
75	0x3ba66cd0	0.0050788894
76	0x3d1b8552	0.03796894
77	0x3d9b4b39	0.07582707
78	0x3d812255	0.063053764
79	0xbb3729a0	-0.0027948394
80	0x3db52101	0.088441856
81	0xbd8143d6	-0.06311767
82	0x3dbe41e9	0.09289915
83	0xbd55f7cd	-0.052238274
84	0xbcd379c8	-0.025814906
85	0x3d47832a	0.048709072
86	0x3d7cf1ae	0.06175392
87	0x3d3675e2	0.044546016
88	0x3dc73541	0.09726954
89	0xb9eb5200	-0.00044883788
90	0x3d3ed176	0.046586476
91	0xbd867cac	-0.06566748
92	0xbd2148ea	-0.039376177
93	0xbc9ff220	-0.019524634
94	0x3d1732ba	0.03691361
95	0xbbfef060	-0.00778012
96	0xbda34f2e	-0.07974087
97	0xbdaedd7f	-0.08538341
98	0x3db82819	0.08992023
99	0xbd7e88fa	-0.06214235
100	0x3ca737d8	0.02041237
101	0xbd56cdd0	-0.05244237
102	0x3cb85a00	0.022503853
103	0xbd646ab7	-0.055765834
104	0xbd678ef0	-0.0565328
105	0x3d074ba6	0.03303113
106	0x3d2bd70a	0.041953124
107	0x3da59bcd	0.08086357
108	0xbd4a0db0	-0.04932946
109	0xbdc944c0	-0.09827566
110	0x3d6b227a	0.057405926
111	0xbc7daa90	-0.01548256
112	0xbd567d5a	-0.05236564
113	0x3d5b90b2	0.05360479
114	0x3cc30620	0.023806632
115	0x3db7d789	0.08976657
116	0x3d99fac1	0.07518531
117	0xbcf77634	-0.03020773
118	0xbdaadb33	-0.0834259
119	0x3d9e8273	0.07739725
120	0x3d7e353e	0.062062494
121	0x3c309c90	0.010779515
122	0x3c2551c0	0.0100902915
123	0x3dc364fd	0.09540746
124	0xbd1bf4f7	-0.038075414
125	0xbdbdd73a	-0.09269567
126	0x3cc3cbb8	0.023900852
127	0x3d25c8ea	0.04047481
128	0xbd8f597a	-0.06999488
129	0x3d880dff	0.066432945
130	0x3d9c599f	0.07634281
131	0x3c5cfbf0	0.013487801
132	0x3d177be6	0.036983393
133	0xbd985de5	-0.07439784
134	0x3cda61dc	0.026657991
135	0x3c6b2a28	0.014353313
136	0x3bc1a8b0	0.0059100017
137	0xbdbb373f	-0.09141397
138	0x3c7edba8	0.0155553
139	0x3ce95c44	0.028486378
140	0xbc795680	-0.015218377
141	0x3db8bba9	0.09020168
142	0x3d158f22	0.036513455
143	0x3b01c5a0	0.0019801632
144	0xbd3b6d77	-0.04575869
145	0x3d00e32e	0.031466655
146	0xbd9a1cd3	-0.07525029
147	0x3d7b5c06	0.061367057
148	0x3d50b576	0.050954305
149	0x3d7f8192	0.062379427
150	0x3d3b2776	0.04569193
151	0x3dba2ed7	0.09090965
152	0x3d82070f	0.063490026
153	0x3d78aae6	0.060709856
154	0x3d3c6332	0.045993038
155	0xbc856af4	-0.01628635
156	0x3d965d69	0.07342035
157	0x3c08ca10	0.008348957
158	0x3d02e5de	0.0319575
159	0xbd6b2c17	-0.057415094
160	0xbcf30694	-0.029666223
161	0x3d00bb3a	0.031428553
162	0x3d57f592	0.05272443
163	0x3d608832	0.054817386
164	0xbd29f4ca	-0.041493215
165	0x3d39e842	0.045387514
166	0x3d8fa8fb	0.07014652
167	0x3db888a7	0.09010439
168	0x3d4a0de6	0.04932966
169	0x3cd9a984	0.02657009
170	0x3d8a509b	0.067536555
171	0x3dc42ff9	0.095794626
172	0xbd390630	-0.045171916
173	0x3d4ce736	0.050025187
174	0xbd8caecc	-0.06869277
175	0xbdb4c0f0	-0.088258624
176	0x3dc01cbb	0.0938048
177	0x3cbe9840	0.023265958
178	0xbd3eb44d	-0.046558667
179	0x3d325ef2	0.04354758
180	0x3d0fff1a	0.035155393
181	0xbd592747	-0.053015973
182	0x3d9a6721	0.075392015
183	0xbb49a340	-0.003076747
184	0x3d462326	0.048373364
185	0xbcbda9c8	-0.023152247
186	0x3d1c8962	0.038216956
187	0x3cf6d594	0.030131139
188	0x3c64ee10	0.013972774
189	0x3d1e8c82	0.038708217
190	0xbc605110	-0.013691202
191	0x3d13caa2	0.036081918
192	0xbda9a812	-0.0828401
193	0xbdb794cf	-0.0896393
194	0xbd81e3e8	-0.06342298
195	0x3dac0769	0.08399851
196	0x3db2acef	0.08724391
197	0x3a484f00	0.00076411664
198	0xbb9924e0	-0.0046735853
199	0x3d70690e	0.058693938
200	0xbd12a72a	-0.03580395
201	0x3dc10dab	0.09426435
202	0x3c9c5d74	0.01908753
203	0x3dc5211b	0.09625455
204	0xbdc3a15f	-0.095522635
205	0x3db60543	0.08887722
206	0x3d5325f6	0.051549874
207	0x3dbb1409	0.09134681
208	0xbb84b8d0	-0.0040503517
209	0xbda70b3b	-0.08156439
210	0x3d6ef74a	0.058341302
211	0x3b9e8100	0.0048371553
212	0x3c90f394	0.017694272
213	0xbb90bbd0	-0.0044169202
214	0x3db6df29	0.08929283
215	0xbda4bd98	-0.08043975
216	0xbd7b4330	-0.061343372
217	0xbb7a9e00	-0.0038241148
218	0xbc2bda68	-0.010489084
219	0xbc02f968	-0.007994033
220	0xbd1d04fd	-0.038334835
221	0xbd6867fd	-0.056739796
222	0xbd579f00	-0.05264187
223	0x3d350e56	0.044203125
224	0xbd1fe417	-0.039035883
225	0x3c9c4e48	0.019080296
226	0x3db480fd	0.08813665
227	0x3a78db00	0.0009493083
228	0x3d9d48a1	0.076798685
229	0xbbec3360	-0.007208273
230	0xbd134c1a	-0.035961248
231	0x3dacaf29	0.08431847
232	0xbc57ffb0	-0.013183519
233	0xbc8fc7cc	-0.017551325
234	0x3d0d8872	0.034553953
235	0xbdc15420	-0.09439874
236	0xbdc48762	-0.09596135
237	0xbcc0ed88	-0.023550764
238	0x3d950867	0.07276993
239	0xbd92c210	-0.07165921
240	0xbca1e548	-0.01976265
241	0x3d797442	0.060901888
242	0x3be813e0	0.0070824474
243	0xbd1a3a1d	-0.037653077
244	0xbdb2b58b	-0.08726033
245	0x3d8f4d65	0.06997184
246	0xbc1bb670	-0.009503946
247	0x3c88d274	0.016701914
248	0xbd15c9ec	-0.03656952
249	0x3d8049a9	0.062640496
250	0xbd460b8d	-0.04835086
251	0xbb982760	-0.0046433657
252	0x3d33f1c6	0.043931745
253	0x3d58d6ae	0.05293911
254	0xbd93560b	-0.07194146
255	0xbd5fc7c0	-0.054633856

l3.bias f4 [20]
0	0xbda2b4a8	-0.07944614
1	0x3ce072a4	0.027398415
2	0x3d8b6b3d	0.068075635
3	0xbdaae3d8	-0.08344239
4	0xbb6059a0	-0.0034233108
5	0xbbbbd220	-0.005731836
6	0xbc142110	-0.009041086
7	0x3d074532	0.033024974
8	0xbc08f618	-0.008359455
9	0xbd53497a	-0.051583745
10	0x3d54b3fe	0.051929466
11	0x3d4b6572	0.049657293
12	0x3c45e468	0.012078382
13	0x3d616a12	0.055032797
14	0xbc9f81f8	-0.019471154
15	0xbc9aee88	-0.018912569
16	0x3d224f0a	0.03962616
17	0xbd4819e0	-0.0488528
18	0x3cce990c	0.025219463
19	0x3cebe38c	0.028795026

output.weight f4 [8, 20]
0	0xbe230b74	-0.15922338
1	0x3ddc3cdc	0.107537955
2	0xbe56545f	-0.20930623
3	0xbd81e470	-0.06342399
4	0x3bc8ed60	0.006131813
5	0x3cdbed30	0.026846498
6	0xbd2692f8	-0.040667504
7	0xbe2ee882	-0.17080882
8	0xbe30d6ce	-0.17269441
9	0x3e63c8b0	0.22244525
10	0xbdb8b978	-0.0901975
11	0x3e08b992	0.1335204
12	0x3de0d1a4	0.10977486
13	0xbcebe1d0	-0.0287942
14	0x3cc39290	0.023873597
15	0xbdf47504	-0.119363815
16	0xbde6cf05	-0.112699546
17	0x3e2465e2	0.1605449
18	0xbe406280	-0.18787575
19	0x3cfab3c0	0.03060329
20	0xbc3fa9f0	-0.011698231
21	0x3daff158	0.085909545
22	0x3be5d0c0	0.0070134103
23	0x3da3a92c	0.07991251
24	0x3de71618	0.11283511
25	0xb94c3000	-0.00019472837
26	0xbe50e90f	-0.20401405
27	0xbdcfc104	-0.10144237
28	0xbdc9a0d6	-0.0984513
29	0xbd2c65b0	-0.042089164
30	0xbd03ec84	-0.03220798
31	0x3e13f7ee	0.14450046
32	0x3e49f7b8	0.19723403
33	0xbe4b6d26	-0.19865856
34	0xbe410e9e	-0.18853232
35	0xbe529c8f	-0.20567535
36	0xbe2785b9	-0.16359605
37	0x3dc779cc	0.09740028
38	0xbd907458	-0.07053441
39	0xbdea2492	-0.114327565
40	0xbd3c6554	-0.04599507
41	0x3d3d64f0	0.04623884
42	0x3e26ae6e	0.16277477
43	0x3d8aba14	0.06773773
44	0xbc059f80	-0.008155704
45	0xbdc5d3e4	-0.096595556
46	0xbdc0d4ce	-0.09415589
47	0x3df23510	0.11826527
48	0xbc8199e0	-0.015820444
49	0x3e5a5e6a	0.21325079
50	0x3e52bf56	0.20580801
51	0x3e5df5fc	0.21675867
52	0x3e03fe16	0.12889895
53	0xbe28b850	-0.1647656
54	0x3e40723a	0.18793574
55	0xbd85babe	-0.06529759
56	0xbc85c198	-0.016327664
57	0xbd8a6e76	-0.0675935
58	0xbdbc9de4	-0.09209803
59	0xbe235e26	-0.15953884
60	0xbdbc809c	-0.09204218
61	0x3d1ebea8	0.038756043
62	0xbd3b1e54	-0.04568322
63	0xbe5bfbd5	-0.21482785
64	0xbe6317a6	-0.2217699
65	0x3e47148e	0.19441435
66	0x3dad4b40	0.084616184
67	0x3c4f5b20	0.012656003
68	0xbddad47d	-0.1068506
69	0xbdc6834c	-0.09693012
70	0xbd6328b0	-0.055458724
71	0x3e3126cc	0.17299956
72	0x3d751338	0.05983278
73	0x3de4fe44	0.1118131
74	0x3e29ba78	0.16575038
75	0x3d8ab5dc	0.06772968
76	0xbdac299c	-0.08406374
77	0x3d8fe728	0.070265114
78	0x3df3fb94	0.11913219
79	0x3e40b1d4	0.18817836
80	0xbd632010	-0.0554505
81	0xbe43e311	-0.19129588
82	0xbc085af0	-0.008322462
83	0xbc90bf80	-0.01766944
84	0x3e18b84c	0.14914054
85	0xbd96fbaa	-0.0737222
86	0xbe2988fb	-0.1655616
87	0x3dbc8e74	0.09206858
88	0x3c9b1208	0.018929496
89	0x3e2c4d70	0.16826415
90	0xbdacfcae	-0.08446632
91	0xbe39fccc	-0.1816284
92	0xbdd01afd	-0.101613976
93	0x3dbdf880	0.09275913
94	0xbde257d1	-0.11051906
95	0xbdf0fcd2	-0.11766972
96	0xbdf3ec36	-0.11910288
97	0x3e0a2e8c	0.13494319
98	0x3e468ba6	0.19389209
99	0xbe18d6ba	-0.14925662
100	0x3e443992	0.19162586
101	0x3e5744aa	0.21022287
102	0x3b849d60	0.004047081
103	0x3da23e60	0.07922053
104	0x3e40bb64	0.18821484
105	0xbdd4fc5a	-0.10399695
106	0x3de4a9d4	0.11165205
107	0xbd4f5060	-0.05061376
108	0xbe06cb20	-0.13163424
109	0xbd98000e	-0.074218854
110	0xbd95e86e	-0.07319723
111	0xbe496780	-0.19668388
112	0x3e2fa072	0.17151049
113	0x3dba636c	0.091009945
114	0xbe6462a5	-0.22303255
115	0xbe3f7066	-0.1869522
116	0x3e094888	0.13406575
117	0xbe0d7ada	-0.13816395
118	0xbc127680	-0.008939385
119	0xbe5015e5	-0.20320852
120	0xbddd5c07	-0.108085684
121	0xbe301a0f	-0.1719744
122	0x3e1dcf42	0.15411094
123	0x3d3ab830	0.04558581
124	0xbda3e688	-0.08002955
125	0x3e4d4bc4	0.20048434
126	0x3d0bfa40	0.034174204
127	0xbe4e3446	-0.20137128
128	0xbdc98a6a	-0.098408535
129	0x3d5d65f0	0.054052293
130	0xbe3c5b3a	-0.18394175
131	0x3e414dee	0.18877384
132	0x3e599210	0.21247125
133	0xbe6078fa	-0.21921149
134	0x3d2c3518	0.04204282
135	0xbcab8ef0	-0.020942181
136	0x3dadb064	0.084809095
137	0xbd3ce8fc	-0.04612063
138	0x3d8d8704	0.06910518
139	0xbc4d31b0	-0.012524053
140	0x3e30a256	0.17249426
141	0xbce21720	-0.027598917
142	0xbe330180	-0.17481041
143	0xbd84e566	-0.06489067
144	0x3b7ff480	0.0039055645
145	0x3d9884d0	0.07447207
146	0x3db07dcc	0.08617744
147	0x3e5527ee	0.20816013
148	0x3d65aa40	0.056070566
149	0xbe5a7e8c	-0.21337336
150	0xbe5ea624	-0.21743065
151	0x3e5f8f68	0.21832049
152	0x3c870e08	0.016486183
153	0x3e283380	0.16425896
154	0x3d710618	0.058843702
155	0xbdeea2f5	-0.11652175
156	0x3e5fb9b6	0.21848187
157	0xbdd30503	-0.1030369
158	0xbdf1c1d5	-0.11804549
159	0x3e15f5c0	0.14644527

output.bias f4 [8]
0	0xbd399a18	-0.04531297
1	0x3e3e1ac4	0.18564898
2	0xbda75462	-0.081703916
3	0x3e5cecfe	0.2157478
4	0xbe371584	-0.17879301
5	0x3e057c80	0.13035774
6	0xbe48091a	-0.19534722
7	0xbda3c114	-0.07995811
