PINN_experience/saved_model/simpleANNlr=0.002bs=128.pt (torch, 34575 bytes, 8 tensors)

l1.weight f4 [50, 14]
0	0x3e23431e	0.15943572
1	0x3b380200	0.0028077364
2	0xbd755978	-0.059899777
3	0x3d001038	0.031265467
4	0x3e7167be	0.23574731
5	0x3e45fe46	0.19335279
6	0xbc659d60	-0.014014572
7	0x3d134740	0.03595662
8	0x3d41c708	0.04730895
9	0xbcf74660	-0.030184925
10	0xbe8414ec	-0.25797212
11	0xbe60c00f	-0.21948265
12	0xbc99ed40	-0.018789887
13	0x3e11fbda	0.1425623
14	0x3dcf4320	0.10120225
15	0xbdf29a04	-0.118457824
16	0xbe048546	-0.12941465
17	0xbcb23d60	-0.021757782
18	0x3ddb8ae8	0.10719854
19	0xbc588cc0	-0.013217151
20	0xbd168e84	-0.036757007
21	0x3e5050aa	0.20343271
22	0x3e069cd2	0.1314576
23	0xbdaa05c8	-0.08301884
24	0xbc315c40	-0.010825217
25	0xbe78055c	-0.24220794
26	0x3db73f1c	0.08947584
27	0xbe3c9c22	-0.18418935
28	0x3e36f16c	0.17865533
29	0x3e01533c	0.12629408
30	0xbe77932c	-0.24177235
31	0xbdc65266	-0.09683685
32	0x3e3f71e8	0.18695796
33	0x3db25374	0.08707324
34	0xbcefd2a8	-0.029275253
35	0xbd3f6ea8	-0.04673639
36	0x3ce512b0	0.027963012
37	0x3cac1c10	0.021009475
38	0xbd3a0ac0	-0.04542041
39	0xbe472931	-0.19449307
40	0xbd21731c	-0.039416417
41	0x3cf86120	0.03031975
42	0xbdb8a96c	-0.0901669
43	0xbdf020a8	-0.11724979
44	0x3e18175c	0.14852661
45	0xbe527d0d	-0.20555516
46	0xbe5e392d	-0.21701498
47	0xbe78f04d	-0.24310417
48	0x3e80a57d	0.25126258
49	0x3df01334	0.11722413
50	0x3e247186	0.16058931
51	0xbe87e93b	-0.26545128
52	0xbe7c3d77	-0.24632822
53	0xbe1a1c54	-0.15049869
54	0xbdd7f5e8	-0.1054495
55	0x3d3535f8	0.04424092
56	0x3e80c931	0.25153497
57	0x3e063722	0.13106969
58	0xbda25eb4	-0.079282194
59	0xbe3cd272	-0.18439654
60	0x3dfc63f4	0.12323752
61	0xbdaec146	-0.08532958
62	0xbe3065a0	-0.17226267
63	0x3e2ee268	0.17078555
64	0xbe861690	-0.2618909
65	0x3e2f4a80	0.17118263
66	0xbdb4a498	-0.08820456
67	0xbd7bed34	-0.06150551
68	0xbd74467c	-0.05963753
69	0x3e2e775a	0.17037717
70	0x3e86d2e3	0.2633277
71	0xbd97523a	-0.0738873
72	0xbc259ca0	-0.010108143
73	0xbe179b44	-0.14805323
74	0x3e15d7f0	0.14633155
75	0xbe652a57	-0.22379433
76	0x3ddd85dc	0.10816547
77	0x3e19964c	0.1499874
78	0xbe2e6f3c	-0.1703462
79	0xbe3539be	-0.17697808
80	0xbe09f3fe	-0.13471982
81	0xbe85c016	-0.26123112
82	0xbe32bc34	-0.17454606
83	0xbdce5b20	-0.100759745
84	0x3e0ddefa	0.1385459
85	0x3d2ae870	0.041725576
86	0xbe4f112c	-0.20221394
87	0xbdda5062	-0.10659863
88	0x3d8e68a8	0.06953555
89	0x3c873240	0.016503453
90	0x3d48b348	0.0489991
91	0xbc822da0	-0.015890896
92	0xbc644aa0	-0.013933808
93	0x3e646cba	0.22307101
94	0x3dbbe6f4	0.0917491
95	0x3d9f84e0	0.07789016
96	0xbe1b645c	-0.15175003
97	0xbe30c1c0	-0.1726141
98	0xbda80966	-0.082049176
99	0xbe4224e9	-0.18959393
100	0xbe40a654	-0.18813449
101	0x3dbc6924	0.091997415
102	0xbe0278bd	-0.1274137
103	0x3e46ae76	0.19402489
104	0x3e372a08	0.17887127
105	0xbd2f7ed8	-0.042845577
106	0xbdd304ea	-0.10303672
107	0xbe15363f	-0.14571474
108	0xbd93c15e	-0.07214616
109	0x3b843540	0.004034668
110	0x3e3baf92	0.18328694
111	0xbd831af8	-0.06401628
112	0x3dd461b8	0.10370201
113	0x3cfa04f0	0.030519933
114	0xbe8657ae	-0.2623877
115	0xbe1ff1ac	-0.15619534
116	0x3dafe8d4	0.0858933
117	0xbe100689	-0.14064993
118	0x3e2b36de	0.16720149
119	0x3e39e2fc	0.18152994
120	0x3e413eca	0.18871608
121	0x3e5c4424	0.21510369
122	0xbdc8a050	-0.09796202
123	0x3dcc8174	0.09985629
124	0x3e14827a	0.14502898
125	0x3c64e280	0.013970017
126	0xbe3ac48f	-0.18239044
127	0x3e196b18	0.1498226
128	0x3e14a8b2	0.14517477
129	0x3e778362	0.24171212
130	0xbe08b7b7	-0.13351332
131	0x3e51a8b6	0.20474514
132	0x3df8b840	0.12144518
133	0xbe50b22a	-0.20380464
134	0xbd67ec94	-0.056622103
135	0xbe29aa65	-0.16568907
136	0xbdf66cbe	-0.1203246
137	0xbe5f2a4e	-0.21793482
138	0xbe07372a	-0.13204637
139	0xbe6a7189	-0.22894873
140	0x3dc4970c	0.095991224
141	0xbe70d352	-0.23518112
142	0xbda1964c	-0.07889995
143	0xbe287e34	-0.16454393
144	0xbcdda258	-0.02705495
145	0xbe163fc0	-0.14672756
146	0x3e74c226	0.23902187
147	0x3e2ee04a	0.17077747
148	0x3e83612d	0.25660077
149	0x3e45a2da	0.19300404
150	0xbc6a2ca0	-0.014292866
151	0x3e85ed1f	0.26157472
152	0xbe75afd5	-0.23992856
153	0x3e659164	0.22418743
154	0xbe50b121	-0.2038007
155	0x3e785406	0.24250802
156	0xbd574b30	-0.05256194
157	0x3d1574f0	0.036488473
158	0x3e58d2d4	0.21174175
159	0x3e72d2ea	0.2371327
160	0x3e2e55d4	0.17024928
161	0xbc65e4c0	-0.014031589
162	0xbd98bf02	-0.07458307
163	0x3e055be2	0.13023332
164	0x3df71ee8	0.12066442
165	0xbceb9618	-0.028758094
166	0xbe760bf8	-0.24028003
167	0x3d6ba958	0.057534546
168	0xbd8ab8e4	-0.06773546
169	0xbe2da961	-0.16959144
170	0xbe854dc2	-0.26035887
171	0x3e6f1632	0.2334831
172	0x3e0dea3e	0.13858888
173	0x3db3bc54	0.08776155
174	0xbe582028	-0.21106017
175	0x3ddedbc0	0.10881758
176	0x3e356224	0.17713219
177	0xbd3482bc	-0.04406999
178	0x3e395042	0.18097022
179	0xbd0ebcec	-0.03484814
180	0xbe15fae2	-0.14646485
181	0xbd9809ce	-0.07423745
182	0xb9758800	-0.00023415685
183	0xbe80a52c	-0.25126016
184	0xbe31320a	-0.17304245
185	0x3e855719	0.26043013
186	0x3b625800	0.0034537315
187	0x3e4bf53c	0.19917768
188	0xbe8721d0	-0.26392984
189	0xbe460c80	-0.19340706
190	0xbe0ce9fa	-0.1376113
191	0x3c682de0	0.014171094
192	0xbd658acc	-0.05604057
193	0x3e85300f	0.26013228
194	0xbe4e6d8a	-0.20158973
195	0xbe1f33fe	-0.15547177
196	0xbe7418c7	-0.23837577
197	0xbdc73a90	-0.09727967
198	0x3e7c157e	0.24617574
199	0x3e545dea	0.2073895
200	0x3e508696	0.2036384
201	0x3c4c5a80	0.012472749
202	0xbde9cd24	-0.114160806
203	0x3db71704	0.08939937
204	0x3b4fdf80	0.003171891
205	0xbd88dc9c	-0.06682703
206	0xbddb8396	-0.107184574
207	0x3e884c1b	0.26620564
208	0x3e0b8ef4	0.13628751
209	0x3d900b14	0.07033363
210	0x3e6425c8	0.22280037
211	0x3e5d4a12	0.21610287
212	0xbda533f0	-0.08066547
213	0x3df0f8b0	0.117661834
214	0xbe8549d0	-0.26032877
215	0x3bba4340	0.0056842864
216	0xbdfd23ce	-0.12360345
217	0x3de03424	0.10947445
218	0x3d0b0d78	0.03394839
219	0x3e1f6232	0.15564802
220	0xbe3b223e	-0.18274781
221	0x3d8373dc	0.06418583
222	0x3e0c6b14	0.13712722
223	0x3e3b2992	0.18277577
224	0xbe85fb86	-0.2616846
225	0x3e4e739c	0.20161289
226	0x3e57d1ce	0.21076128
227	0x3e806e8d	0.25084344
228	0x3e225960	0.15854406
229	0x3d5f38f8	0.05449769
230	0xbe87c133	-0.26514587
231	0x3e2fd48a	0.17170921
232	0x3bb151c0	0.0054113567
233	0xbdae81bc	-0.085208386
234	0x3e66ff60	0.22558355
235	0xbcf35be0	-0.029706895
236	0xbe741889	-0.23837484
237	0xbd6fd964	-0.05855693
238	0x3e7abaee	0.2448537
239	0xbd6d64b4	-0.057957366
240	0x3e1b2b16	0.15153155
241	0x3db05c14	0.086113125
242	0x3b412080	0.0029468834
243	0xbe3ac65b	-0.18239729
244	0x3e090fb6	0.133849
245	0x3dedb034	0.11605874
246	0xbe34bfa6	-0.17651233
247	0x3dd07e40	0.1018033
248	0x3e691908	0.22763455
249	0x3e84731f	0.2586908
250	0xbd3e9d6c	-0.046536848
251	0x3dc9c3bc	0.098517865
252	0x3dc46bb8	0.09590858
253	0x3e24a5e6	0.1607891
254	0xbdd0986e	-0.10185324
255	0x3e1180e0	0.14209318

l1.bias f4 [50]
0	0xbe87545e	-0.26431555
1	0xbcb98a88	-0.022649065
2	0xbdce348e	-0.10068618
3	0x3cd74990	0.026280195
4	0x3d7707d8	0.060310215
5	0xbe4c6a3e	-0.19962403
6	0x3e43bcb8	0.19114959
7	0xbe02c9e3	-0.12772326
8	0xbd1ab904	-0.0377741
9	0x3d0fb838	0.035087794
10	0xbe386ea3	-0.18010955
11	0x3dbef034	0.09323159
12	0x3ddf786c	0.109116405
13	0xbe6d22e3	-0.2315784
14	0x3e7475ee	0.23873112
15	0x3e402846	0.18765363
16	0x3e005666	0.12532958
17	0x3e0284e2	0.12746003
18	0x3e069204	0.13141638
19	0xbdafc56c	-0.08582577
20	0xbe4a7809	-0.19772352
21	0x3e848c71	0.25888398
22	0xbe37a74b	-0.17934911
23	0xbe055236	-0.13019642
24	0xbe44f9b7	-0.19235884
25	0xbe7f3cc7	-0.24925528
26	0xbdf3a830	-0.118973136
27	0xbe4df5d9	-0.20113315
28	0xbc231560	-0.009953827
29	0x3e3fccf2	0.18730524
30	0xbdfd0c2a	-0.12355836
31	0xbd505f9c	-0.05087243
32	0x3e02d0b8	0.12774932
33	0xbcd03860	-0.025417507
34	0x3e055250	0.13019681
35	0x3e77569a	0.2415413
36	0x3d8c10b8	0.06839126
37	0xbd289918	-0.041161627
38	0xbde35b2e	-0.111013755
39	0x3e49e234	0.19715196
40	0xbdbbc99a	-0.09169312
41	0x3def4fd4	0.11685148
42	0x3db31a70	0.08745277
43	0xbd09b0b0	-0.033615768
44	0xbd81333c	-0.063086
45	0xbcf2caf0	-0.029637784
46	0x3d1113a0	0.035419106
47	0x3e397872	0.18112352
48	0xbd98c8a6	-0.07460146
49	0xbdd23eb4	-0.10265866

l2.weight f4 [100, 50]
0	0x3ddbad34	0.10726395
1	0x3e0ac5dd	0.13552041
2	0xbcb1b064	-0.021690555
3	0x3c743f00	0.0149075985
4	0xbd9fe3ce	-0.07807122
5	0x3dddc00c	0.10827646
6	0xbda5c23e	-0.080936894
7	0xbddd84b2	-0.10816325
8	0xbd8711d7	-0.065951996
9	0x3c088dd0	0.008334592
10	0xbe03615e	-0.12830111
11	0xbcb9dd54	-0.022688545
12	0x3dd83578	0.10557073
13	0x3cdfaa48	0.027302876
14	0xbd901108	-0.070344985
15	0x3dd8d7d6	0.105880424
16	0x3b3f9e00	0.0029238462
17	0x3d6ceed8	0.057844967
18	0xbc175cc0	-0.009238422
19	0x3d912c0c	0.070884794
20	0x3d46c3fc	0.04852675
21	0x3d9537fe	0.0728607
22	0xbdc59e34	-0.096493155
23	0x3dc22464	0.09479597
24	0x3e0cc96d	0.13748713
25	0xbe02d48a	-0.1277639
26	0x3ca32d88	0.019919172
27	0xbd33119c	-0.043717965
28	0xbdffef1a	-0.12496777
29	0x3dc48f0e	0.09597598
30	0xbdb2378e	-0.087020025
31	0xbdb0a9e2	-0.086261526
32	0xbd82f09f	-0.06393551
33	0xbd9f0633	-0.07764854
34	0xbd480856	-0.048836075
35	0xbcf0bdd8	-0.0293874
36	0x3dc95d52	0.098322526
37	0x3d2c13dc	0.042011127
38	0xbc725660	-0.014791101
39	0xbd4c8eac	-0.04994075
40	0xbc52f3e0	-0.012875527
41	0xbe046a91	-0.12931277
42	0x3ccd91f8	0.025094017
43	0xbc12c080	-0.008957028
44	0x3da0d518	0.078531444
45	0x3dfa1906	0.12211804
46	0x3de7b5be	0.113139614
47	0xbccd44ac	-0.02505716
48	0x3ba83360	0.0051330775
49	0xbe00f085	-0.12591751
50	0xbd942871	-0.07234276
51	0x3ce970b8	0.028496131
52	0x3dede56a	0.11616023
53	0x3ddc426e	0.10754858
54	0xbd9d8d27	-0.07692938
55	0x3e04b813	0.12960844
56	0x3df0bcce	0.11754762
57	0x3e0bf50f	0.13667701
58	0xbd94307e	-0.07235812
59	0xbcdd0330	-0.026979059
60	0x3dffc6f6	0.12489121
61	0xbc011320	-0.007878095
62	0x3d5308e0	0.051522136
63	0x3d486ea4	0.04893364
64	0x3d8ac88a	0.06776531
65	0xbe088a68	-0.13334048
66	0x3df691e2	0.12039544
67	0x3e0693b9	0.13142289
68	0xbd9a6d0f	-0.075403325
69	0x3ddb598c	0.10710439
70	0xbd9748e9	-0.073869534
71	0x3d126e4c	0.03574972
72	0xbdd4dc6b	-0.10393604
73	0x3df248d6	0.118302986
74	0x3e0c0f97	0.13677822
75	0xbd4de7e0	-0.05026996
76	0x3e0e9e85	0.13927658
77	0x3cec4920	0.028843462
78	0xb9872c00	-0.0002578199
79	0xbce10150	-0.027466446
80	0xbe0a2adf	-0.13492917
81	0x3d13a4f8	0.036046
82	0xbda2c69e	-0.079480395
83	0xbde589c7	-0.112079196
84	0x3da063b2	0.07831515
85	0x3dbaa08e	0.091126546
86	0x3db1a9ae	0.08674942
87	0xbdc44418	-0.095833
88	0xbe104f2c	-0.14092702
89	0xbdf2a8a2	-0.118485704
90	0x3da9775c	0.08274719
91	0x3da82da0	0.08211827
92	0x3da4c7fe	0.08045958
93	0x3cb8d9e8	0.022564843
94	0xbd7cd5e8	-0.061727434
95	0x3dbbac2a	0.09163697
96	0x3df51c06	0.11968236
97	0xbda59bc8	-0.080863535
98	0x3dae3412	0.085060254
99	0xbd855c7d	-0.06511781
100	0x3d1bf834	0.0380785
101	0xbdfdec9f	-0.123986475
102	0xbcb68098	-0.022278115
103	0xbd736e2c	-0.05943124
104	0xbdd76e00	-0.10519028
105	0xbd79c818	-0.06098184
106	0x3e09f5f5	0.13472731
107	0xbe0c5ef6	-0.137081
108	0x3e06afe3	0.13153033
109	0xbac4fe80	-0.001502946
110	0x3e0d1331	0.13776852
111	0xbe070b0f	-0.13187812
112	0xbdafdd43	-0.08587124
113	0x3d0d305c	0.034469947
114	0xbe04168e	-0.12899229
115	0xbb2a9380	-0.0026027858
116	0xbe095e65	-0.13414915
117	0xbba5b040	-0.005056411
118	0xbdfb0f41	-0.12258769
119	0xbd38ab06	-0.045084976
120	0x3d05c8b4	0.03266211
121	0xbe0019c4	-0.12509829
122	0x3d22ed88	0.03977731
123	0xbc8650a0	-0.016395867
124	0x3da96bce	0.08272515
125	0xbde4fcb4	-0.11181012
126	0xbdd591a0	-0.104281664
127	0x3e00c9eb	0.12577026
128	0x3ddd926a	0.10818942
129	0xbcbf6cfc	-0.023367397
130	0xbae8ca00	-0.0017760396
131	0x3aed2300	0.0018092096
132	0x3dab7cd6	0.0837342
133	0x3d23e470	0.040012777
134	0x3c857e80	0.016295671
135	0xbdec325b	-0.11533042
136	0xbdb33cf7	-0.087518625
137	0xbbfe3ae0	-0.0077584833
138	0x3d4c8eac	0.04994075
139	0xbd9c49ff	-0.07631301
140	0xbd90ff06	-0.07079892
141	0xbd908b2a	-0.070577934
142	0x3d54b88c	0.05193381
143	0x3dc687fe	0.09693907
144	0xbdb4aa54	-0.0882155
145	0xbe025e3b	-0.12731259
146	0xbe0f9000	-0.14019775
147	0xbe0b0c46	-0.135789
148	0x3b4ef040	0.0031576306
149	0x3ddd32e8	0.10800725
150	0xbdcd1290	-0.10013306
151	0xbd92e93a	-0.07173391
152	0xbca364e8	-0.019945577
153	0xbdc5f1c4	-0.09665254
154	0x3cd519d8	0.0260133
155	0xba87cc00	-0.0010360479
156	0xbdf6da03	-0.12053301
157	0xbdc157e5	-0.09440593
158	0x3d19df98	0.03756675
159	0xbd3d4ace	-0.046213917
160	0xbdadd62c	-0.08488116
161	0x3de40876	0.11134426
162	0xbda12077	-0.0786752
163	0x3c3c30b0	0.011486217
164	0x3d264888	0.040596515
165	0x3e0ec8a7	0.1394373
166	0xbd128022	-0.03576673
167	0xbd995fcb	-0.07488974
168	0x3d933066	0.07186966
169	0x3d99237c	0.07477471
170	0xbddaa676	-0.10676281
171	0x3d8d0e2c	0.06887469
172	0xbcc601e0	-0.024170816
173	0xbd82f5f5	-0.06394569
174	0x3e078179	0.13232984
175	0x3de5c0ee	0.11218439
176	0xbdaeeb8a	-0.08541019
177	0x3c19cfd0	0.009387925
178	0xbde46459	-0.11151952
179	0xbc297370	-0.010342464
180	0xbd305b52	-0.04305584
181	0x3acdf100	0.0015712082
182	0x3d446690	0.047949374
183	0xbdde6fea	-0.1086119
184	0x3d5a2958	0.053262085
185	0xbdfc86af	-0.12330376
186	0x3deb80fa	0.1149921
187	0x3cee6e00	0.029105186
188	0xbd6c225e	-0.057649963
189	0xbe0827d6	-0.13296446
190	0xbd21967e	-0.03945016
191	0xbc5bba30	-0.01341109
192	0xbd8d7ec9	-0.06908948
193	0xbcbeda88	-0.023297563
194	0x3dfeceaa	0.12441762
195	0x3d6a6690	0.057226717
196	0x3cc03998	0.023464963
197	0xbc9060d4	-0.017624296
198	0xbde059d5	-0.10954634
199	0x3d917912	0.071031705
200	0xbd97bde3	-0.07409265
201	0xbdc5b070	-0.096527934
202	0xbc9b074c	-0.018924378
203	0x3cea1ba0	0.028577626
204	0xbd2a7852	-0.041618653
205	0x3e01428b	0.1262304
206	0xbd6102be	-0.054934256
207	0xbd93b7f1	-0.072128184
208	0x3ce5bb68	0.028043464
209	0xbdae0abb	-0.084981404
210	0xbd27693c	-0.040871844
211	0xbdd48e86	-0.10378747
212	0xbdac73a4	-0.08420494
213	0x3c38d160	0.011280388
214	0x3c9604d0	0.018312842
215	0xbdc7a36d	-0.09747968
216	0x3c249940	0.010046303
217	0xbdad901a	-0.08474751
218	0xbbc57120	-0.0060254484
219	0xbe0fcc3f	-0.14042757
220	0x3d9d342c	0.076759666
221	0xbe0ebd0b	-0.13939302
222	0x3da78470	0.08179557
223	0x3de967e6	0.1139677
224	0xbda77fcc	-0.08178672
225	0x3df66fa2	0.12033011
226	0x3de0764a	0.10960062
227	0x3c2b76f0	0.010465369
228	0x3d857e5a	0.0651824
229	0xbd995028	-0.07485992
230	0x3c8ea3e8	0.017412141
231	0xbd8c870a	-0.06861694
232	0xbdb8a7f0	-0.090164065
233	0x3ddbb116	0.10727136
234	0x3dd376bc	0.10325381
235	0x3dd32166	0.103091046
236	0x3db01bcc	0.08599052
237	0x3d45c424	0.048282757
238	0xbdec63a4	-0.115424424
239	0xbe0f27d6	-0.1398004
240	0x3e0ea2d3	0.139293
241	0xbd8921dd	-0.06695912
242	0x3df55d76	0.11980717
243	0xbc2003a0	-0.009766489
244	0x3e0b424f	0.13599513
245	0xbdbb368a	-0.09141262
246	0xbdd6485c	-0.1046302
247	0x3da1c254	0.07898393
248	0x3ddb8870	0.10719383
249	0xbcfd8338	-0.030946359
250	0xbcbffddc	-0.02343648
251	0x3e0e9e09	0.13927473
252	0x3d8d5440	0.06900835
253	0x3dc37ab4	0.09544888
254	0x3dd147c2	0.10218765
255	0xbd8bc097	-0.06823843

l2.bias f4 [100]
0	0xbd11e36c	-0.035617277
1	0x3c105020	0.008808166
2	0x3d1ec2f8	0.038760155
3	0x3bcb2540	0.006199509
4	0xbe0887e1	-0.13333084
5	0xbd807700	-0.062726974
6	0x3d525ce8	0.051358134
7	0xbcb23964	-0.021755882
8	0xbbb8eec0	-0.0056436956
9	0xb9181400	-0.000145033
10	0xbc779240	-0.015110552
11	0x3e041a35	0.12900622
12	0x3d8d8214	0.06909576
13	0xbe06b79b	-0.13155977
14	0xbdf1b57e	-0.11802195
15	0x3dc7690a	0.097368315
16	0xbd4bd2f4	-0.049761727
17	0xbdc2b406	-0.09506993
18	0x3d2d8e78	0.042372197
19	0xbdb647a6	-0.089003846
20	0x3d66c224	0.05633749
21	0x3b22c180	0.0024834573
22	0x3df9ede6	0.12203579
23	0x3cce1c70	0.025160044
24	0x3dcf5e44	0.101254016
25	0xbd5af2da	-0.053454258
26	0x3d3d23b4	0.046176627
27	0x3d7eb628	0.062185436
28	0xbe07bae0	-0.13254881
29	0x3bce3500	0.006292939
30	0xbc281e10	-0.010261074
31	0xbd9820f1	-0.07428158
32	0xbdf3c881	-0.119034775
33	0xbd9f40f8	-0.07776064
34	0x3df133c6	0.11777453
35	0xbdd63eb0	-0.104611754
36	0xbd15e342	-0.036593683
37	0xbc963a94	-0.01833848
38	0xbc993270	-0.018700808
39	0x3d8a6564	0.0675762
40	0xbd39f328	-0.045397907
41	0xbd1d4036	-0.038391314
42	0xbdaa234e	-0.08307515
43	0x3d82d7d2	0.06388821
44	0x3dd96134	0.10614243
45	0x3df087b6	0.11744635
46	0x3db01d3a	0.085993245
47	0xbbf4b880	-0.007468283
48	0xbda2b374	-0.07944384
49	0xbd13f560	-0.03612268
50	0x3d9bf726	0.07615499
51	0xbd4f4660	-0.050604224
52	0xbcf16014	-0.029464759
53	0x3d53795c	0.05162941
54	0xbdd2525c	-0.10269615
55	0x3dc886a6	0.09791307
56	0xbd829991	-0.06376947
57	0x3c8afed8	0.016967222
58	0xbd8c09f2	-0.068378344
59	0x3b735d00	0.003713429
60	0x3c91cbd0	0.01779738
61	0x3db8f694	0.09031406
62	0x3d8cebee	0.068809375
63	0x3de4549a	0.11148949
64	0xba25c600	-0.0006323755
65	0xbdf39484	-0.118935615
66	0xbd0f8d5e	-0.035046928
67	0xbc3c26a0	-0.011483818
68	0x3e08f6b7	0.13375364
69	0x3ddd7448	0.108131945
70	0xbcaf75d4	-0.02141849
71	0x3ded38e2	0.11583115
72	0x3c562850	0.013071135
73	0xbd34bed4	-0.0441273
74	0xbd0cccaa	-0.03437487
75	0xbd1e5452	-0.038654633
76	0xbb919260	-0.004442498
77	0xbdd36238	-0.10321468
78	0x3e0cd119	0.1375164
79	0xbde40812	-0.11134352
80	0x3e08187d	0.13290592
81	0xbd8e1e0b	-0.06939324
82	0xbcbafc4c	-0.022825383
83	0x3dae7136	0.08517687
84	0x3b61cc80	0.0034454167
85	0xbd68403a	-0.056701876
86	0xbdd7528e	-0.10513793
87	0xbdd76820	-0.10517907
88	0x3dd8e30c	0.10590181
89	0xbe00e70f	-0.12588142
90	0x3d90b9d6	0.070666954
91	0x3d891572	0.066935435
92	0xbe02bd00	-0.1276741
93	0xbd7a05aa	-0.061040558
94	0xbd9e9376	-0.0774297
95	0xbdcbd7ae	-0.09953247
96	0xbc430710	-0.011903539
97	0x3e06d41f	0.13166855
98	0x3de4e4ea	0.111764744
99	0xbd236b92	-0.03989751

l3.weight f4 [20, 100]
0	0x3d9937bf	0.07481336
1	0xbdaa8c00	-0.08327484
2	0x3d931253	0.071812294
3	0xbdbaae43	-0.09115269
4	0xbdc60490	-0.09668839
5	0x3d4fc23e	0.050722353
6	0x3d0afe86	0.03393414
7	0x3d605852	0.05477173
8	0xbcb4884c	-0.022037648
9	0xb907e000	-0.0001295805
10	0xbd8c31b6	-0.06845419
11	0x3d30fbf2	0.043209024
12	0xbd87a94c	-0.06624088
13	0xbd67b827	-0.056572106
14	0x3d5bc6da	0.053656437
15	0x3b3a7840	0.0028453022
16	0x3dbe1e11	0.092830785
17	0x3d445142	0.047929056
18	0x3a4d5700	0.00078330934
19	0x3cbd6218	0.023118064
20	0xbdc312b5	-0.095250525
21	0xbd2962aa	-0.04135386
22	0x3c101880	0.008794904
23	0x3d566002	0.052337654
24	0xbd5bbf8d	-0.053649474
25	0x3db412b9	0.087926336
26	0xbcba71b4	-0.022759296
27	0xbd0776b4	-0.03307219
28	0xbccee138	-0.025253877
29	0xbc93b54c	-0.018030785
30	0xbd73f85d	-0.05956303
31	0xbdba94ad	-0.09110389
32	0xbc7ab470	-0.015301809
33	0x3c9a6160	0.01884526
34	0xbd3fd4ad	-0.046833683
35	0xbd96b136	-0.07358019
36	0x3d4b0f22	0.04957498
37	0x3c7c3d10	0.015395418
38	0xbdb58f4f	-0.088652246
39	0x3c911e60	0.01771468
40	0xbd7995d7	-0.060933914
41	0x3d6c4eca	0.057692327
42	0x3c79aa40	0.015238345
43	0xbd3a059a	-0.0454155
44	0xbc09b090	-0.008403912
45	0xbc6d85c0	-0.0144972205
46	0xbcc2716c	-0.023735724
47	0xbd83600c	-0.06414804
48	0xbd288973	-0.041146707
49	0x3c80ed8c	0.015738271
50	0x3d995eab	0.074887596
51	0xbda3577a	-0.07975669
52	0x3d9f4b69	0.07778055
53	0x3d482c7e	0.048870556
54	0xbb237200	-0.0024939775
55	0x3db90ce5	0.090356626
56	0xbdaaeb5d	-0.08345673
57	0xbd885800	-0.0665741
58	0x3dc0fa73	0.094227694
59	0x3b8ec930	0.0043574795
60	0x3d80ff09	0.06298644
61	0xbd82a666	-0.06379394
62	0xbb950330	-0.004547499
63	0xbd84cd75	-0.064845
64	0x3cc09954	0.023510613
65	0xbdc4d867	-0.09611588
66	0xbd2d801d	-0.042358506
67	0xbd338bdd	-0.043834556
68	0x3dc93ff1	0.09826649
69	0x3da48911	0.08033956
70	0x3d7dfb2e	0.06200712
71	0xbd9858c5	-0.074388064
72	0xbd16c40c	-0.03680806
73	0xbdac7986	-0.08421616
74	0x3dbc9c5d	0.092095114
75	0x3be4d550	0.0069834366
76	0xbd43ff23	-0.04785074
77	0x3a9fa080	0.001217857
78	0xbd78b473	-0.060718965
79	0x3b28cf40	0.0025758296
80	0xbd67377d	-0.056449402
81	0x3d304272	0.043032117
82	0x3bc47e60	0.0059965104
83	0x3cda2484	0.02662874
84	0xbd180e2a	-0.037122883
85	0x3d6584f6	0.056035005
86	0x3d97b073	0.07406702
87	0x3da10c39	0.078636594
88	0xbd2a7f20	-0.041625142
89	0xbda7a448	-0.08185631
90	0xbd756dd3	-0.05991919
91	0x3d5cb68e	0.053885035
92	0x3dc988cb	0.09840544
93	0x3c4903b0	0.012268946
94	0x3cecf34c	0.028924607
95	0xbdc6076f	-0.096693866
96	0x3d850771	0.0649556
97	0x3d070d96	0.03297194
98	0x3c578ca8	0.013156094
99	0x3cdbd844	0.026836522
100	0xbcd81520	-0.02637726
101	0xbd8b44d0	-0.06800234
102	0xbd8c65f8	-0.068553865
103	0xbd56dd7d	-0.05245732
104	0x3db663ab	0.08905729
105	0xbd55d1fa	-0.052202202
106	0xbd18237a	-0.037143208
107	0x3d0497b2	0.03237123
108	0x3d8483f9	0.06470484
109	0x3d9d801f	0.07690453
110	0x3cbedc60	0.023298442
111	0xbd3e67e0	-0.04648578
112	0xbd6cc7b7	-0.05780765
113	0xbcddf02c	-0.027092062
114	0x3b034fc0	0.0020036548
115	0xbd9b4ee6	-0.07583408
116	0xbdb8f9e7	-0.0903204
117	0xbbf3dc20	-0.0074420124
118	0xbca6da88	-0.020367876
119	0x3dab57c3	0.083663486
120	0x3dabe4b5	0.08393232
121	0x3ceb4f44	0.02872432
122	0x3dadaab1	0.084798224
123	0x3cb6bbcc	0.022306345
124	0xbd28f72d	-0.04125135
125	0xbc284500	-0.010270357
126	0xbcfbe380	-0.030748129
127	0xbd098c00	-0.03358078
128	0x3d615b32	0.05501861
129	0x3d00e292	0.031466074
130	0x3da6d0d7	0.08145302
131	0xbd65b600	-0.05608177
132	0x3d1aef06	0.037825607
133	0x3d213802	0.039360054
134	0x3d4b3f86	0.049621128
135	0xbc24fd68	-0.010070182
136	0xbdb50c3a	-0.08840223
137	0x3d973eb7	0.07385009
138	0xbd839fbd	-0.06426952
139	0x3d0e3712	0.034720488
140	0xbdb390f3	-0.08767881
141	0xbda3cbc5	-0.0799785
142	0xbdc17a55	-0.09447161
143	0x3d45d9ce	0.048303418
144	0x3dc50957	0.09620922
145	0xbbf5dea0	-0.0075033456
146	0x3d9afe79	0.07568068
147	0xbcbdfd28	-0.023192003
148	0x3d4963e6	0.049167536
149	0x3d60271e	0.054724805
150	0x3ce9925c	0.028512172
151	0x3da1d3b7	0.079017095
152	0x3c530768	0.012880184
153	0xbc0f0318	-0.008728765
154	0x3c38a168	0.011268951
155	0x3d367b02	0.044550903
156	0xbcbe2f74	-0.023215987
157	0x3bdb2900	0.006688237
158	0xbd401907	-0.046898868
159	0x3dc07e6d	0.09399114
160	0xbdc287eb	-0.094985805
161	0xbbd2fad0	-0.0064385906
162	0x3d9d0f81	0.07668973
163	0xbd942f13	-0.07235541
164	0x3d9a52d3	0.07535329
165	0xbc610f10	-0.013736501
166	0xbd41d38a	-0.04732088
167	0x3cda9ab4	0.026685096
168	0xbd0aa86a	-0.03385202
169	0x3d80a2a9	0.06281025
170	0x3b132700	0.0022453666
171	0xbdc4d893	-0.09611621
172	0xbd430503	-0.0476122
173	0x3dae9fa5	0.085265435
174	0x3d9fb0c9	0.07797391
175	0xbda6961e	-0.08134101
176	0x3d48505e	0.04890477
177	0x3dae7f95	0.08520428
178	0x3dc46933	0.09590378
179	0x3c2533e8	0.010083176
180	0xbd8db430	-0.06919134
181	0x3dbaa0ef	0.09112727
182	0x3d36a0ce	0.04458695
183	0xbd924558	-0.071421325
184	0xbc8edc74	-0.017439105
185	0xbc9fe920	-0.019520342
186	0x3c10b150	0.008831337
187	0x3da87f19	0.08227367
188	0xbbe354b0	-0.006937586
189	0xbc087480	-0.008328557
190	0x3da7a771	0.08186234
191	0x3cf0ca64	0.029393382
192	0x3d82068d	0.06348906
193	0xbd3896bd	-0.04506563
194	0x3d9bcb29	0.07607109
195	0xbcf501ec	-0.029908143
196	0xbcd09dac	-0.025465809
197	0x3d84dc7d	0.06487367
198	0xbd1af410	-0.037830412
199	0xbdaad112	-0.08340658
200	0x3dc44a91	0.09584535
201	0x3d2cf3c6	0.042224668
202	0x3ccd9fec	0.02510067
203	0x3d828349	0.06372697
204	0xbcb14018	-0.021637008
205	0xbd8f4ccb	-0.06997069
206	0xbd84c2ea	-0.064824894
207	0x3d1955f2	0.03743548
208	0x3c9fdc00	0.019514084
209	0x3ccfe01c	0.025375418
210	0x3d7b4fb6	0.061355315
211	0xbd02f2f0	-0.031969965
212	0x3d0f66fe	0.03501033
213	0x3da04ac1	0.07826758
214	0xbd315097	-0.043289747
215	0xbd47ffd0	-0.048827946
216	0xbd4f0467	-0.050541308
217	0xbc378840	-0.011201918
218	0x3c6c02d8	0.014404975
219	0xbd98fcea	-0.074701145
220	0x3d8a18d7	0.06743019
221	0xbd65ff27	-0.056151535
222	0x3db2bc5d	0.08727334
223	0x3cb13bac	0.0216349
224	0xbd8b1155	-0.06790415
225	0xbd14d8d0	-0.03633958
226	0xbd01ff0a	-0.031737365
227	0xbdb26c90	-0.08712113
228	0xbdc8ebe2	-0.09810616
229	0x3bace860	0.0052767247
230	0xbd01b2bc	-0.031664595
231	0x3dc98613	0.09840026
232	0x3c7f3a40	0.015577853
233	0x3c172ac0	0.009226501
234	0x3d414c06	0.047191642
235	0xbdbf9870	-0.09355247
236	0xbd12841a	-0.035770513
237	0x3da233c1	0.079200275
238	0xbd5fb060	-0.054611564
239	0xba3e3a80	-0.0007256642
240	0xbcc3a898	-0.023884103
241	0xbdba3eb8	-0.09093994
242	0x3d705aa2	0.058680184
243	0x3da18f69	0.078886814
244	0x3d6803be	0.056644194
245	0x3d8f4863	0.069962285
246	0xbd708aca	-0.05872611
247	0x3d279fae	0.040923767
248	0xbb9eef80	-0.004850328
249	0x3d820c41	0.063499935
250	0xbd20be6d	-0.039244104
251	0xbc66f1e8	-0.014095761
252	0xbd0009ea	-0.031259455
253	0xbd662233	-0.05618496
254	0x3c607ce8	0.013701655
255	0xbd17c280	-0.037050724

l3.bias f4 [20]
0	0x3dc706a9	0.09718067
1	0x3d678b5e	0.056529395
2	0xbd72174d	-0.059104253
3	0xbd7c9837	-0.0616686
4	0x3d8b8cf5	0.06813995
5	0x3dbe50a9	0.092927285
6	0xbd9c16cb	-0.07621535
7	0xbbb5ec50	-0.0055518523
8	0x3d9a3c87	0.07531076
9	0x3d9906f1	0.07472027
10	0x3d14a2ca	0.03628806
11	0x3ceb0564	0.028689094
12	0x3dc89a91	0.09795106
13	0xbdadc74d	-0.08485279
14	0xbce16f38	-0.027518854
15	0xbd472770	-0.048621595
16	0xbbaf9960	-0.00535886
17	0x3d3f99ce	0.04677754
18	0x3d5013ca	0.050800122
19	0x3d9bc1cf	0.076053254

output.weight f4 [8, 20]
0	0x3e5876be	0.21139047
1	0xbcbc65e8	-0.022997811
2	0x3d7b4220	0.06134236
3	0x3e5190ac	0.20465344
4	0xbcbade00	-0.022810936
5	0x3d2bb6e8	0.04192248
6	0x3e391470	0.18074203
7	0x3dd5efec	0.10446152
8	0xbe36d9a6	-0.17856464
9	0x3cd71f90	0.026260167
10	0x3cf72a60	0.030171573
11	0x3d9e60b4	0.077332884
12	0x3dcf7e68	0.10131532
13	0xbd99d4ea	-0.07511313
14	0xbdb64fa4	-0.08901909
15	0xbe391c23	-0.1807714
16	0xbdad9f1e	-0.08477615
17	0x3ddff26c	0.1093491
18	0x3b03c880	0.002010852
19	0x3e4824a2	0.19545224
20	0x3bd3b7a0	0.006461099
21	0x3deb8638	0.115002096
22	0xbdefa2f5	-0.117010035
23	0x3d98fe0c	0.074703306
24	0xbe557363	-0.20844798
25	0x39229000	0.00015503168
26	0xbdce7177	-0.100802355
27	0x3e5ce610	0.21572137
28	0xbddd3ab2	-0.10802211
29	0x3e25615a	0.16150418
30	0xbd202d98	-0.03910598
31	0x3dd5130c	0.104040235
32	0x3d1afc18	0.03783807
33	0xbcbd9b58	-0.023145363
34	0xbc0964e0	-0.008385867
35	0x3e033d76	0.12816414
36	0xbe0f9c52	-0.14024475
37	0x3db937e0	0.090438604
38	0x3d0e3670	0.034719884
39	0x3cf07ca0	0.0293563
40	0xbe0a9248	-0.13532364
41	0x3e32ac90	0.1744864
42	0x3d26c798	0.04071769
43	0xbe368331	-0.17823483
44	0x3d082940	0.033242464
45	0x3d920248	0.07129341
46	0xbe61d3c8	-0.22053444
47	0xbe56d931	-0.2098129
48	0x3dfae004	0.12249759
49	0x3decb8b8	0.1155867
50	0x3e3455ec	0.17610902
51	0x3e39b2e0	0.18134642
52	0xbe1b5683	-0.1516972
53	0x3e3d75ae	0.18501922
54	0x3c171760	0.009221882
55	0xbe53e5c2	-0.20693114
56	0xbd7cf730	-0.061759174
57	0xbcca7fe0	-0.024719179
58	0x3d0d04a0	0.03442824
59	0x3d8a036c	0.06738934
60	0x3dae9fe0	0.085265875
61	0x3e0a21fe	0.1348953
62	0x3e42b382	0.1901379
63	0xbe630652	-0.2217038
64	0x3e3646aa	0.17800394
65	0xbe17f546	-0.14839658
66	0xbcf1bdc0	-0.029509425
67	0x3e16edac	0.14739102
68	0xbdf69ed9	-0.120420165
69	0x3e178652	0.14797333
70	0xbcedecf8	-0.02904366
71	0xbe51f952	-0.20505264
72	0x3e2e2bc0	0.17008877
73	0x3df03b40	0.11730051
74	0x3e60c032	0.21948317
75	0xbda78e82	-0.08181478
76	0x3e021564	0.12703472
77	0xbe04d61c	-0.12972301
78	0x3ddb58bc	0.10710284
79	0xbd8bd68a	-0.068280295
80	0xbd0723a0	-0.03299296
81	0x3e462c04	0.19352728
82	0xbded8883	-0.11598303
83	0xbd08d0f0	-0.033402383
84	0x3dde3ab4	0.108510405
85	0x3c1281e0	0.008942097
86	0x3e64b3ee	0.22334263
87	0x3c7f1170	0.015568122
88	0xbd79a604	-0.06094934
89	0xbc9cdb78	-0.01914762
90	0xbe0bf963	-0.13669352
91	0xbe46dc44	-0.19419962
92	0x3d21f968	0.039544493
93	0x3d94dccc	0.07268676
94	0xbcd06b00	-0.025441647
95	0xbe472055	-0.19445927
96	0xbd03f91c	-0.03221999
97	0x3dee20c0	0.1162734
98	0xbba05580	-0.004893005
99	0xbdf2d490	-0.11856949
100	0x3dd3d128	0.10342628
101	0xbe64b990	-0.22336411
102	0xbe56e717	-0.20986591
103	0xbd0719bc	-0.032983527
104	0xbe07243c	-0.13197416
105	0x3e2e6550	0.17030835
106	0x3e1491ce	0.14508745
107	0x3d9f6b54	0.07784143
108	0xbdd15a5b	-0.10222312
109	0x3e53d160	0.20685339
110	0x3e389510	0.18025613
111	0xbd075c08	-0.033046752
112	0xbdc33a34	-0.09532586
113	0x3d377fb0	0.044799507
114	0x3cde3eb0	0.027129501
115	0x3dbeaf54	0.09310785
116	0x3e29f256	0.1659635
117	0xbda20374	-0.07910815
118	0xbe55317e	-0.20819661
119	0x3d707810	0.05870825
120	0x3e2113da	0.15730229
121	0x3df466b0	0.119336486
122	0x3dd7a540	0.10529566
123	0x3e32691e	0.17422912
124	0x3da6667c	0.08125016
125	0xbe32cdd7	-0.17461334
126	0xbd6eda60	-0.058313727
127	0xbe360dd5	-0.17778714
128	0xbd89a2d0	-0.06720507
129	0x3e3fc22a	0.18726411
130	0x3e0d9a04	0.13828284
131	0xbe1550e0	-0.14581633
132	0x3dd08c9c	0.10183069
133	0xbc5eb290	-0.013592377
134	0x3df6740c	0.12033853
135	0x3e2779ac	0.16355008
136	0xbe0c6a81	-0.13712503
137	0x3e271da4	0.16319901
138	0xbe4365e9	-0.19081844
139	0x3cd555e8	0.02604194
140	0x3d009d88	0.031400234
141	0xbdf9e896	-0.12202565
142	0x3de006bc	0.109387845
143	0x3e4b81ca	0.1987373
144	0x3dcd4f84	0.10024932
145	0x3e468616	0.19387087
146	0xbcfa99a0	-0.030590832
147	0x3b15cc00	0.002285719
148	0xbddf194c	-0.10893497
149	0x3e582f16	0.21111712
150	0x3e3a874c	0.18215674
151	0xbd2ccb0c	-0.042185828
152	0x3d92f038	0.07174724
153	0x3d549430	0.051899135
154	0x3e37bb62	0.17942575
155	0xbd10567c	-0.035238728
156	0xbe1024d6	-0.14076552
157	0x3db89674	0.09013072
158	0x3dccff14	0.1000959
159	0xbd1d60a4	-0.03842224

output.bias f4 [8]
0	0x3e05eafa	0.13077918
1	0xbe58d1f5	-0.21173842
2	0xbc0701b0	-0.008240148
3	0x3e1ee42c	0.15516728
4	0xbde7154a	-0.112833574
5	0x3db71460	0.08939433
6	0xbde40bb2	-0.11135043
7	0xbe59091b	-0.2119488
