PINN_experience/saved_model/simpleANNlr=0.001bs=64.pt (torch, 34575 bytes, 8 tensors)

l1.weight f4 [50, 14]
-0.12713675 0.19350246 -0.24519154 0.06460926 -0.12711607 0.032357156 0.21453199 -0.115886435
-0.06867689 0.095369756 0.24018553 -0.060913756 0.1779337 0.208119 -0.12028076 -0.14944224
-0.049006358 -0.14399326 -0.02563174 -0.19794507 -0.09448768 0.056767225 -0.22361088 -0.06572722
-0.07921533 0.22236311 0.2175534 -0.082047716 -0.02293013 0.1835269 -0.07729143 -0.25927648
-0.035312563 0.028151572 -0.049655378 0.23890916 0.13015473 0.14021367 0.1446656 -0.18739584
-0.23883972 -0.086955175 0.1663535 -0.08043368 -0.25162774 0.12399793 -0.09033881 -0.049555212
-0.07646087 0.05620089 -0.06683156 0.032106012 -0.16561994 -0.03384605 0.0024462938 0.16729853
0.09768364 -0.23266152 -0.22181916 -0.24198066 -0.19358155 -0.05452521 -0.24075618 0.02431655
-0.10619649 -0.26214513 0.20690864 0.095631 -0.25283948 -0.15220222 -0.17168471 -0.20643705
-0.2558409 -0.14295545 -0.21929058 0.036438316 0.1583023 0.12472308 -0.101246655 0.19447452
-0.002185762 0.007946581 0.00021657348 0.009993434 -0.24854137 -0.21942274 -0.15648225 -0.09444827
0.21701947 -0.15267825 0.14997011 -0.027185366 -0.23472129 0.21601889 0.04469642 0.21147725
0.077540845 -0.1532211 0.0007684529 -0.106661454 -0.1271038 0.17885989 0.0617193 0.22712371
-0.022233352 0.020717472 -0.18969963 -0.06664279 0.0009766519 -0.009784073 0.24081805 0.04572448
-0.14191929 -0.07774776 0.12357846 -0.15232493 -0.17440979 0.22196046 0.10872477 0.062445432
-0.2029123 0.26403067 0.22731033 -0.16202006 0.17113888 -0.17641863 -0.23552556 0.21418998
0.09907019 -0.10243647 -0.25198534 0.1377646 0.2557489 0.09692052 -0.2661384 0.14788571
0.16000843 0.035224646 0.20324871 0.24311385 -0.0139660835 0.1330617 -0.23135445 0.13485152
0.058331817 -0.2091254 -0.16804874 -0.26574904 -0.18021408 0.0328826 -0.13264273 0.026247174
0.21733963 -0.19763964 0.00719893 0.032036245 -0.10391843 0.09256297 0.24707916 0.2502263
0.1658602 -0.23809516 -0.042450964 -0.26726025 0.21101293 -0.0016986132 -0.093446046 0.08601737
0.21714926 -0.001421988 -0.07887831 0.0886094 0.0039150417 0.1655907 -0.02798517 -0.008214563
0.15963978 -0.21007001 -0.06850886 -0.059532687 -0.23937142 -0.044015065 0.21355549 0.02311781
-0.049791068 -0.04696001 0.04896611 -0.040022463 0.11717588 -0.21976206 -0.18287516 -0.05308804
-0.19338144 -0.027552769 0.22152114 0.030965626 -0.13313375 -0.044735134 0.15105441 0.027333617
0.121101975 -0.054173574 -0.1859357 -0.0961833 -0.005151421 -0.07222256 0.07529533 0.13279104
-0.23194332 -0.043361083 0.063123375 -0.08710298 -0.15374592 -0.13885766 -0.26170418 0.10425308
0.18654361 0.10462555 0.19164515 0.0073437393 0.11683121 0.23178071 -0.1376452 -0.10532226
0.14085546 -0.17456043 -0.08895455 0.18208009 -0.16112079 -0.17491697 0.20482963 -0.13842775
-0.06781533 -0.20794517 0.061562687 0.124569476 0.04260817 0.038313 -0.24976382 0.07276666
-0.047418132 0.2522656 0.12533551 -0.07658082 -0.18512145 0.13062218 0.13574812 0.0076470673
-0.15577474 -0.10790165 -0.24771263 0.049259126 -0.19747266 0.030156732 0.12430641 -0.18856248
00000000: 2330 02be 8225 463e 7e13 7bbe dc51 843d
00000010: b72a 02be f088 043d 46ae 5b3e de55 edbd
00000020: 78a6 8cbd 3851 c33d 32f3 753e b480 79bd
00000030: 4034 363e 261d 553e c255 f6bd 6307 19be
00000040: e4ba 48bd f872 13be a8f9 d1bc 1db2 4abe
00000050: c282 c1bd c084 683d 40fa 64be fe9b 86bd
00000060: a63b a2bd 28b3 633e 52c6 5e3e a208 a8bd
00000070: f8d7 bbbc 7aee 3b3e f84a 9ebd e3bf 84be
00000080: e8a3 10bd 209e e63c 7063 4bbd 9aa4 743e
00000090: 4847 053e 2c94 0f3e 3823 143e b2e4 3fbe
000000a0: 6692 74be 8e15 b2bd 9258 2a3e 6aba a4bd
000000b0: 5ad5 80be a0f2 fd3d 8e03 b9bd 68fa 4abd
000000c0: 8497 9cbd e832 663d fcde 88bd 9881 033d
000000d0: 4698 29be 28a2 0abd 0052 203b 4e50 2b3e
000000e0: 5c0e c83d d23e 6ebe 9024 63be c7c9 77be
000000f0: 3e3a 46be d455 5fbd ca88 76be 8033 c73c
00000100: 8c7d d9bd e337 86be dcdf 533e 30da c33d
00000110: 2d74 81be e6da 1bbe 1ece 2fbe 3c64 53be
00000120: 94fd 82be ea62 12be b68d 60be 5840 153d
00000130: 001a 223e d06e ff3d 685a cfbd 5424 473e
00000140: 003f 0fbb 6032 023c 0018 6339 80bb 233c
00000150: a181 7ebe 5bb0 60be e23c 20be 186e c1bd
00000160: 5a3a 5e3e b057 1cbe c491 193e d8b3 debc
00000170: c75a 70be 0e34 5d3e 9813 373d 7e8d 583e
00000180: bccd 9e3d fee5 1cbe 0072 493a 5271 dabd
00000190: 8027 02be 0c27 373e 60cd 7c3d 1e93 683e
000001a0: b822 b6bc b0b7 a93c 9f40 42be 047c 88bd
000001b0: 0003 803a 604d 20bc 0299 763e 9849 3b3d
000001c0: 4a53 11be 383a 9fbd b416 fd3d 11fb 1bbe
000001d0: 7b98 32be 9a49 633e 18ab de3d c8c6 7f3d
000001e0: 3ec8 4fbe 072f 873e 0ac4 683e 96e8 25be
000001f0: 083f 2f3e 16a7 34be 9d2d 71be 9e54 5b3e
00000200: 50e5 ca3d 36ca d1bd 3904 81be 2a12 0d3e
00000210: 85f1 823e 447e c63d 4b43 88be 5a6f 173e
00000220: 40d9 233e b847 103d 6e20 503e d6f2 783e
00000230: 00d2 64bc 5441 083e 2ee8 6cbe 8416 0a3e
00000240: 58ed 6e3d f824 56be f814 2cbe 4210 88be
00000250: 0a8a 38be e8af 063d 7fd3 07be 5004 d73c
00000260: 488e 5e3e 0c62 4abe 00e5 eb3b 7038 033d
00000270: 30d3 d4bd a891 bd3d 5202 7d3e a91d 803e
00000280: 42d7 293e 38cf 73be 10e1 2dbd 56d6 88be
00000290: c613 583e 00a4 deba a460 bfbd e029 b03d
000002a0: 605c 5e3e 0062 baba f48a a1bd d878 b53d
000002b0: c049 803b 9c90 293e 2841 e5bc 6096 06bc
000002c0: 9c78 233e 981c 57be 604e 8cbd 8cd8 73bd
000002d0: c81d 75be 2449 34bd 4aae 5a3e 9061 bd3c
000002e0: b8f1 4bbd 2459 40bd b090 483d 98ee 23bd
000002f0: e8f9 ef3d 4e09 61be a043 3bbe d872 59bd
00000300: c905 46be 58b6 e1bc 70d6 623e a0ab fd3c
00000310: 3754 08be 303c 37bd 02ae 1a3e c0ea df3c
00000320: 5004 f83d 1ce5 5dbd ee65 3ebe c0fb c4bd
00000330: 40cd a8bb 6ce9 93bd 7034 9a3d 60fa 073e
00000340: 8d82 6dbe 649b 31bd d446 813d 0c63 b2bd
00000350: 926f 1dbe b430 0ebe 17fe 85be a482 d53d
00000360: 4a05 3f3e ec45 d63d a03e 443e c0a3 f03b
00000370: 3445 ef3d ec57 6d3e ddf2 0cbe 32b3 d7bd
00000380: 6a3c 103e f8bf 32be ce2d b6bd 3473 3a3e
00000390: d9fc 24be 6f1d 33be dcbe 513e 01c0 0dbe
000003a0: c4e2 8abd 94ef 54be 2829 7c3d 481e ff3d
000003b0: e885 2e3d 18ee 1c3d 16c2 7fbe b006 953d
000003c0: 8439 42bd f528 813e f457 003e 68d6 9cbd
000003d0: 7a90 3dbe d2c1 053e 8e01 0b3e 4094 fa3b
000003e0: 6a83 1fbe 8afb dcbd 61a8 7dbe f0c3 493d
000003f0: 4636 4abe 400b f73c 5c94 fe3d 8616 41be

l1.bias f4 [50]
-0.26126668 0.18197769 0.16974863 -0.16697666 0.11937785 0.014025331 0.010717928 -0.1722803
-0.05201289 -0.0065635443 0.08663529 0.07534164 0.11638197 0.13725683 -0.20757699 0.25913015
0.01174745 0.17630687 -0.104653224 -0.0031575263 0.03593421 0.26546887 -0.17424196 0.17565328
-0.06069112 0.23245868 0.10461038 -0.059248134 0.10625109 0.0038947165 -0.23898764 -0.14966685
0.0077648163 0.02903533 0.24531075 -0.16854486 -0.25007167 -0.2598438 -0.09110612 -0.14427556
0.18950093 0.2523329 0.21810365 -0.25718993 0.24058196 -0.010645777 -0.18713805 0.087586194
0.11822462 -0.057138726
00000000: bfc4 85be 5c58 3a3e 96d2 2d3e eefb 2abe
00000010: 607c f43d 80ca 653c 409a 2f3c 3f6a 30be
00000020: 780b 55bd 0013 d7bb d86d b13d b84c 9a3d
00000030: ac59 ee3d 0e8d 0c3e 108f 54be b5ac 843e
00000040: 6078 403c ca89 343e 6e54 d6bd 80ee 4ebb
00000050: c02f 133d 89eb 873e 7c6c 32be 74de 333e
00000060: 4097 78bd a609 6e3e f83d d63d 2cae 72bd
00000070: 2c9a d93d 803e 7f3b 2db9 74be 4442 19be
00000080: 0070 fe3b 80db ed3c be32 7b3e 0697 2cbe
00000090: 6509 80be 3f0a 85be d895 babd f9bc 13be
000000a0: 880c 423e c731 813e 9056 5f3e 66ae 83be
000000b0: 1e5b 763e a06b 2ebc 1ea1 3fbe 6460 b33d
000000c0: c01f f23d 4c0a 6abd

l2.weight f4 [100, 50]
-0.0778702 -0.13822463 0.09733851 -0.10657617 0.11089949 0.08207525 -0.12625143 0.08076905
-0.025604852 0.019912168 -0.07992358 0.098563075 -0.059996225 -0.055304863 0.09076165 0.09819245
-0.12471263 0.13556705 0.006780848 0.007052988 0.10057542 -0.009642363 -0.077340856 -0.045524888
-0.10911031 -0.04223212 -0.06325774 -0.026912197 0.11952202 -0.029211424 -0.09314368 -0.12772892
-0.12490988 0.057210863 -0.04349304 0.026746482 -0.020613655 0.053118676 -0.06622375 0.0022738576
-0.016364515 0.12738557 0.08169237 0.08972028 0.02303204 -0.081103034 0.00842008 -0.10374065
-0.009143516 -0.08366327 0.04065773 -0.072909266 0.11426325 -0.02135215 -0.07100109 0.0874683
-0.035050973 0.12421997 -0.083992705 -0.14112881 -0.08879121 -0.103478424 0.10726781 0.027291745
0.011260554 -0.072282456 -0.040161192 0.08643368 0.049233988 0.017526686 0.09755997 -0.11787701
-0.06945997 -0.05365272 -0.013865992 -0.0073444247 0.12677984 0.09693006 -0.010661215 0.124595895
0.12052031 -0.10909177 0.09092404 0.1053168 -0.12807071 0.029478133 -0.13816884 0.07977243
0.0932762 -0.04819507 -0.11368113 0.03130302 0.081107065 -0.12028893 0.05395651 -0.061736114
0.014097542 -0.06440597 -0.070786275 -0.09225118 -0.056718417 0.032612726 0.12758751 0.051299557
0.08115581 0.01956129 -0.03417617 -0.032945015 -0.019587398 0.07236214 0.12486388 -0.09756795
0.07574949 0.13250546 0.0032386184 -0.08189134 0.03920576 -0.006912887 -0.09735319 -0.008344412
0.043103665 0.048367843 0.084206 -0.002771914 0.037099168 0.034856528 -0.025300719 -0.10354367
0.06486885 -0.010933995 -0.13314159 0.13847075 0.11532752 -0.044751883 -0.12627348 -0.026834108
-0.111748025 0.07382381 -0.081343636 -0.07398111 0.067496225 0.054099828 -0.045069635 -0.054206043
0.019428909 0.11333357 -0.08309997 0.07603541 -0.003696546 -0.12042424 -0.049383953 -0.090893306
-0.03473995 0.07008934 -0.0831901 0.0023148507 -0.06224122 0.09777859 -0.030666992 0.023926273
0.075819165 0.08657467 -0.0019418448 -0.11293437 -0.047380492 -0.013621151 0.06352234 -0.0696033
0.11583026 0.049982354 0.015060216 0.104079664 -0.13968939 -0.046201967 0.11150767 0.08353418
0.12688251 -0.043649115 -0.050978824 -0.10733333 -0.067820504 0.11275895 -0.05587688 0.041210666
-0.09370707 -0.122217186 -0.041932866 -0.043860592 0.14132588 0.0039494783 -0.12320401 -0.08071378
-0.13909966 -0.11295487 -0.07085654 0.1136374 -0.07085439 -0.10997373 -0.119309 0.084545195
0.12924175 -0.112367935 -0.12393665 -0.054620788 -0.010109454 0.009306654 0.115697846 0.107920095
-0.077266134 0.04210566 0.11560966 0.022155493 0.093265176 0.004455805 -0.094793126 -0.11742996
0.120076045 -0.017825894 -0.06800873 0.07914041 -0.075029776 0.07037465 -0.05569374 0.089081466
-0.022403024 -0.07806148 0.017096251 0.023378998 0.034020692 0.049119458 0.063672245 -0.13699302
-0.06014256 -0.027128324 0.0846822 -0.127893 0.017548576 -0.13222109 0.015273064 0.10876696
0.11964406 0.042161927 -0.036819316 0.09966251 -0.04037618 -6.136298e-05 -0.040753074 -0.12422017
-0.019884229 0.059572786 -0.08666672 0.05029306 -0.024194144 0.080360696 -0.07235749 -0.08364853
00000000: 697a 9fbd c28a 0dbe 6a59 c73d 9b44 dabd
00000010: 461f e33d 1217 a83d 0e48 01be 3e6a a53d
00000020: 44c1 d1bc d81e a33c f9ae a3bd 70db c93d
00000030: 9abe 75bd 5a87 62bd 3ee1 b93d 2019 c93d
00000040: 5669 ffbd 17d2 0a3e e031 de3b c01c e73b
00000050: 7cfa cd3d 00fb 1dbc e264 9ebd 4e78 3abd
00000060: 3a75 dfbd 96fb 2cbd 468d 81bd f876 dcbc
00000070: f6c7 f43d cc4c efbc 1dc2 bebd 5fcb 02be
00000080: c0d0 ffbd f055 6a3d c225 32bd 701b db3c
00000090: f8dd a8bc f892 593d 51a0 87bd 0005 153b
000000a0: e00e 86bc 5d71 023e 544e a73d 44bf b73d
000000b0: b0ad bc3c 5919 a6bd 60f4 093c fa75 d4bd
000000c0: b0ce 15bc a657 abbd b888 263d 7451 95bd
000000d0: da02 ea3d b4ea aebc 0569 91bd 9422 b33d
000000e0: 9c91 0fbd 0a67 fe3d 5e04 acbd 1284 10be
000000f0: 2ad8 b5bd 7fec d3bd 3aaf db3d f092 df3c
00000100: 307e 383c d308 94bd 1080 24bd 2404 b13d
00000110: 94a9 493d 2094 8f3c 86cd c73d 8069 f1bd
00000120: 0741 8ebd f4c2 5bbd 302e 63bc 80a9 f0bb
00000130: 93d2 013e 4483 c63d 60ac 2ebc 222c ff3d
00000140: 5ad3 f63d 826b dfbd 6236 ba3d 56b0 d73d
00000150: f824 03be 207c f13c 227c 0dbe ba5f a33d
00000160: 9807 bf3d 3268 45bd a7d1 e8bd 9837 003d
00000170: 761b a63d 0b5a f6bd 8001 5d3d 02df 7cbd
00000180: 60f9 663c 47e7 83bd 65f8 90bd 30ee bcbd
00000190: 9251 68bd ec94 053d 4da6 023e 7c1f 523d
000001a0: 0435 a63d 003f a03c 50fc 0bbd 5af1 06bd
000001b0: c075 a0bc 9a32 943d a2b8 ff3d b5d1 c7bd
000001c0: 8c22 9b3d 83af 073e 003f 543b a6b6 a7bd
000001d0: 3896 203d 8085 e2bb 1c61 c7bd 00b7 08bc
000001e0: 788d 303d 5c1d 463d 3274 ac3d 00a9 35bb
000001f0: 4cf5 173d b8c5 0e3d 7443 cfbc b40e d4bd
00000200: f6d9 843d 8024 33bc 4556 08be 47cb 0d3e
00000210: d630 ec3d c04d 37bd d64d 01be 34d3 dbbc
00000220: 26dc e4bd f030 973d 7e97 a6bd 6883 97bd
00000230: 763b 8a3d c897 5d3d f09a 38bd 2807 5ebd
00000240: 6029 9f3c 6e1b e83d 5130 aabd 74b8 9b3d
00000250: c041 72bb fca0 f6bd d446 4abd 4526 babd
00000260: 7a4b 0ebd 008b 8f3d 925f aabd c0b4 173b
00000270: a6f0 7ebd 2440 c83d 5839 fbbc 0801 c43c
00000280: 1447 9b3d 104e b13d 8085 feba 234a e7bd
00000290: 0c12 42bd 402b 5fbc 0018 823d 2d8c 8ebd
000002a0: 6a38 ed3d 4cba 4c3d 20bf 763c b827 d53d
000002b0: bc0a 0fbe 463e 3dbd 225e e43d f813 ab3d
000002c0: 7ded 013e 6ac9 32bd 2ccf 50bd 94d1 dbbd
000002d0: 7ae5 8abd 2aee e63d 28df 64bd 84cc 283d
000002e0: 7ee9 bfbd 014d fabd ccc1 2bbd 2aa7 33bd
000002f0: bbb7 103e a06a 813b 6252 fcbd 444d a5bd
00000300: 2470 0ebe e254 e7bd 3c1d 91bd baba e83d
00000310: 1b1c 91bd e839 e1bd 4758 f4bd 0826 ad3d
00000320: f357 043e 2921 e6bd 80d2 fdbd 0cba 5fbd
00000330: 20a2 25bc f07a 183c fef2 ec3d 3605 dd3d
00000340: b53d 9ebd fc76 2c3d c2c4 ec3d 707f b53c
00000350: d001 bf3d 0002 923b e622 c2bd 1e7f f0bd
00000360: 6eea f53d 9c07 92bc 2948 8bbd 5e14 a23d
00000370: 36a9 99bd 9620 903d 1e1f 64bd 5870 b63d
00000380: 8c86 b7bc b2de 9fbd 700d 8c3c 5085 bf3c
00000390: 4859 0b3d 7c31 493d 9866 823d e647 0cbe
000003a0: 0c58 76bd 383c debc dc6d ad3d 62f6 02be
000003b0: 08c2 8f3c f764 07be e03b 7a3c 36c1 de3d
000003c0: f207 f53d fcb1 2c3d dacf 16bd dc1b cc3d
000003d0: 7e61 25bd 00b0 80b8 b2ec 26bd 2567 febd
000003e0: 40e4 a2bc 9802 743d 527e b1bd 1800 4e3d
000003f0: cc32 c6bc 2694 a43d 2a30 94bd ec4f abbd

l2.bias f4 [100]
0.09543082 -0.044830658 0.050432578 0.04777704 -0.066663474 0.0671061 -0.0536685 -0.07519162
-0.044492155 -0.015645295 -0.13505979 -0.10931474 0.060118034 0.054229707 0.11187659 -0.11301425
-0.011610448 0.015587747 0.049426913 0.014115438 -0.071496315 -0.13026938 -0.0046319216 0.08089711
-0.13136286 0.09103075 0.091183335 -0.022692911 -0.007780209 0.05971642 0.019710258 0.1320747
-0.053540662 0.064179346 0.058475316 -0.083647236 0.062938616 -0.09187408 -0.06305278 0.02843523
0.12538357 0.09449194 -0.10114907 -0.026396468 0.07837856 -0.02054979 -0.115655445 0.064532116
-0.10985356 -0.11692733 -0.09889841 0.11931859 -0.04712957 -0.13820821 -0.030595832 -0.103260174
0.03439109 -0.06842956 -0.09637791 -0.0867 0.10867818 -0.018660903 0.13091968 0.0011625737
-0.092711404 0.06216988 -0.09407845 -0.05716458 0.027649626 0.11182822 -0.052263103 -0.015436634
-0.019128278 -0.024461225 -0.048072293 0.039033532 -0.12741613 -0.09310337 -0.01926811 0.033769473
-0.10491851 -0.11832428 0.1286463 0.0074846894 -0.027641341 -0.1371083 -0.09640241 0.03826943
-0.098266244 -0.02310922 0.12388651 -0.011629209 -0.1187367 0.09193796 0.01089111 0.081947505
-0.078868106 0.12957387 -0.109962985 -0.09050112
00000000: 3c71 c33d 5aa0 37bd 6492 4e3d dcb1 433d
00000010: dc86 88bd ec6e 893d 80d3 5bbd 10fe 99bd
00000020: 683d 36bd 902a 80bc 1d4d 0abe 68e0 dfbd
00000030: 543e 763d f81f 5e3d 8e1f e53d 0474 e7bd
00000040: c039 3ebc c063 7f3c e073 4a3d 7044 673c
00000050: a96c 92bd 5665 05be 60c7 97bb 62ad a53d
00000060: fc83 06be 546e ba3d 54be ba3d 7ce6 b9bc
00000070: 20f1 febb 3499 743d 6877 a13c 973e 073e
00000080: 744d 5bbd 7670 833d d083 6f3d 3e4f abbd
00000090: f6e5 803d 7a28 bcbd d121 81bd 00f1 e83c
000000a0: 8d64 003e fe84 c13d 3e27 cfbd 683d d8bc
000000b0: f084 a03d 0858 a8bc c3dc ecbd 6a29 843d
000000c0: e7fa e0bd 9977 efbd 408b cabd 4e5d f43d
000000d0: f00a 41bd 7486 0dbe 1ca4 fabc 127a d3bd
000000e0: acdd 0c3d cc24 8cbd c861 c5bd c58f b1bd
000000f0: aa92 de3d c0de 98bc cf0f 063e 8061 983a
00000100: 7adf bdbd d8a5 7e3d 34ac c0bd 6825 6abd
00000110: 7881 e23c 3206 e53d d611 56bd f0e9 7cbc
00000120: e8b2 9cbc e862 c8bc 74e7 44bd a0e1 1f3d
00000130: 6079 02be fbac bebd 28d8 9dbc dc51 0a3d
00000140: 84df d6bd 0054 f2bd dbbb 033e 2042 f53b
00000150: 1870 e2bc 1e66 0cbe a06e c5bd 68c0 1c3d
00000160: d03f c9bd 8c4f bdbc 36b8 fd3d 7088 3ebc
00000170: 3a2c f3bd f849 bc3d a070 323c 18d4 a73d
00000180: 9a85 a1bd 03af 043e 4634 e1bd a758 b9bd

l3.weight f4 [20, 100]
0.016453005 -0.03551425 -0.09363927 0.0131016 -0.054715525 -0.0056919456 -0.03693621 -0.024282753
0.03598676 0.098252304 -0.05268978 -0.026626632 0.09046427 0.026747443 0.01900421 0.017715596
0.088126116 0.025354601 0.08681571 -0.06860924 0.06950437 -0.049329877 0.08038018 0.09445921
0.09425489 -0.06411022 -0.06808293 -0.014179304 -0.09723288 0.042295538 -0.017930366 -0.05637033
-0.08424386 -0.080926955 -0.038318753 0.06338035 -0.024341658 -0.012710825 -0.0017729774 0.03831131
0.018142082 -0.078260586 -0.03518375 0.017849945 0.045460977 0.0119174495 -0.06508422 0.09888554
0.08475482 -0.07628332 -0.08435096 -0.004847035 -0.0013299361 -0.034338154 -0.02481763 0.08799619
0.011860117 0.072900064 0.019675985 -0.013618909 -0.0121939555 -0.0677897 -0.08822431 -0.0500245
-0.009354174 0.07667834 -0.09581263 -0.01674372 0.017514482 0.0764006 0.07745426 -0.083277866
-0.01407852 -0.046766352 0.005627021 0.07973934 -0.07216303 0.025679223 -0.05831964 0.016854092
0.049690537 -0.072326995 -0.034050643 0.07897074 0.017345764 0.043940596 0.06713582 -0.033773348
-0.0012667626 -0.0047252327 0.095378704 -0.06655443 -0.082260475 0.09909523 0.051268063 0.05818341
-0.008297801 -0.017995715 -0.07937171 -0.00301297 0.07203723 -0.024511456 0.027291022 0.027532987
-0.077056445 -0.09196041 -0.043182086 -0.06922112 -0.001551047 0.065765105 0.07518173 0.030710064
0.058637924 -0.0375968 0.025240548 -0.027374208 -0.0064253956 -0.055376757 0.007671334 0.036680527
0.013934553 -0.0948615 -0.09084902 0.084786795 -0.027430847 0.0518116 0.05992564 0.067771964
0.087609716 0.038213693 0.05839012 -0.0054020286 0.074890204 0.04040671 0.08676813 -0.06398618
0.017607115 -0.08446051 -0.06630705 0.00054329634 -0.058675554 -0.098104075 0.014169276 0.09039465
-0.039504256 -0.06675069 -0.08707032 0.09439508 -0.05208912 0.07078826 -0.0482386 0.07858013
0.018261947 0.026673324 -0.059165586 -0.09447523 -0.074534535 0.039001055 0.056877874 -0.013009176
0.07282511 0.028547518 0.035898454 0.011887893 -0.044528354 0.09533361 0.011934139 -0.044168472
0.031755723 -0.041834462 -0.00881958 -0.030222476 0.038605355 0.01019875 0.031110175 -0.024246491
0.07080931 0.07357056 -0.08613402 -0.035957918 -0.030529812 -0.060876023 -0.048474886 0.08833548
-0.03542365 -0.06381744 -0.005516723 0.062137194 -0.08490759 -0.07068735 -0.00657326 0.029976346
0.05594898 -0.021416664 -0.066673085 0.06521664 -0.09220349 -0.04263648 -0.09441393 -0.09001559
0.07838156 0.00020086765 0.09578692 0.06649529 -0.067228675 0.05642671 0.06731645 0.019704022
0.07057343 0.006541431 -0.04325372 -0.0028894767 0.09268861 0.098934226 0.09664125 0.029867359
0.06929291 0.048378296 -0.0370839 0.0844953 -0.0012034997 -0.008958086 0.084361635 0.07977278
-0.025021292 0.081396796 0.078873195 0.0028102174 -0.021770917 0.034252442 -0.06633827 -0.007507518
0.0076181144 0.07598961 0.012292981 -0.0015230626 0.054796822 -0.018572494 0.067382224 0.07527942
-0.0012983903 0.076923914 -0.07262434 0.025538452 -0.06287333 -0.066028275 -0.0037542954 -0.01798223
-0.024797037 -0.07308321 -0.08665227 -0.009908184 -0.005112961 -0.03516777 -0.013624154 -0.019044325
00000000: 74c8 863c 6477 11bd f2c5 bfbd 18a8 563c
00000010: 631d 60bd 8083 babb 6c4a 17bd a0ec c6bc
00000020: da66 133d 8138 c93d 3dd1 57bd 1820 dabc
00000030: 5545 b93d 741d db3c b8ae 9b3c 4c20 913c
00000040: 777b b43d 74b4 cf3c 6fcc b13d 0083 8cbd
00000050: 4f58 8e3d 200e 4abd 5d9e a43d d573 c13d
00000060: b508 c13d 384c 83bd 106f 8bbd 5050 68bc
00000070: 0822 c7bd 163e 2d3d b4e2 92bc 93e4 66bd
00000080: 0b88 acbd 08bd a5bd 20f4 1cbd 8fcd 813d
00000090: 2868 c7bc 1041 50bc 4063 e8ba 52ec 1c3d
000000a0: b49e 943c 1647 a0bd d61c 10bd 0c3a 923c
000000b0: 4a35 3a3d 6841 433c e04a 85bd 8184 ca3d
000000c0: ef93 ad3d 6e3a 9cbd 32c0 acbd e0d3 9ebb
000000d0: 4051 aeba 2aa6 0cbd 584e cbbc 5937 b43d
000000e0: f050 423c a14c 953d 882f a13c d821 5fbc
000000f0: 28c9 47bc 54d5 8abd f2ae b4bd 7de6 4cbd
00000100: 4042 19bc 8909 9d3d 6a39 c4bd 202a 89bc
00000110: 887a 8f3c eb77 9c3d 57a0 9e3d 968d aabd
00000120: 98a9 66bc 138e 3fbd e062 b83b 614e a33d
00000130: 36ca 93bd 3c5d d23c 93e0 6ebd 9811 8a3c
00000140: 4e88 4b3d 2d20 94bd b078 0bbd 69bb a13d
00000150: b418 8e3c 0efb 333d 817e 893d ec55 0abd
00000160: 8009 a6ba 20d6 9abb e955 c33d b04d 88bd
00000170: 2e78 a8bd 71f2 ca3d 76fe 513d ba51 6e3d
00000180: 80f3 07bc c06b 93bc a38d a2bd 4075 45bb
00000190: 4188 933d 40cc c8bc 6c91 df3c dc8c e13c
000001a0: c5cf 9dbd bd55 bcbd b3df 30bd cdc3 8dbd
000001b0: 804c cbba dbaf 863d e1f8 993d ac93 fb3c
000001c0: 522e 703d 1aff 19bd 44c5 ce3c e03f e0bc
000001d0: 208c d2bb bdd2 62bd d05f fb3b 523e 163d
000001e0: c04d 643c bf46 c2bd 0d0f babd b3a4 ad3d
000001f0: a8b6 e0bc 6638 543d 9674 753d 07cc 8a3d
00000200: b96c b33d f685 1c3d 7a2a 6f3d 8003 b1bb
00000210: 0960 993d 8281 253d 7db3 b13d 300b 83bd
00000220: cc3c 903c a2f9 acbd fecb 87bd 006c 0e3a
00000230: c755 70bd caea c8bd 4026 683c d520 b93d
00000240: 37cf 21bd 96b4 88bd ed51 b2bd 3552 c13d
00000250: 675b 55bd 6ff9 903d d795 45bd 9fee a03d
00000260: 149a 953c 0482 da3c 9d57 72bd 3b7c c1bd
00000270: 90a5 98bd 92bf 1f3d c6f8 683d 7024 55bc
00000280: 5525 953d 7cdc e93c 420a 133d 70c5 423c
00000290: 5d63 36bd 453e c33d 6887 433c 00ea 34bd
000002a0: 4a12 023d 9d5a 2bbd 0080 10bc 2095 f7bc
000002b0: a620 1e3d a818 273c c4da fe3c 94a0 c6bc
000002c0: 7904 913d 29ac 963d 0867 b0bd 9c48 13bd
000002d0: a819 fabc 2359 79bd 9a8d 46bd 3be9 b43d
000002e0: 6418 11bd b8b2 82bd a0c5 b4bb 9283 7e3d
000002f0: 08e4 adbd 88c4 90bd 8064 d7bb f490 f53c
00000300: c22a 653d 0072 afbc e68b 88bd 4d90 853d
00000310: 2fd5 bcbd 97a3 2ebd 175c c1bd 185a b8bd
00000320: 8386 a03d 00a0 5239 ef2b c43d af2e 883d
00000330: 30af 89bd b21f 673d 35dd 893d 546a a13c
00000340: cd88 903d 8059 d63b d02a 31bd 605d 3dbb
00000350: 87d3 bd3d 079e ca3d d9eb c53d 64ac f43c
00000360: 71e9 8d3d 5228 463d 4ae5 17bd df0b ad3d
00000370: c0be 9dba f0c4 12bc cbc5 ac3d e95f a33d
00000380: 74f9 ccbc 5db3 a63d 4588 a13d a02b 383b
00000390: ec58 b2bc 4a4c 0c3d 5cdc 87bd a001 f6bb
000003a0: 60a1 f93b 71a0 9b3d 8068 493c 80a1 c7ba
000003b0: a272 603d 5825 98bc b1ff 893d 192c 9a3d
000003c0: c02e aaba 498a 9d3d 12bc 94bd 0436 d13c
000003d0: bcc3 80bd d539 87bd a00a 76bb 784f 93bc
000003e0: 2823 cbbc a6ac 95bd bf76 b1bd f055 22bc
000003f0: a08a a7bb 140c 10bd d837 5fbc d802 9cbc

l3.bias f4 [20]
0.083608486 -0.07133684 0.011944197 -0.062059905 0.050982513 0.07846033 0.09600318 0.06187167
-0.07425487 0.05374009 -0.01996386 0.0041701198 -0.0651084 0.013933994 0.06841395 0.00060055405
0.06671486 -0.07196958 0.012081943 -0.09600438
00000000: ed3a ab3d 0d19 92bd 98b1 433c 8732 7ebd
00000010: 0ad3 503d cfaf a03d 519d c43d 266d 7d3d
00000020: f012 98bd 921e 5c3d 408b a3bc 80a5 883b
00000030: 8e57 85bd 684b 643c 9d1c 8c3d 806e 1d3a
00000040: cda1 883d ca64 93bd 58f3 453c f29d c4bd

output.weight f4 [8, 20]
0.11212358 -0.046689883 -0.038792253 -0.02810508 -0.021759406 -0.13755408 -0.06686233 0.16717458
0.17704001 -0.10812351 0.13862747 0.06424698 0.0759497 0.051636457 0.017868295 -0.1610463
0.08314571 0.013847664 -0.22130094 0.19968355 -0.20028007 0.19137514 -0.123314925 -0.21757767
0.027204603 0.123661995 0.04028368 -0.14628354 -0.18917121 -0.049953252 -0.014039725 0.19061854
0.11425266 -0.015213057 -0.024794534 0.14717603 -0.17218632 -0.14675131 0.19849885 -0.184051
0.13549241 0.055380493 0.20314437 0.114402026 -0.20399652 0.028756231 -0.096871376 0.047493845
-0.2187703 0.17163038 -0.123579755 -0.18367133 0.18396306 -0.14930618 -0.14160545 0.1908561
0.004579231 0.13900161 0.11978656 0.18824026 -0.09134321 -0.1274041 -0.1729093 0.11008221
0.17414224 0.06824756 0.1279329 -0.14151418 0.010621935 -0.15468445 -0.118844606 0.005599171
-0.10182091 -0.21487856 -0.19747463 0.12554151 -0.011855766 0.11302167 0.14084321 0.09478092
-0.12406548 0.19100815 0.006013781 0.030388445 0.12033048 -0.12854463 0.06355053 -0.15140404
-0.21097206 -0.1647269 -0.17302391 -0.13051157 -0.20127735 -0.1170984 -0.011625722 0.11094311
0.18425739 -0.21952227 0.097834885 0.018552661 -0.06381312 -0.091415286 -0.14893174 0.02802208
-0.08323386 0.18357998 -0.017482474 0.1566568 0.20678678 0.18872166 -0.16806477 -0.1402577
-0.08673921 -0.19115126 -0.060495973 0.1641866 0.017953962 0.043474168 0.18719184 -0.17080012
-0.08230573 0.12570009 0.11244169 -0.18404566 -0.09812623 -0.14679044 -0.22035663 0.06435335
0.2115787 -0.059088394 -0.17405045 0.1819869 -0.04952748 0.19627753 -0.03294432 0.20634493
-0.12011304 0.03871402 -0.19817595 -0.2190121 0.13536116 -0.21719597 0.0043337643 -0.12617454
-0.20842111 -0.1551584 0.14764336 -0.11350336 -0.21991798 0.12587571 0.07692093 0.17991683
-0.18087828 0.060811073 -0.08601214 -0.0027140826 0.099229485 -0.17829406 0.030158639 -0.09958839
00000000: 0ca1 e53d e43d 3fbd a0e4 1ebd a03c e6bc
00000010: c840 b2bc fada 0cbe 1eef 88bd d02f 2b3e
00000020: fa49 353e dc6f ddbd 5cf4 0d3e ec93 833d
00000030: 848b 9b3d c080 533d 8860 923c 52e9 24be
00000040: 4c48 aa3d 50e1 623c b79c 62be d879 4c3e
00000050: 3816 4dbe d8f7 433e 898c fcbd aecc 5ebe
00000060: 30dc de3c 8042 fd3d 8000 253d 5acb 15be
00000070: 19b6 41be c89b 4cbd e006 66bc 8231 433e
00000080: 4cfd e93d 3040 79bc e81d cbbc 50b5 163e
00000090: 9c51 30be fa45 16be 4843 4b3e de77 3cbe
000000a0: 86be 0a3e a8d6 623d 1405 503e 9c4b ea3d
000000b0: 77e4 50be 3092 eb3c 8064 c6bd e888 423d
000000c0: 5205 60be e0bf 2f3e 6217 fdbd 5614 3cbe
000000d0: d060 3c3e b8e3 18be 0501 11be c86f 433e
000000e0: 600d 963b 7056 0e3e a852 f53d 0ec2 403e
000000f0: 2612 bbbd 3876 02be 230f 31be c872 e13d
00000100: 5852 323e 60c5 8b3d d800 033e 18e9 10be
00000110: a007 2e3c 9a65 1ebe cd64 f3bd 4079 b73b
00000120: 7b87 d0bd 2009 5cbe ca36 4abe f48d 003e
00000130: b03e 42bc e877 e73d 3439 103e 801c c23d
00000140: 0b16 febd a497 433e 400f c53b 30f1 f83c
00000150: d46f f63d 34a1 03be c826 823d a909 1bbe
00000160: 0f09 58be 2bae 28be 2e2d 31be d3a4 05be
00000170: a61b 4ebe 49d1 efbd d079 3ebc 2436 e33d
00000180: f8ad 3c3e 72ca 60be a85d c83d c0fb 973c
00000190: 74b0 82bd f037 bbbd 9081 18be 908e e53c
000001a0: 8476 aabd 64fc 3b3e 6837 8fbc a46a 203e
000001b0: eabf 533e 4040 413e 2c19 2cbe b79f 0fbe
000001c0: 54a4 b1bd 28bd 43be a0ca 77bd 8820 283e
000001d0: 3014 933c f811 323d 38af 3f3e 3ae6 2ebe
000001e0: e88f a8bd 86b7 003e d447 e63d 7776 3cbe
000001f0: 68f6 c8bd 3c50 16be 2ba5 61be b0cb 833d
00000200: 16a8 583e ac06 72bd 483a 32be c65a 3a3e
00000210: 54dd 4abd fafc 483e a0f0 06bd 164c 533e
00000220: d3fd f5bd 9892 1e3d a3ee 4abe b544 60be
00000230: 1e9c 0a3e 9f68 5ebe 4002 8e3b e633 01be
00000240: 586c 55be d8e1 1ebe d22f 173e 7374 e8bd
00000250: 2e32 61be 90e5 003e b888 9d3d 1e3c 383e
00000260: 2838 39be 0815 793d 2227 b0bd c0de 31bb
00000270: d438 cb3d b892 36be 400f f73c fff4 cbbd

output.bias f4 [8]
-0.03348829 -0.21579951 -0.16775161 0.19214672 -0.046962366 0.21149758 -0.10224402 -0.01712963
00000000: 042b 09bd 8cfa 5cbe 14c7 2bbe 1cc2 443e
00000010: 9c5b 40bd d292 583e 5065 d1bd 7053 8cbc
