PINN_experience/saved_model/simpleANNlr=0.002bs=64MSELoss.pt (torch, 43151 bytes, 8 tensors)

l1.weight f4 [50, 30]
0.13791293 -0.14960602 -0.012827933 -0.14693223 -0.17312425 0.12804854 0.12541947 0.0175471
-0.03984365 -0.07914648 -0.13772263 -0.1630616 0.012923628 -0.005577758 0.065047204 0.051760837
0.11708507 -0.04893087 0.04774311 0.13693285 -0.10367621 0.11482084 -0.15394151 0.10004139
-0.055616662 0.06527144 0.06248197 -0.06687873 0.017454863 -0.08268559 0.08032504 -0.022414535
0.15366864 0.11150497 -0.056529492 0.12178111 -0.082908094 -0.071226805 0.0043436587 -0.012062907
-0.17191568 0.15484637 0.04837872 -0.04971558 0.046875045 0.050092667 -0.034689456 0.08133221
-0.07785339 -0.14421377 0.13379434 -0.13443094 0.14628285 0.084676325 0.024687335 -0.17173263
-0.06729225 0.077735275 -0.09032506 0.086232305 -0.048390776 -0.12188157 0.15328279 0.1557526
-0.09268043 0.0063566417 -0.14845785 0.15393704 -0.036734074 0.14168814 -0.051997796 0.102742314
-0.15703985 -0.10847287 -0.0360779 0.1690197 0.0043392777 0.15362889 0.047197968 -0.051489025
0.04445897 -0.030280456 0.07989329 0.11392361 -0.007914826 -0.072002925 0.1773366 0.044521406
0.11441055 -0.11408503 0.07364714 0.13663784 -0.17198893 -0.10185675 0.18051982 -0.15665828
-0.025521517 0.00037683547 -0.117911234 0.16540986 -0.0025937408 0.16724494 0.12693107 -0.12138605
-0.12531935 -0.13892423 0.053480506 -0.16928619 -0.010742173 -0.090930566 0.1025078 -0.024560913
-0.013485983 -0.09157645 0.085882336 0.011965081 0.06728335 0.12037355 -0.024606898 -0.10844874
0.16784301 -0.13600586 0.03916411 -0.102264516 -0.18231118 -0.103420995 -0.110702276 -0.0625487
0.031614423 0.1621727 0.10276851 -0.06353961 0.10970199 0.085461885 0.1664519 0.099562615
-0.006737426 -0.0791383 -0.090063095 -0.11359533 -0.036590368 0.14560145 -0.008291304 0.051902175
0.054660767 0.17516324 0.16975605 0.051174954 -0.028609201 0.09732795 -0.10346912 0.0011638403
0.085523605 0.07759836 -0.15486999 0.046288803 -0.1793757 0.18226972 -0.14893739 -0.0035581738
-0.14159735 -0.14253828 0.13594282 0.12112197 -0.07910953 0.12313551 0.021224827 0.0700925
-0.0059981346 0.036088333 -0.17439856 -0.17535223 -0.1470409 -0.014639378 0.15592101 -0.060030013
-0.16020185 0.039633855 0.05062686 0.078228205 0.06012754 0.06790635 -0.16746742 -0.11053759
-0.010810971 -0.13604268 0.05559519 0.05916524 0.14342704 -0.067638114 0.14502153 0.040757865
0.08012366 0.08909714 0.048859 0.06609821 0.0103624165 0.019329593 0.0012813061 0.011205539
-0.018229082 -0.0005977601 0.15559691 0.004240945 -0.09392458 -0.055048585 0.016910836 0.16701815
-0.16477388 0.11917594 -0.15789261 0.037216976 0.1287545 0.17849934 0.060919568 0.09685558
0.008276463 -0.04529421 -0.1532197 -0.113197215 0.117224604 -0.010668173 -0.034603894 0.0040404797
0.11447373 0.13355052 0.15292054 0.036300942 -0.11035094 0.17507559 -0.10357417 -0.07826519
-0.0042560548 0.15873915 0.0119228065 -0.15408477 0.15639287 -0.07495268 0.12962958 -0.11235314
0.16470003 -0.046571612 0.026294202 -0.012787029 0.0014507622 0.14536127 0.17160535 -0.16713989
-0.107515365 0.1304431 0.14326167 -0.07319371 0.12615246 -0.009624168 0.11314854 -0.14244547
00000000: 0c39 0d3e 5232 19be 402c 52bc 6775 16be
00000010: 7c47 31be 281f 033e f66d 003e f0be 8f3c
00000020: 1833 23bd 8d17 a2bd 2907 0dbe 9ff9 26be
00000030: a0bd 533c a0c5 b6bb 7837 853d 2c03 543d
00000040: 4cca ef3d bc6b 48bd 488e 433d 2038 0c3e
00000050: 3154 d4bd 3027 eb3d d8a2 1dbe 80e2 cc3d
00000060: 4cce 63bd 08ad 853d 18ed 7f3d b7f7 88bd
00000070: 80fd 8e3c 1057 a9bd 7481 a43d b09e b7bc
00000080: 505b 1d3e b85c e43d 788b 67bd 6068 f93d
00000090: b8cb a9bd 5cdf 91bd 4055 8e3b 80a3 45bc
000000a0: aa0a 30be 0c90 1e3e c428 463d 90a2 4bbd
000000b0: 0c00 403d f82d 4d3d 8816 0ebd 8091 a63d
000000c0: 9971 9fbd c6ac 13be 6201 093e 44a8 09be
000000d0: 2ccb 153e c86a ad3d 183d ca3c aeda 2fbe
000000e0: 85d0 89bd ac33 9f3d 58fc b8bd 909a b03d
000000f0: 6835 46bd 0b9d f9bd 2af6 1c3e 9c7d 1f3e
00000100: 3dcf bdbd 604b d03b 5605 18be aca1 1d3e
00000110: 7876 16bd b216 113e a4fb 54bd 906a d23d
00000120: 0ecf 20be 0627 debd 6cc6 13bd 8013 2d3e
00000130: 8030 8e3b e450 1d3e a852 413d 28e6 52bd
00000140: 9c1a 363d b80e f8bc 189f a33d c850 e93d
00000150: 30ad 01bc 4576 93bd ba97 353e 145c 363d
00000160: 1450 ea3d 6aa5 e9bd 50d4 963d caea 0b3e
00000170: de1d 30be 469a d0bd 30da 383e 076b 20be
00000180: 8012 d1bc 0092 c539 727b f1bd 3461 293e
00000190: c0fb 29bb 4242 2b3e 38fa 013e 4099 f8bd
000001a0: b753 00be 2742 0ebe 600e 5b3d 5c59 2dbe
000001b0: f0ff 2fbc ce39 babd 9cef d13d f833 c9bc
000001c0: 50f4 5cbc 6f8c bbbd 14e3 af3d 3009 443c
000001d0: dacb 893d 6886 f63d 6894 c9bc 5f1a debd
000001e0: 0adf 2b3e 1f45 0bbe 8c6a 203d 0f70 d1bd
000001f0: c8af 3abe 63ce d3bd e0b7 e2bd 8819 80bd
00000200: 207e 013d 9a10 263e 4c78 d23d 0e21 82bd
00000210: 70ab e03d a406 af3d 5e72 2a3e 7ce7 cb3d
00000220: a0c5 dcbb 4313 a2bd 0073 b8bd aba4 e8bd
00000230: c8df 15bd 8c18 153e 40d8 07bc 6097 543d
00000240: f8e3 5f3d fe5d 333e 88d4 2d3e d49c 513d
00000250: d85d eabc e053 c73d 9ee7 d3bd 008c 983a
00000260: 0027 af3d e4eb 9e3d 3d96 1ebe 5499 3d3d
00000270: 43ae 37be eaa4 3a3e 0b83 18be 4030 69bb
00000280: e5fe 10be 8ef5 11be 9834 0b3e cc0e f83d
00000290: 2d04 a2bd 782e fc3d b0df ad3c a88c 8f3d
000002a0: 008c c4bb 5cd1 133d 8995 32be 898f 33be
000002b0: e491 16be 00da 6fbc c2a9 1f3e 08e2 75bd
000002c0: f40b 24be 1c57 223d 1c5e 4f3d 1c36 a03d
000002d0: 4c48 763d 7c12 8b3d 947c 2bbe 8861 e2bd
000002e0: 8020 31bc c64e 0bbe c8b7 633d 4057 723d
000002f0: 8ade 123e da85 8abd 8680 143e b8f1 263d
00000300: e017 a43d 9078 b63d 6020 483d 805e 873d
00000310: 20c7 293c 1859 9e3c 80f1 a73a 7097 373c
00000320: 2855 95bc 00b3 1cba cc54 1f3e a0f7 8a3b
00000330: 885b c0bd a07a 61bd 9888 8a3c ce06 2b3e
00000340: 7cba 28be 8412 f43d 9aae 21be d470 183d
00000350: 38d8 033e 88c8 363e cc86 793d 385c c63d
00000360: 009a 073c 6c86 39bd a0e5 1cbe f1d3 e7bd
00000370: 7413 f03d 90c9 2ebc d0bc 0dbd 0066 843b
00000380: 3471 ea3d 78c1 083e 3497 1c3e 4cb0 143d
00000390: acff e1bd 0447 333e b21e d4bd 8049 a0bd
000003a0: 6076 8bbb 848c 223e e057 433c 66c8 1dbe
000003b0: 7425 203e ca80 99bd 9ebd 043e 6719 e6bd
000003c0: 20a7 283e e0c1 3ebd f066 d73c b080 51bc
000003d0: 8027 be3a 96d9 143e 50b9 2f3e b826 2bbe
000003e0: 0431 dcbd e092 053e 30b3 123e 95e6 95bd
000003f0: 1c2e 013e b0ae 1dbc 6cba e73d 3add 11be

l1.bias f4 [50]
0.030689701 -0.09226356 -0.032133773 0.02824758 -0.040271252 0.04352379 0.08685753 -0.17313927
-0.1788683 0.015191123 -0.10526071 -0.06445117 0.022070482 0.025307432 -0.05082585 0.093758345
0.029557392 -0.09971369 0.08709329 -0.15553205 0.010230437 0.08810395 0.16013381 -0.043050274
-0.11007454 -0.07465981 -0.1802077 0.047054544 0.114685 0.00019165874 0.07595733 -0.07605949
0.016530663 -0.0005529225 -0.08899709 0.11481127 -0.06702847 -0.15874352 -0.03638202 -0.14013246
0.13461754 -0.07308861 0.05016896 -0.12459023 0.024067461 -0.034134418 0.15130565 0.15058151
-0.0043118745 -0.038041264
00000000: f868 fb3c adf4 bcbd b49e 03bd 7867 e73c
00000010: 78f3 24bd 0046 323d 5ce2 b13d 6c4b 31be
00000020: 4029 37be 30e4 783c ed92 d7bd fafe 83bd
00000030: 28cd b43c 8851 cf3c c42e 50bd 6004 c03d
00000040: 5822 f23c b136 ccbd f85d b23d cb43 1fbe
00000050: 909d 273c d86f b43d 1efa 233e 7c55 30bd
00000060: c36e e1bd 3ee7 98bd 5e88 38be 44bc 403d
00000070: f8df ea3d 00f8 4839 848f 9b3d 14c5 9bbd
00000080: 506b 873c 00f2 10ba 1b44 b6bd 2c22 eb3d
00000090: 3946 89bd a98d 22be 5005 15bd e27e 0fbe
000000a0: 2ed9 093e 7baf 95bd f87d 4d3d 2a29 ffbd
000000b0: 2029 c53c 88d0 0bbd deef 1a3e 0a32 1a3e
000000c0: a04a 8dbb 28d1 1bbd

l2.weight f4 [100, 50]
-0.12573975 0.010316476 -0.08778798 -0.09928946 -0.003811583 0.061080948 -0.111644745 -0.10901342
-0.04087442 -0.05697371 -0.029955573 -0.012324825 -0.08766393 0.113412514 0.0150087625 -0.08060263
0.08446023 0.020335406 -0.060173444 0.0827436 0.055425614 -0.058543175 0.11432417 -0.11765231
-0.01640293 0.046605185 0.03622681 0.05812168 0.11789547 -0.070433356 0.030121103 -0.14043462
0.030675441 0.066543296 0.032838017 0.04491189 0.051237255 0.12627159 0.11657326 0.01952438
-0.09095071 0.02457431 -0.11729755 -0.1286386 -0.09109865 0.049203515 0.115797356 -0.048009157
0.017630428 -0.0002194792 0.031499743 -0.13623157 0.0039094537 -0.011900872 0.082473755 0.050821334
-0.09001121 0.083203465 0.026346996 -0.008336246 -0.03001862 0.0153954625 0.089591354 0.08045785
0.079948574 -0.02254019 -0.041147567 0.12549777 -0.021896333 -0.087354794 -0.1398497 -0.005423367
0.09774284 0.06642215 -0.12876074 -0.038789548 0.08338998 -0.04533457 0.09126264 -0.086855926
0.0856722 -0.13885003 0.121737435 -0.017604202 0.1310323 -0.012960255 0.079713136 0.050841227
0.0010319203 0.12206338 -0.025066875 0.026774675 -0.031428725 -0.10913034 -0.051456705 0.1122206
-0.13437633 -0.06466192 -0.068059795 0.111806795 -0.08209363 -0.10997936 -0.12169422 -0.09706573
-0.002135411 -0.011172473 0.09267101 0.06973185 0.102895096 -0.019506268 -0.06618558 0.12932907
-0.021653652 0.041902483 0.027703643 -0.11355081 -0.060046665 -0.020089075 0.109696105 0.07789485
-0.11780254 -0.04475817 0.10166685 0.036942184 0.06495239 0.07768747 -0.07818313 0.111968026
0.11038642 0.09170534 -0.053638086 0.07341215 -0.011240363 -0.055721022 -0.12684089 0.007930577
0.11950649 0.12463431 0.03557381 0.03276865 -0.020755589 -0.13230366 0.11385216 0.09739235
-0.03910678 0.053522214 -0.12402394 -0.10646628 -0.009114429 0.1319838 0.010194778 0.029484168
0.10338767 -0.05206886 0.05938348 0.012520984 0.11978005 0.09649566 -0.10351241 0.06539635
-0.11345091 -0.006525889 -0.1333255 -0.04387234 0.058623224 0.13029589 0.068783134 -0.11653139
0.10104288 0.051506624 -0.013099596 -0.1306503 -0.05237358 0.01113756 -0.019812658 0.025938451
-0.09612365 0.029156715 -0.06178797 0.11210631 -0.04108107 0.10305171 -0.07031455 0.021413937
0.009095326 0.09514323 -0.012020871 0.057277188 -0.009866178 -0.035209358 0.022940323 -0.05586739
-0.049184114 0.1299928 -0.0030750185 -0.027819283 0.07951298 -0.08596294 -0.049483232 -0.018100895
-0.114679895 -0.026484646 0.0024342537 -0.035619043 -0.029325321 -0.08592945 -0.013241947 0.055575103
0.025609389 0.13140915 0.10501522 -0.09990336 0.056407526 0.040727198 0.06026669 0.08832355
-0.02818758 -0.13319473 -0.00396733 0.069418654 0.1366676 -0.014023006 0.04842095 0.010809079
-0.07002033 0.11615534 0.090724275 -0.10630056 -0.0318627 -0.028074592 -0.009388357 0.021064863
-0.011848807 -0.0738298 -0.11073586 -0.0055314302 -0.100745946 -0.10535684 -0.02861154 -0.12012732
-0.13165791 -0.021723665 -0.085478395 -0.043604657 0.050075486 -0.0038902909 0.00530079 -0.121070504
-0.12917608 0.087978706 -0.12500891 0.1130615 -0.07692375 -0.11193639 0.046043828 -0.059665293
00000000: ecc1 00be 7006 293c 2fca b3bd 4658 cbbd
00000010: c0cb 79bb 0430 7a3d 00a6 e4bd 6e42 dfbd
00000020: f06b 27bd 445d 69bd 6465 f5bc 10ee 49bc
00000030: 2689 b3bd d244 e83d 50e7 753c fe12 a5bd
00000040: 7cf9 ac3d 7096 a63c 6e78 76bd 7a75 a93d
00000050: f805 633d f8ca 6fbd ca22 ea3d b2f3 f0bd
00000060: 705f 86bc 14e5 3e3d 9062 143d 0011 6e3d
00000070: 2e73 f13d 5d3f 90bd 88c0 f63c 18ce 0fbe
00000080: 104b fb3c da47 883d 2881 063d 88f5 373d
00000090: 28de 513d 574d 013e f6bd ee3d 98f1 9f3c
000000a0: 5e44 babd 1050 c93c b339 f0bd d6b9 03be
000000b0: ee91 babd a089 493d 2a27 ed3d 40a5 44bd
000000c0: b06d 903c 0024 66b9 e005 013d 4a80 0bbe
000000d0: e01a 803b e0fb 42bc 00e8 a83d 082a 503d
000000e0: cc57 b8bd 9466 aa3d a8d5 d73c c094 08bc
000000f0: 9ce9 f5bc 403d 7c3c ac7b b73d 16c7 a43d
00000100: 14bc a33d 34a6 b8bc 5a8a 28bd 7d82 003e
00000110: f05f b3bc 12e7 b2bd c234 0fbe 80b6 b1bb
00000120: 662d c83d 5608 883d dbd9 03be cae1 1ebd
00000130: 5ec8 aa3d beb0 39bd e8e7 ba3d 85e1 b1bd
00000140: e874 af3d b42e 0ebe 7a51 f93d b036 90bc
00000150: 552d 063e 4057 54bc a440 a33d e43e 503d
00000160: 8041 873a 5efc f93d 0c59 cdbc 9056 db3c
00000170: 68bb 00bd ba7f dfbd 44c4 52bd ead3 e53d
00000180: f399 09be 786d 84bd ef62 8bbd f6fa e43d
00000190: b520 a8bd dc3c e1bd d23a f9bd 66ca c6bd
000001a0: 40f2 0bbb c00c 37bc 4cca bd3d 92cf 8e3d
000001b0: aaba d23d 9ccb 9fbc 4e8c 87bd d76e 043e
000001c0: 0063 b1bc f0a1 2b3d c0f2 e23c 548d e8bd
000001d0: 7ef3 75bd d891 a4bc 5aa8 e03d 5687 9f3d
000001e0: 7542 f1bd 5854 37bd b636 d03d b050 173d
000001f0: c205 853d 9c1a 9f3d 7a1e a0bd 7e4f e53d
00000200: 4612 e23d 02d0 bb3d 9cb3 5bbd 1c59 963d
00000210: 8029 38bc ba3b 64bd 94e2 01be 40ef 013c
00000220: d2bf f43d 4640 ff3d d8b5 113d 6c38 063d
00000230: a007 aabc 9c7a 07be 522b e93d a475 c73d
00000240: 6e2e 20bd 1c3a 5b3d 4300 febd fe0a dabd
00000250: b054 15bc c326 073e 0008 273c c888 f13c
00000260: eabc d33d 2846 55bd 183c 733d d024 4d3c
00000270: 3e4f f53d 849f c53d 50fe d3bd 86ee 853d
00000280: f358 e8bd 20d7 d5bb 7b86 08be 7cb3 33bd
00000290: e81e 703d 496c 053e 2cde 8c3d 02a8 eebd
000002a0: 92ef ce3d 9cf8 523d b09f 56bc 31c9 05be
000002b0: ae85 56bd 507a 363c 284e a2bc e07c d43c
000002c0: 7adc c4bd 10da ee3c 6215 7dbd fe97 e53d
000002d0: a044 28bd c60c d33d 1301 90bd 486c af3c
000002e0: 9004 153c 74da c23d 30f3 44bc 7c9b 6a3d
000002f0: c0a5 21bc b037 10bd 58ed bb3c 34d5 64bd
00000300: 4875 49bd d51c 053e 4086 49bb 44e5 e3bc
00000310: b4d7 a23d 560d b0bd eeae 4abd 5448 94bc
00000320: 4bdd eabd 54f6 d8bc 0088 1f3b 46e5 11bd
00000330: a83b f0bc c8fb afbd c0f4 58bc b8a2 633d
00000340: c8ca d13c 1f90 063e 3812 d73d 229a ccbd
00000350: 940b 673d 90d1 263d 34da 763d fae2 b43d
00000360: a4e9 e6bc 3364 08be 6000 82bb 5e2b 8e3d
00000370: 97f2 0b3e c0c0 65bc 0c55 463d 9018 313c
00000380: d266 8fbd dae2 ed3d a6cd b93d 1cb4 d9bd
00000390: 7682 02bd b0fc e5bc a0d1 19bc 3890 ac3c
000003a0: 8021 42bc 1434 97bd 7cc9 e2bd 0041 b5bb
000003b0: e453 cebd 54c5 d7bd c062 eabc 5005 f6bd
000003c0: 55d1 06be d4f5 b1bc 4c0f afbd cc9a 32bd
000003d0: f41b 4d3d 40f4 7ebb 40b2 ad3b d0f3 f7bd
000003e0: bc46 04be 2e2e b43d 5602 00be ca8c e73d
000003f0: 338a 9dbd e83e e5bd 7498 3c3d 9863 74bd

l2.bias f4 [100]
-0.10897544 0.07707664 0.053023413 0.057682544 -0.039906055 0.046630055 0.10828921 0.056374818
0.073828846 0.11723803 0.08934733 -0.13601866 -0.041612394 0.05526921 0.04558301 0.037081763
0.06470999 0.06360096 -0.1357534 0.047517672 -0.09117178 -0.08733711 -0.010289043 -0.10605724
-0.024911672 -0.0029520541 0.12655349 -0.13218936 -0.064410634 -0.03401632 -0.11979377 0.046482652
0.058411762 -0.029241621 -0.03228149 -0.1127276 0.07498503 0.10896863 -0.095245205 0.1056211
0.12936719 -0.04806181 -0.061430976 -0.10739845 0.043262765 -0.027333967 -0.11897811 -0.07126828
0.049286723 0.04386808 0.03299974 0.04363817 -0.060203508 -0.12688683 0.0036833435 -0.02355311
-0.020967335 0.07714838 -0.0667982 -0.1408091 0.0382414 0.047405243 0.053254724 -0.022894524
-0.10274804 -0.100399196 0.12116639 0.05919729 -0.03707301 0.028061152 0.076533794 0.08054267
-0.06632729 0.11557241 0.04844676 -0.12764208 0.080138534 0.028759986 -0.12908663 -0.12536964
-0.041251145 -0.108502805 -0.027622677 -0.021566339 -0.108423695 0.11962287 0.09269886 -0.038859412
0.08056006 -0.043490946 0.08472139 -0.13065915 0.104063615 -0.042859875 0.07044454 -0.06761373
-0.0733705 -0.10339762 0.0658305 -0.13502942
00000000: 842e dfbd 5cda 9d3d 142f 593d 8844 6c3d
00000010: 8874 23bd 28ff 3e3d bcc6 dd3d 48e9 663d
00000020: 9433 973d 7e1a f03d bcfb b63d 7a48 0bbe
00000030: c271 2abd f861 623d 40b5 3a3d 0ce3 173d
00000040: ac86 843d 3841 823d f002 0bbe e4a1 423d
00000050: 45b8 babd ccdd b2bd 6093 28bc 8a34 d9bd
00000060: 9013 ccbc 4077 41bb 3d97 013e a65c 07be
00000070: b9e9 83bd b254 0bbd 7056 f5bd 9864 3e3d
00000080: 2c41 6f3d 208c efbc 9839 04bd badd e6bd
00000090: c091 993d f22a df3d eb0f c3bd e04f d83d
000000a0: d578 043e 76dc 44bd 0c9f 7bbd b8f3 dbbd
000000b0: 4c34 313d 7ceb dfbc ccaa f3bd 1bf5 91bd
000000c0: e0e0 493d 04af 333d bc2a 073d f0bd 323d
000000d0: f497 76bd 9fee 01be 4064 713b 74f2 c0bc
000000e0: b0c3 abbc f8ff 9d3d 7fcd 88bd 4330 10be
000000f0: 04a3 1c3d 002c 423d a021 5a3d 4c8d bbbc
00000100: 906d d2bd 189e cdbd 1626 f83d dc78 723d
00000110: ded9 17bd 80e0 e53c c0bd 9c3d 8ef3 a43d
00000120: 9ad6 87bd 3ab1 ec3d 1c70 463d 9bb4 02be
00000130: ac1f a43d 109a eb3c 492f 04be e660 00be
00000140: f6f6 28bd b836 debd f448 e2bc e4ab b0bc
00000150: 3e0d debd d6fc f43d e6d8 bd3d 0c2b 1fbd
00000160: acfc a43d 9023 32bd 6882 ad3d 83cb 05be
00000170: 4e1f d53d d68d 2fbd 3a45 903d 1179 8abd
00000180: 4643 96bd 22c2 d3bd 24d2 863d 2745 0abe

l3.weight f4 [30, 100]
0.07898677 -0.02397219 0.089327104 0.063851826 -0.09214138 -0.040766872 0.06839531 -0.056183685
0.09036287 0.054242842 0.080139585 -0.02368164 0.083450265 0.08363999 -0.040867925 -0.023846045
0.058814175 -0.06771544 -0.06796889 0.07554894 0.072255515 0.084278814 -0.07412455 0.08611556
0.004985735 -0.024318956 -0.048938036 -0.037029937 0.007926285 -0.040688302 0.062462203 0.02759742
-0.0007481426 0.097694285 0.06685542 0.06297707 -0.043487992 0.022216938 0.007077828 0.051507436
-0.046239626 0.0785752 0.05588352 -0.025729895 0.012606643 0.018985271 -0.096927464 -0.025567159
0.071966596 0.07242841 0.094108365 0.019757248 0.015535533 0.0152837485 -0.030658208 -0.09562781
-0.057842683 -0.059658326 0.098751806 0.0039406195 -0.028895892 -0.01137577 -0.014810815 0.015711866
0.063337184 0.06885896 -0.066912055 0.0054873005 0.09550095 0.02215159 0.065550335 -0.027120128
0.038316093 0.011883415 -0.023023143 0.028326266 0.08308006 0.05829247 -0.024466395 -0.0019475445
0.048564963 -0.08659201 -0.008257493 0.038157128 -0.055476844 0.037014566 0.027884774 0.09418454
0.083649255 -0.071425185 0.01687108 0.05187551 -0.0048378333 -0.01093398 -0.038530912 0.090003915
-0.0953277 -0.09169638 -0.0012195557 0.037755795 -0.0033093244 -0.036724247 -0.028205499 0.08097062
-0.07418649 -0.09118499 -0.030448757 -0.02138175 -0.0022223592 -0.08870479 -0.07533513 0.048180602
0.090585284 -0.08524441 -0.0078117996 -0.0010231137 0.09555673 -0.009642258 0.007103488 0.0033326596
-0.056337096 -0.03147395 -0.051798917 -0.07084064 -0.027401686 -0.06448634 0.048524655 -0.08884879
0.03014908 0.05657775 -0.09585344 0.026827864 0.014450327 -0.045094337 0.06003634 -0.0119956955
0.040145718 -0.07579587 0.04922778 0.0051236004 0.028779157 -0.06614539 -0.07469078 0.02842965
-0.008288443 -0.037246242 0.013839409 -0.046632648 -0.05048683 -0.03526582 0.02667401 -0.062710255
-0.02628778 -0.06403178 -0.041591216 0.06717818 0.01620543 -0.078853056 -0.012031339 -0.06268519
0.013625428 0.020340718 0.0814318 0.039300732 -0.06583433 -0.098144606 0.09019155 0.054994233
-0.029507577 0.050309293 0.028592817 0.089905865 -0.0152173415 -0.066485256 0.08959644 -0.06640054
0.08641457 -0.015342936 -0.05149082 -0.04422481 0.021951176 -0.03441167 -0.032796405 0.059816055
0.034467213 -0.078808725 -0.085108995 0.010086596 0.035565577 0.05471558 -0.031853035 0.016348705
0.0640477 -0.07359079 0.005824864 -0.053667318 0.031935222 -0.0355047 0.087483965 -0.0015649423
0.035961248 -0.03547988 0.07166613 0.042485602 0.020768322 -0.08374361 -0.05520424 -0.018114492
-0.006985031 -0.034048364 -0.069526985 -0.018415771 -0.030213058 -0.022355199 0.058979996 -0.04085621
-0.04098586 -0.06003169 0.04995077 -0.059944462 -0.071506344 -0.052657675 0.07805119 -0.059838083
0.0032893792 0.02871 -0.012884304 0.03451214 0.04876665 0.058050208 -0.06374351 -0.06098627
0.09730602 0.0046721324 0.09055484 0.00017440319 -0.007343687 -0.06684176 0.03256195 0.0132722035
-0.0705357 0.033841856 -0.03724339 0.014655396 0.060084082 -0.030539788 0.05153639 -0.05120468
-0.09405035 -0.023542047 -0.039038252 -0.063474335 0.019909933 0.027357705 0.061504595 0.04026086
00000000: d1c3 a13d 5461 c4bc 21f1 b63d bfc4 823d
00000010: 9fb4 bcbd 2afb 26bd d712 8c3d dd20 66bd
00000020: 2b10 b93d be2d 5e3d 3920 a43d 0000 c2bc
00000030: f9e7 aa3d 714b ab3d 2065 27bd c858 c3bc
00000040: 22e7 703d 65ae 8abd 4633 8bbd 67b9 9a3d
00000050: b3fa 933d 5f9a ac3d 9dce 97bd 5b5d b03d
00000060: 605f a33b 8c38 c7bc 4073 48bd b4ac 17bd
00000070: 40dd 013c c7a8 26bd 5ed8 7f3d fc13 e23c
00000080: 001f 44ba f113 c83d 7feb 883d 1ffa 803d
00000090: 7720 32bd 4c00 b63c 20ed e73b 76f9 523d
000000a0: c365 3dbd 09ec a03d 1ee6 643d 80c7 d2bc
000000b0: 188c 4e3c 0087 9b3c e881 c6bd 3872 d1bc
000000c0: 3963 933d 5955 943d e3bb c03d f4d9 a13c
000000d0: c088 7e3c b068 7a3c ec26 fbbc 83d8 c3bd
000000e0: 73ec 6cbd 4a5c 74bd 633e ca3d 5020 813b
000000f0: 14b7 ecbc 7061 3abc 10a9 72bc 2cb6 803c
00000100: edb6 813d ed05 8d3d 3009 89bd d0ce b33b
00000110: 0196 c33d 4077 b53c 413f 863d 082b debc
00000120: 56f1 1c3d a8b2 423c 089b bcbc 7c0c e83c
00000130: e125 aa3d 16c4 6e3d c06d c8bc c044 ffba
00000140: 0eec 463d 2757 b1bd 704a 07bc a64a 1c3d
00000150: b03b 63bd 969c 173d 9c6e e43c d3e3 c03d
00000160: 4d50 ab3d 5e47 92bd 3835 8a3c 6a7b 543d
00000170: b086 9ebb 7024 33bc 97d2 1dbd f953 b83d
00000180: 2b3b c3bd 50cb bbbd 80d9 9fba d2a5 1a3d
00000190: 40e1 58bb 2a6c 16bd 380f e7bc edd3 a53d
000001a0: 16ef 97bd 32bf babd ac6f f9bc c828 afbc
000001b0: 00a5 11bb dbaa b5bd 4e49 9abd 0659 453d
000001c0: c784 b93d 9f94 aebd 20fa ffbb 001a 86ba
000001d0: 3fb3 c33d 90fa 1dbc 60c4 e83b c068 5a3b
000001e0: bac1 66bd d4ea 00bd 1a2b 54bd e614 91bd
000001f0: 8079 e0bc 6a11 84bd cac1 463d 5bf6 b5bd
00000200: 34fb f63c 12be 673d cf4e c4bd 1cc6 db3c
00000210: 10c1 6c3c d7b4 38bd aae8 753d 9889 44bc
00000220: d66f 243d dd3a 9bbd 12a3 493d e0e3 a73b
00000230: 44c2 eb3c 3c77 87bd 7bf7 98bd 4ce5 e83c
00000240: 40cc 07bc 848f 18bd b0be 623c e001 3fbd
00000250: 47cb 4ebd e472 10bd 7483 da3c 3c6e 80bd
00000260: 7859 d7bc 1823 83bd 8d5b 2abd b794 893d
00000270: 40c1 843c b67d a1bd 181f 45bc 1861 80bd
00000280: 303d 5f3c 94a1 a63c b7c5 a63d cef9 203d
00000290: 26d4 86bd 0a00 c9bd 59b6 b83d a241 613d
000002a0: e0b9 f1bc 1e11 4e3d 7c3b ea3c 9120 b83d
000002b0: 2852 79bc 6c29 88bd 577e b73d 02fd 87bd
000002c0: 1ffa b03d f060 7bbc 0ae8 52bd 1325 35bd
000002d0: f4d2 b33c 40f3 0cbd 8655 06bd ae01 753d
000002e0: 7e2d 0d3d 7866 a1bd a04d aebd 4042 253c
000002f0: 36ad 113d 721d 603d 5478 02bd b8ed 853c
00000300: 712b 833d c5b6 96bd 80de be3b 43d2 5bbd
00000310: 82ce 023d 606d 11bd cb2a b33d c01e cdba
00000320: 1a4c 133d 5a53 11bd b1c5 923d 6205 2e3d
00000330: 5422 aa3c c581 abbd d71d 62bd d864 94bc
00000340: b0e2 e4bb 4c76 0bbd 2a64 8ebd acdc 96bc
00000350: 6081 f7bc 4022 b7bc 0295 713d d758 27bd
00000360: cae0 27bd cae3 75bd 2e99 4c3d 5388 75bd
00000370: eb71 92bd 93af 57bd 4dd9 9f3d c718 75bd
00000380: a092 573b 3c31 eb3c b018 53bc 9a5c 0d3d
00000390: 8abf 473d 0ec6 6d3d f58b 82bd bdcc 79bd
000003a0: 6148 c73d b018 993b d174 b93d 00e0 3639
000003b0: 50a3 f0bb 55e4 88bd ae5f 053d a873 593c
000003c0: 0575 90bd c29d 0a3d 868c 18bd 301d 703c
000003d0: ba1a 763d 942e fabc d217 533d 00bc 51bd
000003e0: 789d c0bd 40db c0bc 93e6 1fbd d5fe 81bd
000003f0: 281a a33c 441d e03c 3eec 7b3d 92e8 243d

l3.bias f4 [30]
0.012047365 -0.07609759 -0.079286255 0.07682326 0.032329418 0.037504323 0.029293977 0.043508075
0.08420678 0.07040847 -0.09583534 -0.034266688 -0.03960823 -0.012299024 0.05889181 0.09678946
0.04487682 -0.09441161 -0.09788413 0.07351983 -0.0018307939 -0.08833271 -0.002325356 -0.07640435
-0.06277141 -0.007834077 0.052969016 -0.069629654 0.060202204 0.013234124
00000000: 5062 453c 0ed9 9bbd d560 a2bd 8355 9d3d
00000010: da6b 043d 229e 193d ecf9 ef3c 8635 323d
00000020: 9b74 ac3d 5132 903d 5245 c4bd 3a5b 0cbd
00000030: 3d3c 22bd d881 49bc 8a38 713d 8d39 c63d
00000040: c2d0 373d e05a c1bd 7a77 c8bd 9191 963d
00000050: 40f7 efba c8e7 b4bd 0065 18bb e279 9cbd
00000060: 4c8e 80bd 805a 00bc 0af6 583d fe99 8ebd
00000070: 9696 763d f0d3 583c

output.weight f4 [16, 30]
0.15163788 0.0021177083 0.13203049 -0.103183046 0.10771522 0.028542891 0.13085222 0.0675216
-0.0708851 -0.069366045 0.16062635 -0.080006815 -0.039496407 -0.049997196 0.08685422 0.17238295
-0.016965792 -0.11734856 -0.16809095 0.08609006 0.14772886 -0.14253844 -0.16819498 0.12703222
0.053053215 -0.010338873 -0.14078295 0.054026067 0.11255777 -0.053750336 0.15286264 -0.17195582
-0.054638714 -0.109183505 0.18024796 -0.13292298 0.03511454 0.0041600913 -0.051146865 0.09263927
0.057844013 -0.017352909 -0.13002977 -0.102903455 0.063012406 0.07764673 -0.16799042 0.18037069
0.0059126616 0.07541451 -0.062218457 -0.05023168 0.0317443 0.10344419 0.078116715 0.09709275
0.028873712 -0.13017043 -0.08392711 0.16109282 -0.14680909 -0.1375304 0.08289814 -0.1504847
-0.09781754 -0.06838616 0.08321872 -0.05038488 -0.12234635 0.09593877 0.024853334 -0.14089331
0.16275197 0.14128727 -0.051974952 0.07756373 0.030317932 -0.016278565 -0.07810494 0.06658508
0.03570284 0.119788885 -0.046319485 0.14284372 0.024454638 -0.12912245 0.1230593 0.17746106
-0.16879532 -0.09764055 -0.15541211 0.07964322 0.06138456 0.16715458 -0.17394206 -0.06111356
0.03929518 0.13460198 0.11881134 -0.010002673 -0.1693245 -0.034381986 -0.17297174 -0.043986082
0.14590067 0.12331626 0.11382151 -0.14215238 -0.13929498 -0.031477958 -0.10506829 -0.018894106
0.17195255 0.008678541 0.17524683 -0.015437037 0.00432536 -0.10916633 0.05544044 0.14087352
0.03462337 0.019079342 -0.15194349 0.1262686 -0.15354338 0.13164413 -0.0142959505 0.116227
-0.17679276 0.17965922 -0.06901546 0.0675562 0.07691252 -0.17394654 0.06398077 -0.0035710633
0.10672271 0.13166878 0.17517748 0.08283436 -0.111488156 -0.0008209795 -0.094611496 -0.10623112
-0.007842377 0.10618067 0.14504021 -0.083751336 0.10015088 -0.10835745 -0.18074918 -0.0016662478
0.06905848 0.09029871 0.0097308755 -0.09458651 -0.117220365 -0.084055476 -0.12597796 0.13997912
0.023063406 0.05715008 -0.10486692 0.041153997 -0.13800241 0.07467088 -0.1649559 0.17127642
0.10796389 0.05203806 0.09119964 -0.06323437 -0.108506694 0.00928621 -0.14881594 -0.14021595
0.036079332 -0.08268979 0.03866531 0.043950737 -0.08723678 -0.13615128 0.12813875 0.011310056
0.16226473 0.045011 -0.10854267 -0.08261014 0.13048989 -0.0101839155 -0.12922691 -0.14678282
0.012481332 0.13823405 -0.16096427 -0.17344826 0.014059886 0.0115849525 -0.16691856 -0.06792197
0.117119044 -0.079406895 0.062200293 -0.06903814 0.12982762 0.003680855 -0.16917013 -0.046576485
0.032474935 0.060985178 0.004438415 -0.06737054 -0.021928728 -0.16645874 -0.020802826 0.016816303
-0.07657176 -0.11786943 0.17436129 0.0052814633 -0.050799713 -0.14993928 -0.036076337 0.019370675
0.13110992 0.04541713 0.043393746 -0.036961496 0.07974154 -0.12547529 -0.06767141 0.13011286
-0.001060605 -0.11201085 -0.107001 -0.11185038 -0.10079341 -0.032268018 -0.16701591 0.17514288
0.11991918 -0.017219603 -0.012322843 -0.045724854 0.1663734 0.14239451 -0.032511413 -0.07185835
0.059090987 0.0294649 0.1346699 0.030933022 -0.052547693 -0.12279692 -0.0055089593 0.06280421
00000000: f646 1b3e 40c9 0a3b 0033 073e a251 d3bd
00000010: cc99 dc3d c8d2 e93c 20fe 053e c448 8a3d
00000020: 352c 91bd c90f 8ebd 3c7b 243e 9dda a3bd
00000030: fcc6 21bd dcc9 4cbd a0e0 b13d 2885 303e
00000040: d8fb 8abc 7154 f0bd 0920 2cbe fc4f b03d
00000050: 3c46 173e 99f5 11be 4e3b 2cbe bc14 023e
00000060: 544e 593d 6064 29bc 6829 10be 704a 5d3d
00000070: b084 e63d 5029 5cbd 0688 1c3e 3015 30be
00000080: d8cc 5fbd 9a9b dfbd ec92 383e f61c 08be
00000090: 44d4 0f3d 6051 883b 607f 51bd a8b9 bd3d
000000a0: d8ed 6c3d b027 8ebc 8626 05be 0cbf d2bd
000000b0: a60c 813d 4005 9f3d ae05 2cbe 18b3 383e
000000c0: 00bf c13b ec72 9a3d c8d8 7ebd bcbf 4dbd
000000d0: 5006 023d 8cda d33d a8fb 9f3d 90d8 c63d
000000e0: 9088 ec3c 664b 05be fae1 abbd 84f5 243e
000000f0: 1f55 16be c5d4 0cbe 80c6 a93d a918 1abe
00000100: 9054 c8bd 0b0e 8cbd 946e aa3d 6060 4ebd
00000110: b990 fabd 8c7b c43d 3899 cb3c 5646 10be
00000120: 74a8 263e 9cad 103e b0e3 54bd bcd9 9e3d
00000130: 505d f83c a05a 85bc 7cf5 9fbd c25d 883d
00000140: 243d 123d e053 f53d 80b9 3dbd a045 123e
00000150: 1855 c83c ad38 04be 8406 fc3d 5ab8 353e
00000160: aed8 2cbe c5f7 c7bd 5a24 1fbe fc1b a33d
00000170: 606e 7b3d 922a 2b3e de1d 32be 3652 7abd
00000180: fcf3 203d 1ad5 093e 5c53 f33d 40e2 23bc
00000190: 6763 2dbe 20d4 0cbd 811f 31be c02a 34bd
000001a0: fc66 153e 3c8d fc3d 401b e93d 6590 11be
000001b0: 58a3 0ebe 08ef 00bd 0b2e d7bd d0c7 9abc
000001c0: 5414 303e 7030 0e3c e873 333e a0eb 7cbc
000001d0: c0bb 8d3b 9992 dfbd 8415 633d 2641 103e
000001e0: 3cd1 0d3d 484c 9c3c 1397 1bbe 8e4c 013e
000001f0: 7a3a 1dbe b8cd 063e 9039 6abc 6c08 ee3d
00000200: 2909 35be 96f8 373e fa57 8dbd e85a 8a3d
00000210: 5084 9d3d 0b1f 32be 5a08 833d 8008 6abb
00000220: 7091 da3d 2ed4 063e ba61 333e 10a5 a93d
00000230: e753 e4bd 0037 57ba acc3 c1bd b48f d9bd
00000240: 507d 00bc 4075 d93d 6c85 143e d285 abbd
00000250: e81b cd3d 83ea ddbd 5016 39be 0066 daba
00000260: 886e 8d3d 88ee b83d 406e 1f3c 92b6 c1bd
00000270: 3b11 f0bd 4725 acbd 5e00 01be b056 0f3e
00000280: 78ef bc3c 3416 6a3d 78c4 d6bd 1891 283d
00000290: 8150 0dbe 0ced 983d 33ea 28be 1663 2f3e
000002a0: 2c1c dd3d dc25 553d e0c6 ba3d 0581 81bd
000002b0: c238 debd 3025 183c 3563 18be c594 0fbe
000002c0: ecc7 133d 4459 a9bd 845f 1e3d b005 343d
000002d0: 32a9 b2bd 3e6b 0bbe ce36 033e d04d 393c
000002e0: ba28 263e 745d 383d 9f4b debd 812f a9bd
000002f0: 249f 053e 70da 26bc 0f54 04be 3c4e 16be
00000300: 807e 4c3c 3a8d 0d3e d1d3 24be 6c9c 31be
00000310: 705b 663c d0ce 3d3c b3ec 2abe ac1a 8bbd
00000320: 1cdc ef3d 15a0 a2bd bcc5 7e3d de63 8dbd
00000330: 88f1 043e 803a 713b ef3a 2dbe fcc6 3ebd
00000340: 7004 053d 98cb 793d 2070 913b 91f9 89bd
00000350: e0a3 b3bc 2974 2abe b06a aabc 58c2 893c
00000360: a8d1 9cbd 8765 f1bd c48b 323e 2010 ad3b
00000370: 5c13 50bd af89 19be c8c4 13bd 40af 9e3c
00000380: ae41 063e 5007 3a3d a4bd 313d f064 17bd
00000390: 884f a33d 987c 00be 4f97 8abd 4e3c 053e
000003a0: 0004 8bba f265 e5bd 5723 dbbd d011 e5bd
000003b0: c66c cebd 782b 04bd 3806 2bbe a858 333e
000003c0: 3098 f53d 2010 8dbc c0e5 49bc fc49 3bbd
000003d0: ca5d 2a3e decf 113e b02a 05bd 782a 93bd
000003e0: 6409 723d 6060 f13c e8e6 093e 4067 fd3c
000003f0: 403c 57bd f47c fbbd 8084 b4bb 7e9f 803d

output.bias f4 [16]
0.07836318 0.064453304 -0.1472923 -0.11436275 -0.08121017 -0.07686204 0.10712311 -0.15381789
0.056794927 0.14417905 -0.018912643 0.09583238 -0.009304017 -0.043947607 -0.13308728 -0.1618318
00000000: e07c a03d 1800 843d cbd3 16be 0437 eabd
00000010: 8551 a6bd d869 9dbd 5c63 db3d 7082 1dbe
00000020: cca1 683d aca3 133e b0ee 9abc c443 c43d
00000030: e06f 18bc 6802 34bd 0848 08be 3cb7 25be
