PINN_experience/saved_model/simpleANNlr=0.005bs=128_mse_data.pt (torch, 34575 bytes, 8 tensors)

l1.weight f4 [50, 14]
0	0xbe6daf46	-0.23211393
1	0xbe8677f0	-0.2626338
2	0x3e67e798	0.2264694
3	0x3e047bcc	0.1293785
4	0xbe6ba3e7	-0.23011743
5	0x3e450e06	0.19243631
6	0x3d1fe940	0.039040804
7	0x3e0c7838	0.13717735
8	0xbda42220	-0.08014321
9	0xbe7336b9	-0.23751344
10	0xbe122e9e	-0.14275596
11	0xbdb084ba	-0.086190656
12	0xbe88d196	-0.267224
13	0xbe5780f8	-0.21045291
14	0x3e15ed42	0.14641288
15	0x3e863687	0.26213476
16	0x3d6ff5b0	0.058583915
17	0xbe5e0471	-0.21681382
18	0xbe0788c1	-0.13235761
19	0xbe0f62d6	-0.14002547
20	0xbe4fb158	-0.20282495
21	0x3dfb82b4	0.12280789
22	0x3e0f2666	0.13979492
23	0xbe4d92b8	-0.200755
24	0xbe5a87b7	-0.21340834
25	0xbdb70fd8	-0.08938569
26	0xbe7ab1b1	-0.24481846
27	0xbe66a24f	-0.22522853
28	0x3c2c3a40	0.010511935
29	0xbe1d7e1e	-0.15380141
30	0x3d73e658	0.059545845
31	0x3deb28b0	0.1148237
32	0xbe3030fc	-0.17206186
33	0xbc6640e0	-0.014053553
34	0xbe572827	-0.2101141
35	0x3d01c3d0	0.031680882
36	0xbe02478a	-0.12722602
37	0x3ccf77e0	0.025325716
38	0xbb9e32c0	-0.004827827
39	0xbd7004bc	-0.058598265
40	0x3db6fa48	0.08934456
41	0x3e5e91e4	0.2173534
42	0x3e06323c	0.131051
43	0xbd86ef40	-0.06588602
44	0x3d084398	0.033267587
45	0x3e711f2e	0.2354705
46	0xbd650be0	-0.055919528
47	0xbdaf4ca8	-0.08559543
48	0x3e58cf00	0.21172714
49	0x3c92e280	0.01793027
50	0xbe430a48	-0.1904689
51	0xbde1136c	-0.109900326
52	0x3dcff750	0.10154593
53	0xbd96a816	-0.073562786
54	0xbe47c108	-0.1950723
55	0x3dd35538	0.103189886
56	0xbb47a800	-0.0030465126
57	0xbc884700	-0.016635418
58	0xbe4f4b3e	-0.20243546
59	0xbe6b2ad1	-0.22965552
60	0xbe2fe4a2	-0.1717706
61	0x3d763830	0.06011218
62	0xbe585cb2	-0.2112911
63	0x3c9929b0	0.018696636
64	0x3da47eec	0.08032021
65	0x3d8f7a14	0.070057064
66	0x3e46c81c	0.19412273
67	0xbe5fb492	-0.21846226
68	0x3e7526b2	0.23940542
69	0x3e66de98	0.2254585
70	0xbd52a5a4	-0.0514275
71	0x3e41cb5e	0.18925235
72	0x3ccd2660	0.025042713
73	0x3e43a314	0.19105178
74	0x3e5935c2	0.21211913
75	0x3a84de00	0.0010136962
76	0x3d83bce4	0.064325124
77	0x3e886aa9	0.26643875
78	0xbe56b76b	-0.20968406
79	0xbe32d7ea	-0.17465177
80	0x3dc73a14	0.097278744
81	0x3e436434	0.19081193
82	0xbd40850c	-0.047001883
83	0x3dbae4ec	0.09125695
84	0xbe52f8f2	-0.20602778
85	0x3df23d04	0.11828044
86	0xbe0020d9	-0.1251253
87	0xbe11e41d	-0.14247175
88	0x3e2ebc26	0.1706396
89	0x3de5b8b0	0.11216867
90	0x3e13ba1a	0.14426461
91	0x3e5ae4b0	0.213763
92	0xbd8a9b3e	-0.06767891
93	0xbe589cfe	-0.21153638
94	0x3e129d1c	0.14317745
95	0xbca247b0	-0.019809574
96	0xbe13ef36	-0.1444672
97	0x3d60b700	0.054862022
98	0xbd9cb418	-0.07651538
99	0x3e0a9c74	0.13536245
100	0x3d143c50	0.03619033
101	0xbe4f3378	-0.20234478
102	0x3e86399d	0.2621583
103	0xbe141e28	-0.14464629
104	0xbe593a0a	-0.21213546
105	0xbe2b515a	-0.16730252
106	0xbe6f6591	-0.23378588
107	0xbdf6f012	-0.120575085
108	0xbdf592b6	-0.119908735
109	0x3d3200c8	0.043457776
110	0xbe068865	-0.13137968
111	0xbd90d724	-0.07072285
112	0x3e5e944e	0.21736261
113	0xbd252810	-0.04032141
114	0xbe07992b	-0.13242023
115	0xbe15fafc	-0.14646524
116	0x3db8a0d4	0.090150505
117	0xbdc32602	-0.09528734
118	0xbd7aad5c	-0.061200485
119	0xbde98f4c	-0.11404285
120	0x3d9bf118	0.07614344
121	0xbe857ec0	-0.26073265
122	0xbd547b7c	-0.051875576
123	0x3dfdd5d8	0.12394303
124	0xbe374616	-0.1789783
125	0x3d6a7b08	0.057246238
126	0x3e19294c	0.1495716
127	0xbc60f0a0	-0.0137292445
128	0xbd746800	-0.059669495
129	0xbe7e86fc	-0.2485618
130	0xbe0cd0ca	-0.13751522
131	0x3cc73690	0.02431801
132	0x3e3615d6	0.17781767
133	0xbe4095fe	-0.18807217
134	0xbd03d1ac	-0.03218238
135	0xbe25e3d2	-0.16200188
136	0x3d8daa20	0.069172144
137	0x3e4b90bc	0.1987943
138	0xbdb99eea	-0.090635136
139	0x3e03cda0	0.12871408
140	0x3e144f36	0.14483342
141	0xbe653a68	-0.22385561
142	0xbe67862e	-0.22609779
143	0xbdd6ee06	-0.10494618
144	0x3e3dca7c	0.18534273
145	0xbe1cb3e3	-0.15302996
146	0xbd6fa2c8	-0.05850485
147	0x3dc0ca84	0.09413627
148	0x3df65324	0.120275766
149	0x3e2c0f68	0.16802752
150	0x3d3fec60	0.046856284
151	0x3e857141	0.26062968
152	0xbce26f80	-0.027641058
153	0x3e84b6dd	0.25920764
154	0x3d3a5848	0.045494348
155	0xbd0bf0e8	-0.034165293
156	0x3e48113a	0.19537821
157	0xbe051650	-0.12996793
158	0x3df9e8fc	0.12202641
159	0xbbc04940	-0.005868107
160	0x3e808de7	0.25108263
161	0xbd94247c	-0.07233521
162	0xbe28280b	-0.16421525
163	0x3e86d5a5	0.26334873
164	0x3d82b9c0	0.06383085
165	0xbd935a22	-0.07194926
166	0x3d997b08	0.074941695
167	0xbe10f68f	-0.14156555
168	0xbe5fb20e	-0.21845266
169	0xbe834be9	-0.25643852
170	0xbdeea4d8	-0.11652535
171	0xbe45dca3	-0.19322447
172	0x3e792dce	0.2433388
173	0xbe6766fb	-0.22597878
174	0xbe112c14	-0.1417697
175	0x3e58e1cc	0.21179885
176	0xbe68949c	-0.2271294
177	0xbdaeba46	-0.085316226
178	0xbe5278b6	-0.2055386
179	0xbe4bae08	-0.19890606
180	0x3e746a6a	0.23868719
181	0xbe851a01	-0.25996402
182	0x3da7fc40	0.0820241
183	0x3e7c959e	0.2466645
184	0xbca6dc60	-0.020368755
185	0x3de74858	0.11293095
186	0xbe811b86	-0.2521631
187	0xbe1b3fad	-0.15161009
188	0xbd20c238	-0.03924772
189	0x3e6821ca	0.2266914
190	0x3c0daf40	0.00864774
191	0xbdd38e78	-0.10329908
192	0x3e3ab9a0	0.18234873
193	0xbd5f4bf0	-0.05451578
194	0x3e88c099	0.2670944
195	0x3d9e1464	0.07718733
196	0x3de633c4	0.11240342
197	0x3d4399a8	0.04775396
198	0x3a79f200	0.0009534657
199	0x3e814a5d	0.25252047
200	0x3d97f8ac	0.07420477
201	0x3e703186	0.23456392
202	0x3e388ada	0.18021718
203	0x3cf6ad90	0.030112058
204	0xbcfc0c58	-0.030767605
205	0x3d9cce9c	0.07656595
206	0xbe1fc5cb	-0.15602796
207	0x3e2427c8	0.160308
208	0x3e1411ce	0.14459917
209	0xbe0bdd7d	-0.1365871
210	0x381e2000	3.7699938e-05
211	0x3e1c1a54	0.15244418
212	0x3da7b290	0.08188355
213	0xbc1f9b20	-0.0097415745
214	0x3e2ab476	0.16670403
215	0xbe41e051	-0.18933226
216	0xbe376512	-0.17909649
217	0x3e44f534	0.19234163
218	0x3e18b02a	0.14910951
219	0xbe3e41d8	-0.18579805
220	0xbe473a80	-0.1945591
221	0x396aa800	0.00022378564
222	0xbe79271d	-0.24331327
223	0x3e1f43b6	0.15553173
224	0x3e3e3082	0.18573192
225	0xbe0e582d	-0.13900824
226	0xbe57fb46	-0.21091947
227	0x3e0c6cfe	0.13713452
228	0x3d410038	0.04711935
229	0xbbb3a7c0	-0.005482644
230	0x3d49ceb8	0.049269408
231	0xbe868648	-0.26274323
232	0xbe868472	-0.26272923
233	0xbe5db56d	-0.2165124
234	0x3e1a442c	0.15065068
235	0xbd7dac3c	-0.061931834
236	0xbe2f8fc7	-0.1714469
237	0x3e32ff94	0.17480308
238	0xbd7b4bb8	-0.061351508
239	0xbe1042e2	-0.14088014
240	0x3d229890	0.039696276
241	0xbd712ab8	-0.05887863
242	0xbe24ee52	-0.16106537
243	0xbe4c2d86	-0.19939241
244	0x3dc28d10	0.09499562
245	0xbe7bba5d	-0.2458281
246	0x3e802e39	0.25035265
247	0x3e886bd9	0.2664478
248	0x3c8f4880	0.017490625
249	0x3dc68f50	0.096953034
250	0xbd264618	-0.04059419
251	0x3c38fb60	0.011290401
252	0xbe4f0d70	-0.2021997
253	0x3cdef2d0	0.027215391
254	0x3e82a49b	0.2551621
255	0xbe289fcf	-0.16467212

l1.bias f4 [50]
0	0x3e227ed6	0.15868697
1	0x3d77a5d0	0.060460865
2	0x3e837f29	0.25682953
3	0x3ddc7190	0.10763848
4	0xbe51b484	-0.20479017
5	0x3d13dc40	0.03609872
6	0xbe5b852e	-0.21437523
7	0xbd517a18	-0.05114183
8	0xbe81a301	-0.25319675
9	0x3e2f4460	0.17115927
10	0x3e812ce5	0.25229564
11	0x3df09338	0.1174683
12	0x3d190f88	0.037368327
13	0xbe08bee3	-0.13354068
14	0x3e1c7a32	0.15280989
15	0x3d829864	0.063767225
16	0xbe40d608	-0.18831646
17	0xbe2d9fee	-0.1695554
18	0xbe5422f7	-0.20716463
19	0xbe033e38	-0.12816703
20	0x3e887eff	0.2665939
21	0x3e331682	0.17489055
22	0x3dab50c4	0.08365014
23	0x3e19315e	0.14960238
24	0xbd0a1018	-0.033706754
25	0x3da241e4	0.07922724
26	0xbe80ed26	-0.2518093
27	0x3e86b8dd	0.26312914
28	0xbe1f0084	-0.1552754
29	0xb9faa400	-0.00047805905
30	0x3d9bc854	0.07606569
31	0xbe20a260	-0.15686941
32	0xbbf9d900	-0.0076247454
33	0x3dc01df8	0.09380716
34	0xbe3d1187	-0.18463717
35	0x3e55ce68	0.20879519
36	0xbdd2f0f0	-0.102998614
37	0x3d90b508	0.07065779
38	0x3e530352	0.20606735
39	0xbd55acf4	-0.052166894
40	0xbe01dfbb	-0.12683003
41	0xbe140113	-0.14453535
42	0x3e57c200	0.21070099
43	0xbbb8ec80	-0.0056434274
44	0x3e23ec2e	0.16008064
45	0xbe4ecb90	-0.2019484
46	0x3e5bf330	0.21479487
47	0x3e28054e	0.16408274
48	0xbdf0f33e	-0.11765145
49	0xbe44a536	-0.19203648

l2.weight f4 [100, 50]
0	0x3e0866e7	0.13320504
1	0x3de650f2	0.11245908
2	0xbc11b240	-0.008892596
3	0xbd04d2e4	-0.032427683
4	0xbab3d580	-0.0013720244
5	0x3c473dd0	0.012160733
6	0x3c2a6e40	0.010402262
7	0xbb352180	-0.0027638376
8	0x3d517524	0.051137105
9	0x3e02b2b3	0.12763481
10	0xbd568398	-0.05237159
11	0x3dee6d1e	0.11641906
12	0xbce691ac	-0.028145634
13	0xbdead472	-0.11466302
14	0xbddb093e	-0.10695122
15	0xbd56871c	-0.052374944
16	0x3db2baae	0.087270126
17	0x3d88c702	0.06678583
18	0xbde54814	-0.111953884
19	0x3d21c324	0.03949274
20	0x3d48a23c	0.048982844
21	0xbce7d49c	-0.028299622
22	0xbded5590	-0.115885854
23	0x3df694ea	0.12040122
24	0xbd8b9538	-0.068155706
25	0xbe0924ce	-0.13392946
26	0xbc834930	-0.01602611
27	0x3df8f12e	0.121553764
28	0xbda95531	-0.08268202
29	0xbd549452	-0.05189926
30	0xbcd2dc48	-0.025739804
31	0x3df9af22	0.12191607
32	0x3dd7c216	0.10535066
33	0x3e07ddbb	0.13268177
34	0xbde4e72c	-0.11176905
35	0x3d514840	0.051094294
36	0x3dd91a0a	0.1060067
37	0x3d52fac0	0.051508665
38	0xbde87da8	-0.11352092
39	0xbd173a70	-0.036920965
40	0x3d622558	0.055211395
41	0x3d8456cc	0.06461868
42	0xbc3848b0	-0.011247799
43	0xbd0d26b2	-0.03446073
44	0xbe100288	-0.14063466
45	0xbdd4cf32	-0.10391082
46	0xbd64550e	-0.055745177
47	0x3c78f940	0.015196145
48	0xbe0f5d80	-0.14000511
49	0xbdd4a6ae	-0.10383354
50	0xbdf21747	-0.11820846
51	0xbb1a0fc0	-0.0023507923
52	0x3ce9c370	0.028535575
53	0xbe02fe7c	-0.1279239
54	0x3cea4a40	0.028599858
55	0xbddb4f58	-0.10708493
56	0x3dbada80	0.09123707
57	0xbd43d63e	-0.04781174
58	0x3cf7e4c8	0.030260459
59	0x3c9acc50	0.018896252
60	0x3d4699c8	0.0484865
61	0x3cea4428	0.028596953
62	0x3e0ef17f	0.13959311
63	0x3cf792b0	0.030221313
64	0xbd9d4bce	-0.07680474
65	0xbc21b7b0	-0.009870455
66	0xbc5349e0	-0.012896031
67	0x3d3aadd8	0.045575947
68	0xbd3311ea	-0.043718256
69	0x3d07878c	0.033088252
70	0x3e0dfa63	0.13865046
71	0x3d60a064	0.05484046
72	0x3d9d5210	0.07681668
73	0x3dec7cea	0.11547263
74	0x3d934b50	0.07192099
75	0xbd6a0ad2	-0.057139225
76	0xbc7b7200	-0.015347004
77	0xbe0946ce	-0.13405916
78	0xbd97cbe1	-0.07411934
79	0x3dab19f6	0.08354561
80	0x3e09dc55	0.13462956
81	0x3c81d548	0.01584877
82	0xbd8145ef	-0.06312167
83	0xbcca6710	-0.024707347
84	0x3d22de34	0.03976269
85	0xbddea724	-0.10871723
86	0x3cf992b8	0.030465469
87	0x3c990660	0.018679798
88	0x3e05905d	0.13043351
89	0xbde44226	-0.11145429
90	0xbdbb140c	-0.09134683
91	0xbca57948	-0.020199433
92	0xbc560dd0	-0.013064817
93	0xbe0f0420	-0.13966417
94	0x3cef77e0	0.029231966
95	0xbdeed1d3	-0.116611145
96	0x3d9e0b06	0.07716946
97	0x3e0a54ad	0.13508864
98	0xbdebb3bb	-0.1150889
99	0x3db99eba	0.09063478
100	0xbd16d318	-0.03682241
101	0xbd3e0682	-0.046392925
102	0xbd4fdb26	-0.050746106
103	0x3df45dbe	0.119319424
104	0x3dbcbaa6	0.09215288
105	0x3cfe5938	0.031048402
106	0xbb051b00	-0.0020310283
107	0xbda9898c	-0.08278188
108	0x3bb6ea00	0.005582094
109	0x3bc38c80	0.0059676766
110	0x3dc36494	0.09540668
111	0x3ce2e008	0.027694717
112	0x3d8409a6	0.06447153
113	0x3d8ade38	0.06780666
114	0x3d80a040	0.06280565
115	0xbd816bc6	-0.06319384
116	0xbb7cee00	-0.0038594007
117	0xbdc26cd8	-0.094934165
118	0xbd4208b2	-0.047371574
119	0x3db6aeb4	0.08920041
120	0x3d2ce8e0	0.042214274
121	0x3de5d486	0.11222176
122	0x3e03887b	0.12845032
123	0x3dc3e5ee	0.0956534
124	0xbd03031a	-0.03198538
125	0xbd9d8f26	-0.07693319
126	0x3e078795	0.13235314
127	0xbad30f80	-0.0016102642
128	0xbd47f756	-0.048819862
129	0x3cf1a038	0.029495344
130	0xbdef336f	-0.11679732
131	0xbdfdc85b	-0.123917304
132	0x3d227be8	0.039668947
133	0x3d42fa40	0.04760194
134	0x3e07b8d5	0.13254102
135	0x3d9f6dbe	0.077846035
136	0x3d6dc738	0.058051318
137	0xbd908d62	-0.07058217
138	0x3dc7cc80	0.09755802
139	0xbc481c10	-0.012213722
140	0x3d4e5090	0.0503698
141	0x3b487300	0.0030586123
142	0xbdc1629a	-0.09442635
143	0xbd968957	-0.07350414
144	0xbe0de108	-0.13855374
145	0x3ca89100	0.020576954
146	0x3def3716	0.11680429
147	0xbdced9c3	-0.101001285
148	0xbc650d80	-0.013980269
149	0x3d95ec6a	0.07320483
150	0xbde22077	-0.110413484
151	0xbdbd4858	-0.09242314
152	0xbe0087c2	-0.12551787
153	0x3ca22030	0.019790739
154	0xbd7d0450	-0.06177169
155	0xbde56586	-0.11201005
156	0x3cf41530	0.02979526
157	0xbd9ba0db	-0.0759904
158	0x3de4a942	0.11165096
159	0x3c17ff40	0.009277165
160	0x3d52aab0	0.05143231
161	0xbe077c8e	-0.13231108
162	0xbdf3be3c	-0.11901519
163	0xbdba0dfe	-0.090847
164	0xbe10b54f	-0.14131664
165	0xbce87b08	-0.028378978
166	0x3daf36a4	0.08555344
167	0x3cf88d30	0.030340761
168	0xbdf9fa04	-0.1220589
169	0x3d6e18b8	0.058129042
170	0x3c2d0cd0	0.010562137
171	0x3cf77320	0.030206263
172	0x3e02f229	0.1278769
173	0xbd4d3a24	-0.050104275
174	0xbe078fad	-0.13238402
175	0xbde83838	-0.11338848
176	0xbca001e4	-0.019532152
177	0xbda2b102	-0.07943918
178	0xbe03c677	-0.12868677
179	0xbd3ad38a	-0.045611896
180	0x3d8fc9d8	0.070209205
181	0x3dff6472	0.1247033
182	0xbd95db59	-0.07317228
183	0xbde1743a	-0.110084966
184	0xbe026cf2	-0.12736872
185	0xbe00be6e	-0.12572643
186	0xbe096899	-0.13418807
187	0xbdc156bf	-0.09440374
188	0x3db7cdf0	0.08974826
189	0x3dd38da6	0.10329752
190	0xbe0ba7dd	-0.13638254
191	0x3d671af8	0.056422204
192	0xbda65150	-0.08120978
193	0x3da8a814	0.08235183
194	0xbdb51f58	-0.08843869
195	0xbc018c40	-0.007906973
196	0xbdbe456a	-0.092905834
197	0xbda4f4cf	-0.08054506
198	0xbe0bfbdd	-0.13670297
199	0x3e04dc1b	0.12974589
200	0x3db4fe42	0.08837558
201	0xbd718a20	-0.058969617
202	0xbd74b258	-0.059740394
203	0xbd649b80	-0.05581236
204	0x3d75a4c4	0.059971586
205	0x3c1bfdd0	0.009520963
206	0x3cc7c5b0	0.024386257
207	0xbd8bc519	-0.06824703
208	0xbdaad204	-0.083408386
209	0xbdb07a7c	-0.08617112
210	0x3da6249c	0.081124514
211	0xbb6fb140	-0.0036574155
212	0x3d765c78	0.06014678
213	0x3d1275b4	0.03575678
214	0x3d32f3c8	0.04368952
215	0x3db7a7ce	0.08967553
216	0x3c6f29b0	0.014597341
217	0x3bff58a0	0.0077925473
218	0x3e098aa3	0.13431792
219	0x3da8998c	0.08232412
220	0x3dbd7084	0.09249976
221	0xbdc123d6	-0.09430663
222	0x3d4b2a98	0.049601167
223	0xbda15b92	-0.07878794
224	0xbe09b531	-0.13448025
225	0x3c3c1310	0.011479154
226	0xbdfefce7	-0.12450581
227	0xbdb6b2ac	-0.08920798
228	0xbda33448	-0.07968956
229	0xbca330e4	-0.019920774
230	0xbd21aef4	-0.03947349
231	0x3e0549b3	0.13016395
232	0x3d895744	0.06706098
233	0x3d15e284	0.036592975
234	0x3cbdee28	0.02318485
235	0xbce13b0c	-0.027493976
236	0x3c590430	0.013245627
237	0x3e0c7bbb	0.13719074
238	0x3dde0706	0.10841183
239	0xbdaf9659	-0.085735984
240	0xbe02ca66	-0.12772521
241	0xbde51ded	-0.111873485
242	0xbdc94364	-0.09827307
243	0xbd6d9978	-0.058007687
244	0x3dfd5476	0.12369625
245	0x3d9faa24	0.077961236
246	0xbc2c5360	-0.010517925
247	0x3c986850	0.018604428
248	0xbcb92050	-0.022598416
249	0xbd9baeae	-0.07601677
250	0x3df629da	0.12019701
251	0x3dd9f85e	0.106430754
252	0x3e0c4a8f	0.13700317
253	0xbde05f0a	-0.10955627
254	0x3dc9162c	0.09818682
255	0xbd55784a	-0.05211667

l2.bias f4 [100]
0	0x3def7f06	0.1169415
1	0x3dc5dd84	0.096613914
2	0xbcbefab4	-0.023312904
3	0xbba02420	-0.004887119
4	0x3e0ff949	0.14059938
5	0x3ddbf4ec	0.107400745
6	0xbd242f5a	-0.04008422
7	0xbdec75ce	-0.11545907
8	0xbdbed88e	-0.09318648
9	0xbd06fcae	-0.032955818
10	0x3ca2cc88	0.019872919
11	0x3d79c758	0.060981125
12	0xbd9d85aa	-0.0769151
13	0x3d08a6bc	0.033362135
14	0x3b6d7ec0	0.003623888
15	0xbd998188	-0.07495409
16	0xbd3ce580	-0.046117306
17	0x3ddf85c2	0.10914184
18	0xbdf320cc	-0.1187149
19	0x3dc92c3e	0.09822892
20	0xbd037ada	-0.032099582
21	0xbddaf0d2	-0.10690464
22	0xbde4377d	-0.11143396
23	0xbd79453a	-0.060857035
24	0xbd2a3380	-0.04155302
25	0x3defc40a	0.11707313
26	0x3c5b25a0	0.01337567
27	0x3cae8a90	0.021306306
28	0x3d696a7c	0.056986317
29	0xbdc91e32	-0.098202124
30	0x3cf299f0	0.029614419
31	0xbe0f358c	-0.1398527
32	0xbdc06e1e	-0.09396003
33	0x3dc93296	0.098241016
34	0x3d9e6520	0.07734132
35	0xbbaed460	-0.0053353757
36	0x3d8e733c	0.06955573
37	0x3dcc87a8	0.09986812
38	0x3df5d5d6	0.120036766
39	0x3c8247a8	0.015903309
40	0x3dede186	0.11615281
41	0x3e09a995	0.13443597
42	0xbd3a1f94	-0.04544027
43	0x3cbddc40	0.023176312
44	0xbd37e9e0	-0.044900775
45	0x3b0cc280	0.0021478236
46	0x3dfba4c2	0.122872844
47	0xbb364640	-0.0027812868
48	0xbd95b7fb	-0.07310482
49	0x3d4c2b64	0.049846068
50	0xbe04e024	-0.12976128
51	0xbcc3bbc8	-0.023893252
52	0x3d522ec4	0.05131413
53	0xbd350968	-0.044198424
54	0x3d9010dc	0.07034466
55	0xbc398770	-0.011323795
56	0x3d71ad1c	0.05900298
57	0xbd207bca	-0.039180554
58	0xbda21eaa	-0.07916005
59	0xbe071d27	-0.13194714
60	0xbc789a90	-0.015173569
61	0x3de89fa6	0.113585755
62	0xbd568620	-0.052374005
63	0xbdca4cae	-0.09877907
64	0x3e05fac1	0.13083936
65	0xbde054bc	-0.10953662
66	0xbd5aa716	-0.053382
67	0xbb764240	-0.003757611
68	0x3df910ca	0.121614054
69	0xbdcd0b80	-0.10011959
70	0xbc682410	-0.014168754
71	0xbe0ad22e	-0.1355674
72	0x3c8ca648	0.017169133
73	0xbd644126	-0.055726193
74	0x3de13e82	0.109982505
75	0xbdc3664f	-0.09540998
76	0xbda81b53	-0.08208337
77	0x3ce91438	0.028452024
78	0xbd452ca0	-0.04813826
79	0xbd2019ce	-0.03908711
80	0xbb71cb00	-0.003689468
81	0x3cf867d0	0.03032294
82	0xbdae69c2	-0.085162655
83	0x3d75875c	0.059943542
84	0xbd4e6724	-0.05039133
85	0x3dc0348c	0.093850225
86	0xbe0c209a	-0.13684312
87	0x3d16cae0	0.03681457
88	0xbd9cdf46	-0.076597735
89	0x3da649f4	0.08119574
90	0xbe10005f	-0.14062642
91	0x3da5ec38	0.08101696
92	0x3caecb28	0.021337107
93	0xbcc4be94	-0.024016656
94	0x3d6023bc	0.05472158
95	0x3d3c7674	0.046011403
96	0x3bf76660	0.007550046
97	0xbd66f4ca	-0.056385793
98	0xbde98a77	-0.11403363
99	0x3debe252	0.115177765

l3.weight f4 [20, 100]
0	0x3d8512a9	0.064977
1	0x3d1baa76	0.03800436
2	0x3db98b85	0.09059814
3	0xbdbdc87d	-0.09266756
4	0x3db5f2d1	0.08884204
5	0xbdb1f0a2	-0.08688475
6	0x3bfbf850	0.0076895133
7	0x3d86b17d	0.06576822
8	0x3d706bd2	0.058696575
9	0x3d947f19	0.072508045
10	0x3daa4179	0.08313269
11	0x3b6dde60	0.0036295876
12	0x3d5de972	0.05417771
13	0xbbff43d0	-0.0077900663
14	0x3dca4a85	0.09877495
15	0x3da67f91	0.081298
16	0x3ceed574	0.029154517
17	0x3d9bad33	0.076013945
18	0x3cc50820	0.024051726
19	0x3d949dd5	0.072566666
20	0xbc662770	-0.014047489
21	0x3cd91c64	0.026502796
22	0xbd834b22	-0.06410815
23	0xbda221e0	-0.079166174
24	0x3bc64bd0	0.006051518
25	0xbda0183a	-0.07817121
26	0xbd4ab2c3	-0.049486887
27	0x3d6384da	0.05554662
28	0xbcb3f798	-0.021968648
29	0xbbc67e30	-0.006057523
30	0x3c6a4618	0.014298938
31	0x3d6ec3b2	0.0582921
32	0x3d531b62	0.051539786
33	0xbdabcd60	-0.083887815
34	0xbca2d400	-0.01987648
35	0xbd83468d	-0.06409941
36	0x3db25e71	0.087094195
37	0xbdb254b5	-0.08707563
38	0xbca94308	-0.020661846
39	0x38a6c800	7.95275e-05
40	0xbcf96978	-0.0304458
41	0x3c8cccc8	0.017187491
42	0xbd99060d	-0.07471857
43	0xbdc2553f	-0.09488916
44	0x3dba271f	0.09089493
45	0x3d83a4e5	0.064279355
46	0x3db21cbf	0.08696889
47	0xbd90b2f8	-0.070653856
48	0xbccd9f4c	-0.025100373
49	0x3d787bba	0.06066487
50	0x3d956bf1	0.07295979
51	0x3c33ca00	0.0109734535
52	0x3adbcc00	0.0016769171
53	0xbc887ea0	-0.016661942
54	0x3cee9bfc	0.029127114
55	0xbd895afc	-0.06706807
56	0xbdb44162	-0.08801533
57	0xbd6e7e57	-0.058225956
58	0xbc48a100	-0.012245417
59	0xbc690480	-0.014222264
60	0x3d0f64de	0.035008304
61	0xbdc8b7af	-0.0980066
62	0xbd80442d	-0.062630035
63	0x3d92d157	0.07168835
64	0x3cc9d5e8	0.024638131
65	0xbd9d1ca5	-0.07671479
66	0xbccce300	-0.025010586
67	0x3d88070f	0.06641971
68	0x3d6ca166	0.05777111
69	0xbb81df30	-0.0039633736
70	0x3cca13ec	0.024667703
71	0xbd9d52c3	-0.07681801
72	0xbdc7e422	-0.0976031
73	0xbd894295	-0.06702153
74	0xbca4b838	-0.020107374
75	0x3d8740e3	0.06604173
76	0x3db747b1	0.08949221
77	0x3dcbe341	0.099554546
78	0xbd6ff18d	-0.05857997
79	0xbdc56e02	-0.09640123
80	0xbd518de7	-0.05116072
81	0x3d092cb2	0.03348989
82	0x3d132316	0.035922132
83	0xbd9bd8fa	-0.07609744
84	0xbd94f3ee	-0.072730884
85	0xbd88e0d0	-0.066835046
86	0xbd8ce2bd	-0.068791844
87	0xbd9445b2	-0.07239856
88	0x3d9a1969	0.07524378
89	0xbd9cc78a	-0.076552466
90	0x3da00d11	0.07814992
91	0x3d66dc36	0.056362353
92	0xbd999656	-0.074993774
93	0x3d9db1f9	0.07699961
94	0x3da5f48d	0.08103285
95	0xbc3de3b0	-0.011589929
96	0xbd7ac733	-0.061225127
97	0x3da1f0bd	0.07907245
98	0xbd5f41c3	-0.054506075
99	0x3d7e488a	0.062080897
100	0xbdab6c8a	-0.083703116
101	0xbc074f50	-0.008258656
102	0xbc283aa8	-0.010267891
103	0x3d843ef7	0.06457322
104	0xbd7a9b43	-0.061183225
105	0xbd4a037a	-0.04931972
106	0xbcd67f88	-0.026183859
107	0xbcac5fac	-0.021041714
108	0x3d9b0f09	0.07571227
109	0x3d666422	0.056247838
110	0x3d0e6faa	0.03477446
111	0x3db57b09	0.08861358
112	0xbd8cf403	-0.06882479
113	0xbbf92060	-0.0076027364
114	0xbd8c5fca	-0.06854208
115	0x3c8011a0	0.015633404
116	0xbca7ea38	-0.020497426
117	0xbd70a040	-0.058746576
118	0xbd8a18f6	-0.06743042
119	0x3c8188ec	0.01581236
120	0xbd51a45d	-0.05118214
121	0x3bfc87d0	0.00770662
122	0x3dac31af	0.08407914
123	0x3d30205e	0.042999618
124	0xbd0224b0	-0.03177327
125	0x3d2c7372	0.042102285
126	0xbcbb1138	-0.022835359
127	0xbd998bf0	-0.07497394
128	0x3d29ab62	0.04142321
129	0x3d243c92	0.040096827
130	0x3d5bf342	0.053698786
131	0x3d882305	0.066473044
132	0x3ba60d00	0.0050674677
133	0x3c22cda8	0.009936728
134	0x3d5e5f66	0.054290198
135	0xbc975b38	-0.018476114
136	0xbd53f38d	-0.05174594
137	0xbd287e3d	-0.041136015
138	0x3c6d1d90	0.01447238
139	0x3da66ff9	0.08126826
140	0xbbe370a0	-0.006940916
141	0xbd023e60	-0.031797767
142	0xbba91ad0	-0.005160667
143	0x3cf86184	0.030319937
144	0x3d413ae6	0.04717531
145	0xbc303880	-0.010755658
146	0x3cea425c	0.028596096
147	0x3dbb1d81	0.09136487
148	0xbda02bdd	-0.07820866
149	0xbd228673	-0.039679002
150	0xbdb51a6d	-0.08842931
151	0xbdaf6dc0	-0.08565855
152	0x3c083a00	0.0083146095
153	0x3dccc2b1	0.09998072
154	0x3c8e236c	0.017350875
155	0x3d5f3b56	0.054499947
156	0x3c853be8	0.016263917
157	0x3d925fb7	0.071471624
158	0x3ccd9134	0.025093652
159	0x3cf7b944	0.030239709
160	0xbd1cd613	-0.038290095
161	0xbd1f154a	-0.038838662
162	0xbd1f014d	-0.0388196
163	0xbd993be5	-0.07482127
164	0xbb8e4ab0	-0.0043423995
165	0xbcf92760	-0.030414283
166	0xba0f2a80	-0.000546135
167	0x3d255bd6	0.040370785
168	0xbda00a4d	-0.07814465
169	0xbd4184cd	-0.04724579
170	0x3daa9e71	0.083310015
171	0x3d7f2136	0.06228753
172	0x3d7187f2	0.05896754
173	0x3db6de6b	0.089291416
174	0xbc718f18	-0.014743589
175	0xbdc161f7	-0.094425134
176	0xbcb423f4	-0.0219898
177	0x3b150b40	0.0022742301
178	0xbd14b22c	-0.03630273
179	0x3da39ed9	0.07989282
180	0x3d443d96	0.047910295
181	0xbda333d6	-0.07968871
182	0x3c75cfa8	0.015003122
183	0xbc89c9ac	-0.016819797
184	0x3d3dd7fa	0.04634855
185	0xbdc77170	-0.09738433
186	0xbda52300	-0.08063316
187	0x3da13835	0.07872049
188	0x3d37e5ea	0.044896998
189	0x3da42f4f	0.08016836
190	0x3c5b6c58	0.01339253
191	0x3da6ca9f	0.08144116
192	0xbd102b66	-0.035197638
193	0xbc90968c	-0.017649911
194	0xbdb5a843	-0.08869984
195	0xbd00f20c	-0.031480834
196	0x3d63cb9a	0.05561409
197	0xbc2ca390	-0.010537043
198	0x3d3660fe	0.044526093
199	0xbab3c2c0	-0.0013714656
200	0xbc702ea8	-0.014659561
201	0xbdb585ca	-0.08863409
202	0x3d51f592	0.051259585
203	0xbda041da	-0.0782506
204	0x3db071f3	0.08615484
205	0xbdc7dfa3	-0.09759452
206	0xbdadfff0	-0.08496082
207	0xbd83061e	-0.06397651
208	0x3d90b9a1	0.07066656
209	0xbd603317	-0.054736223
210	0xbda0b790	-0.07847512
211	0x3d8e72f7	0.069555216
212	0xbd8eadf2	-0.06966771
213	0xbda71b6a	-0.08159526
214	0x3dc73461	0.09726787
215	0xbdc3a427	-0.09552794
216	0x3cb86f00	0.022513866
217	0x3daf0705	0.08546261
218	0x3dbba68f	0.09162628
219	0xbcef2054	-0.02919022
220	0x3c4f0350	0.012635067
221	0xbdc75762	-0.09733464
222	0x3d91742d	0.07102237
223	0x3c8062e8	0.015672162
224	0x3db85121	0.08999849
225	0x3d993ec9	0.074826784
226	0x3cfd058c	0.030886434
227	0xbc6a8a00	-0.014315128
228	0xbc5cf9b0	-0.0134872645
229	0x3d9712f1	0.0737666
230	0x3b4f3460	0.0031616911
231	0xbdaa226e	-0.08307348
232	0x3ce33ab4	0.027737953
233	0x3d3996a2	0.04530967
234	0x3c9c6318	0.01909022
235	0xbdc225e5	-0.09479884
236	0x3d68e72e	0.056861095
237	0xbd79a75d	-0.060950626
238	0xbda2988a	-0.07939251
239	0x3d2534e6	0.04033365
240	0xbda3c2d6	-0.079961464
241	0xbc996f40	-0.018729806
242	0xbdc345d0	-0.095348
243	0xbd03c05a	-0.032165863
244	0x3dbc4d89	0.09194476
245	0x3cf061a4	0.029343434
246	0x3cd386a4	0.025821038
247	0xbc757b30	-0.0149829835
248	0xbd7e7873	-0.062126588
249	0x3d60ad6a	0.05485288
250	0x3d95573f	0.072920315
251	0x3dc763e7	0.09735852
252	0x3d4e0c22	0.05030454
253	0x3d44b71a	0.04802618
254	0xbdb94e4a	-0.090481356
255	0xba222c00	-0.0006186366

l3.bias f4 [20]
0	0xbd414213	-0.047182154
1	0x3db5db91	0.088797696
2	0xbc4e93a8	-0.012608446
3	0xbb6b8800	-0.0035939217
4	0xbc6e4d90	-0.0145448595
5	0xbcb4a528	-0.022051409
6	0x3d8ac845	0.0677648
7	0x3c2cafd8	0.010539971
8	0xbc370858	-0.011171423
9	0x3cbd8014	0.023132361
10	0x3d83dd11	0.064386494
11	0xbc4a74c0	-0.012356937
12	0xbd82d60e	-0.06388484
13	0x3d285d7e	0.041104786
14	0xbd41de2a	-0.047331013
15	0xbd111780	-0.035422802
16	0x3ca57354	0.020196594
17	0xbdb99baa	-0.09062894
18	0xbc9f4eec	-0.019446813
19	0x3d34137e	0.0439639

output.weight f4 [8, 20]
0	0xbdc28876	-0.09498684
1	0xbe579771	-0.21053864
2	0xbd1f0850	-0.038826287
3	0x3d9dcc60	0.07704997
4	0x3e586e14	0.21135741
5	0x3d504300	0.050845146
6	0x3c696750	0.014245823
7	0xbcc3df80	-0.023910284
8	0x3d3d58e0	0.046227336
9	0xbdfa1521	-0.12211061
10	0xbde95c6d	-0.11394582
11	0xbde97aaf	-0.11400353
12	0xbd8665bc	-0.06562373
13	0xbb7d6840	-0.0038666874
14	0xbdf764da	-0.12079783
15	0xbe42f8d8	-0.19040239
16	0xbd7920b4	-0.060822204
17	0x3e1bcae6	0.15214118
18	0xbe13ff6b	-0.14452903
19	0x3dde6ba8	0.108603776
20	0x3d0d29e8	0.034463793
21	0x3e5ae7ac	0.21377438
22	0xbe4f7401	-0.20259096
23	0x3d9230f0	0.0713824
24	0xbd2ddeec	-0.042448923
25	0x3dd3e454	0.103462845
26	0xbe031ddc	-0.12804359
27	0x3e343c56	0.17601141
28	0xbe55b387	-0.20869265
29	0xbe614ea4	-0.22002655
30	0xbc867650	-0.016413838
31	0x3d4f0408	0.050540954
32	0x3e4a44c8	0.197528
33	0x3e04dca4	0.12974793
34	0x3debfc1c	0.115226954
35	0x3e244e52	0.16045502
36	0x3d8089f0	0.062763095
37	0xbde7c125	-0.11316136
38	0xbd04e50c	-0.032445
39	0x3e16f886	0.14743242
40	0x3d22dad8	0.039759487
41	0x3e26a674	0.16274434
42	0x3e5626d2	0.20913246
43	0xbdfc9398	-0.12332839
44	0xbdfb2d44	-0.12264493
45	0xbe00d914	-0.12582809
46	0x3cb735f8	0.022364601
47	0xbe0782e2	-0.13233522
48	0x3d2e6130	0.042573154
49	0x3da3a484	0.07990363
50	0xbca2ea10	-0.019887
51	0x3e2854c0	0.1643858
52	0x3d881cc4	0.066461116
53	0x3e0de18e	0.13855574
54	0x3e2a1d30	0.16612697
55	0xbd238c1c	-0.03992854
56	0x3e27c9a6	0.16385517
57	0x3d410620	0.047124982
58	0x3e33d44e	0.17561457
59	0xbe077dd6	-0.13231596
60	0xbe1caca0	-0.15300226
61	0xbe00e05a	-0.12585583
62	0x3e31236c	0.17298669
63	0xbe082296	-0.13294443
64	0xbe5052b0	-0.20344043
65	0x3da75998	0.081713855
66	0xbe08d993	-0.13364248
67	0xbe3172f0	-0.17329001
68	0x3df8d9fc	0.12150952
69	0xbe41bbce	-0.18919298
70	0xbcdcc250	-0.026948124
71	0x3c4e88c0	0.012605846
72	0xbc9a47a8	-0.018832996
73	0x3e0736f4	0.13204557
74	0x3dd0bb84	0.10192016
75	0xbbeb07e0	-0.0071725696
76	0xbe372f02	-0.17889026
77	0xbe488805	-0.19583137
78	0x3dd96794	0.10615459
79	0x3e1ae36a	0.15125814
80	0x3e1a349c	0.15059131
81	0xbd7e32c0	-0.062060118
82	0x3de97228	0.11398727
83	0x3d3cbb38	0.046076983
84	0xbd83fc94	-0.0644466
85	0x3e14c676	0.14528832
86	0xbe448662	-0.19191888
87	0x3e26ad00	0.16276932
88	0x3c2b2480	0.010445714
89	0x3d65d528	0.056111485
90	0x3e13fc02	0.14451602
91	0x3e5750ac	0.21026868
92	0xbe42f57e	-0.1903896
93	0x3da37540	0.07981348
94	0x3ddc0730	0.107435584
95	0x3d720a98	0.059092134
96	0xbe3bd7d4	-0.1834405
97	0xbe38e4be	-0.18056008
98	0x3dc07690	0.09397614
99	0xbe345cb7	-0.17613493
100	0xbdef28e9	-0.11677725
101	0xbc09f500	-0.008420229
102	0xbe297b82	-0.1655102
103	0xbe00c240	-0.125741
104	0x3e625748	0.22103608
105	0xbe605efb	-0.21911232
106	0xbdf52c99	-0.11971397
107	0xbde4d738	-0.11173862
108	0xbe0a6ba2	-0.13517621
109	0xbd5db0a8	-0.05412355
110	0x3d54e168	0.051972777
111	0xbcf06270	-0.029343814
112	0x3df768f4	0.12080565
113	0x3dd374ac	0.10324988
114	0x3e5bc330	0.21461177
115	0x3e5565fe	0.20839688
116	0x3d90ff74	0.07079974
117	0xbe471c5a	-0.19444409
118	0x3ce769f0	0.028248757
119	0x3def3d40	0.116816044
120	0xbe1e8ed5	-0.15484174
121	0x3d869fc4	0.065734416
122	0x3df61388	0.12015444
123	0x3d55b7f0	0.05217737
124	0x3dea1008	0.11428839
125	0xbe47e2ec	-0.19520158
126	0xbc57bac0	-0.013167083
127	0xbe0b9ed0	-0.13634801
128	0xbd116a50	-0.035501778
129	0xbd287618	-0.041128248
130	0x3d70bdc0	0.05877471
131	0x3d69d7b8	0.05709049
132	0xbe4ea37c	-0.20179552
133	0x3d1d3998	0.038385004
134	0xbd1a1ba4	-0.037624016
135	0x3d4d96c0	0.050192595
136	0xbdbd34b0	-0.09238565
137	0xbd9be1ee	-0.07611452
138	0x3e62b2d2	0.22138527
139	0xbe35c928	-0.17752516
140	0xbd925e80	-0.07146931
141	0x3dc66968	0.096880734
142	0xbe309554	-0.17244464
143	0xbc7e63b0	-0.015526697
144	0xbe1d2f6d	-0.15350123
145	0x3e0ab90a	0.1354715
146	0xbdfe1be2	-0.12407662
147	0xbe3eff4d	-0.18652077
148	0x3dbe0f34	0.092802435
149	0x3d5ff818	0.05467996
150	0x3d27b970	0.04094833
151	0x3d6fbeb8	0.058531493
152	0xbdb2a59c	-0.08722994
153	0xbdc2d400	-0.09513092
154	0xbd80ab72	-0.062827006
155	0xbe3b7726	-0.1830717
156	0x3e5894ee	0.21150562
157	0xbe41e5a4	-0.18935257
158	0x3dbcff1c	0.09228346
159	0xbdfb08dc	-0.12257549

output.bias f4 [8]
0	0xbddc72e4	-0.10764101
1	0xbd86000c	-0.06542978
2	0x3dd56548	0.104197085
3	0xbd8688c2	-0.06569053
4	0xbd7e736c	-0.062121794
5	0x3de28d74	0.11062136
6	0xbe48af6c	-0.19598168
7	0xbe40c1a7	-0.18823873
