PINN_experience/saved_model/simpleANNlr=0.002bs=64_mse_data.pt (torch, 34575 bytes, 8 tensors)

l1.weight f4 [50, 14]
000000 94 2a ff 3d 30 0d e4 3c da 59 d9 bd 22 d4 0f 3e
       0.12459293 0.02783832 -0.10612841 0.14045766
000010 a8 da 10 be 20 35 6e bc c0 46 94 3c ca 8c 25 be
       -0.1414591 -0.014539033 0.018100142 -0.16166988
000020 7e 3f 70 be 40 13 d6 bb 86 5b 6a 3e 10 8e 4e bd
       -0.2346172 -0.0065330565 0.22886476 -0.05042845
000030 38 f7 67 3e 50 df e9 bc aa b1 61 be 48 7e ab bc
       0.226529 -0.028548867 -0.2204043 -0.020934239
000040 00 52 ca bb f0 a5 83 be d1 71 6c be 98 69 17 bd
       -0.006174326 -0.25712538 -0.23090293 -0.036965936
000050 1a ab 81 bd 78 da 53 3e 9a 6f 57 3e 82 34 24 be
       -0.06331463 0.20688808 0.21038666 -0.16035655
000060 f8 32 77 be c4 6e 97 3d 58 78 02 bd 78 74 90 bc
       -0.24140537 0.07394174 -0.03185305 -0.017633662
000070 2c 45 6d 3e 78 a8 79 be 02 af df bd 4c e9 3f bd
       0.23170918 -0.24380672 -0.10922052 -0.04685335
000080 00 f0 1b 3e 74 75 fb 3d e4 bc 3f bd 80 36 b1 3b
       0.15228271 0.12278262 -0.046811 0.0054081082
000090 70 9b e0 bd 0c 76 4f 3e 02 b7 49 be dd f3 0e be
       -0.10967147 0.20259875 -0.19698718 -0.13960214
0000a0 d0 39 61 3e c0 20 80 3d f0 8c cb bc 20 55 87 3d
       0.2199471 0.062562466 -0.024847478 0.06608033
0000b0 29 26 18 be c2 17 ac bd da 77 73 3e 43 78 62 be
       -0.14858307 -0.08402969 0.23776188 -0.22116189
0000c0 f0 29 db bc b5 c0 6b be ea db 2a 3e 08 4c ec 3d
       -0.026753396 -0.2302273 0.16685453 0.11537939
0000d0 56 2f 97 bd 9c b1 1e bd 66 bd 59 be f6 a8 67 3e
       -0.073820755 -0.0387436 -0.21263656 0.22623047
0000e0 48 6e 49 3d d8 50 53 3d d8 90 21 3d f4 6b c7 3d
       0.049177438 0.05159077 0.039444774 0.09737387
0000f0 c0 63 5d 3e 80 82 6e 3c 7c 82 6a bd 74 20 e8 3d
       0.21620083 0.014557481 -0.057253346 0.11334315
000100 08 5e cf bd a0 dd 5b bd 91 80 80 3e 01 f7 81 3e
       -0.10125357 -0.053678155 0.25098088 0.25383762
000110 2e a9 3c be 5e 4b 57 3e 5c f0 f7 3d 30 a0 e5 3d
       -0.18423912 0.21024844 0.12106392 0.11212194
000120 fe 77 50 3e 8c 6f 43 3e e6 33 9f bd 32 73 43 3e
       0.20358273 0.1908552 -0.07773571 0.19086912
000130 e9 90 3a be 68 b5 45 3e 91 55 0d be de b8 80 be
       -0.18219341 0.19307482 -0.13802172 -0.25141042
000140 d6 b7 7c be 18 26 2e 3e 54 fd 32 3e 0c 04 2f 3e
       -0.24679503 0.17006719 0.1747945 0.17091388
000150 b0 01 c2 3c 3c 2d 30 3e 7d d4 75 be 70 07 e6 3d
       0.023682445 0.17204756 -0.24006839 0.11231887
000160 e6 b3 14 be db 91 52 be 24 44 9c 3d b8 c3 8c 3d
       -0.14521751 -0.20563452 0.07630184 0.06873268
000170 50 d5 c7 3c cb 68 84 be 58 b7 18 bd fb f1 7b be
       0.024393708 -0.258612 -0.037284225 -0.24604027
000180 92 5b 65 3e 14 fe e3 bd 17 53 1a be f8 47 5f 3e
       0.22398213 -0.11132446 -0.15070759 0.21804798
000190 e4 2e 64 3e b4 ca 8c 3d f4 e1 1a 3e f6 39 47 be
       0.22283512 0.068746 0.15125257 -0.19455704
0001a0 e4 62 0c 3e 86 a8 13 3e 76 8d 78 3e 9a 77 7a 3e
       0.13709599 0.14419755 0.24272713 0.24459687
0001b0 0d b3 79 be 17 1d 76 be d2 1c 21 be e0 52 d4 3d
       -0.24384709 -0.24034534 -0.1573365 0.1036737
0001c0 9c da 19 3e 34 11 0d 3e 88 5a 6b bd 42 5d f7 bd
       0.15024799 0.13776094 -0.057459384 -0.120783344
0001d0 80 ed 3f bb 40 fa 22 3e 1a 80 6a be 94 62 a1 bd
       -0.0029285848 0.15915775 -0.2290043 -0.078801304
0001e0 98 53 ab 3d 98 29 60 bd fc 18 25 be dc 31 36 bd
       0.083655536 -0.054727167 -0.16122812 -0.044481143
0001f0 d6 a1 d1 bd a2 e7 6c 3e 40 9f 01 3e a8 99 66 be
       -0.10235946 0.23135236 0.12658405 -0.22519553
000200 40 36 63 bc 20 02 b0 3d cc b2 a2 3d a5 e7 05 be
       -0.013867915 0.08594155 0.07944259 -0.13076647
000210 50 f0 a3 3c 70 b0 4d 3d c0 ab f6 bb 48 7a 96 bd
       0.02001205 0.050217092 -0.0075277984 -0.07347542
000220 f2 34 09 3e c4 5e 3c 3e 78 77 44 3d f0 97 e3 bd
       0.13399103 0.18395525 0.047965497 -0.11112964
000230 50 80 4d 3e 52 2c 7f 3e 44 8c 4d be be b6 69 3e
       0.20068479 0.2491925 -0.20073038 0.22823617
000240 38 29 d1 3d 60 c2 9f bc cc 22 0b be 5b 36 07 be
       0.1021294 -0.019501865 -0.13587493 -0.13204329
000250 60 7a cc 3c bb 09 27 be 64 08 2b be 88 0d 29 3e
       0.024960697 -0.16312306 -0.1670242 0.16509068
000260 60 7c 4b be 6a ea 6a 3e b8 18 84 be d8 d6 50 3e
       -0.19871664 0.22940984 -0.2580011 0.20394456
000270 80 8c a9 3b ba 63 df bd 28 48 ac 3d d9 57 82 3e
       0.0051742196 -0.10907693 0.084122 0.25457647
000280 cc 7a f9 bd ac 9f 57 bd ba 06 17 be 76 c7 73 3e
       -0.12181625 -0.05264251 -0.1474866 0.23806557
000290 26 b3 41 be 38 51 65 3e 8e c6 28 3e 68 e6 43 3d
       -0.18915996 0.22394264 0.16481993 0.047827154
0002a0 04 f8 14 3e 5e 77 30 3e 68 73 46 3d 78 1d f2 3d
       0.14547735 0.17233035 0.048449904 0.11822027
0002b0 08 d7 4e be f8 0d c8 bd 20 31 57 3c 38 c6 cc bd
       -0.20199215 -0.09768289 0.013134271 -0.09998745
0002c0 ba 8e 1c be 70 87 60 be 6d 2b 74 be 46 a9 45 be
       -0.15288821 -0.21926665 -0.2384469 -0.19302854
0002d0 f8 b2 01 3d c0 c0 14 bd f0 59 3a bd a2 0d 81 be
       0.03166482 -0.036316633 -0.045495927 -0.25205714
0002e0 96 cf 7e 3e e0 e2 57 3d 48 f9 54 3d 47 e6 4f be
       0.24883875 0.0527066 0.051995546 -0.20302688
0002f0 90 0c 03 3e e2 f9 64 be 38 51 cf bc 40 c5 32 3c
       0.12797761 -0.22360948 -0.025307283 0.010911286
000300 6a a4 0f be f2 98 11 3e cc c6 39 3e bd 8d 0c be
       -0.14027563 0.142185 0.18142241 -0.13725944
000310 bc cc 16 be 43 92 80 3e a0 1e 6c bc 24 a6 b0 3d
       -0.14726537 0.2511159 -0.014411598 0.08625439
000320 72 04 3e 3e dc c7 8b bd 04 39 b4 3d 9a fa 0a 3e
       0.18556383 -0.068252295 0.08799937 0.1357216
000330 94 9f aa 3d e8 03 8f 3d b0 d5 2c 3d 74 82 02 be
       0.08331218 0.06983167 0.042195976 -0.12745076
000340 e0 07 01 3c 00 3e 4c 3c 92 c2 40 be 88 35 94 3d
       0.007875413 0.012465954 -0.18824223 0.07236773
000350 b9 3d 0d be d2 91 28 3e 3b bb 00 be b4 2c 81 3d
       -0.13793077 0.16461876 -0.12571423 0.063073546
000360 65 92 81 3e ec 58 5f 3e 9d f8 2a be 50 ba 6b 3d
       0.25307003 0.21811265 -0.16696401 0.05755073
000370 e8 a2 2f 3d c0 81 cf 3c f0 88 19 bd a4 df 89 3d
       0.04287997 0.025330424 -0.03748411 0.06732109
000380 94 01 ff bd 6e b0 1a be 7d a8 88 be a8 0e 48 3e
       -0.12451473 -0.15106365 -0.26691046 0.19536841
000390 a3 fe 6e be a8 82 fa bd 66 fe f4 bd ac 6b 53 3e
       -0.23339324 -0.12231952 -0.11962585 0.20646542
0003a0 0c ca 3b be 70 6a 42 3d df fa 54 be 85 3e 09 be
       -0.18338794 0.047464788 -0.20798825 -0.13402756
0003b0 84 22 c8 bd 48 0a f3 bd 28 2b 0b bd 00 f8 93 3d
       -0.09772208 -0.11867195 -0.033976704 0.072250366
0003c0 74 bd af bd a8 50 61 3d 34 08 04 3e 34 35 57 3e
       -0.08581057 0.05500856 0.12893754 0.21016389
0003d0 41 84 1e be f2 ff 47 be 1c 20 a7 3d 6f d3 40 be
       -0.15480138 -0.19531229 0.08160421 -0.18830656
0003e0 10 9d 5a 3d a0 87 1f 3c 97 4c 7c be 80 34 1d 3d
       0.053372443 0.009736925 -0.24638592 0.038380146
0003f0 84 d4 29 3e 26 ec 4a 3e 14 cb f3 bd 78 11 f9 3d
       0.16584975 0.19816646 -0.119039685 0.12161535

l1.bias f4 [50]
000000 f6 46 93 bd 88 ba 72 be 32 2b 73 3e 10 8e 07 bd
       -0.07191269 -0.23703969 0.23746946 -0.033094466
000010 7c 65 83 3d 60 09 66 bd c0 18 07 3c 0d 07 01 be
       0.06415841 -0.056161284 0.008245647 -0.12600346
000020 60 dd 1a 3d e0 aa 2e bd c2 57 bf bd 06 39 85 be
       0.037808776 -0.042643428 -0.0934291 -0.26020068
000030 8e bf 5f be d0 3f 82 bd fe be 6a 3e d8 b8 8c 3d
       -0.21850416 -0.063598275 0.2292442 0.06871194
000040 3c 0d 66 3e f8 fa 99 bc 48 5d 5e bd 32 7a f8 bd
       0.22465986 -0.018796429 -0.05428818 -0.12132682
000050 b8 0b da 3d 60 d5 60 3c 15 e4 32 be a6 41 58 3e
       0.106467664 0.013722748 -0.17469819 0.21118793
000060 c8 e4 8c 3d 06 e1 12 be 72 e2 12 3e 8f 6f 01 be
       0.06879574 -0.14343652 0.14344195 -0.12640212
000070 9e e8 43 be dd f1 73 be e2 7a 46 3e c0 49 38 bc
       -0.19131705 -0.23822732 0.19382814 -0.011248052
000080 30 7c ea 3d 60 6d 5f 3c de 2a 4c 3e e0 82 40 3c
       0.11449468 0.013636917 0.19938228 0.011749953
000090 82 cd 54 3e db 63 32 be 3c e4 f2 3d 36 40 64 3e
       0.2078152 -0.17420904 0.118599385 0.2229012
0000a0 9c 3e 65 be 92 ee 69 be d4 a2 f4 bd d8 6b 84 be
       -0.22387165 -0.22844914 -0.119451195 -0.25863528
0000b0 ef 78 14 be d4 1f 2d bd ec f0 3b be c6 00 eb bd
       -0.14499258 -0.04226668 -0.18353623 -0.11474757
0000c0 98 bc 61 be 44 0f 6c 3e
       -0.22044599 0.23052698

l2.weight f4 [100, 50]
000000 ab 98 fe bd 18 d9 64 bd 6e 56 aa 3d e4 34 1f 3d
       -0.12431463 -0.0558711 0.083172664 0.0388688
000010 d0 f8 3a bc 4a a1 a6 bd 50 18 16 bc 64 c1 c7 3d
       -0.011411861 -0.08136232 -0.00916107 0.09753683
000020 bc ce 59 3d c1 c6 91 bd a2 3a 0f bd f0 3b 3a 3d
       0.053175673 -0.071179874 -0.034968026 0.045467317
000030 d8 8a d4 3c 50 b1 32 3c 20 6e be bd 88 d7 40 3d
       0.025945112 0.010906532 -0.092983484 0.047080547
000040 56 0e c6 3d ea 86 cf 3d 14 69 05 3d 08 65 14 bd
       0.09670703 0.10133155 0.032570913 -0.036229163
000050 e0 67 c3 3d b7 f4 01 3e 88 08 82 3c 20 97 ce 3b
       0.09541297 0.12691008 0.015873209 0.0063046366
000060 59 55 07 3e 1a 8d bd 3d 8c 49 87 3d 9c 29 61 3d
       0.13216151 0.092554286 0.06605825 0.054971322
000070 20 5c 4f bc 88 e4 c6 3d 0e 68 77 bd 0a bf 0a bd
       -0.012656242 0.097115576 -0.06040197 -0.033873595
000080 66 72 9f 3d 50 c0 5a 3d 74 22 8a bc 28 68 90 3c
       0.07785492 0.05340606 -0.016862132 0.01762779
000090 3a f5 68 bd d0 49 0e bc 6c 88 35 3d 50 46 e9 3c
       -0.05687449 -0.00868459 0.044319555 0.02847591
0000a0 6e bd e8 bd e6 8d 65 bd 60 0b 90 bb 46 2a da 3d
       -0.11364256 -0.056043528 -0.0043958873 0.10652594
0000b0 79 9e 98 bd c8 60 72 3d e8 47 87 3d 10 a4 fb bd
       -0.07452101 0.05917433 0.06605512 -0.12287152
0000c0 f4 de 0f 3d 3c 5a bd bd df a0 0d 3e 68 30 55 3d
       0.035124734 -0.092457265 0.13830899 0.052048117
0000d0 81 d4 e3 bd 20 ca 3f 3c 6e 79 d6 bd 3a 73 0b bd
       -0.11124516 0.011705905 -0.104723796 -0.034045435
0000e0 52 ef 95 3d b0 6a b8 3d 99 00 0d 3e e8 c6 aa 3c
       0.07321037 0.09004724 0.13769759 0.020846799
0000f0 f6 56 c6 bd d3 8b 0a 3e 6c 34 f1 bd 20 21 34 3c
       -0.09684555 0.13529901 -0.11777577 0.010994226
000100 d8 9f 13 3d b8 4c bc bd f4 cf b7 bd 48 b8 17 bd
       0.03604111 -0.091943204 -0.08975211 -0.03704098
000110 ec d2 46 3d 2c 1c aa 3d f2 42 4d bd 24 24 87 3d
       0.048540995 0.083061546 -0.050112672 0.0659869
000120 28 24 05 bd c8 53 24 bd 52 e9 f4 3d 2b 70 0a 3e
       -0.032505184 -0.040118963 0.11958565 0.13519351
000130 bc a6 ac bc 84 4d a4 bd 7c 71 ac bc fe 29 1d bd
       -0.021075599 -0.080225974 -0.021050207 -0.038370125
000140 a8 cc 5e 3d d6 c5 ca 3d 2e 43 9f 3d 66 5b a9 3d
       0.054394394 0.099010155 0.077764854 0.08269386
000150 60 28 c0 3c f8 26 03 3d ea a1 ef 3d 43 51 bb bd
       0.023456752 0.032019585 0.117008045 -0.09146359
000160 96 02 ab 3d 72 18 af 3d 8c 30 47 bd 61 27 f7 bd
       0.083501026 0.085495844 -0.048630282 -0.12068058
000170 f6 1d af bd e6 8b a4 bd f6 f7 d3 bd 1a 42 89 3d
       -0.085506365 -0.08034496 -0.10350029 0.06702061
000180 40 8d 52 3d d0 42 4e bd 5e af f7 3d 86 06 51 bd
       0.051404238 -0.050356686 0.120939955 -0.05103161
000190 af e0 a1 bd 5a 56 74 bd d0 5e a7 bd fa 5d 81 3d
       -0.07904183 -0.059652664 -0.08172381 0.06316753
0001a0 ee 08 f4 3d 2c 01 9b 3d be 55 da bd 58 be c0 bd
       0.11915766 0.07568583 -0.10660885 -0.09411305
0001b0 00 fc 1b 39 2c c5 c5 3d b0 fb 94 3d f8 03 74 bd
       0.00014875829 0.09656748 0.07274568 -0.059574097
0001c0 b0 4d 7b 3d 3a 98 88 bd 6e 2f ad bd c0 83 cd 3d
       0.061353385 -0.0666966 -0.08456312 0.10034895
0001d0 10 0d 34 bc 30 8c be bd 48 32 a3 bd 00 28 3d 3d
       -0.0109894425 -0.093040824 -0.07968575 0.046180725
0001e0 0e 02 aa bd cc 42 18 3d 80 e8 79 3d ce ea 90 3d
       -0.08301173 0.037173077 0.061012745 0.070760354
0001f0 f0 08 2d 3c 60 fe b2 bb 90 9f 4b 3d 02 4e 46 bd
       0.010561213 -0.005462453 0.049712718 -0.048414238
000200 de 3e c8 3d 20 83 7d 3d 80 1d ca ba 3c 26 61 3d
       0.09777616 0.06189263 -0.0015420169 0.054968104
000210 9f 47 98 bd 44 a6 dc 3d d0 68 50 bc 42 83 b2 3d
       -0.07435536 0.107739 -0.012720302 0.08716442
000220 96 91 e7 3d 80 01 d3 3a cc cd 29 bd 9d 8a 92 bd
       0.11307065 0.001609847 -0.04145603 -0.07155345
000230 18 cf 56 bd a8 c5 6e 3d 5c 23 9a 3d 3a f4 57 bd
       -0.052443594 0.05829397 0.075262755 -0.052723147
000240 f6 24 d2 3d d8 70 e8 bd ef e5 0c be 80 16 81 3c
       0.10260956 -0.11349648 -0.13759588 0.0157578
000250 fe 95 00 be 77 f4 0b 3e 0c de 13 bd 3c 66 a0 3d
       -0.12557217 0.13667475 -0.036100432 0.07832
000260 f7 ec 87 bd 3e bd fc 3d e0 a0 f9 bd 9b fb cf bd
       -0.06636994 0.123407826 -0.121888876 -0.10155412
000270 5f c3 08 3e a5 12 01 3e bc 14 52 3d 86 dd cb 3d
       0.13355778 0.12604769 0.051289305 0.099543616
000280 80 02 ce bc 20 96 e8 3b a9 a6 bd bd d1 85 92 bd
       -0.025147676 0.0070979744 -0.092603035 -0.0715443
000290 9e 16 31 bd f0 0c 32 bc 91 eb 02 be 7c c8 f5 bd
       -0.04323446 -0.010867342 -0.12785174 -0.1200113
0002a0 e0 eb 85 bc 94 74 51 bd e6 bd e3 3d f0 6c 7d 3d
       -0.016347826 -0.05113657 0.11120205 0.06187147
0002b0 83 b8 0d 3e 0e 85 84 3d 3a 6d d1 3d 0a 0a 80 3d
       0.13839917 0.06470691 0.102259114 0.06251915
0002c0 86 55 b8 3d 80 32 16 3b 93 1c 8d bd 86 99 69 bd
       0.09000687 0.0022918284 -0.06890216 -0.057031177
0002d0 a0 03 40 3d 3e 5f 9f bd 2a 04 53 bd b2 dc e9 3d
       0.046878457 -0.07781838 -0.051517643 0.114190474
0002e0 1c c7 78 bd e0 59 51 bc 42 a8 b4 3d 6a 81 c7 bd
       -0.06073676 -0.0127777755 0.08821155 -0.09741481
0002f0 26 43 ab bd 8a bb ed 3d be c0 bd bd 28 f3 8a 3c
       -0.08362417 0.11608036 -0.09265278 0.016961649
000300 c5 b6 02 be 00 bc c3 3b 08 ea 1f 3d f2 87 0b bd
       -0.12765034 0.005973339 0.03904155 -0.034065194
000310 46 d5 93 3d cb 4f a7 bd 7e ec f2 3d 24 ae a7 bd
       0.07218413 -0.08169516 0.118615136 -0.081875116
000320 cb 78 09 3e 88 f4 ce 3c d1 3b b4 bd 5e 6a c4 3d
       0.13424985 0.025263086 -0.088004716 0.095906004
000330 04 67 a5 3d 25 77 0c 3e 5c 85 a7 bd 88 c2 13 3d
       0.08076289 0.13717325 -0.08179733 0.03607419
000340 fe b9 2d bd 93 ba 10 3e 33 f5 89 bd 47 47 ed bd
       -0.042413704 0.14133672 -0.06736221 -0.11585861
000350 f1 9a 09 3e fc f9 f5 bd 41 d5 85 bd 00 ed 1b 3b
       0.13438012 -0.12010571 -0.065348156 0.0023792386
000360 68 1b 17 3d 3c 32 41 3d a0 7f 49 bc 2c e2 44 3d
       0.03689137 0.047167048 -0.012298495 0.048067257
000370 00 c3 6f 3d 80 45 87 3a de a1 a2 3d 44 88 de bd
       0.058535576 0.0010320395 0.0794103 -0.10865834
000380 6c a8 09 be 98 cc 8d bd 50 79 55 bd d6 e4 a4 3d
       -0.13443154 -0.06923789 -0.052117646 0.080514595
000390 06 ae d1 3d f3 6f 04 3e 3b 7d cc bd ec 2b 55 bd
       0.102382705 0.1293333 -0.09984823 -0.05204384
0003a0 d0 02 23 bc e9 5d b1 bd a0 ef cc 3c b6 75 eb 3d
       -0.009949401 -0.0866049 0.025016606 0.11497061
0003b0 66 8f 11 bd 66 e5 20 bd 5c 79 cc bd 18 cb d2 3c
       -0.035537146 -0.03928127 -0.09984085 0.025731608
0003c0 54 d3 ba bc fd d7 89 bd 52 87 13 bd f6 9a a0 3d
       -0.022805847 -0.067306496 -0.036017723 0.078420565
0003d0 88 1f 83 3c 07 42 0b 3e 50 3a 2d bd 00 f6 2e bc
       0.016006246 0.13599406 -0.04229194 -0.010678768
0003e0 80 b5 4e 3d e8 56 83 3c d0 67 41 3d 28 42 41 3d
       0.05046606 0.016032651 0.047218144 0.047182232
0003f0 14 44 f8 bd ed 61 c3 bd dd 67 0e be 16 53 63 bd
       -0.1212236 -0.09540162 -0.13906808 -0.05549916

l2.bias f4 [100]
000000 6c 84 ae 3d c6 f1 e5 3d 75 c9 8c bd f1 58 f3 bd
       0.08521351 0.11227755 -0.068743624 -0.118821986
000010 62 a2 df 3d c8 5b da 3d ec 79 e3 bd e3 95 a4 bd
       0.10919644 0.10662037 -0.11107239 -0.08036401
000020 f9 d6 d4 bd 02 1c 9b 3d be 05 ef 3d cc 66 58 3d
       -0.10392565 0.075737014 0.11671017 0.05283241
000030 e0 0c b8 3d 88 8c 87 3d fc a0 86 bc 1e 1c db 3d
       0.08986831 0.06618601 -0.016434185 0.10698722
000040 20 04 89 3d be aa 36 bd 28 df 32 bd 49 14 b7 bd
       0.0669024 -0.044596426 -0.04366985 -0.08939416
000050 fb 4f 86 bd b8 75 b0 3c 84 b1 e5 bd c8 e3 56 3d
       -0.06558224 0.021540508 -0.11215499 0.052463323
000060 83 2e 0e 3e 48 f8 4b bd 26 8b ff 3d f2 01 f1 3d
       0.1388493 -0.049797326 0.12477712 0.11767949
000070 e9 24 82 bd 01 6b 02 3e 00 47 42 bc 7a e8 cd 3d
       -0.06354696 0.12736131 -0.011857748 0.10054107
000080 b8 d1 c6 bd 40 3c 47 3d 00 d8 b0 38 86 35 ab bd
       -0.097079694 0.048641443 8.432567e-05 -0.08359818
000090 00 90 1c ba 4c 4f ab bd e8 a9 aa 3c 7c e3 05 bd
       -0.00059723854 -0.08364734 0.02083297 -0.03268765
0000a0 08 53 99 3d f8 1e af bd db 15 01 be 69 3a 09 be
       0.0748654 -0.08550829 -0.12605993 -0.13401188
0000b0 5a e0 97 3d 00 d2 01 3c 44 42 a0 3d d8 7d 00 3d
       0.074158385 0.007923603 0.07825139 0.031370014
0000c0 f7 9e 05 be 30 ff a1 3c 2c cf 50 3d 65 6c fe bd
       -0.13048922 0.019775003 0.050978824 -0.12423018
0000d0 40 4b 7b 3c 22 ca cd 3d 84 03 42 3d 38 8f 9d bd
       0.015337765 0.100483194 0.047366634 -0.076933324
0000e0 b8 8a 65 3d 58 53 67 3d 70 89 30 3c 21 50 0d 3e
       0.056040496 0.056475967 0.010774955 0.13800098
0000f0 f8 80 d5 bd 70 7b 09 bc 00 d2 3f 3b fc 4c 4e 3d
       -0.104249895 -0.008391246 0.0029269457 0.050366387
000100 a0 76 87 bb 9e e8 2e bd c1 b5 e1 bd b8 f7 a7 3d
       -0.0041340142 -0.04270231 -0.11020995 0.082015455
000110 8d 63 c4 bd e0 bb 9c 3d ad a9 e9 bd 10 eb 80 3d
       -0.095893 0.07653022 -0.11409316 0.062948346
000120 38 3c f8 bd 3e 40 01 be 06 fc b5 3d c2 0c c6 3d
       -0.12120861 -0.12622163 0.0888596 0.09670402
000130 40 1a 17 3c 26 19 c8 3d 90 88 37 bc f6 84 f8 bd
       0.009222567 0.09770422 -0.011201993 -0.12134735
000140 d8 f1 8f 3c ec 89 0a be a5 e9 07 3e c8 9a c5 3c
       0.017571375 -0.13529176 0.13272722 0.024121657
000150 10 78 89 bd 9a 29 84 bd b0 94 f0 bc 34 06 5e bd
       -0.06712353 -0.06453247 -0.029367775 -0.054205135
000160 02 c7 98 bd 24 58 bc 3d 75 68 a3 bd 80 49 31 3b
       -0.07459833 0.09196499 -0.07978908 0.0027051866
000170 58 e2 87 3d 92 8d ce 3d ca 30 e7 3d b4 42 37 3d
       0.066349685 0.10085596 0.11288603 0.044741347
000180 44 a2 2f 3d f8 17 f1 3c 21 b6 0c 3e d4 58 9b 3d
       0.042879358 0.029430375 0.13741352 0.07585302

l3.weight f4 [20, 100]
000000 44 06 e8 3c 80 88 54 bc c0 7f 79 3c da 0a 02 3d
       0.0283233 -0.012971997 0.015228212 0.03174863
000010 f7 fa 7c bd 4d 74 88 bd ac 58 d3 3c 52 4d 74 3d
       -0.061762776 -0.066628076 0.025799118 0.05964405
000020 d8 28 25 3c ec 0f 86 bc ca 5d c9 bd 7f ee ba bd
       0.010080539 -0.016365014 -0.09832342 -0.09127521
000030 d2 1c c0 bd 60 27 cc bc 19 96 9a 3d 4a a1 04 bd
       -0.09380497 -0.02492112 0.0754816 -0.03238038
000040 93 e8 52 bd 00 45 9d 39 e7 b8 be 3d 8d de 70 bd
       -0.05149133 0.00029996783 0.09312611 -0.05880599
000050 06 25 1f 3d 68 59 2f 3c 39 ea 8a 3d 49 57 b1 3d
       0.038853668 0.010702468 0.06782956 0.086592264
000060 97 fc c2 3d b0 9b 06 3c 60 7a be bc 78 d1 b4 bc
       0.09520834 0.00821583 -0.023251712 -0.022072539
000070 cd 62 7c bd 16 a8 0d bd 42 98 8e bd 24 a4 fb 3c
       -0.06161766 -0.034584127 -0.069626346 0.030717917
000080 d0 c6 00 bc 93 58 a7 3d 00 7c 43 3c 85 61 c5 3d
       -0.007859901 0.08171191 0.011931419 0.09637741
000090 6a 4d a0 bd 68 9d 3f bc 73 4c 9e bd a7 07 85 3d
       -0.078272656 -0.011695243 -0.07729425 0.064956
0000a0 52 a6 61 3d 20 42 a7 3b 3b 29 bc bd a8 1d b5 bc
       0.055090256 0.0051043183 -0.091875516 -0.022108868
0000b0 39 23 b0 3d c1 0a b7 3d d1 b3 9c 3d d2 da 22 3d
       0.08600468 0.08937598 0.07651485 0.039759465
0000c0 c5 68 aa 3d f5 a7 c4 bd d8 6d 64 bc 50 a0 21 bc
       0.083207645 -0.09602348 -0.013942204 -0.009864882
0000d0 8c 86 b9 3c 18 c9 f1 bc d7 cd b2 bd 0e c6 7a 3d
       0.022647165 -0.029514834 -0.08730667 0.061224036
0000e0 13 4e 5c bd b7 63 41 bd 14 d6 f8 3c 8a 4d 74 3d
       -0.053785395 -0.047214236 0.030375518 0.05964426
0000f0 02 88 b4 bd b3 a4 b3 3d e2 91 24 3d e7 15 61 bd
       -0.08815004 0.08771648 0.040178187 -0.05495253
000100 3d f7 89 bd f6 bd 1b 3d c5 df 89 bd 04 8b e8 3c
       -0.0673661 0.038022958 -0.06732134 0.0283866
000110 d9 12 a1 3d 92 44 10 3d 25 5a c0 bd 42 b3 8b bd
       0.07864923 0.035221644 -0.09392194 -0.068213
000120 50 85 90 bd 1b 79 c9 3d 50 ca 1e 3c 15 ea bb 3d
       -0.07056677 0.09837552 0.00969179 0.09175507
000130 9f 21 ca bd 12 7d b8 bd e7 91 b3 bd 39 d6 9b 3d
       -0.09869694 -0.0900823 -0.08768063 0.07609219
000140 43 48 c3 bd 34 00 a5 3c 5a 2f 6b bd 90 07 16 bc
       -0.09535267 0.020141698 -0.057418205 -0.0091570765
000150 0a 4f 91 bd 31 c8 b9 3d ce 90 7e 3d 30 7a a6 3b
       -0.07095154 0.090713866 0.062149815 0.005080484
000160 c0 d7 9b 3c 14 e5 e5 3c a0 03 41 bb 30 b0 e7 bb
       0.019023776 0.028063335 -0.0029451624 -0.0070705637
000170 38 e6 e6 bc f2 01 a5 bd 90 07 58 bd b0 79 a5 bb
       -0.028185949 -0.08057012 -0.052741587 -0.0050499067
000180 5b 2c a3 bd 0a 13 6b bd d6 b1 3e 3d 40 6b e1 ba
       -0.079674445 -0.057391204 0.046556316 -0.0017198101
000190 fd c4 34 bd 08 1f da bc e3 b8 3e bd d5 5f 92 bd
       -0.044133175 -0.026626125 -0.04656304 -0.07147185
0001a0 56 9f 04 3d ee d8 43 3d b4 9a ab 3c ac cc 10 bd
       0.032378517 0.047814302 0.020947792 -0.03535144
0001b0 9d 15 b0 bd 5f ff a3 3d a8 d8 ae bc 00 f6 e9 bc
       -0.085978724 0.080076925 -0.021343544 -0.028559685
0001c0 c3 0d c2 3d c6 f6 92 bd b0 97 60 bc c1 f7 9f 3d
       0.09475281 -0.071759745 -0.01370804 0.07810927
0001d0 1d 9c bf 3d b0 6c 91 bb 4d 8c b8 bd 20 7e b5 bb
       0.09355948 -0.0044380054 -0.09011135 -0.005538717
0001e0 d3 e2 99 bd f3 e4 a5 bd 75 7c 8d 3d f0 b2 4d bd
       -0.075139664 -0.08100309 0.06908504 -0.050219476
0001f0 18 0e 8e bd 7e 6f 2f 3d 19 a5 c1 3d 72 ab b3 bd
       -0.06936282 0.042830937 0.09455318 -0.08772935
000200 01 79 87 3d a1 6c a0 3d 00 7d ae 3b 82 f4 56 3d
       0.066148765 0.07833219 0.0053249598 0.052479275
000210 10 47 48 bc 83 52 3c bd 03 2b 45 bd 23 de 44 bd
       -0.012223974 -0.045977127 -0.048136722 -0.04806341
000220 18 ca a1 3c c0 ef 0d 3c 98 64 46 3c 32 d1 2b 3d
       0.019749686 0.008663118 0.012108944 0.04194755
000230 ed 0a bf 3d 80 b6 ea 3b 43 72 92 bd 19 b3 be 3d
       0.09328256 0.007162869 -0.071507 0.09311504
000240 c3 30 28 bd 75 2a a4 3d 57 d7 c3 3d 3a d5 13 3d
       -0.041062128 0.080159105 0.09562557 0.03609202
000250 8d 5c bc 3d 8c 70 a1 bc 38 4f a0 3c b0 6c c3 bd
       0.0919734 -0.019706987 0.019569024 -0.09542215
000260 b6 52 75 3d 0a c9 98 bd 08 23 ec bc d8 4b 06 3c
       0.059893332 -0.0746022 -0.028825298 0.0081967935
000270 e0 ac 2a bd 68 e0 32 bc 3b e8 bf bd e2 2d 9f bd
       -0.041668773 -0.01091776 -0.09370466 -0.07772423
000280 31 87 88 3d b0 58 ba bd a3 da 27 bd 33 52 63 bd
       0.06666411 -0.09098947 -0.040979993 -0.055498313
000290 e9 32 aa 3d c2 15 2f 3d 78 69 97 bd f1 46 96 3d
       0.083104916 0.04274536 -0.073931634 0.0733775
0002a0 e3 de 8b 3d 37 c7 ba bd 60 25 a2 bb b0 bb e5 bb
       0.06829622 -0.091200285 -0.004948303 -0.0070108995
0002b0 42 a4 48 3d 8a 1b c6 bd e1 22 c7 3d fa a6 b0 bd
       0.048984773 -0.096732214 0.097234495 -0.08625598
0002c0 05 9c b6 3d 6d b4 6f bd e0 ce 8a 3c 22 43 11 3d
       0.08916477 -0.058521677 0.016944349 0.035464413
0002d0 2c 10 f9 bc c9 a0 bd 3d 70 d0 04 bc a7 ad 83 3d
       -0.03040322 0.09259183 -0.008106336 0.06429606
0002e0 58 93 bc 3c ef f7 be bd 0f 69 bd bd 60 55 f5 3b
       0.023019478 -0.09324633 -0.09248554 0.007486984
0002f0 92 f3 5a 3d 38 e3 a2 bd 00 b0 13 ba 60 48 08 3b
       0.053454943 -0.07953495 -0.0005633831 0.0020795092
000300 5a a6 49 bd 66 8e 35 3d 36 2c a4 bd 56 e6 0b 3d
       -0.04923091 0.044325255 -0.08016245 0.034155212
000310 94 06 f2 3c fd 29 94 3d e7 7c a6 3d e7 fc 3f bd
       0.029544152 0.07234571 0.08129292 -0.046872046
000320 9a ec 29 3d ad df 65 bd 3e 67 65 3d d6 eb 1a 3d
       0.041485406 -0.056121517 0.056006663 0.037822567
000330 99 8b a0 3d 25 be a9 bd f5 11 89 bd 10 46 35 bd
       0.07839126 -0.0828822 -0.06692878 -0.04425627
000340 07 56 67 bd 00 31 45 bc 18 7c 15 bc 1a c9 11 3d
       -0.056478526 -0.012035608 -0.009123825 0.035592176
000350 cd 2d c4 3d 60 64 3e 3b 1a 05 37 3d 23 a1 69 bd
       0.09579048 0.0029051527 0.0446826 -0.057038438
000360 a1 17 a4 3d 91 0e b3 3d c1 9f b2 3d e0 f8 c9 3c
       0.08012319 0.08743013 0.08721877 0.024654806
000370 90 21 a5 bd d3 dc c6 3d 40 d7 08 bb 00 46 2e 39
       -0.08063042 0.097100876 -0.0020880252 0.0001662001
000380 d4 3c dc 3c 18 c5 74 bc 34 8e 84 bd 77 b9 20 bd
       0.026884474 -0.014939569 -0.064724356 -0.039239373
000390 40 98 c7 3c 00 bd 49 3c a8 70 25 bc 00 4a bd 3b
       0.02436459 0.0123131275 -0.01009766 0.0057766438
0003a0 03 60 87 3d 47 5f 2c bd ad 7c 2f bd d2 7e 1a 3d
       0.0661011 -0.04208305 -0.04284351 0.0377186
0003b0 17 b6 75 bd 40 5f 6d bd e0 71 b5 bd 66 86 6f 3d
       -0.059988108 -0.057952166 -0.088596106 0.05847778
0003c0 d0 f4 03 bd 80 fd ad bd c0 a3 13 bc 97 14 4b bd
       -0.032215893 -0.08495617 -0.009011209 -0.049580183
0003d0 d1 56 a0 3d da e5 0b 3d 5a 2e 01 bd 12 29 c5 bd
       0.07829059 0.03415475 -0.031538345 -0.09626974
0003e0 60 83 c1 3b a5 fe ca bd c0 f2 57 bb 72 6f 6d 3d
       0.0059055537 -0.09911851 -0.0032951087 0.05796761
0003f0 00 c0 27 b7 50 6f 45 bc 89 8c 99 3d 0f 2a 9c 3d
       -9.998679e-06 -0.012050465 0.07497508 0.076252095

l3.bias f4 [20]
000000 76 da 88 bd 62 5c ae bd f1 13 ab 3d 2d 95 80 3d
       -0.06682293 -0.085137144 0.08353413 0.06278453
000010 14 7f 85 bd 37 07 7d bd 2e 86 3f 3d 72 67 8b bd
       -0.06518379 -0.06177446 0.046758823 -0.0680684
000020 a2 3c 53 3d 6d ea c0 3d f0 eb 4c 3c 4f 2e 88 3d
       0.051571496 0.09419713 0.012507424 0.06649458
000030 d8 eb b2 bd c8 91 98 bd 26 9f 88 bd c5 88 a8 3d
       -0.0873639 -0.074496806 -0.0667098 0.08229212
000040 88 fc ca bd 7d d7 82 3d b2 35 1b 3d 96 6e 07 bd
       -0.09911448 0.063887574 0.037893005 -0.033064447

output.weight f4 [8, 20]
000000 7e d5 4d 3e a4 80 ce 3d fc 57 f6 3d d8 3f 91 3c
       0.20100972 0.1008313 0.120285004 0.017730638
000010 f0 33 9a bc 24 a0 13 3e 70 4d 6c bd 4a 23 de bd
       -0.018823594 0.14416558 -0.057691038 -0.108465746
000020 cd 06 48 be 12 2f 1d be 64 b9 b4 3d 94 06 7c bd
       -0.19533844 -0.15349987 0.08824423 -0.06152971
000030 54 ef 78 bd 00 6c 65 b9 f0 e3 5e 3d 78 03 fe bd
       -0.060775116 -0.00021879375 0.054416597 -0.12403005
000040 1c 7d 0b bd b0 7f 15 3d ea b9 20 be 20 51 33 3c
       -0.03405486 0.036498725 -0.1569592 0.010944635
000050 04 4c a2 bd 80 f6 92 3a 78 8c 27 3d b0 45 34 3e
       -0.07924655 0.0011212379 0.040905446 0.17604709
000060 80 54 4e 3b a0 54 51 3c a8 58 4e 3d 6c 80 85 3d
       0.0031483471 0.012776524 0.050377518 0.06518635
000070 ba 68 41 3e 84 5b 3a 3e 3c 38 df 3d 10 64 4e 3e
       0.18887606 0.18198973 0.10899398 0.20155358
000080 1b 24 f0 bd b4 8f ab 3d 58 0f 98 bd 94 f5 4a bd
       -0.117256366 0.083770186 -0.074248016 -0.049550608
000090 56 81 2c be f7 b1 16 be 0c 74 b8 3d 80 ee d3 bd
       -0.16846213 -0.14716326 0.09006509 -0.10348225
0000a0 24 f1 2c bd 48 96 22 3e e0 80 80 3d 4e 7b 06 3e
       -0.042222157 0.1587764 0.06274581 0.13132975
0000b0 b0 f6 0f be 40 f0 99 3b 32 06 42 3e 72 0d 3c 3e
       -0.14058948 0.0046978295 0.18947676 0.18364504
0000c0 be d9 14 3e 48 f5 9c 3d 96 10 22 3e de de 52 be
       0.14536187 0.07663971 0.1582664 -0.2059283
0000d0 3c 8b 12 3e a0 07 52 3d 90 97 05 3c a0 0d e4 3c
       0.14310926 0.051276803 0.008153811 0.027838528
0000e0 60 7d 87 bc 84 65 64 be f0 6e 3c bc 22 a2 64 be
       -0.016539276 -0.2230435 -0.011501059 -0.22327474
0000f0 67 fb ce bd cc 1a 1e 3e a0 b9 c5 bb 30 46 44 be
       -0.10106545 0.1543991 -0.006034091 -0.191674
000100 20 cf f0 3c 0e ff 43 3e cc 2e cb bd 98 8c 83 3d
       0.02939564 0.19140264 -0.09921035 0.064233005
000110 f0 e3 7e 3c 06 cf 37 be f4 5f 17 be 90 3c dc bc
       0.015557274 -0.17950067 -0.14782697 -0.026884347
000120 a8 68 11 bd ec a0 3a bd c6 c0 09 3e 42 e0 08 3e
       -0.0355002 -0.045563623 0.13452443 0.13366798
000130 36 e7 23 3e 3c 51 92 3d 10 ed 26 bc c8 83 43 3e
       0.16006169 0.071444005 -0.010188356 0.1909324
000140 b4 94 61 3e e8 e6 c0 3d 60 4d d2 bb 84 77 32 3e
       0.22029382 0.09419042 -0.006417915 0.17428404
000150 52 a8 5c 3e 84 90 17 3e 8c 7f 42 be 24 db a7 3d
       0.21548584 0.14801222 -0.18993968 0.08196095
000160 57 8f 44 be 78 3e c5 3d 1c af 1a bd b2 2c 0c be
       -0.19195305 0.096310556 -0.037764654 -0.13688925
000170 98 9a a0 3c 22 ff 20 be b8 3d 40 3e c4 f7 0f be
       0.019604966 -0.15722325 0.18773544 -0.14059359
000180 f8 d4 ea bc 14 6d cb 3d 44 6c 10 bd 8c 46 64 3e
       -0.028666005 0.099329144 -0.0352595 0.22292536
000190 d0 98 51 3d 86 30 82 bd 48 17 fd 3d 68 1a bd 3d
       0.051171124 -0.06356911 0.12357956 0.09233552
0001a0 70 36 cf 3d b7 f2 4d be 98 58 a4 bd 00 30 ef 3d
       0.10117805 -0.2011212 -0.080247104 0.11679077
0001b0 8e 0d 37 be b0 4b e2 3c e6 c9 41 3e 38 50 48 3e
       -0.17876264 0.027623981 0.18924674 0.19561851
0001c0 48 83 30 3e 00 26 e9 3c 38 4e 32 3e 94 e8 8e 3d
       0.1723758 0.028460503 0.1741265 0.069779545
0001d0 98 3e a7 3c 60 b9 bd bb 64 23 b7 3d d0 fc 2f 3d
       0.02041559 -0.0057899207 0.08942297 0.04296571
0001e0 0c 3f 40 3e f8 fa 67 3d 98 c2 63 3e 88 c3 57 be
       0.1877405 0.056635827 0.222422 -0.21070683
0001f0 88 70 ce 3d 48 d6 a8 3d 74 bb 0e be 00 24 62 bd
       0.100800574 0.08243996 -0.13938695 -0.055210114
000200 87 a0 d2 bd 60 f7 f5 3c 70 02 02 3d 8a 52 4f 3e
       -0.102845244 0.030025184 0.031740606 0.2024633
000210 78 d4 11 be 9c 00 a1 3d 54 5e 23 3e f4 90 9b 3d
       -0.14241207 0.07861444 0.15953952 0.07596007
000220 bc f5 08 be bc 17 57 bd 00 d4 44 be f5 be 0f be
       -0.1337499 -0.05251287 -0.19221497 -0.14037688
000230 26 03 08 3e 44 d3 3d 3e 65 b2 36 be d0 b7 29 3d
       0.13282451 0.18537623 -0.1784149 0.041435063
000240 b2 fd 18 3e c8 70 1e 3e 80 fd 13 3c c0 0b fe 3d
       0.14940527 0.1547271 0.009032607 0.12404585
000250 54 80 b3 3d 41 c9 5f be 6a 70 08 3e f4 1e 4e 3e
       0.08764711 -0.21854116 0.13324133 0.20128995
000260 be f9 26 3e e0 17 43 3d bc db b6 3d 1c 93 a3 bd
       0.16306207 0.04763019 0.0892863 -0.07987043
000270 96 08 06 be 60 36 e4 bc 68 ee bb bc 02 d1 4a 3e
       -0.13089213 -0.02785796 -0.02294083 0.19806293

output.bias f4 [8]
000000 dc d2 b8 3d 01 8f 1d be 4e 42 b3 bd f0 55 de bc
       0.09024593 -0.15386583 -0.08752881 -0.027140588
000010 c4 46 99 3d b2 85 ca bd 9a 3c 62 3e 30 51 3d 3c
       0.074842006 -0.098887816 0.2209343 0.011555001
