PINN_experience/saved_model/simpleANNlr=0.001bs=64MSELoss.pt (torch, 43151 bytes, 8 tensors)

l1.weight f4 [50, 30]
0	0xbe3328de	-0.17496058
1	0xbddbfcc6	-0.10741572
2	0x3c927820	0.017879546
3	0x3e1a5110	0.15069985
4	0xbcc851c0	-0.024453044
5	0xbb9fa1a0	-0.004871562
6	0xbdb716b8	-0.0893988
7	0x3c44f8b0	0.012022182
8	0xbe20358e	-0.1564543
9	0xbdd6b828	-0.10484344
10	0x3e153b4a	0.14573398
11	0xbe1763db	-0.14784186
12	0x3e0d5bfe	0.13804623
13	0x3e0c3d96	0.13695368
14	0x3e24081e	0.16018721
15	0xbe051d34	-0.12999421
16	0xbc3dd3f0	-0.011586174
17	0xbdc8bcff	-0.09801673
18	0xbe3371c2	-0.17523864
19	0xbc24f910	-0.010069147
20	0xbc99e1d8	-0.018784449
21	0xbd83b1dd	-0.06430409
22	0x3dd13d5c	0.102167815
23	0x3de4850c	0.11158189
24	0xbd3b93f4	-0.045795396
25	0x3d3b1c54	0.045681313
26	0x3e1eac30	0.15495372
27	0x3e2d3702	0.16915515
28	0xbdf8b994	-0.12144771
29	0xbc98d318	-0.018655345
30	0x3ba5e760	0.0050629824
31	0x3e066ec6	0.13128194
32	0x3e039138	0.12848365
33	0x3e17f654	0.1484006
34	0xbde72047	-0.11285453
35	0x3d8c4668	0.068493664
36	0x3d9f82ec	0.07788643
37	0x3df97330	0.121801734
38	0xbdd57679	-0.104229875
39	0xbc2c0e90	-0.010501519
40	0x3e05b79a	0.1305832
41	0xbe0e3314	-0.13886672
42	0xbd3bfb1c	-0.045893773
43	0x3d073834	0.033012584
44	0x3d673350	0.05644542
45	0xbdd33af2	-0.10313977
46	0x3ddd600c	0.10809335
47	0xbde3b8fd	-0.11119268
48	0xbcd00f60	-0.025397956
49	0x3d9e3c0c	0.07726297
50	0xbdbe1308	-0.09280974
51	0x3c772220	0.01508382
52	0x3b8a44e0	0.0042196363
53	0x3e381fd8	0.17980897
54	0x3c8cd690	0.017192155
55	0x3e03ace4	0.12858921
56	0x3e034c26	0.12822017
57	0xbd3df4e4	-0.046376124
58	0x3da1e354	0.079046875
59	0x3e1d1416	0.15339693
60	0x3daa1480	0.08304691
61	0xbe14050a	-0.14455047
62	0x3cd7b020	0.0263291
63	0xbd698bc4	-0.057018057
64	0x3d0820f8	0.033234566
65	0xbe23495d	-0.15945955
66	0xbd44b0f4	-0.04802032
67	0x3e334d7a	0.17510024
68	0x3de210f0	0.11038387
69	0xbe2dce88	-0.16973317
70	0xbd588558	-0.05286154
71	0x3d4a1228	0.04933372
72	0xbd838dc2	-0.064235225
73	0xbcd48d98	-0.025946423
74	0xbdee8c25	-0.11647824
75	0xbdb04821	-0.086075075
76	0xbd181df0	-0.037137926
77	0x3da1325c	0.078709334
78	0x3e0e2910	0.13882852
79	0xbd9b918c	-0.0759612
80	0xbe1c8f84	-0.15289122
81	0xbdeedc37	-0.116630964
82	0xbd08fe68	-0.033445746
83	0xbd811bce	-0.063041314
84	0x3e02fabe	0.12790963
85	0x3d6886c8	0.056769162
86	0xbe3642ed	-0.17798968
87	0xbd1f4314	-0.03888233
88	0x3de03b08	0.10948759
89	0xbd99fc58	-0.07518834
90	0x3e22b1fe	0.15888211
91	0x3d2c9c0c	0.042141005
92	0xbd89f8ed	-0.06736932
93	0xbde7213f	-0.11285638
94	0xbb672f00	-0.0035275817
95	0x3d113c1c	0.035457715
96	0xbd9e15f1	-0.07719029
97	0x3e367b86	0.17820558
98	0xbe105152	-0.14093521
99	0xbe07590c	-0.13217562
100	0x3e0d7934	0.13815767
101	0x3d86f0e2	0.065889135
102	0xbe064868	-0.13113558
103	0xbcefec80	-0.029287577
104	0xbd989744	-0.07450727
105	0x3e2d6cca	0.16936031
106	0x3de461f4	0.111514956
107	0xbdf6eed1	-0.12057269
108	0x3e2f843c	0.17140287
109	0x3e041d2a	0.1290175
110	0xbc420bd0	-0.011843637
111	0x3e0fe0e2	0.1405063
112	0x3d450d2c	0.048108265
113	0xbdbfc3d3	-0.093635224
114	0x3db5377c	0.088484734
115	0x3e2b4460	0.16725302
116	0x3da74598	0.08167571
117	0x3cc870a0	0.024467766
118	0x3df50870	0.119645
119	0xbd5d49ec	-0.054025576
120	0xbe24c9a0	-0.16092539
121	0x3d8c37a4	0.0684655
122	0x3e09764e	0.13424036
123	0xbe2033dc	-0.15644783
124	0x3daa3ec8	0.08312756
125	0xbdbce9d9	-0.092242904
126	0x3c9b0ec8	0.018927947
127	0xbe170a88	-0.14750111
128	0xbe132d6f	-0.143728
129	0x3da800f4	0.08203307
130	0x3d659064	0.056045905
131	0xbd8786a1	-0.06617475
132	0xbd6d2eb8	-0.057905883
133	0xbb2bee40	-0.0026234537
134	0xbdfce5cf	-0.1234852
135	0x3d86fa90	0.0659076
136	0xbdec6ab7	-0.11543792
137	0xbdf89793	-0.121382855
138	0x3dd4f1e0	0.103976965
139	0x3af77c00	0.0018881559
140	0xbd8a011c	-0.06738493
141	0xbd60a230	-0.054842174
142	0x3e141c26	0.14463863
143	0xbe263f5f	-0.16235112
144	0xbc4832c0	-0.012219131
145	0xbe27886c	-0.16360635
146	0x3db3b6f4	0.0877513
147	0xbe04e7da	-0.1297907
148	0xbd6f4e20	-0.058424115
149	0xbe01192f	-0.12607263
150	0x3dcbdfc8	0.09954792
151	0xbdd53a30	-0.10411489
152	0x3e2e3b4e	0.1701481
153	0xbdd5a8a8	-0.10432559
154	0xbd61a2c0	-0.05508685
155	0x3df88264	0.12134245
156	0x3dad3bb4	0.08458653
157	0xbe0ce749	-0.13760103
158	0x3cfa6588	0.030565992
159	0x3e142c5c	0.14470047
160	0x3dba07b4	0.090835005
161	0x3ce1a870	0.027546138
162	0xbe12e34a	-0.14344516
163	0x3d062824	0.032753125
164	0x3db27cfc	0.08715245
165	0xbe26eb96	-0.16300806
166	0x3e0b2bf8	0.13590991
167	0x3e2b3a6c	0.16721505
168	0x3d23f868	0.04003182
169	0xbdf79fcc	-0.12091026
170	0xbc700700	-0.014650106
171	0xbe389b38	-0.18027961
172	0x3b789900	0.0037932992
173	0x3e15c932	0.14627531
174	0xbd1e63b8	-0.038669318
175	0x3d59ca0c	0.053171203
176	0x3c8a1e48	0.016860142
177	0x3e160ce6	0.14653358
178	0xbbc4c700	-0.006005168
179	0x3e297500	0.16548538
180	0xbe042914	-0.12906295
181	0xbc147af0	-0.009062514
182	0xbdf717cb	-0.12065085
183	0x3e37b682	0.17940715
184	0x3d8880f4	0.06665221
185	0x3d80cdfe	0.0628929
186	0xbded6159	-0.11590833
187	0xbe0b3b68	-0.1359688
188	0xbd1992a4	-0.037493363
189	0x3dd8fce8	0.10595113
190	0x3d9e0bb0	0.07717073
191	0x3e0b78a4	0.1362024
192	0xbe3680e0	-0.178226
193	0x3d681878	0.05666396
194	0xbdfc36fe	-0.123151764
195	0x3db1a178	0.08673376
196	0x3dffd74c	0.124922365
197	0xbbf16640	-0.0073669255
198	0xbe112df4	-0.14177686
199	0xbd87df1f	-0.06634354
200	0xbe2af602	-0.16695407
201	0x3e10fb3c	0.14158338
202	0xbe36c3e7	-0.17848168
203	0xbce2dd40	-0.02769339
204	0xbde8d016	-0.11367814
205	0xbe1922b6	-0.14954647
206	0xbe301119	-0.17194022
207	0xbe32dced	-0.17467089
208	0xbe09fe9e	-0.13476035
209	0x3e307c90	0.17235017
210	0x3e2c709e	0.16839835
211	0xbe329131	-0.17438199
212	0x3dcaac5c	0.09896156
213	0xbe220bee	-0.15824863
214	0x3e2e9c16	0.1705173
215	0xbdb192ab	-0.08670553
216	0xbdbf476f	-0.09339797
217	0x3da4b884	0.08043006
218	0x3aa3d080	0.0012498051
219	0x3d7a12b8	0.061053008
220	0x3de509d4	0.11183515
221	0xbd959389	-0.07303531
222	0x3e1e9aac	0.1548869
223	0x3d3216f0	0.043478906
224	0xbd81a4a2	-0.06330229
225	0x3d12f958	0.035882324
226	0x3e273e1a	0.16332284
227	0x3b8e15c0	0.004336089
228	0xbda216e1	-0.0791452
229	0xbe015878	-0.12631404
230	0xbcd339d0	-0.025784403
231	0x3dd8bda0	0.10583043
232	0x3da5204c	0.08062801
233	0x3d663a40	0.056207895
234	0xbd78a9ea	-0.060708918
235	0xbe30eb13	-0.17277174
236	0xbddc584d	-0.107590295
237	0x3d114f78	0.035476178
238	0xbcc237f0	-0.023708314
239	0x3dd0bb90	0.10192025
240	0xbda7726c	-0.08176121
241	0xbb7cfec0	-0.0038603991
242	0xbe0969a8	-0.13419211
243	0x3c0cfda0	0.008605391
244	0xbe14ff14	-0.1455043
245	0xbe242ee8	-0.16033518
246	0xbdaf63f5	-0.08563987
247	0x3c8609f0	0.01636216
248	0xbde91756	-0.11381404
249	0x3cb219d8	0.021740839
250	0x3dff5518	0.12467402
251	0x3dad8af4	0.08473769
252	0xbe1e4fb4	-0.15460092
253	0xbda8bd16	-0.0823919
254	0x3e1245b0	0.14284396
255	0x3d8fedf4	0.07027808

l1.bias f4 [50]
0	0x3e2ad600	0.16683197
1	0x3de8b3a8	0.11362392
2	0xbe223039	-0.15838708
3	0x3e2278f6	0.15866455
4	0xbe1a24fe	-0.15053174
5	0xbe1f1b07	-0.15537654
6	0xbccb9ea0	-0.024855912
7	0xbd71b64c	-0.059011742
8	0x3d1c6894	0.03818567
9	0xbdec78da	-0.11546488
10	0x3dacbabc	0.08434054
11	0x3c8ecf40	0.017432809
12	0x3d137b5c	0.036006317
13	0x3d93ddd8	0.07220048
14	0xbdd3f763	-0.1034992
15	0xbd2489b0	-0.04017037
16	0x3dd18030	0.10229528
17	0x3d8354f4	0.06412688
18	0xbd8dcc50	-0.06923735
19	0x3e3509b0	0.17679477
20	0x3e32076a	0.1738564
21	0x3e3aa014	0.18225127
22	0x3d6e1358	0.058123916
23	0xbd037d74	-0.032102063
24	0x3e1b8916	0.15189013
25	0xbd780baa	-0.060558
26	0x3e1057ec	0.1409604
27	0xbe1be588	-0.15224278
28	0xbdf6c9a4	-0.12050179
29	0xbe3221a8	-0.17395651
30	0x3b52b0c0	0.0032148808
31	0xbc656790	-0.014001742
32	0x3de8af0c	0.113615125
33	0xbd6573c0	-0.05601859
34	0x3e1c5a9a	0.15268937
35	0xbdfea596	-0.12433927
36	0xbe021f58	-0.12707269
37	0xbe2c7dba	-0.16844836
38	0xbd27b404	-0.04094316
39	0xbe279d7a	-0.16368666
40	0x3de47b58	0.111563385
41	0xbdcdf637	-0.100567274
42	0x3b6b9980	0.0035949647
43	0xbd4c7958	-0.04992041
44	0x3d912aac	0.07088217
45	0x3e1bd736	0.15218815
46	0xbe24b737	-0.16085516
47	0x3dbc6054	0.09198061
48	0x3e01330c	0.12617129
49	0xbe08eac9	-0.13370813

l2.weight f4 [100, 50]
0	0x3af45a80	0.0018642694
1	0xbd688260	-0.05676496
2	0x3d5ed240	0.05439973
3	0x3d9aecac	0.07564673
4	0x3de6d77e	0.112715706
5	0xbdda04ca	-0.10645445
6	0x3dc45b30	0.09587705
7	0x3dcca712	0.09992804
8	0xbd502470	-0.050816
9	0x3dc621ee	0.0967444
10	0xbc490ce0	-0.012271136
11	0xbd246acc	-0.040140912
12	0x3d8a16f4	0.06742659
13	0xbd8249d7	-0.0636174
14	0x3db6ca02	0.08925249
15	0xbd98df7b	-0.074645005
16	0x3cf96bd8	0.030446932
17	0xbd8fcf0e	-0.070219144
18	0xbcf66bb8	-0.030080661
19	0xbe032195	-0.1280578
20	0x3db9d232	0.09073295
21	0xbd0b412a	-0.033997692
22	0xbe0f5f9a	-0.14001313
23	0xbd312d5a	-0.04325614
24	0x3d5ea69c	0.05435811
25	0x3cd6b2e0	0.026208341
26	0x3c23e580	0.0100034475
27	0xbd4ec8ea	-0.050484575
28	0xbd2cb090	-0.04216057
29	0x3e086467	0.1331955
30	0xbd6bff16	-0.057616316
31	0x3df734d2	0.120706216
32	0x3e07b987	0.13254367
33	0xbd3a55de	-0.045492046
34	0xbd6fcb0a	-0.058543243
35	0x3e03f3ff	0.12886046
36	0xbd23ecd8	-0.040020794
37	0xbe02f68d	-0.12789364
38	0x3b443fc0	0.0029945225
39	0xbb382580	-0.0028098524
40	0x3dd2b558	0.10288495
41	0x3de47726	0.11155538
42	0x3d162550	0.036656678
43	0x3e08aad7	0.1334642
44	0xbd2d0b2e	-0.04224699
45	0xbd892caa	-0.06697972
46	0xbbf99180	-0.007616222
47	0x3d4654c8	0.048420697
48	0xbd8f7a8c	-0.07005796
49	0xbdc96a4c	-0.09834728
50	0x3dfe3eb2	0.12414302
51	0x3dae3a08	0.08507162
52	0xbd18e6a4	-0.03732933
53	0x3d7cde64	0.061735526
54	0xbca6c330	-0.020356745
55	0xbcdffcc8	-0.027342215
56	0xbc99dc54	-0.018781818
57	0x3dc6919c	0.096957415
58	0xbd5b0c6a	-0.053478636
59	0x3d4c0ebc	0.04981874
60	0x3dfe98e2	0.12431504
61	0xbde50f22	-0.11184527
62	0xbd48a884	-0.048988834
63	0x3d42f74c	0.047599122
64	0xbd69f784	-0.057120815
65	0x3ba05220	0.0048926026
66	0xbd836d3b	-0.064173184
67	0xbd8bea5d	-0.068318106
68	0xbddf54d6	-0.10904853
69	0xbd25416c	-0.040345594
70	0xbdfea1ab	-0.124331795
71	0xbdcdb644	-0.1004453
72	0xbe02538d	-0.12727185
73	0x3d163e70	0.03668064
74	0xbd495508	-0.049153358
75	0xbc85dad8	-0.016339704
76	0xbbf5b5e0	-0.007498488
77	0x3ced95f8	0.029002175
78	0xbcb69124	-0.022286005
79	0x3c062970	0.00818859
80	0xbdfe29aa	-0.124102905
81	0x3e0cb147	0.13739501
82	0xbdd3efe8	-0.10348493
83	0xbdab4d16	-0.08364312
84	0xbbd61ba0	-0.006534055
85	0xbe08474a	-0.13308445
86	0x3dd8d426	0.10587339
87	0x3cd07938	0.025448427
88	0x3de6fe36	0.11278956
89	0x3d593edc	0.053038463
90	0x3da085ac	0.07837996
91	0xbd950f91	-0.0727836
92	0x3da6262a	0.08112748
93	0xbe100e5d	-0.14067979
94	0xbd79032e	-0.060794048
95	0x3ce230d0	0.027611166
96	0x3dd3c914	0.10341087
97	0x3c75eb30	0.015009686
98	0xbd3e464e	-0.046453767
99	0xbdb93e60	-0.090451
100	0xbddf5a64	-0.109059125
101	0x3df37736	0.11887972
102	0xbcc60504	-0.024172314
103	0x3cda6528	0.026659563
104	0x3d98ef9a	0.07467575
105	0x3d545428	0.05183807
106	0xbdbd7070	-0.092499614
107	0x3da6bc56	0.08141391
108	0xbe0b71dd	-0.13617654
109	0xbd66a3b4	-0.056308463
110	0x3deceb6a	0.11568339
111	0x3d5b7258	0.053575844
112	0xbdc562c4	-0.09637979
113	0x3df2fbb6	0.11864416
114	0x3da5e102	0.080995575
115	0x3d32ab40	0.043620348
116	0xbcabf870	-0.020992488
117	0x3dbae496	0.091256306
118	0xbd262988	-0.04056695
119	0x3c5e02c0	0.01355046
120	0x3c4eed00	0.012629747
121	0x3ce8b180	0.028404951
122	0x3d89a608	0.06721121
123	0x3cdbb1c0	0.026818156
124	0xbe0139bb	-0.12619679
125	0xbdf0d872	-0.11760034
126	0x3d82438e	0.06360541
127	0x3da95aa8	0.082692444
128	0x3d21dbe8	0.03951636
129	0xbe0fa683	-0.14028363
130	0xbde2ae00	-0.11068344
131	0x3d6166fc	0.055029854
132	0x3e062da3	0.13103347
133	0xbd3a4106	-0.045472167
134	0x3bc44460	0.0059895962
135	0x3d34d044	0.04414393
136	0xbba4ec60	-0.005033061
137	0x3d1be134	0.038056567
138	0x3dbcd89a	0.09221001
139	0x3ab7c200	0.0014019608
140	0x3e06a0cd	0.13147278
141	0xbe0d5e45	-0.13805492
142	0xbd82caa6	-0.06386308
143	0x3c680410	0.014161125
144	0xbc363bd0	-0.011122659
145	0xbd9eccfc	-0.077539414
146	0xbdc353bd	-0.09537456
147	0x3e0fa709	0.14028563
148	0xbd9a9a6c	-0.07548985
149	0xbd967967	-0.073473744
150	0x3da84e80	0.08218098
151	0xbd14971c	-0.03627692
152	0x3d55d548	0.052205354
153	0xbe06f24b	-0.13178365
154	0x3c952270	0.018204898
155	0x3c064320	0.008194715
156	0xbdd164d9	-0.10224313
157	0x3cf15130	0.029457659
158	0x3d0b4a4c	0.034006402
159	0xbe046588	-0.12929356
160	0x3d546954	0.05185826
161	0xbdafdfee	-0.08587633
162	0xbca3a304	-0.019975193
163	0x3d19b5f8	0.037527055
164	0xbdd82496	-0.10553853
165	0x3d8fd6a6	0.07023363
166	0x3db75d2e	0.089533195
167	0xbdacb3da	-0.084327415
168	0xbda40233	-0.08008232
169	0xbd26c06e	-0.04071086
170	0x3dd2f410	0.103004575
171	0x3df98c5a	0.12184973
172	0xbe06cada	-0.13163319
173	0xbda09dd6	-0.07842605
174	0xbcb357e0	-0.021892488
175	0xbe0deeb2	-0.13860586
176	0xbdb5efee	-0.088836536
177	0x3d969958	0.07353467
178	0xbe007406	-0.1254426
179	0x3d8f6fda	0.07003756
180	0x3d9c990e	0.0764638
181	0x3d76574c	0.060141847
182	0xbd9e68e5	-0.07734851
183	0xbe0d6e04	-0.13811499
184	0x3de1bb02	0.11021997
185	0xbdca4789	-0.098769255
186	0x3dc6a942	0.09700252
187	0x3e02f22d	0.12787695
188	0x3da10842	0.07862903
189	0x3d9ff082	0.07809545
190	0x3cd35cf8	0.025801167
191	0xbe07854c	-0.13234442
192	0x3d4ed2b8	0.050493926
193	0xbd903ce8	-0.07042867
194	0x3e0dabcd	0.13835068
195	0xbcf12d40	-0.029440522
196	0xbdaa038e	-0.08301459
197	0x3d917c7c	0.07103822
198	0xbd45f37c	-0.048327908
199	0xbdc6929e	-0.09695934
200	0x3d5c18e4	0.053734675
201	0xbdec2dfb	-0.115322076
202	0x3d81e37e	0.06342219
203	0x3d397e38	0.045286387
204	0x3dd5215e	0.10406755
205	0xbe0c02dd	-0.13672967
206	0xbd194ac8	-0.037424833
207	0x3c8d7528	0.017267779
208	0x3e098e37	0.13433157
209	0xbdcaab51	-0.09895957
210	0xbe002be1	-0.12516738
211	0xbcdf9ab4	-0.027295448
212	0xbcc1d434	-0.023660757
213	0xbe0c5a97	-0.13706432
214	0x3e05f1ab	0.1308047
215	0xbdba4963	-0.09096029
216	0xbe0362f5	-0.12830718
217	0x3ccf47f8	0.025302872
218	0xbd042bb8	-0.032268256
219	0x3da9c466	0.08289413
220	0x3c52cea0	0.012866646
221	0xbd7d158c	-0.061788127
222	0x3e0ad3ef	0.13557409
223	0xbd7d13c8	-0.061786443
224	0x3da79afc	0.08183858
225	0xbd0a7a7c	-0.033808216
226	0x3ddb17d8	0.10697907
227	0xbdb96fbe	-0.09054516
228	0x3e09335f	0.13398503
229	0xbdf7b3f6	-0.12094872
230	0x3d53552c	0.051594898
231	0x3e07e5f1	0.1327131
232	0xbdee97a4	-0.11650017
233	0xbd1783ba	-0.03699086
234	0x3dd5eacc	0.104451746
235	0x3ddada7e	0.10686205
236	0x3e05feb3	0.13085441
237	0x3d619da4	0.05508198
238	0x3e0976eb	0.1342427
239	0xbd83767c	-0.064190835
240	0xbdaaea68	-0.08345491
241	0xba898a80	-0.0010493547
242	0x3dee839e	0.11646198
243	0xbe096be4	-0.13420063
244	0x3c15d3b0	0.0091447085
245	0xbd945874	-0.072434336
246	0x3d0490d4	0.03236468
247	0x3cf6ddd0	0.030135065
248	0x3cf0bff8	0.029388413
249	0x3b17f4c0	0.0023186654
250	0x3cc0a560	0.023516357
251	0xbd9d13c5	-0.07669786
252	0xbd53c800	-0.051704407
253	0xbe09ba97	-0.13450085
254	0xbdc2e886	-0.095170066
255	0x3dd5959a	0.10428925

l2.bias f4 [100]
0	0x3d99e422	0.07514216
1	0x3c80f340	0.01574099
2	0xbc3da8d0	-0.011575893
3	0xbdb3a260	-0.08771205
4	0x3d67d550	0.056599915
5	0xbdeb7091	-0.1149608
6	0xbdc28406	-0.09497838
7	0xbd6e06f8	-0.058112115
8	0xbd8adb29	-0.06780083
9	0x3cae6be8	0.021291688
10	0xbdca262e	-0.098705634
11	0xbd49258e	-0.04910808
12	0xbd4cb98e	-0.049981646
13	0xbd432ee0	-0.047652125
14	0x39c2f000	0.00037181377
15	0x3d404600	0.046941757
16	0x3dbebc32	0.09313239
17	0x3daa4040	0.08313036
18	0x3dfc6d3a	0.12325521
19	0x3bfb9740	0.0076779425
20	0x3dae9bf6	0.08525841
21	0x3e0b01cb	0.13574903
22	0xbd09f678	-0.033682317
23	0xbd4d6b5c	-0.050151214
24	0x3e042fd3	0.12908868
25	0xbd29e996	-0.04148253
26	0x3bf78ce0	0.0075546354
27	0x3e043aaf	0.12913011
28	0xbda6a4de	-0.08136915
29	0xbd24e32a	-0.040255703
30	0xbd7d50f6	-0.06184479
31	0x3df57bee	0.11986528
32	0x3df71c5a	0.120659545
33	0xbdb6caee	-0.089254245
34	0xbdbdb4d0	-0.09263003
35	0xbdd40548	-0.1035257
36	0x3df5c7e6	0.12001018
37	0xbd218d16	-0.03944119
38	0xbe02ae75	-0.12761863
39	0x3c8d4c10	0.017248183
40	0xbdd27122	-0.102754846
41	0xbdd555cb	-0.10416754
42	0x3d2dca54	0.042429283
43	0xbdc835ce	-0.097758874
44	0xbcad2244	-0.021134503
45	0xbd6765f2	-0.056493707
46	0xbda79dd2	-0.08184399
47	0x3da63596	0.081156895
48	0x3d6819cc	0.056665227
49	0x3deb71a2	0.11496283
50	0xbd473892	-0.048637934
51	0xbd78679a	-0.060645677
52	0xbd932878	-0.07185453
53	0xbd07ae34	-0.033125117
54	0xbd93f772	-0.07224931
55	0x3d0e1038	0.034683436
56	0x3db0b4ae	0.08628212
57	0xbe08fa39	-0.13376702
58	0x3c7b22f0	0.015328154
59	0xbe0a85f3	-0.1352766
60	0x3ded639a	0.11591263
61	0xbd0abfb6	-0.033874236
62	0xbd4d6f12	-0.050154753
63	0xbd810467	-0.06299668
64	0x3e0201ef	0.1269605
65	0xbd06689c	-0.032814607
66	0xbd0b75aa	-0.03404776
67	0xbdc5cc80	-0.09658146
68	0xbd047020	-0.032333493
69	0xbc684330	-0.014176175
70	0xbd12e6d6	-0.035864674
71	0xbdfa151b	-0.12211057
72	0xbc273ae0	-0.010206908
73	0x3d1621ec	0.036653444
74	0xbcbbcbd8	-0.022924349
75	0xbb70ed80	-0.0036762655
76	0x3cca7538	0.024714097
77	0xbdb2faa4	-0.08739212
78	0xbd2e5e74	-0.042570546
79	0x3df8893a	0.12135549
80	0xbd0859da	-0.033288814
81	0xbdaf94ea	-0.08573325
82	0x3d3bcf10	0.045851767
83	0x3d8d439e	0.068976626
84	0x3c9aff08	0.018920437
85	0x3d2496f4	0.040183023
86	0x3dc490c6	0.09597926
87	0x3dab4318	0.083624065
88	0x3dadd8f8	0.08488649
89	0x3d6c8514	0.0577441
90	0xbbd560c0	-0.0065117776
91	0xbcd1cc0c	-0.025609992
92	0xbda1eb81	-0.07906247
93	0x3d62f8b4	0.055412963
94	0xbd97ad30	-0.0740608
95	0x3dce7d20	0.100824594
96	0x3da5d5b2	0.080974
97	0xbcb19250	-0.021676213
98	0xbdea1aa9	-0.11430866
99	0xbd96c2e1	-0.07361389

l3.weight f4 [30, 100]
0	0xbd8dbe0b	-0.069210134
1	0x3be908d0	0.0071116462
2	0xbd9345fd	-0.071910836
3	0x3dbd96e3	0.09257295
4	0x3dc5c2d9	0.09656305
5	0x3aa2b780	0.0012414306
6	0xbd94a1c8	-0.0725742
7	0xbd328e10	-0.043592513
8	0x3ca852f8	0.020547375
9	0xbcd654b8	-0.026163444
10	0xbd9d4075	-0.0767831
11	0xbd90d630	-0.07072103
12	0xbd8d815d	-0.0690944
13	0x3c646118	0.013939165
14	0xbdc86898	-0.09785575
15	0xbdc048eb	-0.09388908
16	0xbd71a45d	-0.05899464
17	0x3c729b90	0.014807597
18	0xbbc15ed0	-0.005901195
19	0x3cfa5554	0.030558266
20	0x3d652e32	0.05595226
21	0x3d51ec62	0.051250823
22	0x3ccec6c4	0.025241263
23	0x3d30298e	0.04300838
24	0x3c019130	0.007908151
25	0xbc9aa5d4	-0.018877901
26	0x3d5fe4d6	0.054661594
27	0xbd892cc6	-0.06697993
28	0xbca99d60	-0.020704925
29	0x3dcbb523	0.099466585
30	0xbd567867	-0.05236092
31	0x3ceaedd4	0.028677858
32	0xbcdd05e8	-0.026980355
33	0x3d2ba086	0.041901134
34	0x3d9c7a37	0.07640498
35	0xbc286568	-0.010278083
36	0xbcb416a8	-0.02198346
37	0x3d8b072f	0.067884795
38	0x3d08bf72	0.0333857
39	0xbda22d83	-0.07918837
40	0xbca01428	-0.019540861
41	0xbd165e56	-0.03671106
42	0x3daae62b	0.08344682
43	0x3d1aa8d2	0.037758656
44	0xbd98d716	-0.074628994
45	0xbcde0f28	-0.027106836
46	0xbdb52d4a	-0.08846529
47	0x3d1b274a	0.037879266
48	0x3da9d645	0.08292822
49	0x3d8dafbd	0.06918285
50	0x3d8b9603	0.06815722
51	0x3da9abe1	0.082847364
52	0xbd3aa047	-0.04556301
53	0x3da50d49	0.080591746
54	0xbcec400c	-0.028839134
55	0x3ca1992c	0.019726358
56	0x3c863d2c	0.01638659
57	0x3db1e5d9	0.08686418
58	0xbd774d6a	-0.060376562
59	0x3d80ab0b	0.06282624
60	0x3d4abb9a	0.049495317
61	0x3d3089b6	0.04310008
62	0x3db6f6cb	0.08933791
63	0xbb9cf280	-0.0047896504
64	0xbca0ba08	-0.019619957
65	0xbd1ae4c0	-0.03781581
66	0xbdac4248	-0.0841108
67	0x3d9cd929	0.076586075
68	0x3d86aac1	0.065755375
69	0xbbe82ca0	-0.007085398
70	0xbce61078	-0.028084025
71	0xbd437d0d	-0.04772668
72	0xbd81af16	-0.06332223
73	0xbd46b887	-0.048515823
74	0xbda24806	-0.07923894
75	0x3d8fa827	0.070144944
76	0xbc8e4d98	-0.017370984
77	0xbdad5603	-0.08463671
78	0xbd25773d	-0.040396918
79	0x3bfdf830	0.0077505335
80	0x3db5c705	0.088758506
81	0x3dc39fab	0.095519386
82	0xbc35a5a8	-0.011086859
83	0xbdb9c5c5	-0.09070925
84	0xbda5ddea	-0.080989674
85	0x3cafa048	0.021438733
86	0x3d8f0315	0.0698301
87	0x3dae4d77	0.08510869
88	0xbd2c85f3	-0.04211993
89	0xbdb515fd	-0.088420846
90	0x3d48e6de	0.049048297
91	0xbd8547f6	-0.06507866
92	0x3d098c92	0.033581324
93	0xbd66aaa3	-0.056315076
94	0x3d3cdc9e	0.046108834
95	0xbda85e9b	-0.082211696
96	0x3d21b2c6	0.039477132
97	0xbdae353d	-0.08506248
98	0x3be2e820	0.006924644
99	0xbd8c6415	-0.06855027
100	0xbd075306	-0.03303816
101	0x3c823958	0.015896484
102	0x3d5b208e	0.053497843
103	0xbcd0e38c	-0.025499128
104	0x3d08591a	0.0332881
105	0xbc82c808	-0.015964523
106	0xbcee5d14	-0.029097117
107	0xbc7fc1a8	-0.015610136
108	0xbd5dfe9a	-0.054197885
109	0xbda412d3	-0.08011403
110	0xbd653aaa	-0.05596415
111	0xbdccabff	-0.09993743
112	0xbd861220	-0.06546426
113	0xbd08fd5c	-0.033444747
114	0x3da8dbf9	0.082450815
115	0xbce51fd4	-0.027969278
116	0xbc84d3e0	-0.016214311
117	0xbc76e830	-0.015070006
118	0x3dbe55f9	0.09293742
119	0x3d332922	0.0437404
120	0xbb491d00	-0.0030687451
121	0xbdac8a45	-0.0842481
122	0xbd962ba5	-0.07332543
123	0x3d8e2131	0.069399245
124	0x3d282996	0.041055284
125	0xbd60d387	-0.05488923
126	0x3d34b666	0.04411926
127	0xbc1e44b0	-0.009659931
128	0xbd01da6a	-0.031702437
129	0x3dbc8be1	0.09206367
130	0xbd942b20	-0.07234788
131	0xbd997e38	-0.074947774
132	0xbdb7fefd	-0.08984182
133	0x3caada6c	0.020856105
134	0x3da3cc37	0.07997935
135	0xbd2a3fd3	-0.041564774
136	0xbc97ced8	-0.018531248
137	0xbac8b940	-0.0015313998
138	0x3dbd250b	0.09235581
139	0x3d0ffcba	0.03515313
140	0xbda34c6a	-0.07973559
141	0x3bf80350	0.0075687543
142	0xbd444e1d	-0.047926057
143	0x3d8cbab7	0.068715505
144	0x3d7ac64e	0.061224274
145	0x3dc18153	0.09448495
146	0xbdb8c8f7	-0.09022706
147	0xbd00145c	-0.031269416
148	0xbcf0c438	-0.02939044
149	0xbd66b3c3	-0.056323778
150	0x3dc1ba1d	0.094593264
151	0x3d93fef1	0.072263606
152	0xbda07c4a	-0.07836206
153	0x3d34f7a6	0.04418149
154	0xbd06e47c	-0.032932743
155	0xbdb7ab17	-0.0896818
156	0xbc945f98	-0.018111989
157	0xbd8cabf0	-0.06868732
158	0xbc892ef4	-0.016746022
159	0x3ca8d3b8	0.020608768
160	0x3d1e3f7e	0.03863477
161	0x3daa659d	0.083201624
162	0xbd8d82a8	-0.06909686
163	0x3c3992a8	0.0113264695
164	0xbdc53ecb	-0.096311174
165	0x3da3fff5	0.08007804
166	0x3ce0e0cc	0.027450942
167	0xbd3944e0	-0.0452317
168	0x3d1e2caa	0.038616814
169	0xbdb4dd78	-0.08831304
170	0xbcb68078	-0.022278056
171	0xbd290da0	-0.04127276
172	0x3c4fe658	0.012689196
173	0x3dcbc32b	0.09949335
174	0x3dc4c5eb	0.09608062
175	0x3c289730	0.010289952
176	0xbcf38cf8	-0.029730305
177	0xba2db000	-0.00066256523
178	0x3d32a892	0.043617792
179	0xbccdfcc8	-0.02514495
180	0xbda686a8	-0.081311524
181	0xbc96ec60	-0.01842326
182	0x3d21f8f2	0.039544053
183	0x3d935081	0.07193089
184	0xbd7686a0	-0.060186982
185	0xbdaa0cfd	-0.083032586
186	0xbc039500	-0.00803113
187	0x3d2257a2	0.039634354
188	0xbbd3cb60	-0.006463453
189	0x3bf8f160	0.0075971335
190	0xbda20ff3	-0.07913198
191	0xbcb3bb20	-0.021939814
192	0xbd017c86	-0.031612895
193	0xbd0bf38c	-0.03416781
194	0x3ca0a234	0.019608594
195	0x3d950899	0.072770305
196	0xbc1d4f40	-0.009601414
197	0xbce01dac	-0.027357899
198	0x3d82ae79	0.06380934
199	0xbda38080	-0.07983494
200	0xbc3e8df0	-0.01163052
201	0x3d1f709e	0.03892576
202	0xbdbf81df	-0.09350943
203	0xbd281437	-0.041034903
204	0x3cac3794	0.021022595
205	0xbc43a498	-0.011941098
206	0xbd516ba3	-0.05112804
207	0x3c7c3fd8	0.015396081
208	0x3d5e5dda	0.054288723
209	0x3bfcb0d0	0.0077115074
210	0xbd8a6c64	-0.06758955
211	0x3dc0dae1	0.09416748
212	0xbd506a73	-0.050882768
213	0xbdb34c4b	-0.08754786
214	0xbd41911d	-0.04725753
215	0x3d2144ba	0.039372183
216	0xbdc53178	-0.09628576
217	0x3d9b5a21	0.0758555
218	0xbcccd814	-0.025005378
219	0x3d942581	0.07233716
220	0xbd0b8496	-0.03406199
221	0x3d823b2b	0.06358942
222	0xbd9ad238	-0.07559627
223	0x3d8b2707	0.06794553
224	0xbd87a3c0	-0.0662303
225	0x3d7bc3f2	0.061466165
226	0xbd119130	-0.035538852
227	0xbd017b46	-0.031611703
228	0x3c9271a0	0.017876446
229	0x3dc5be57	0.09655445
230	0xbdc0f057	-0.09420841
231	0x3c9682ac	0.018372856
232	0xbdafcd7d	-0.08584116
233	0x3c4ad830	0.012380645
234	0xbdc5501d	-0.09634421
235	0x3d7999b2	0.06093759
236	0xbd8069b0	-0.06270158
237	0xbcc114b8	-0.02356945
238	0x3d7046c2	0.05866123
239	0x3dc60a1d	0.09669898
240	0x3b096d00	0.002096951
241	0x3a96d6c0	0.0011508092
242	0xbd325e6d	-0.043547083
243	0xbd386960	-0.04502237
244	0x3ad2dc00	0.0016087294
245	0xbcd96fc0	-0.026542544
246	0xbc4b7a68	-0.012419321
247	0x3c11a0e8	0.008888461
248	0x3ceda624	0.029009886
249	0xbcbe4d80	-0.023230314
250	0xbd5491d3	-0.05189688
251	0xbd6bfc2d	-0.05761354
252	0xbd35e3c7	-0.04440668
253	0x3d5c96da	0.0538548
254	0x3cc89a38	0.0244876
255	0x3d67e85e	0.056618087

l3.bias f4 [30]
0	0x3db5d87d	0.088791825
1	0x3d133a1a	0.03594408
2	0x3d51c64e	0.05121451
3	0xbd29d16a	-0.04145948
4	0xbce5be2c	-0.028044783
5	0x3dc44a69	0.09584505
6	0x3db3af19	0.087736316
7	0x3d83448f	0.06409561
8	0xbd89ebe0	-0.06734443
9	0x3d705a82	0.058680065
10	0xbc884948	-0.016636506
11	0x3d2a930a	0.041644134
12	0xbc6f95f0	-0.01462315
13	0x3d77b962	0.06047953
14	0xbd88adb6	-0.06673758
15	0x3d359096	0.04432734
16	0x3d61323e	0.054979555
17	0xba9ab200	-0.0011802316
18	0x3a28fd80	0.0006446466
19	0xbd540327	-0.05176082
20	0xbd24dc9a	-0.040249445
21	0x3d8ab249	0.067722864
22	0xbd6b5707	-0.057456043
23	0xbdba6855	-0.09101931
24	0x3d9d6795	0.07685772
25	0x3abdc340	0.0014477745
26	0x3d674422	0.05646146
27	0xbdc83f20	-0.09777665
28	0x3d3877ca	0.045036115
29	0x3c599dd0	0.013282254

output.weight f4 [16, 30]
0	0xbdbc06ba	-0.091809705
1	0x3df56df0	0.119838595
2	0xbcef3558	-0.029200241
3	0x3d641c38	0.055690974
4	0x3ca9bb80	0.02071929
5	0xbd64b90c	-0.055840537
6	0xbe0d6495	-0.138079
7	0xbd6d8c44	-0.057995096
8	0x3e0410c2	0.12897018
9	0xbe062667	-0.13100587
10	0x3d2a33ec	0.041553423
11	0x3dcea228	0.100895226
12	0x3ccfd3d0	0.025369555
13	0x3e1f6ee8	0.15569651
14	0x3d116a94	0.03550203
15	0x3e1608b8	0.14651763
16	0xbda9d50d	-0.08292589
17	0x3dae7958	0.08519238
18	0xbdd42bcc	-0.10359916
19	0xbdf9522a	-0.12173875
20	0x3dda14a8	0.10648471
21	0xbcc2e5a8	-0.02379115
22	0xbe33e822	-0.1756902
23	0x3daf6b14	0.085653454
24	0x3a5e9000	0.00084900856
25	0xbe1f8689	-0.15578665
26	0x3dca2c6c	0.09871754
27	0x3dfdaf68	0.12386972
28	0xbdc60ce8	-0.096704304
29	0xbdaeefc8	-0.085418284
30	0x3e1ee8ee	0.15518543
31	0x3e0e8d44	0.13921076
32	0x3dc1adb0	0.094569564
33	0xbdf9c29c	-0.12195322
34	0x3d0f7724	0.03502573
35	0x3df57814	0.11985794
36	0x3d6703f0	0.05640024
37	0x3e1d8f58	0.15386713
38	0xbaaa7880	-0.0013005883
39	0x3d8283c2	0.06372787
40	0x3db2b984	0.087267905
41	0xbdbd5458	-0.09244603
42	0x3e00a5d0	0.12563252
43	0xbd798208	-0.060915023
44	0xbe0df0c8	-0.13861382
45	0xbe171465	-0.14753874
46	0x3cb56c18	0.02214627
47	0xbd4d67c8	-0.0501478
48	0x3d976460	0.07392192
49	0xbe1e497a	-0.15457717
50	0xbd9217da	-0.071334556
51	0x3c093700	0.008374929
52	0xbe1d0d0e	-0.15337011
53	0x3e19a61c	0.15004772
54	0xbd203e9c	-0.03912221
55	0x3dbcdf34	0.0922226
56	0xbd8c5ebb	-0.06854006
57	0xbe36eb7b	-0.17863266
58	0xbe264633	-0.16237716
59	0xbe30495e	-0.17215487
60	0x3d32c204	0.04364206
61	0x3dfe8b84	0.12428954
62	0xbe232e8b	-0.15935723
63	0x3d74a8d8	0.059731334
64	0x3d007750	0.031363785
65	0xbd8eaefd	-0.0696697
66	0xbd18c4ec	-0.037297174
67	0xbe3327f0	-0.17495704
68	0x3d568268	0.05237046
69	0x3d025238	0.03181669
70	0x3d95b7e0	0.07310462
71	0xbdeb3c6e	-0.114861354
72	0x3e065678	0.13118923
73	0x3e277362	0.16352609
74	0x3bed72a0	0.0072463304
75	0xbe03b0f8	-0.12860477
76	0xbd830dc9	-0.06399114
77	0xbceaee00	-0.02867794
78	0xbd60e9e0	-0.05491054
79	0x3dafb1a4	0.08578804
80	0x3de82be0	0.113364935
81	0x3e0aa6da	0.13540211
82	0xbe2177eb	-0.15768401
83	0x3c6aba30	0.014326617
84	0x3dffa89c	0.124833316
85	0x3dc4e718	0.0961439
86	0x3de90438	0.11377758
87	0x3d9c27b0	0.07624757
88	0xbc7a1650	-0.015264109
89	0x3d9465ec	0.072460026
90	0xbdd2b34b	-0.10288104
91	0x3dfbdab0	0.12297571
92	0x3dedb9f4	0.11607733
93	0xbc21d960	-0.009878486
94	0xbdb822eb	-0.08991035
95	0x3d121790	0.035667002
96	0x3dc45a00	0.09587479
97	0xbd476150	-0.04867679
98	0xbe072502	-0.13197711
99	0xbde96820	-0.113968134
100	0x3c22ea80	0.0099436045
101	0xbd990f83	-0.07473662
102	0x3c28b690	0.010297433
103	0x3de2b144	0.11068967
104	0x3d2b44d4	0.041813686
105	0xbdc65cef	-0.096856944
106	0xbe30e980	-0.17276573
107	0x3c812698	0.015765473
108	0xbdf3432a	-0.11878045
109	0x3dac8f3c	0.08425757
110	0x3d9165f4	0.07099524
111	0xbd15f838	-0.036613673
112	0xbe239a02	-0.15976718
113	0x3dde2a08	0.108478606
114	0x3ad0bf80	0.0015926212
115	0x3d8732f6	0.06601517
116	0x3e26ef2a	0.16302171
117	0xbe335efb	-0.17516701
118	0x3c9aa628	0.018878058
119	0x3d36849c	0.04456006
120	0x3cf001c0	0.02929771
121	0x3e10ba86	0.14133653
122	0x3d3ce278	0.046114415
123	0x3de880e4	0.11352709
124	0x3d976ab0	0.07393396
125	0x3d88c5ae	0.066783294
126	0xbdf552c2	-0.119786754
127	0xbbfe4da0	-0.0077607185
128	0x3c38eaf0	0.011286482
129	0x3e222248	0.1583339
130	0x3cde1810	0.027111083
131	0xbe341587	-0.17586337
132	0x3d8fcbec	0.07021317
133	0x3d73b8b4	0.05950232
134	0xbdb474c2	-0.08811332
135	0x3d55133c	0.052020296
136	0xbd2a3e04	-0.04156305
137	0xbd7e0b40	-0.062022448
138	0x3d513188	0.051072627
139	0x3d70fa60	0.058832526
140	0xbd093ffc	-0.033508286
141	0xbde9bfab	-0.11413511
142	0x3e1006bc	0.14065069
143	0xbda9958d	-0.08280478
144	0xbdc46683	-0.09589865
145	0xbda83fee	-0.082153186
146	0x3e3687c4	0.17825228
147	0x3db39340	0.0876832
148	0x3dedc4b4	0.11609784
149	0xbd6e2318	-0.058138937
150	0xbe003066	-0.12518463
151	0xbd158c68	-0.036510855
152	0x3d76e248	0.060274392
153	0x3de67a40	0.11253786
154	0xbcf4ca70	-0.029881686
155	0xbcc2ee78	-0.023795351
156	0xbe00d91e	-0.12582824
157	0x3e009506	0.12556848
158	0xbe01b354	-0.12666065
159	0x3e07e32e	0.13270256
160	0x3dc2c204	0.09509662
161	0xbd9a267c	-0.075268716
162	0x3d9b737c	0.07590386
163	0xbe323403	-0.17402653
164	0xbbdaf6a0	-0.006682232
165	0x3df824f8	0.12116426
166	0xbe29e4e1	-0.16591217
167	0xbe17ce21	-0.14824726
168	0x3d3835f8	0.044973344
169	0x3dbe6c90	0.092980504
170	0xbd964e78	-0.073391855
171	0xbe04d2c6	-0.12971029
172	0x3cd19620	0.02558428
173	0x3d68520c	0.05671887
174	0xbd2e8590	-0.042607844
175	0xbce5ec38	-0.02806674
176	0xbdc79441	-0.09745074
177	0x3db64f3c	0.089018315
178	0x3c4b5ad0	0.012411788
179	0x3e3ab250	0.18232083
180	0x3d499b60	0.049220443
181	0xbd919eb4	-0.07110348
182	0x3de87420	0.11350274
183	0xbcfd2378	-0.030900702
184	0xbde12e42	-0.10995151
185	0xbdc92c32	-0.09822883
186	0xbd458080	-0.04821825
187	0x3dbf2e88	0.09335047
188	0x3e34eb5c	0.17667907
189	0xbe110415	-0.14161713
190	0x3dee9ab8	0.11650604
191	0x3ca49108	0.020088688
192	0xbb35e880	-0.002775699
193	0xbe2d26c8	-0.16909325
194	0x3d800fc0	0.06253004
195	0x3d6cd200	0.05781746
196	0xbdb62422	-0.088936105
197	0xbaba2900	-0.0014202893
198	0x3d78f788	0.06078294
199	0x3b3ec700	0.0029110312
200	0xbbed71c0	-0.007246226
201	0x3e244918	0.16043508
202	0x3d1759b4	0.036950782
203	0xbc22eaa0	-0.009943634
204	0x3e12d3ce	0.1433861
205	0x3d8b02ac	0.06787619
206	0x3e0bac58	0.13639963
207	0xbd9fffa9	-0.07812435
208	0xbc04b6f0	-0.008100256
209	0x3d69bc0c	0.0570641
210	0xbd0d3a10	-0.0344792
211	0xbdcf006e	-0.10107504
212	0xbdff31c2	-0.124606624
213	0xbe069a19	-0.13144721
214	0x3d063d88	0.032773525
215	0xbda51319	-0.08060283
216	0x3e16160e	0.1465685
217	0x3e0d27f4	0.13784772
218	0x3dfd133c	0.12357184
219	0xbe0cdb07	-0.13755427
220	0x3e083fd6	0.13305601
221	0xbe119760	-0.14217901
222	0xbc90de60	-0.017684162
223	0xbe3279cd	-0.17429276
224	0xbe14785d	-0.1449904
225	0xbdb39321	-0.08768297
226	0x3d21f13c	0.0395367
227	0x3cbae3b0	0.022813648
228	0xbe0e3136	-0.1388596
229	0xbcf8d0a8	-0.030372933
230	0x3dafc1c8	0.08581883
231	0x3e12bfde	0.14331004
232	0x3db7e7c0	0.0897975
233	0x3e2c7998	0.1684326
234	0xbb96c220	-0.004600778
235	0x3e1caaf4	0.15299588
236	0x3de3dadc	0.111257285
237	0xbddc1a8f	-0.10747253
238	0xbcad9668	-0.021189883
239	0x3e15fdc2	0.14647582
240	0xbd750d20	-0.05982697
241	0xbe1efea6	-0.15526828
242	0x3d159d0c	0.036526725
243	0xbdeffd75	-0.11718265
244	0xbdcb36cd	-0.09922562
245	0x3e162a60	0.14664602
246	0xbdc8bc07	-0.09801488
247	0x3e008a7a	0.12552825
248	0x3cd85940	0.026409745
249	0xbd8aee29	-0.06783707
250	0x3b86b4c0	0.0041109025
251	0xbe0abd0d	-0.1354868
252	0x3dfb34f4	0.122659594
253	0xbd94a105	-0.072572745
254	0xbd4c7d00	-0.049923897
255	0x3da03e3c	0.0782437

output.bias f4 [16]
0	0xbe0e7445	-0.13911541
1	0xbc499340	-0.012303174
2	0xbd5e1eb0	-0.054228485
3	0x3e0e605e	0.13903949
4	0x3d9e38ec	0.07725701
5	0xbdd84830	-0.10560644
6	0x3dd0e3cc	0.10199699
7	0xbe13ae5f	-0.14421986
8	0x3da76b78	0.08174795
9	0x3e274f2e	0.16338798
10	0xbdbcad44	-0.09212735
11	0x3d13aa94	0.036051348
12	0x3e106d58	0.14104211
13	0xbd85675e	-0.06513856
14	0x3b487d00	0.0030592084
15	0xbde0e7d4	-0.10981718
