PINN_experience/saved_model/simpleANNlr=0.002bs=512MSELoss.pt (torch, 34575 bytes, 8 tensors)

l1.weight f4 [50, 14]
0	0x3e542f56	0.20721182
1	0xbda05a0e	-0.078296766
2	0x3e513932	0.20431975
3	0x3e84bb8b	0.25924334
4	0xbe423e4d	-0.18969078
5	0x3e862a3b	0.26204094
6	0x3e849b91	0.25899938
7	0x3e5602f6	0.20899567
8	0x3dc08e48	0.09402138
9	0xbdd0a05a	-0.10186835
10	0xbcdda6a0	-0.027056992
11	0x3db74f58	0.089506805
12	0xbe576063	-0.21032862
13	0xbde26a1e	-0.110553965
14	0x3e4c9dee	0.1998212
15	0x3d22f440	0.039783716
16	0xbdeffba8	-0.117179215
17	0x3e8225f5	0.25419584
18	0xbe7d5822	-0.24740651
19	0x3e53f9dc	0.20700783
20	0xbe052e60	-0.13005972
21	0xbcd71ac8	-0.026257887
22	0xbe7e84a9	-0.24855293
23	0x3d4a44d8	0.04938206
24	0x3d545d50	0.051846802
25	0xbddd86ba	-0.10816713
26	0xbe563ec8	-0.20922387
27	0xbded0ba6	-0.115744874
28	0xbdc2b75c	-0.09507629
29	0xbe22220e	-0.15833303
30	0xbdb2b662	-0.08726193
31	0x3e48fb82	0.19627193
32	0xbd63dc44	-0.055629984
33	0x3dfbe324	0.12299183
34	0xbde7e0a8	-0.11322147
35	0xbc8d8b10	-0.017278224
36	0xbe12468a	-0.14284721
37	0x3debed98	0.11519927
38	0xbe23faf9	-0.16013707
39	0x3e12c43a	0.14332667
40	0x3dc5c82c	0.096573204
41	0xbe37ff70	-0.17968535
42	0x3c090040	0.008361876
43	0x3c5bd5e0	0.013417691
44	0x3e4cdd9c	0.20006412
45	0xbe3c3b6b	-0.18382041
46	0x3b23ca00	0.0024992228
47	0x3e08ddb0	0.13365817
48	0x3de6c07c	0.11267182
49	0xbe62e5ce	-0.22157976
50	0xbdd11088	-0.10208231
51	0xbd774050	-0.060364068
52	0x3cba22e0	0.022721708
53	0x3be71640	0.007052213
54	0xbe43eeea	-0.19134107
55	0x3d36a7a0	0.044593453
56	0x3da0dfbc	0.07855174
57	0xbe4642f9	-0.19361486
58	0xbb051800	-0.0020308495
59	0xbcc26140	-0.023728013
60	0x3e6ebf02	0.23315051
61	0xbd36314c	-0.044480607
62	0xbe470fb6	-0.19439587
63	0x3d0442b8	0.03229019
64	0x3d68a420	0.056797147
65	0x3e38d6b0	0.18050647
66	0xbe4fb596	-0.20284113
67	0xbe3b184a	-0.18270984
68	0xbd18c188	-0.03729394
69	0x3c1648c0	0.009172618
70	0x3e458eae	0.19292709
71	0xbd7e1524	-0.06203188
72	0x3e700f52	0.23443344
73	0x3e7a6f66	0.24456558
74	0xbd249f54	-0.04019101
75	0x3de11bc4	0.10991624
76	0x3d733350	0.059375107
77	0xbbf393c0	-0.0074333847
78	0x3e84be9d	0.25926676
79	0xbe248519	-0.16066398
80	0xbe2416a0	-0.16024256
81	0x3dc9de90	0.098569036
82	0xbd8bf2f4	-0.06833449
83	0x3db54644	0.08851293
84	0x3e6cb298	0.23115003
85	0xbe2b6cb6	-0.16740689
86	0xbe264b80	-0.16239738
87	0x3db7355c	0.08945724
88	0xbe510d38	-0.20415199
89	0xbd91a76c	-0.07112011
90	0xbe7e43e0	-0.2483058
91	0x3e5a16cc	0.21297759
92	0x3d6bfc50	0.05761367
93	0x3e2e16c4	0.17000872
94	0xbe065141	-0.13116933
95	0xbe726e70	-0.23674941
96	0x3e7c4bf6	0.24638352
97	0x3e5cd0ae	0.2156398
98	0x3e4aefe2	0.1981807
99	0x3d746f08	0.0596762
100	0x3e0fd14a	0.14044681
101	0x3dfa1600	0.122112274
102	0x3e0daed0	0.13836217
103	0x3e489f7c	0.19592088
104	0xbe2c56aa	-0.16829935
105	0xbe41998f	-0.18906234
106	0xbe6a2989	-0.22867407
107	0x3e3c009e	0.1835961
108	0xbde725d0	-0.11286509
109	0x3e338592	0.17531422
110	0xbe362057	-0.17785774
111	0x3e25fefc	0.1621055
112	0xbe38a7c0	-0.18032742
113	0x3dc7427c	0.09729478
114	0xbdc41d12	-0.09575857
115	0x3c4e2f80	0.012584567
116	0xbe551f07	-0.20812617
117	0xbe84f737	-0.2596986
118	0xbe7b9794	-0.24569541
119	0xb9a81000	-0.00032055378
120	0x3daf208c	0.0855113
121	0xbe4c245a	-0.19935742
122	0xbd993c22	-0.074821725
123	0xbe84956f	-0.2589526
124	0xbcd498d0	-0.025951773
125	0xbe55a5cd	-0.20864029
126	0x3dd0be1c	0.101925105
127	0xbdd4ae28	-0.1038478
128	0xbe3fa1d8	-0.18714082
129	0x3e431746	0.19051847
130	0x3d210710	0.039313376
131	0xbda83b36	-0.082144186
132	0x3e219bba	0.15782061
133	0xbde73834	-0.11290017
134	0x3d3655e0	0.04451549
135	0x3e0f7670	0.14010024
136	0xbe015830	-0.12631297
137	0x3d252c98	0.04032573
138	0x3c3ae320	0.01140669
139	0x3e6384c4	0.22218615
140	0x3dda29d8	0.10652512
141	0xbdcc35f0	-0.09971225
142	0x3e4d6120	0.20056581
143	0xbdeb364a	-0.11484964
144	0xbce6c818	-0.028171584
145	0x3db61ec8	0.0889259
146	0x3e182f50	0.14861798
147	0x3e687dc0	0.2270422
148	0xbe6c6132	-0.23083952
149	0xbd829028	-0.06375152
150	0xbe7f3e88	-0.24926198
151	0x3e607d0a	0.21922699
152	0xbe395e9b	-0.18102495
153	0x3e2d862e	0.16945717
154	0x3e692190	0.2276671
155	0x3dab600c	0.08367929
156	0xbbb1dc80	-0.005427897
157	0x3dfb2b54	0.122641236
158	0x3e4afbc2	0.198226
159	0x3b40bb80	0.0029408634
160	0xbd869070	-0.06570518
161	0x3db69540	0.08915186
162	0xbc978908	-0.018497959
163	0xbdee9e9e	-0.116513476
164	0x3e7180ea	0.23584333
165	0xbe6c6a6b	-0.2308747
166	0xbdc56b48	-0.09639603
167	0x3e0035f8	0.12520587
168	0x3e2c9042	0.16851905
169	0xbca4ef30	-0.020133585
170	0x3e7b3a7e	0.24534032
171	0xbcda24c8	-0.026628867
172	0x3c202a60	0.009775728
173	0xbe30c7fd	-0.1726379
174	0x3e15351a	0.14571038
175	0xbe2e588b	-0.17025964
176	0xbd9d3d66	-0.076777264
177	0x3e0bc66e	0.13649914
178	0xbd926ed8	-0.07150048
179	0x3da7c07c	0.0819101
180	0x3e146bc0	0.14494228
181	0xbd4de184	-0.050263897
182	0xbd74cc58	-0.05976519
183	0x3e88cd39	0.26719072
184	0x3e3ab486	0.18232927
185	0xbe4d0be9	-0.20024075
186	0x3e0ca5f8	0.13735187
187	0xbe6731f4	-0.2257765
188	0x3c3fe100	0.011711359
189	0x3dc90bf4	0.09816733
190	0xbdc512e4	-0.09622744
191	0xbc8afe50	-0.016966969
192	0xbe7b47c6	-0.24539098
193	0xbdfd2eba	-0.12362428
194	0x3e2166d2	0.15761879
195	0x3e864675	0.2622563
196	0x3df02458	0.11725682
197	0x3e622a8a	0.2208654
198	0xbe838cae	-0.25693268
199	0xbde7b2e8	-0.113134205
200	0x3e003c10	0.12522912
201	0xbe283318	-0.1642574
202	0x3e463ec6	0.19359884
203	0x3e4f0f9c	0.20220798
204	0xbe004f82	-0.1253033
205	0xbc891590	-0.016733915
206	0xbe752f0c	-0.23943728
207	0x3cc135e0	0.02358526
208	0x3e56eeb8	0.20989501
209	0xbe238543	-0.15968804
210	0xbe0f13ba	-0.13972369
211	0x3e756e82	0.23967937
212	0xbe4776ea	-0.19478956
213	0xbe6ce08c	-0.23132533
214	0xbe87f97b	-0.26557526
215	0xbe2fdace	-0.17173311
216	0xbe393ab1	-0.18088795
217	0x3cb70d50	0.022345215
218	0xbd3c386c	-0.045952246
219	0x3e3222b0	0.17396045
220	0xbe4d1e54	-0.200311
221	0xbda5145e	-0.08060525
222	0x3e464736	0.19363102
223	0xbe7edae5	-0.24888189
224	0xbe2bf2ae	-0.16791794
225	0xbe0cdd84	-0.13756377
226	0xbdb68db8	-0.089137495
227	0x3d8f9dec	0.07012543
228	0x3d69c460	0.057072043
229	0xbe67493f	-0.22586535
230	0x3e557300	0.2084465
231	0x3dcc5820	0.09977746
232	0x3d05a028	0.03262344
233	0xbddd3e78	-0.108029306
234	0x3e238748	0.15969574
235	0x3d168720	0.03674996
236	0xbe29e346	-0.16590604
237	0xbdbc7648	-0.09202248
238	0x3e0c22d0	0.13685155
239	0x3e2576d0	0.16158605
240	0x3e451cde	0.19249293
241	0x3e682b76	0.22672829
242	0x3e42cec0	0.19024181
243	0x3e76e4aa	0.24110666
244	0xbce95258	-0.028481647
245	0x3e235102	0.15948871
246	0xbe512ae0	-0.20426512
247	0x3dfe3b90	0.124137044
248	0xbe029b73	-0.12754612
249	0xbdda9764	-0.10673407
250	0x3e7a672a	0.24453416
251	0xbcf8ee50	-0.030387074
252	0xbe10db44	-0.14146143
253	0x3e5e6e76	0.21721825
254	0x3e854aad	0.26033536
255	0xbd34f4d4	-0.0441788

l1.bias f4 [50]
0	0xbcb2f0f8	-0.021843418
1	0xbe12d4e8	-0.1433903
2	0x3c861240	0.016366124
3	0x3cff6490	0.031175882
4	0x3e795bae	0.2435138
5	0xbe020882	-0.12698558
6	0xbe205936	-0.15659031
7	0xbdfa160c	-0.12211236
8	0x3e3cd52e	0.18440697
9	0x3e39ed90	0.18157029
10	0xbe7ec266	-0.24878845
11	0x3dd03ab0	0.10167444
12	0xbdc4500e	-0.09585582
13	0x3e0e2238	0.13880241
14	0xbe2f01c3	-0.17090516
15	0xbd805e94	-0.06268039
16	0xbe5c2974	-0.21500188
17	0xbe2b97e2	-0.16757157
18	0x3dc60038	0.096680105
19	0xbdb3db1e	-0.08782028
20	0xbe1548d0	-0.14578557
21	0xbcdfca30	-0.02731809
22	0xbdf9c84a	-0.12196405
23	0x3bb14300	0.0054095984
24	0x3e42c88c	0.19021815
25	0xbe5ee589	-0.21767248
26	0x3e2993ec	0.16560334
27	0xbd8bfcec	-0.068353504
28	0x3e18a78e	0.14907667
29	0xbdb25550	-0.08707678
30	0xbd46f098	-0.04856929
31	0x3e13d97a	0.1443843
32	0xbe3aeaea	-0.18253675
33	0x3e473098	0.19452131
34	0x3d4f6d38	0.05064127
35	0x3c0a55a0	0.008443266
36	0x3e3a652e	0.1820266
37	0x3d8a3a3c	0.067493886
38	0xbd5596e8	-0.05214587
39	0x3d7a9bb0	0.06118363
40	0x3e8317c1	0.2560406
41	0x3d813510	0.06308949
42	0x3dbe85a8	0.09302837
43	0x3dd58ff0	0.104278445
44	0xbe760103	-0.24023823
45	0xbcaa0348	-0.020753518
46	0x3d71fde8	0.059080034
47	0xbd8e33ec	-0.06943497
48	0xbe71557c	-0.23567766
49	0xbe824bbd	-0.2544841

l2.weight f4 [100, 50]
0	0x3da2111c	0.079134196
1	0x3df0ac0e	0.11751567
2	0x3c157df0	0.009124264
3	0xbe099e6e	-0.13439342
4	0xbde59bed	-0.11211381
5	0x3d6875a0	0.0567528
6	0x3d3773b4	0.044788077
7	0xbbef3060	-0.007299468
8	0xbd3e4320	-0.046450734
9	0xbd69be90	-0.0570665
10	0x3d332268	0.043733984
11	0x3e0b9d19	0.13634147
12	0x3defd08a	0.117096975
13	0x3ddf757e	0.10911082
14	0xbdf48fe0	-0.119415045
15	0x3b8eeec0	0.0043619573
16	0xbdd0d560	-0.10196948
17	0x3de259ce	0.11052285
18	0xbe0d749c	-0.13814014
19	0xbe0cc8fd	-0.13748546
20	0x3e102a49	0.1407863
21	0x3d0e8458	0.03479418
22	0xbdcf7534	-0.101297766
23	0x3de9edc6	0.11422305
24	0x3dd931ec	0.10605225
25	0x3deeb962	0.11656453
26	0x3df60616	0.120128796
27	0x3dbe4b46	0.09291701
28	0xbcd9430c	-0.026521228
29	0x3cafde08	0.021468177
30	0xbd9947c3	-0.074843906
31	0x3c932c48	0.01796545
32	0xbdbd2d50	-0.09237158
33	0x3d7bbfec	0.061462328
34	0xbe0c3cc9	-0.13695063
35	0x3df5ad7a	0.11995979
36	0xbdb9d8e0	-0.09074569
37	0xbbc860a0	-0.006115034
38	0x3cd2ae98	0.025718018
39	0xbd71a71e	-0.058997266
40	0xbb8a6720	-0.0042237192
41	0xbdbb7de2	-0.091548696
42	0x3ccbf9f0	0.024899453
43	0x3dbc8af6	0.09206192
44	0xbdb3b43c	-0.08774611
45	0x3c881d78	0.016615614
46	0xbdaabb4c	-0.08336505
47	0x3ccde5a0	0.025133908
48	0x3e0f9489	0.14021505
49	0x3c5008e0	0.012697428
50	0xbdf41dec	-0.1191977
51	0xbd7ed084	-0.062210575
52	0xbd4b2cb6	-0.049603187
53	0xbc9ebb44	-0.019376405
54	0xbcf17834	-0.029476263
55	0xbe036d8c	-0.12834758
56	0xbc470da0	-0.012149245
57	0xbe09891c	-0.1343121
58	0xbdd6888c	-0.10475263
59	0x3dd24492	0.10266985
60	0xbdfde714	-0.1239759
61	0xbd8513b5	-0.064978994
62	0x3ba87180	0.0051404834
63	0x3d4b9438	0.0497019
64	0xbd970bc8	-0.07375294
65	0x3d3f9700	0.046774864
66	0x3ddb99ea	0.10722716
67	0xbe04dfe1	-0.12976028
68	0x3dfbb656	0.12290637
69	0xbde9f70f	-0.11424076
70	0x3d706d20	0.05869782
71	0xbdeed874	-0.11662379
72	0xbde541fd	-0.11194227
73	0x3bec3900	0.0072089434
74	0xbd617b84	-0.055049434
75	0x3d11e810	0.035621703
76	0xbdee6b47	-0.11641555
77	0x3dd51796	0.10404889
78	0x3e0e546b	0.1389939
79	0xbe035ff3	-0.1282957
80	0xbb7efac0	-0.0038906783
81	0x3d8e935a	0.06961699
82	0xbd0a1d2a	-0.03371922
83	0x3dcb19b2	0.0991701
84	0x3d8b262a	0.067943886
85	0xbc9453b4	-0.018106319
86	0x3d9fd1ca	0.07803686
87	0x3d80f808	0.06297308
88	0xbd8df15d	-0.06930802
89	0x3dadd3d4	0.08487669
90	0xbd1133d0	-0.035449803
91	0xbc3c7f80	-0.011505008
92	0x3db7df88	0.08978182
93	0xbda94ce6	-0.0826662
94	0x3cc0c018	0.023529097
95	0xbcea0048	-0.028564587
96	0x3d5fdf34	0.054656222
97	0xbdef909f	-0.11697506
98	0x3d8e3c1a	0.06945057
99	0xbd06066e	-0.032720976
100	0xbe0d1540	-0.13777637
101	0xbc15d270	-0.0091444105
102	0x3dd39ae8	0.103322804
103	0x3cfbfb30	0.030759424
104	0x3cdb5f10	0.026778728
105	0xbe0d05d4	-0.13771755
106	0xbd34e190	-0.044160426
107	0x3d5c8f04	0.053847328
108	0x3d27e084	0.0409856
109	0x3dd5300c	0.10409555
110	0x3ade5d80	0.0016965121
111	0xbde9eeed	-0.114225246
112	0xbc8b57bc	-0.017009608
113	0x3d2bc278	0.041933507
114	0xbd0ac194	-0.033876017
115	0x3d300be8	0.042980105
116	0x3e08ab57	0.13346611
117	0xbd0f509c	-0.034988984
118	0x3e0896fb	0.13338844
119	0xbde823f6	-0.11334984
120	0xbb4c2c00	-0.0031154156
121	0x3db7c556	0.08973186
122	0xbddacea0	-0.10683942
123	0x3dc49986	0.09599595
124	0xbd9b0558	-0.075693786
125	0x3e1011ef	0.14069341
126	0xbdbda391	-0.092597134
127	0x3dc09890	0.09404099
128	0x3e036505	0.12831505
129	0x3c5eea20	0.013605624
130	0x3b8d9640	0.0043208897
131	0xbdfbd416	-0.122963116
132	0x3df1c97a	0.11806007
133	0xbe040b9a	-0.1289505
134	0x3e041075	0.12896903
135	0xbcf5c134	-0.029999353
136	0x3c843918	0.016140506
137	0x3d1527d4	0.036414936
138	0xbe03c6fd	-0.12868877
139	0x3d437a64	0.047724143
140	0xbcafba74	-0.021451212
141	0xbd9f1fc0	-0.07769728
142	0x3d2e0b14	0.042491034
143	0xbdbed87a	-0.093186334
144	0x3d24a2a8	0.040194184
145	0x3e0b081b	0.1357731
146	0x3d44350c	0.047902152
147	0x3dd1a522	0.10236575
148	0xbdda3fe3	-0.10656717
149	0xbc806978	-0.015675291
150	0xbce2bf98	-0.02767925
151	0x3cb944a8	0.022615746
152	0xbde7a556	-0.11310832
153	0x3d9f5ba8	0.07781154
154	0x3d407338	0.04698488
155	0xbe061fae	-0.13098022
156	0xbd961204	-0.07327655
157	0xbd802c5b	-0.0625846
158	0x3e104e41	0.14092351
159	0xbd425954	-0.04744847
160	0xbe0774f8	-0.13228214
161	0xbda6b15e	-0.08139299
162	0xbccae968	-0.0247695
163	0x3de36bae	0.11104523
164	0x3c9e2b08	0.019307628
165	0xbd308f22	-0.043105252
166	0x3e0e3d11	0.13890482
167	0xbe01a3d4	-0.12660152
168	0x3e0bc559	0.13649501
169	0xbdb0ffe4	-0.08642557
170	0x3e10340d	0.14082356
171	0xbbbff0a0	-0.005857542
172	0xbd8277dd	-0.06370518
173	0xbd7d8806	-0.0618973
174	0xbdd72e1d	-0.10506842
175	0x3d233098	0.039841264
176	0x3d0f3710	0.03496462
177	0xbdb15f92	-0.08660807
178	0xbdf4e2ec	-0.119573444
179	0xbdf7e2a3	-0.121037744
180	0x3dc8d132	0.09805526
181	0x3c5af9e0	0.013365239
182	0x3caad990	0.020855695
183	0x3c9f4a78	0.01944469
184	0xbda1810a	-0.078859404
185	0x3d30d950	0.043175995
186	0x3ced29c0	0.028950572
187	0x3b777700	0.0037760139
188	0xbd382142	-0.044953592
189	0xbdf6a5e4	-0.1204336
190	0xbdfe19e0	-0.12407279
191	0x3e0fbcbf	0.14036845
192	0x3dc6b734	0.09702912
193	0xbdd2caf4	-0.102926165
194	0xbd29a062	-0.04141272
195	0xbdf4c744	-0.119520694
196	0x3ba467e0	0.0050172657
197	0xbd48e25c	-0.049043998
198	0x3dfb552a	0.12272103
199	0x3d6164c4	0.05502774
200	0xbdae0228	-0.08496505
201	0xbbc60e60	-0.006044194
202	0xbdec70b0	-0.11544931
203	0xbd68bfdc	-0.056823596
204	0x3ce576f8	0.02801083
205	0x3d4b0a6c	0.049570486
206	0xbd96c8dd	-0.073625304
207	0xbdfbf6d7	-0.1230294
208	0xbc82fd38	-0.015989885
209	0xbda0f34a	-0.07858904
210	0xbdb8b0f0	-0.09018123
211	0x3d6bb9a8	0.057550102
212	0xbd9554bd	-0.07291553
213	0x3e01f10b	0.12689607
214	0x3dd382d4	0.10327688
215	0x3dffbe1e	0.12487434
216	0xbd622894	-0.05521448
217	0x3df4df22	0.11956622
218	0x3e06088b	0.13089196
219	0xbd602746	-0.054724954
220	0xbdc80bca	-0.097678736
221	0xbdd11a20	-0.10210061
222	0xbd9f747d	-0.0778589
223	0x3e019ad9	0.12656726
224	0xbdbbf9bd	-0.09178493
225	0xbdfc70cc	-0.12326202
226	0xbdb6117c	-0.08890054
227	0xbdd81a04	-0.10551837
228	0x3d735944	0.059411302
229	0xbc0935f0	-0.008374676
230	0x3dd4089a	0.10353203
231	0xbdae597e	-0.08513163
232	0x3d2d845c	0.042362556
233	0xbc06be50	-0.008224085
234	0x3d589308	0.052874595
235	0x3b9cf700	0.004790187
236	0x3bbb2d20	0.0057121664
237	0x3b9e98c0	0.0048399866
238	0x3d0a1b6c	0.033717558
239	0xbd90b0c8	-0.07064968
240	0x3d44cbe4	0.048046008
241	0x3c1ca730	0.009561345
242	0x3dc47b9a	0.095938876
243	0xbd620046	-0.055176042
244	0x3d2c6784	0.042090908
245	0x3da5667e	0.080761895
246	0x3e06009d	0.13086171
247	0x3cb33118	0.021873996
248	0xbc0add50	-0.008475617
249	0xbdded6e7	-0.10880833
250	0xbd690168	-0.056886107
251	0xbd0b4ae2	-0.03400696
252	0x3cb5a550	0.022173554
253	0xbd359f82	-0.04434157
254	0xbdd2215d	-0.1026027
255	0xbda7cf94	-0.08193889

l2.bias f4 [100]
0	0xbdcf5936	-0.101244375
1	0xbe0820f2	-0.13293818
2	0x3d985794	0.07438579
3	0x3dfb84de	0.12281202
4	0xbdfdd5f8	-0.12394327
5	0xbd15aa96	-0.036539637
6	0x3db38e26	0.08767347
7	0xbbb17ca0	-0.005416468
8	0xbda973a0	-0.08274007
9	0xbdf71804	-0.120651275
10	0xbd800e23	-0.06252696
11	0x3e08b73f	0.13351153
12	0xbd80abfb	-0.06282803
13	0x3d846476	0.06464474
14	0x3d9b516e	0.07583891
15	0x3d43feb4	0.047850326
16	0x3dd59c24	0.10430172
17	0xbdf97b54	-0.12181726
18	0xbdd2f0e4	-0.102998525
19	0x3dfe9cd6	0.12432258
20	0x3acd5680	0.0015666038
21	0xbdbaaf56	-0.09115474
22	0xbccf81f0	-0.025330514
23	0x3d3c98d8	0.0460442
24	0x3e089b8b	0.13340585
25	0x3e005ef1	0.12536217
26	0xbd0f7ec4	-0.035033002
27	0x3c8d04e0	0.017214239
28	0xbd183d52	-0.037167855
29	0xbe0aeff3	-0.13568096
30	0x3c424da0	0.011859328
31	0x3de4069a	0.11134072
32	0x3d480e88	0.048841983
33	0x3e04596d	0.12924738
34	0x3d747ef4	0.059691384
35	0x3d473e5c	0.048643455
36	0xbe0b7daf	-0.13622163
37	0xbde704ee	-0.11280237
38	0x3de5cc86	0.112206504
39	0xbc2b0dd0	-0.010440305
40	0xbd0b71e2	-0.034044154
41	0x3d9e9d34	0.07744828
42	0xbccbe5f4	-0.024889924
43	0xbddcf882	-0.107895866
44	0xbde6ae54	-0.11263719
45	0xbc565630	-0.013082072
46	0x3df4d01e	0.11953758
47	0xbde89763	-0.11357
48	0x3d8d8312	0.06909765
49	0xbdcb203d	-0.09918258
50	0x3d7e7b8c	0.062129542
51	0xbdb92fa8	-0.09042293
52	0xbdbe0da9	-0.09279949
53	0xbd579430	-0.052631557
54	0x3dbb502a	0.091461495
55	0xbdefc663	-0.11707761
56	0x3d0c3940	0.034234285
57	0x3e0400cb	0.12890927
58	0xbcc719e4	-0.024304338
59	0xbdbe2dd1	-0.092860825
60	0x3d62b9f0	0.055353105
61	0xbd86da8c	-0.06584653
62	0x3d7a98f0	0.06118101
63	0xbc92f040	-0.017936826
64	0xbdb4bc48	-0.08824974
65	0xbe0a2b78	-0.13493145
66	0x3dbace2e	0.09121357
67	0xbd2f9356	-0.04286512
68	0xbcc00e60	-0.023444355
69	0x3df1a9b6	0.11799948
70	0xbdd0f151	-0.102022775
71	0x3d85afa0	0.065276384
72	0x3d57d5e8	0.05269423
73	0xbdf2675a	-0.11836119
74	0x3d21d990	0.039514124
75	0x3de87ad6	0.11351554
76	0x3d78a3c8	0.06070307
77	0x3df7899a	0.12086792
78	0x3e037ec1	0.12841322
79	0x3bca9200	0.0061819553
80	0xbcf4ef8c	-0.029899381
81	0xbdc7aafa	-0.09749408
82	0x3da8974a	0.08231981
83	0xbcf37a4c	-0.029721402
84	0x3c23d080	0.009998441
85	0x3d9ba262	0.075993314
86	0xbdb3212b	-0.08746561
87	0xbe106215	-0.14099915
88	0x3c13e6b0	0.009027168
89	0xbd8b3536	-0.067972586
90	0xbdd1fe28	-0.102535546
91	0xbe0da4aa	-0.13832346
92	0xbdd3a0d4	-0.1033341
93	0xbdc4acd1	-0.096032746
94	0x3b82bd60	0.0039898604
95	0xbafb4500	-0.0019170344
96	0x3d8f8f0c	0.07009706
97	0xbd0c882e	-0.03430956
98	0x3d3ed110	0.046586096
99	0xbbbd19a0	-0.005770877

l3.weight f4 [20, 100]
0	0xb802b000	-3.1158328e-05
1	0xbbbd5600	-0.0057780743
2	0xbb893350	-0.004187025
3	0xbd5e3a60	-0.05425489
4	0x3da5b46d	0.08091054
5	0x3d903e27	0.070431046
6	0x3d9dd0ab	0.07705816
7	0x3c288f10	0.010288015
8	0xbd0d031a	-0.034426786
9	0xbd8d6d8e	-0.069056615
10	0xbd971523	-0.073770784
11	0xbc86e018	-0.016464278
12	0xbd481807	-0.04885104
13	0xbca30254	-0.019898571
14	0xbc83e90c	-0.016102336
15	0xbdcc9517	-0.09989374
16	0xbd59bc33	-0.053157996
17	0xbd362a0a	-0.044473685
18	0x3dc1e17f	0.09466838
19	0xbd85c034	-0.065308005
20	0xbd823ace	-0.06358872
21	0xbdc05678	-0.093914926
22	0x3d8508b9	0.06495804
23	0x3dab1b29	0.0835479
24	0xbc585dd0	-0.01320596
25	0x3cc8d558	0.024515793
26	0xbdb00c88	-0.0859614
27	0x3d6cca0e	0.057809882
28	0xbda69eb2	-0.081357375
29	0xbdbd53a5	-0.092444696
30	0x3d4da0be	0.050202124
31	0xbd1b4ab3	-0.037913036
32	0xbdb1c1e0	-0.08679557
33	0xbd0360c4	-0.032074705
34	0x3bb59ed0	0.0055426136
35	0x3da28917	0.07936304
36	0xbcf56c2c	-0.029958807
37	0x3d6d45de	0.05792796
38	0xbd4ab997	-0.0494934
39	0x3da4b67d	0.080426194
40	0xbd1d81fa	-0.038454033
41	0xbcecfe4c	-0.028929852
42	0xbd637cd0	-0.055538952
43	0xbd435e87	-0.04769757
44	0xbd461b8d	-0.04836612
45	0xbd6eaae0	-0.058268428
46	0x3daec451	0.08533538
47	0x3ba846a0	0.0051353723
48	0xbd7d86ad	-0.061896015
49	0xbc958274	-0.018250681
50	0x3d89399f	0.067004435
51	0x3c9a53b4	0.01883874
52	0x3b540ca0	0.0032356158
53	0x3cbf8e74	0.023383357
54	0xbcd596c8	-0.026072875
55	0x3d9b2449	0.0757528
56	0xbdc9aca8	-0.09847385
57	0xbc4597a8	-0.012060083
58	0xbcb4d7d8	-0.022075579
59	0xbdb7a99f	-0.089678995
60	0xbc745fd0	-0.014915422
61	0xbdb63add	-0.08897946
62	0x3dc4adfd	0.09603498
63	0xbd84eece	-0.06490861
64	0x3d3968b6	0.045265876
65	0x3d61b0be	0.055100195
66	0x3d5328ce	0.051552586
67	0xbd4a4c5d	-0.049389232
68	0x3db05079	0.08609099
69	0xbd9e46ae	-0.07728325
70	0xbd970b80	-0.0737524
71	0x3d10016a	0.0351576
72	0x3db6ff7f	0.08935451
73	0x3d5f6662	0.054541
74	0xbd93eccd	-0.072229005
75	0x3d9e40f7	0.07727235
76	0x3d65df82	0.056121357
77	0x3cdb1aec	0.026746236
78	0xbc8466e0	-0.016162336
79	0xbd1c9663	-0.038229357
80	0x3d865a73	0.065602206
81	0x3d4a0462	0.049320586
82	0xb9bd8600	-0.00036148727
83	0x3cc6baa0	0.024258912
84	0x3db704a1	0.0893643
85	0xbcde0a74	-0.027104594
86	0xbc4de3f0	-0.012566552
87	0x3d508f52	0.05091793
88	0xbd824f62	-0.06362797
89	0xbc0f6118	-0.008751176
90	0xbd14c8c4	-0.036324278
91	0xbccc7198	-0.02495651
92	0xbc51d470	-0.012806997
93	0x3c52c9c0	0.012865484
94	0x3d198aee	0.03748601
95	0x3d651242	0.055925615
96	0x3d99ef8b	0.07516392
97	0x3c9b0e58	0.018927738
98	0xbd91b625	-0.071148194
99	0xbd6e0027	-0.058105614
100	0x3d16c7f2	0.036811776
101	0x3cabcf14	0.020972766
102	0xbb250ec0	-0.0025185794
103	0x3d42adfa	0.0475292
104	0x3dc9a03f	0.09845018
105	0x3d8cba35	0.06871454
106	0x3da44ed7	0.0802285
107	0xbd6f470d	-0.05841737
108	0xbca17b08	-0.019711986
109	0x3c0a6b98	0.008448504
110	0x3dbdf8d3	0.09275975
111	0xbdc68665	-0.096936025
112	0xbda7e686	-0.08198266
113	0xbda7a3dd	-0.08185551
114	0x3cc88dc8	0.024481669
115	0xbdca8bc8	-0.098899424
116	0xbd97a6f3	-0.0740489
117	0x3d644b12	0.055735655
118	0xbb3d7d60	-0.002891384
119	0xbaeda880	-0.0018131882
120	0x3d544492	0.051823206
121	0xbd24007d	-0.04003953
122	0xbda18c56	-0.07888095
123	0xbce0a700	-0.027423382
124	0x3d952591	0.07282556
125	0x3d81494d	0.06312809
126	0xbd17a156	-0.037019096
127	0x3dc20a97	0.09474676
128	0xbdb08943	-0.086199306
129	0x3cbf0208	0.023316398
130	0xbbb5c350	-0.0055469647
131	0x3da6882d	0.08131442
132	0xbd121f5c	-0.035674438
133	0xbd8e5520	-0.0694983
134	0x3d615f12	0.055022307
135	0x3d5debd6	0.05417999
136	0xbdbf19e3	-0.093311094
137	0x393fa400	0.00018276274
138	0xbd31b2d3	-0.04338343
139	0xbc61cb50	-0.013781384
140	0xbd7c385d	-0.06157719
141	0x3cd8e6a4	0.026477166
142	0xbcc10648	-0.023562565
143	0x3db79da7	0.08965617
144	0x3d919005	0.07107548
145	0xbd4d8e7a	-0.050184704
146	0x3d9f85df	0.07789206
147	0xbd008bac	-0.0313832
148	0xbd200840	-0.039070368
149	0xbdc6f4fd	-0.097146966
150	0xbc905db8	-0.017622814
151	0x3d3ed102	0.046586044
152	0x3d1f3756	0.03887113
153	0xbdb04760	-0.08607364
154	0x3da00b57	0.07814663
155	0x3d251b02	0.04030896
156	0x3da4b979	0.080431886
157	0xbdc57867	-0.096421055
158	0xbb607dc0	-0.003425464
159	0x3da2f205	0.07956318
160	0x3d7e49ba	0.06208203
161	0xbcea85e0	-0.02862829
162	0x3c7c8970	0.015413627
163	0x3c3d4598	0.011552237
164	0x3b3b6da0	0.0028599277
165	0x3cf40ffc	0.029792778
166	0x3d29e6da	0.041479923
167	0xbd2a7087	-0.04161122
168	0xbd6dcaca	-0.058054723
169	0x3d2a2c72	0.041546293
170	0x3dc76e09	0.097377844
171	0xbd7b8323	-0.06140436
172	0x3d68d3be	0.056842558
173	0x3da6ac0f	0.08138286
174	0x3d06fb3a	0.032954432
175	0x3dbfa9f1	0.093585856
176	0xbd8219f8	-0.063526094
177	0xbd16f8a0	-0.0368582
178	0xbd8d6133	-0.06903305
179	0x3b0d29c0	0.0021539778
180	0xbca77148	-0.020439759
181	0xbd94a0d6	-0.072572395
182	0x3c68cab0	0.014208481
183	0x3d7fba0e	0.062433295
184	0xbdb8ce83	-0.09023764
185	0x3cb7aa20	0.02241999
186	0xbdc3c13d	-0.09558342
187	0xbdaf572a	-0.08561547
188	0xbd9c65c2	-0.07636596
189	0x3ce2e8bc	0.027698867
190	0x3dbe5b6f	0.09294783
191	0x3d8be8b1	0.06831492
192	0xbca92a20	-0.02064997
193	0xbd75dcaa	-0.060024895
194	0xbbd3d600	-0.00646472
195	0xbdb0d6d5	-0.08634726
196	0xbda707ce	-0.081557855
197	0x3d947d61	0.07250477
198	0x3da92307	0.08258634
199	0xbce6d0c0	-0.028175712
200	0x3dc212d3	0.09476247
201	0x3dbc8095	0.092042126
202	0x3caa4334	0.020783998
203	0xbdbf639f	-0.09345173
204	0xbd774f8a	-0.06037859
205	0x3da33039	0.07968182
206	0xbdb33bcf	-0.08751642
207	0xbdb36cb2	-0.08760966
208	0x3cb6dc40	0.02232182
209	0x3bb13900	0.0054084063
210	0xbd93e473	-0.072213076
211	0x3c3069e8	0.0107674375
212	0x3d85d7c9	0.065352984
213	0x3b4865a0	0.0030578151
214	0xbb603ba0	-0.0034215227
215	0xbc6625d0	-0.014047101
216	0xbd2f47ed	-0.042793203
217	0x3c940dec	0.018073045
218	0x3cf4f4a4	0.02990181
219	0x3db529f9	0.08845896
220	0x3dc80367	0.09766274
221	0x3d55c262	0.05218733
222	0x3dba4695	0.09095494
223	0xbc1d1f10	-0.009589925
224	0x3d68b6b2	0.056814857
225	0x3db3b0b7	0.0877394
226	0x3d9ec141	0.07751704
227	0x3da1abfb	0.07894131
228	0xbc4b4870	-0.012407407
229	0xbd92ab7d	-0.07161615
230	0xbdb89b3f	-0.09013986
231	0x3ce2dd94	0.027693547
232	0xbd97bcad	-0.07409034
233	0x3d82da79	0.063893266
234	0xbda015be	-0.07816647
235	0x3cd8bd84	0.026457556
236	0xbd87d2da	-0.066320136
237	0x3c54e6c0	0.012994468
238	0xbd0ee57a	-0.034886815
239	0x3d7abec2	0.061217077
240	0xbc0e0d98	-0.008670233
241	0xbda95af2	-0.082692996
242	0xbda12493	-0.07868304
243	0xbd8b4ed5	-0.068021454
244	0x3db13f41	0.08654643
245	0x3bcd7ca0	0.00627096
246	0x3d638c92	0.05555398
247	0x3dbaf439	0.09128613
248	0x3da3eb1f	0.0800383
249	0x3da2c721	0.07948137
250	0xbdbf65ff	-0.09345626
251	0x3d31373a	0.04326556
252	0xbcedea98	-0.029042527
253	0xbd12eea4	-0.035872117
254	0xbc388598	-0.01126232
255	0xbdad521d	-0.084629275

l3.bias f4 [20]
0	0xbce335c0	-0.027735591
1	0xbdc58647	-0.09644752
2	0xbdcb7475	-0.09934322
3	0xbc705318	-0.014668249
4	0x3d08ebda	0.03342805
5	0xbd48e733	-0.049048614
6	0x3d955d91	0.07293237
7	0xbd45455d	-0.048161853
8	0x3bcd08b0	0.006257139
9	0x3d0b7622	0.034048207
10	0xbd7695ba	-0.060201384
11	0xbd4920f0	-0.049103677
12	0xbd734f37	-0.059401717
13	0xbb9f02d0	-0.00485263
14	0x3d7828a6	0.06058564
15	0xbda89b55	-0.08232752
16	0xbd0a99e0	-0.033838153
17	0xbc8641c0	-0.016388774
18	0xbd6e7a7d	-0.058222283
19	0x3d60fcc2	0.05492855

output.weight f4 [8, 20]
0	0x3ce467b0	0.027881473
1	0x3de98f6c	0.11404309
2	0xbe06e9c6	-0.13175115
3	0xbdbf6150	-0.09344733
4	0xbc54a1f0	-0.012978062
5	0xbe39bf44	-0.18139368
6	0xbc9d7828	-0.019222334
7	0xbe3cf0e5	-0.18451269
8	0x3d47edd0	0.04881078
9	0xbd2f82f0	-0.04284948
10	0x3e05532c	0.13020009
11	0xbd943336	-0.0723633
12	0xbdf93bb3	-0.1216959
13	0x3e4e88b6	0.20169339
14	0xbce3d130	-0.02780971
15	0x3e64784c	0.22311515
16	0xbe57816a	-0.21045461
17	0x3d251378	0.04030177
18	0x3d9612e8	0.07327825
19	0xbe0b4f96	-0.13604578
20	0xbc539e90	-0.012916222
21	0x3d801408	0.06253821
22	0xbdaf234a	-0.08551653
23	0xbe645209	-0.22296919
24	0xbdc54d2c	-0.0963386
25	0x3b6516c0	0.0034956187
26	0xbdb7297a	-0.08943458
27	0x3df9c3ac	0.121955246
28	0xbe1b3d44	-0.1516009
29	0xbe23b594	-0.15987235
30	0x3e372d92	0.17888477
31	0x3e441734	0.19149476
32	0x3b10e780	0.002211064
33	0x3da1fbcc	0.079093546
34	0x3caf64d0	0.021410376
35	0x3cad76d0	0.021174818
36	0xbe335210	-0.17511773
37	0xbe2d60cf	-0.16931461
38	0xbd9f087c	-0.0776529
39	0xbcf17d08	-0.029478565
40	0x3dee83ac	0.11646208
41	0xbdba5e88	-0.09100062
42	0xbe42ec53	-0.19035463
43	0x3e331342	0.17487815
44	0xbe1d52aa	-0.15363565
45	0xbdb3f3c4	-0.08786729
46	0xbe0fd6d9	-0.14046802
47	0x3e41bd82	0.18919948
48	0xbd7f7044	-0.062362924
49	0xbd9fab44	-0.07796338
50	0xbcc35df8	-0.023848519
51	0xbe15ecb9	-0.14641084
52	0xbdaf24f0	-0.08551967
53	0xbe4ac804	-0.19802862
54	0xbc9f2090	-0.019424707
55	0xbe05d7a4	-0.13070542
56	0x3e54150c	0.20711154
57	0x3e02faa2	0.12790921
58	0xbdb6730e	-0.08908664
59	0x3dff9798	0.12480086
60	0x3e5412fa	0.20710364
61	0x3e57dfe6	0.21081504
62	0xbe5b9cb7	-0.214465
63	0x3cbc22a0	0.02296573
64	0x3cdac480	0.026705027
65	0x3e265712	0.16244152
66	0x3d8d6070	0.069031596
67	0xbdcb9de3	-0.09942224
68	0xbc6ede30	-0.014579341
69	0x3e14cc5a	0.14531079
70	0x3d783108	0.060593635
71	0xbe1d20dc	-0.15344566
72	0x3e2c1e04	0.16808325
73	0xbdec5230	-0.115391135
74	0xbe5c56c4	-0.21517473
75	0xbcff1a38	-0.031140432
76	0xbda5969c	-0.08085367
77	0xbe564caa	-0.20927683
78	0xbd4cd3cc	-0.050006673
79	0xbde4dc52	-0.11174835
80	0x3d8c8238	0.06860775
81	0x3e426b72	0.189863
82	0x3cc40af8	0.023931012
83	0x3da55f9c	0.08074877
84	0xbdca4406	-0.09876256
85	0xbdf1ab4a	-0.11800249
86	0x3cd4b8b0	0.025966972
87	0x3d155200	0.036455154
88	0x3de01ac8	0.10942608
89	0xbd775f2c	-0.060393497
90	0x3cf31700	0.029674053
91	0x3e2282d4	0.1587022
92	0xbe0233ec	-0.12715119
93	0xbd0384fc	-0.032109246
94	0x3e3c3c1e	0.18382308
95	0xbd582ad4	-0.05277522
96	0xbdfb848a	-0.12281139
97	0xbdcaab1f	-0.0989592
98	0x3d09c9a8	0.03363958
99	0x3e345174	0.17609197
100	0xbd70c018	-0.058776945
101	0xbc5eb100	-0.013592005
102	0x3e3891be	0.18024346
103	0x3e42d7be	0.19027612
104	0x3d6399e8	0.0555667
105	0x3e1953d6	0.14973387
106	0xbd8fbc66	-0.07018356
107	0xbcdecd38	-0.027197465
108	0xbda40668	-0.080090344
109	0xbb458200	-0.00301373
110	0xbe4cde6a	-0.20006719
111	0xbe2f65d6	-0.17128691
112	0x3d566450	0.05234176
113	0xbd64cba0	-0.055858254
114	0xbe0b379c	-0.13595432
115	0x3e5d9532	0.21638945
116	0x3e173b10	0.14768624
117	0xbe50cec3	-0.20391373
118	0x3be6df80	0.0070456862
119	0xbd5e8660	-0.05432737
120	0xbe6157a5	-0.2200609
121	0x3e345a68	0.17612612
122	0xbc75ad90	-0.014994994
123	0x3e2ccae2	0.16874269
124	0xbe37393a	-0.17892924
125	0x3e4fc94e	0.20291635
126	0x3e242ff4	0.16033918
127	0x3d9d4194	0.07678524
128	0xbe2b00cc	-0.16699523
129	0xbe1a58e8	-0.15072978
130	0x3e46e9cc	0.19425124
131	0x3c13e310	0.009026304
132	0xbe3f1a06	-0.18662271
133	0xbd6b72e4	-0.057482615
134	0x3d1af6a0	0.037832856
135	0x3dbc4124	0.09192112
136	0x3e35f9e4	0.17771107
137	0xbe143b8c	-0.1447584
138	0xbdf0a1cd	-0.11749611
139	0x3d991088	0.07473856
140	0xbd54f6dc	-0.051993236
141	0x3e4f2aa2	0.20231107
142	0xbd57dadc	-0.052698955
143	0x3e30a70a	0.1725122
144	0xbe16e1f2	-0.14734629
145	0x3ce9e3c0	0.028550982
146	0x3de33c38	0.1109547
147	0x3e3cc23a	0.18433467
148	0xbdf2ac6d	-0.11849294
149	0xbe0dfefd	-0.13866802
150	0xbd1d5f44	-0.03842093
151	0x3c2be680	0.010491967
152	0x3e0e3808	0.13888562
153	0xbd274cb0	-0.04084462
154	0x3e267f70	0.16259551
155	0xbdb884e2	-0.090097204
156	0xbe03dfe7	-0.1287838
157	0x3d896454	0.06708589
158	0x3da5f394	0.081030995
159	0xbdecdd91	-0.11565698

output.bias f4 [8]
0	0x3e511586	0.20418367
1	0xbd2a9908	-0.04164985
2	0x3d84edcc	0.06490669
3	0xbddf0635	-0.10889856
4	0xbe45c19d	-0.19312139
5	0xbd1840e0	-0.037171245
6	0x3d320918	0.043465704
7	0x3e015564	0.1263023
