PINN_experience/saved_model/simpleANNlr=0.001bs=128.pt (torch, 34575 bytes, 8 tensors)

l1.weight f4 [50, 14]
-0.12602241 0.07591465 -0.088871524 -0.25808117 0.13859767 0.102229476 0.16339335 -0.0063604414
0.045846045 -0.08445716 0.13229999 -0.06158249 0.007747084 0.09984419 0.100688934 0.19757202
0.20312646 0.07093927 -0.22025761 -0.19746007 0.2474688 -0.071350515 -0.11747788 -0.04114464
0.10177019 -0.058030516 0.013679773 -0.123833254 0.20884115 -0.22034238 0.24956134 -0.23283327
-0.0426455 -0.12966229 0.1634407 -0.017657965 0.26348314 0.1312967 0.11846933 0.11972004
0.07742509 -0.19508108 0.24865386 0.094118655 0.05141905 -0.08891091 0.055314988 -0.02625081
-0.20843643 0.08903238 0.013539404 0.18905282 0.23547849 -0.16662139 -0.24886613 0.23029378
0.053117216 -0.22780684 -0.26187015 0.066361845 -0.17094794 -0.17114303 0.20514682 -0.21990341
-0.10603945 0.12915826 0.10129467 0.1268025 0.019705951 0.21567023 0.13838115 0.2315915
0.02712512 -0.0073794127 -0.18916309 -0.2644465 0.18520513 0.2350156 -0.2216136 0.050371796
0.018439054 -0.15956062 0.17769456 0.15442687 -0.026470736 0.17865983 0.26216653 0.11876315
-0.17867094 0.19159895 0.12403059 0.122442275 0.1485101 -0.013007462 0.26522508 0.0022336543
-0.25934613 0.22297153 -0.16637862 -0.15777567 0.020882994 -0.078462034 -0.14058228 0.04525897
-0.0631437 0.0002578497 0.012874693 -0.09939192 -0.08946249 -0.12745647 -0.028396904 -0.055952564
0.13776985 0.13571337 0.14944938 -0.067616686 0.13341397 0.21435985 0.21931493 0.10699955
-0.26274785 -0.050623536 0.17876959 0.035342008 -0.029239222 0.2081418 0.04337901 -0.15520635
-0.07726881 0.050833613 0.25581583 -0.17089331 -0.064749256 -0.07320717 -0.044282153 0.14084542
-0.0160155 0.19684133 0.254999 -0.018620625 0.07619724 -0.24781525 0.14732903 -0.032270506
0.058036983 0.25312927 0.074538946 0.19428495 0.1427426 0.15780222 -0.00933823 0.060871482
0.22300318 0.087558776 -0.065738946 -0.20244482 -0.083593816 0.036583662 0.07179928 -0.13096043
0.18924838 0.059735477 0.0827145 -0.17585276 -0.19407573 -0.14080273 0.1544958 0.26007488
0.22594598 -0.025599748 -0.21603498 0.055821806 -0.052697495 -0.15282717 0.15369534 0.15718299
-0.113928095 0.24201146 0.25049946 -0.19440636 0.06486684 0.007168442 0.24582091 -0.049750313
0.2012352 0.08312771 -0.18943503 0.23584953 0.009159386 0.09163472 -0.1462182 0.0018780231
0.022451848 -0.048471585 0.12934977 0.18485394 -0.06643997 0.11898467 -0.15061194 -0.010976106
-0.2326329 0.055376887 -0.13418199 -0.18779969 0.15878415 -0.11614026 -0.14657216 0.24565855
-0.17072754 0.0608581 -0.022270754 -0.2504318 0.06306386 -0.0063156188 -0.24265051 -0.10207839
0.16368192 -0.093027696 -0.04000552 -0.06951602 0.12922189 0.18612394 -0.018682212 -0.14694554
0.24146488 -0.22931044 -0.03972681 0.10002783 -0.01617843 -0.23165043 -0.15913619 0.039720476
-0.09515859 -0.243404 0.10861868 -0.028427258 -0.008926988 -0.23577732 0.1386196 -0.14387645
-0.05400245 0.20903218 -0.24476436 -0.11331953 0.13068512 0.10069367 0.017252773 -0.070591
-0.034475163 0.15681538 -0.15669884 -0.08022493 -0.13405563 0.13022065 -0.1400737 0.039844006
00000000: 050c 01be 2479 9b3d 4602 b6bd 3723 84be
00000010: 8cec 0d3e b05d d13d 9650 273e 406b d0bb
00000020: 10c9 3b3d e0f7 acbd a679 073e ec3d 7cbd
00000030: 40db fd3b 1c7b cc3d 0036 ce3d 5250 4a3e
00000040: 6200 503e 9c48 913d 368b 61be f932 4abe
00000050: 7668 7d3e 3820 92bd 3e98 f0bd 4887 28bd
00000060: e46c d03d 68b1 6dbd 2021 603c 4a9c fdbd
00000070: 74da 553e 6fa1 61be 028d 7f3e d86b 6ebe
00000080: 0cad 2ebd 31c6 04be 005d 273e 70a7 90bc
00000090: 43e7 863e a472 063e 0ca0 f23d c82f f53d
000000a0: 0c91 9e3d 56c3 47be 1e9f 7e3e 48c1 c03d
000000b0: c89c 523d ec16 b6bd f891 623d f00b d7bc
000000c0: 5c70 55be 9c56 b63d 60d4 5d3c 1097 413e
000000d0: 4621 713e cc9e 2abe c3d6 7ebe 22d2 6b3e
000000e0: 7091 593d 3246 69be d813 86be b8e8 873d
000000f0: fa0c 2fbe 1e40 2fbe 0212 523e 5c2e 61be
00000100: 362b d9bd 1042 043e 9473 cf3d 84d8 013e
00000110: 606e a13c a8d8 5c3e cab3 0d3e 5226 6d3e
00000120: 8035 de3c 00cf f1bb f8b3 41be 8865 87be
00000130: 6aa6 3d3e eea7 703e adee 62be a852 4e3d
00000140: 800d 973c dc63 23be 90f5 353e 1422 1e3e
00000150: 28d9 d8bc 9af2 363e b13a 863e 183a f33d
00000160: 84f5 36be 8432 443e c003 fe3d 04c3 fa3d
00000170: 0813 183e 401d 55bc 95cb 873e 8062 123b
00000180: 04c9 84be a652 643e 285f 2abe f28f 21be
00000190: d012 ab3c b4b0 a0bd cdf4 0fbe 7861 393d
000001a0: 7c51 81bd 0030 8739 60f0 523c fe8d cbbd
000001b0: 1c38 b7bd f383 02be a0a0 e8bc 842e 65bd
000001c0: 8a13 0d3e 72f8 0a3e 4209 193e 9e7a 8abd
000001d0: ac9d 083e 2681 5b3e 1894 603e 9422 db3d
000001e0: e386 86be a05a 4fbd 600f 373e c8c2 103d
000001f0: 1887 efbc 2023 553e 30ae 313d 6aee 1ebe
00000200: 1c3f 9ebd e836 503d 4bfa 823e a8fe 2ebe
00000210: 429b 84bd a4ed 95bd 3461 35bd c839 103e
00000220: f032 83bc c690 493e 3b8f 823e 488a 98bc
00000230: 4c0d 9c3d 48c3 7dbe 6cdd 163e 142e 04bd
00000240: 30b8 6d3d 299a 813e e0a7 983d a2f2 463e
00000250: 1e2b 123e e896 213e 60ff 18bc 6054 793d
00000260: f25a 643e 0452 b33d 24a2 86bd b24d 4fbe
00000270: 3c33 abbd c0d8 153d 800b 933d 7e1a 06be
00000280: 54ca 413e 30ad 743d 3866 a93d bf12 34be
00000290: cabb 46be 972e 10be 2634 1e3e 8928 853e
000002a0: 625e 673e 90b6 d1bc 4638 5dbe 68a5 643d
000002b0: 54d9 57bd ba7e 1cbe 5062 1d3e 94f4 203e
000002c0: 2253 e9bd dad1 773e 7741 803e 7612 47be
000002d0: e8d8 843d 40e5 ea3b 7ab8 7b3e fcc6 4bbd
000002e0: 9a10 4e3e dc3e aa3d 42fb 41be 8a82 713e
000002f0: 4011 163c fcaa bb3d 39ba 15be 0028 f63a
00000300: f0ec b73c 248a 46bd 4474 043e 5a4a 3d3e
00000310: ae11 88bd 3cae f33d 043a 1abe 20d5 33bc
00000320: 5237 6ebe e0d2 623d 0167 09be 904e 40be
00000330: 5098 223e f2da edbd 0317 16be ea8d 7b3e
00000340: 33d3 2ebe 5846 793d 2871 b6bc 9938 80be
00000350: a027 813d 40f3 cebb 6079 78be 7a0e d1bd
00000360: 3c9c 273e 4e85 bebd d4dc 23bd 6a5e 8ebd
00000370: be52 043e 4697 3e3e 700b 99bc e478 16be
00000380: 9242 773e 5bd0 6abe 94b8 22bd 64db cc3d
00000390: a088 84bc c535 6dbe 99f4 22be f0b1 223d
000003a0: 82e2 c2bd e63e 79be 7873 de3d 48e0 e8bc
000003b0: 8042 12bc 9c6f 71be 4cf2 0d3e 5954 13be
000003c0: ac31 5dbd 880c 563e 82a3 7abe 1214 e8bd
000003d0: 52d2 053e 7c38 ce3d b055 8d3c 0492 90bd
000003e0: d435 0dbd 3694 203e a975 20be f84c a4bd
000003f0: e145 09be 9058 053e 7b6f 0fbe 7833 233d

l1.bias f4 [50]
0.050627142 -0.09400654 -0.024506375 -0.15770489 0.14447078 0.031001031 -0.10778567 0.21847865
-0.17186105 0.17058024 0.25354424 -0.033395037 0.21409008 0.13162094 0.16873798 0.078106225
0.12172574 0.22652945 -0.265818 0.10379362 0.03704506 0.22109407 -0.08635083 -0.26079306
0.15875804 0.17935142 0.034760952 0.21460718 0.20598513 -0.12685664 0.25856915 -0.11596818
0.23071271 -0.12385711 0.2463189 -0.028615564 -0.21465512 0.19377798 -0.1553075 0.07683039
-0.16067636 0.05669865 0.09887025 -0.15735509 0.06404567 -0.06755678 -0.009978473 0.02650392
0.2605891 0.26325092
00000000: 685e 4f3d 8086 c0bd 98c1 c8bc 647d 21be
00000010: 26f0 133e e0f5 fd3c bcbe dcbd deb8 5f3e
00000020: 58fc 2fbe 96ac 2e3e 8dd0 813e 3cc9 08bd
00000030: 6e3a 5b3e a4c7 063e a6c9 2c3e 28f6 9f3d
00000040: 584b f93d 56f7 673e 4c19 88be c091 d43d
00000050: 90bc 173d 7c66 623e b4d8 b0bd ab86 85be
00000060: 7891 223e e6a7 373e 8061 0e3d fcc1 5b3e
00000070: c4ed 523e b5e6 01be 2d63 843e ba80 edbd
00000080: f43f 6c3e cca8 fdbd 063b 7c3e 306b eabc
00000090: 8dce 5bbe bc6d 463e ee08 1fbe 4059 9d3d
000000a0: 5888 24be d83c 683d 7c7c ca3d b121 21be
000000b0: 602a 833d 365b 8abd c07c 23bc c01e d93c
000000c0: ef6b 853e d3c8 863e

l2.weight f4 [100, 50]
-0.045284957 -0.03888347 0.058646157 -0.11640778 -0.098935686 -0.09888789 0.13102 -0.02433829
0.115740284 -0.05788438 0.09335713 0.08984822 -0.001244694 0.077069476 -0.008243203 -0.09372406
0.033784077 -0.04336302 0.026195407 0.03425981 0.009016767 0.10062191 -0.11423164 -0.045829393
-0.07777783 0.0011310428 -0.008462667 0.05399221 0.110624775 -0.046492845 -0.103869244 0.064758986
-0.10947622 0.012050942 0.03134185 0.055466995 0.027280495 -0.030594029 0.00920473 -0.037557594
-0.11294584 0.10781327 -0.06098064 0.057298094 -0.017637447 0.1112705 0.118156716 0.059225544
0.11422478 0.013761669 -0.09598519 -0.046705 0.12685479 0.12391062 -0.1410653 0.032523304
0.00012867153 -0.06430121 0.114924625 0.07514104 0.058468997 -0.102227956 0.12291776 -0.03455265
-0.093845084 0.037576154 0.09731296 -0.03803709 0.079680726 -0.075588204 0.12340529 -0.020687528
0.02462712 -0.11371291 -0.008629933 0.013992444 0.12775563 0.03587149 0.11921196 -0.06105914
0.062316284 0.04015754 -0.029384278 0.018330127 -0.109070554 0.030195802 -0.043677054 0.05682376
0.04530935 -0.111536615 0.07377702 -0.077938884 0.0947112 -0.074785255 0.1030968 0.094699726
0.075348005 -0.09211366 0.09689663 -0.13704328 0.11288558 -0.058946013 0.11769526 -0.0060917735
0.12084912 -0.053875357 0.10630548 0.030626222 0.015431061 0.017283514 0.03656985 -0.120698616
-0.10631016 -0.13844235 0.12874176 -0.06451031 -0.099876955 0.021113873 0.0037974268 -0.0043315142
0.11592679 -0.007838771 0.015644506 -0.13196923 0.13633226 -0.039716378 0.091036394 -0.105474666
-0.048211344 -0.12279412 0.12413071 0.101606056 -0.059492625 -0.10423489 0.13267301 -0.0014446229
0.06676158 -0.10558811 0.03814441 0.028779805 -0.096681744 0.09043373 0.057531983 -0.003961012
0.103556484 0.099270016 0.07054408 0.09799197 -0.039149486 0.004949674 -0.066753075 -0.1118104
0.045777947 -0.052476406 -0.10516885 -0.011337876 0.105569944 0.13208188 -0.03458281 -0.07574293
-0.12675507 -0.021110483 0.099247575 -0.09766056 -0.065059595 -0.118247695 -0.10197279 -0.04973185
-0.12181227 0.009879053 -0.03238424 0.0384385 -0.12044007 0.009991765 -0.0988612 0.042710736
-0.10487345 -0.12889323 0.034214392 -0.12093516 -0.02455946 -0.04883264 -0.03396883 0.004024878
-0.06276841 -0.051332638 0.04626617 0.11377235 0.03447108 -0.03219291 -0.05039774 -0.08024114
0.065770164 0.033113107 -0.063518845 0.0032161474 -0.10330313 0.07960604 -0.033368744 0.049721584
-0.025824778 0.1320691 -0.08202394 -0.0368177 -0.13389282 0.10431421 -0.015250191 -0.103627674
0.009704441 -0.114270195 0.062667474 0.026444927 0.051777497 -0.0076271594 0.073473856 -0.118488535
-0.051073186 -0.11682138 -0.104288414 -0.05041013 -0.12835607 0.069815606 0.024653465 -0.041177556
-0.06486061 -0.10842525 0.03834097 0.019708589 -0.04799112 0.05708842 -0.115352556 -0.07408698
0.012914002 0.092541516 -0.1334407 -0.11826465 0.13259889 -0.049348213 0.0823611 0.014524475
0.047411382 -0.13128358 -0.0016737431 -0.09050776 -0.11744484 0.10709545 0.09815554 0.022047907
-0.031873673 -0.092625745 0.09806657 0.1124361 -0.06844544 -0.07304882 -0.01284574 -0.02735705
00000000: b87c 39bd 4644 1fbd f436 703d 3467 eebd
00000010: cb9e cabd bc85 cabd 1b2a 063e 1861 c7bc
00000020: 3e09 ed3d 2c18 6dbd 0632 bf3d 5802 b83d
00000030: 0025 a3ba 9ad6 9d3d 800e 07bc 66f2 bfbd
00000040: 2c61 0a3d 6c9d 31bd c097 d63c 0454 0c3d
00000050: 10bb 133c dc12 ce3d 47f2 e9bd 9ab7 3bbd
00000060: fc49 9fbd 803f 943a 00a7 0abc f026 5d3d
00000070: 3e8f e23d 486f 3ebd 66b9 d4bd 5ca0 843d
00000080: 1235 e0bd 5071 453c 5060 003d 5c31 633d
00000090: 587b df3c 54a0 fabc 70cf 163c fed5 19bd
000000a0: 2650 e7bd 34cd dc3d d6c6 79bd 68b1 6a3d
000000b0: 687c 90bc cae1 e33d 26fc f13d 7c96 723d
000000c0: aeee e93d a078 613c e293 c4bd be4d 3fbd
000000d0: 39e6 013e dac4 fd3d 6c73 10be 2837 053d
000000e0: 00ec 0639 5ab0 83bd 9a5d eb3d 8ce3 993d
000000f0: 307d 6f3d e45c d1bd 4ebc fb3d 1487 0dbd
00000100: da31 c0bd 74e9 193d 044c c73d c8cc 1bbd
00000110: a62f a33d fdcd 9abd eabb fc3d e478 a9bc
00000120: d0be c93c 50e2 e8bd 9064 0dbc 9040 653c
00000130: 5fd2 023e fced 123d 6625 f43d 2619 7abd
00000140: 5c3f 7f3d 3c7c 243d 4cb7 f0bc 1029 963c
00000150: 6260 dfbd 305d f73c b6e6 32bd 08c0 683d
00000160: 4c96 393d 4f6d e4bd 6818 973d 6c9e 9fbd
00000170: f2f7 c13d 0329 99bd 6a24 d33d eef1 c13d
00000180: 0e50 9a3d 16a6 bcbd be71 c63d 1355 0cbe
00000190: 8e30 e73d 6071 71bd 360a f13d 809d c7bb
000001a0: be7f f73d 68ac 5cbd b0b6 d93d d8e3 fa3c
000001b0: 90d2 7c3c 2896 8d3c 44ca 153d d630 f7bd
000001c0: 24b9 d9bd d5c3 0dbe e1d4 033e fb1d 84bd
000001d0: 4a8c ccbd 00f7 ac3c 40de 783b 60ef 8dbb
000001e0: 066b ed3d 306e 00bc e828 803c f122 07be
000001f0: af9a 0b3e a4ad 22bd 4a71 ba3d 1a03 d8bd
00000200: 4279 45bd 7c7b fbbd 3e38 fe3d d616 d03d
00000210: 8aae 73bd 1a79 d5bd 6fdb 073e 8059 bdba
00000220: 4cba 883d 943e d8bd 503d 1c3d a0c3 eb3c
00000230: 1401 c6bd 5235 b93d a8a6 6b3d 60cb 81bb
00000240: 6c15 d43d 144e cb3d 6a79 903d 04b0 c83d
00000250: 365b 20bd e030 a23b d6b5 88bd dafc e4bd
00000260: a881 3b3d 80f1 56bd c462 d7bd 80c2 39bc
00000270: 0e35 d83d 7940 073e b4a6 0dbd 1c1f 9bbd
00000280: 15cc 01be e4ef acbc 5042 cb3d 4202 c8bd
00000290: f73d 85bd d92b f2bd 1cd7 d0bd a0b3 4bbd
000002a0: b678 f9bd c0db 213c 56a5 04bd b071 1d3d
000002b0: 49a9 f6bd 80b4 233c be77 cabd 74f1 2e3d
000002c0: e4c7 d6bd 96fc 03be 6424 0c3d daac f7bd
000002d0: ec30 c9bc bc04 48bd e622 0bbd 20e3 833b
000002e0: b98c 80bd 2c42 52bd 9881 3d3d 7a01 e93d
000002f0: 8c31 0d3d b6dc 03bd dc6d 4ebd 7855 a4bd
00000300: 82b2 863d 9ca1 073d 2b16 82bd 00c6 523b
00000310: 9790 d3bd 7e08 a33d aaad 08bd dca8 4b3d
00000320: 7c8e d3bc 1f3d 073e 2bfc a7bd 28ce 16bd
00000330: 331b 09be b0a2 d53d f0db 79bc bf3a d4bd
00000340: 60ff 1e3c 7e06 eabd ce57 803d 08a3 d83c
00000350: a414 543d 40ed f9bb 7679 963d 1eaa f2bd
00000360: 1e32 51bd 0c40 efbd 2a95 d5bd da7a 4ebd
00000370: c66f 03be 7cfb 8e3d 10f6 c93c cca9 28bd
00000380: a4d5 84bd 0f0e debd 6c0b 1d3d e873 a13c
00000390: 5692 44bd 8cd5 693d f63d ecbd eaba 97bd
000003a0: 4095 533c 6886 bd3d aea4 08be bd34 f2bd
000003b0: 01c8 073e 5a21 4abd f0ac a83d 10f8 6d3c
000003c0: 7032 423d 346f 06be 8061 dbba 225c b9bd
000003d0: ec86 f0bd dc54 db3d c605 c93d d09d b43c
000003e0: f88d 02bd 91b2 bdbd 20d7 c83d e644 e63d
000003f0: 1f2d 8cbd 9f9a 95bd f076 52bc e41b e0bc

l2.bias f4 [100]
-0.05417438 0.002207026 0.0414854 -0.013625488 -0.09176688 0.017950237 -0.076291464 0.05947438
0.1299396 -0.05440058 0.031125486 -0.097038 -0.12899822 0.027478948 -0.014711142 -0.103691705
-0.1328757 0.018323392 -0.09397556 -0.040481493 0.055307716 0.10980342 -0.035728373 -0.083848685
-0.008234248 0.0200876 -0.060073927 -0.05158019 0.005168408 0.032430366 0.04745868 -0.008599848
-0.026611201 0.055591807 0.11844964 -0.117356844 0.07007077 -0.13361186 -0.07990023 -0.030958496
0.0031228513 -0.0851508 0.060009003 -0.009046957 -0.0020825714 -0.016284019 -0.049865574 0.12370823
-0.11087525 0.0664908 -0.068827204 -0.06559786 -0.027491868 -0.015312597 0.10821469 -0.01138626
-0.12571858 -0.10827814 0.093235284 -0.002826497 0.08256213 -0.11880248 -0.053839616 -0.05375979
0.027056456 0.052562952 0.083676025 -0.079241894 -0.0861499 0.14057015 -0.087281525 0.1289496
0.08273363 0.039330274 -0.11247897 0.056995317 0.06525482 -0.09882556 -0.13771906 -0.063169815
0.03473434 -0.114821844 -0.034334175 -0.08686732 0.13125135 -0.135336 -0.08863899 0.073204085
-0.005548537 -0.04119288 0.01575303 -0.12516621 -0.107308626 0.071362 0.13837697 -0.03848041
0.011890784 0.09964372 -0.10638779 0.037939385
00000000: f4e5 5dbd c0a3 103b 98ec 293d 703d 5fbc
00000010: 46f0 bbbd 600c 933c b33e 9cbd 689b 733d
00000020: e30e 053e 24d3 5ebd e0fa fe3c dcbb c6bd
00000030: 1c18 04be 881b e13c 0007 71bc 515c d4bd
00000040: 9110 08be f01a 963c 4276 c0bd eccf 25bd
00000050: 588a 623d 9ee0 e03d ea57 12bd dcb8 abbd
00000060: f0e8 06bc c08e a43c 1410 76bd c045 53bd
00000070: c05b a93b b4d5 043d 0864 423d 60e6 0cbc
00000080: bcff d9bc 3cb4 633d ba95 f23d c958 f0bd
00000090: 4481 8f3d 8cd1 08be bba2 a3bd ac9c fdbc
000000a0: c0a8 4c3b 8b63 aebd 00cc 753d b039 14bc
000000b0: c07b 08bb 1066 85bc d83f 4cbd be5a fd3d
000000c0: 9012 e3bd 542c 883d 47f5 8cbd 2c58 86bd
000000d0: a036 e1bc b0e1 7abc aa9f dd3d 708d 3abc
000000e0: 5fbc 00be eec0 ddbd 24f2 be3d c03c 39bb
000000f0: 5616 a93d b74e f3bd ee86 5cbd 3a33 5cbd
00000100: 80a5 dd3c 404c 573d 565e ab3d 9349 a2bd
00000110: 5c6f b0bd 9ff1 0f3e a8c0 b2bd 5d0b 043e
00000120: 4070 a93d c818 213d 605b e6bd ec73 693d
00000130: 52a4 853d 0e65 cabd 3a06 0dbe 2d5f 81bd
00000140: 9845 0e3d b727 ebbd fea1 0cbd 7ee7 b1bd
00000150: c166 063e 8595 0abe 5c88 b5bd 06ec 953d
00000160: 80d0 b5bb deb9 28bd 800c 813c 922b 00be
00000170: a0c4 dbbd 3e26 923d b1b2 0d3e a29d 1dbd
00000180: 90d1 423c 0212 cc3d d7e1 d9bd 5466 1b3d

l3.weight f4 [20, 100]
0.013406076 -0.09660647 0.0752529 0.07680089 -0.07986908 0.008080222 -0.089908056 -0.049719345
0.07191599 0.078193225 0.007946655 0.00019399077 0.050667115 -0.048803188 -0.03833052 -0.07986064
0.08677239 0.0022740737 0.08641329 -0.017857209 -0.08242895 -0.053591695 0.029052772 -0.037827145
0.073680766 -0.057086017 -0.0119148865 0.014734864 -0.036263645 -0.02356156 -6.5371394e-05 0.015500441
0.02553638 0.0035305768 -0.008467495 0.089300446 -0.07510785 -0.025948122 0.019606158 0.04707981
-0.0147359595 -0.033429064 0.038493104 0.005972922 0.010017656 -0.037440218 -0.046585906 0.0074956417
0.09893779 -0.0693105 0.08622723 -0.025922596 -0.070246756 0.07700092 -0.009377137 0.08204443
0.044273697 -0.0972196 -0.07210572 0.08039374 0.06676694 0.00020239502 -0.063238055 -0.06349462
0.028452493 0.01681111 0.020548783 0.046501614 -0.019286022 -0.005633451 0.0038322806 -0.06621574
0.091785125 0.08041217 0.016943634 0.09727531 0.07559579 0.030508809 -0.004879713 0.05572682
-0.0879549 -0.09925156 0.061895497 0.09297713 0.0982374 -0.020642921 -0.054240264 -0.03507296
-0.04244224 -0.054938376 -0.0016934052 0.07643599 -0.07252504 0.07350748 0.045249067 -0.091366865
0.019934677 0.067842744 0.0028063431 -0.09214538 -0.086175896 0.053639002 0.09775136 0.03715966
-0.06842141 -0.020051934 0.010192111 0.040903144 0.008678399 -0.029841244 -0.06648041 0.031382956
0.057921417 0.09561301 -0.05566838 0.020415984 0.036700077 0.06986364 -0.03949157 -0.06441665
-0.09220182 0.026261516 0.020666339 0.09513899 -0.08612833 -0.040504277 0.07334738 0.049275972
0.06572003 -0.049436834 0.060768716 0.07513473 0.07188853 0.024431989 0.08073018 -0.06357495
0.09220079 0.026822753 -0.052493025 -0.060614314 -0.043092716 -0.042836286 -0.036590837 0.0762667
-0.021925725 0.042144455 -0.0797868 -0.08578191 0.03105373 -0.09766271 0.094583414 0.07672518
0.070305936 -0.054329682 -0.004704036 -0.0921093 -0.0038352236 -0.07730834 -0.012923703 -0.04264151
-0.008713856 -0.03103973 0.04509314 -0.048566736 -0.03086175 0.028789572 0.022140302 0.09171175
0.009134755 -0.05119822 0.07959152 -0.025511302 -0.080960475 0.030854113 -0.053218115 0.011233926
0.017949447 0.07410904 0.0054300874 -0.07333298 0.023274697 -0.043327928 -0.038530957 0.076525904
0.0775748 0.06226965 -0.009165809 0.0356222 0.04033389 0.048740156 -0.08688213 -0.0009125024
0.025346078 -0.014617644 -0.08032455 -0.08988815 0.00010166317 0.08581615 -0.071496665 -0.08454247
0.016810656 0.03370715 0.053984083 -0.017206632 -0.074239895 0.025354378 -0.04267254 0.07079057
-0.020631574 -0.032306693 0.019187987 0.06484031 -0.0057335123 0.002991721 0.046773978 -0.07416588
-0.071493015 0.055651583 -0.08256395 -0.021347389 0.095870055 -0.053548288 0.011844493 -0.0067219734
0.041782387 0.028297164 -0.03841404 -0.058762707 0.035119094 0.051540665 0.006807089 0.005921364
-0.09527552 -0.098126784 0.008395791 -0.08850228 -0.010782443 -0.013448715 0.020857334 -0.066094816
0.012092806 -0.07105106 0.09535528 -0.09807097 0.07378394 -0.03736095 0.042982228 0.066185184
0.09585447 0.0036510453 0.027775489 0.07534113 0.011945739 -0.08398942 -0.07406559 -0.018739663
00000000: 28a5 5b3c 9dd9 c5bd 311e 9a3d c949 9d3d
00000010: 6692 a3bd e862 043c b721 b8bd 83a6 4bbd
00000020: b148 933d c523 a03d b032 023c 006a 4b39
00000030: 5288 4f3d dae5 47bd 7700 1dbd fa8d a3bd
00000040: b9b5 b13d a008 153b 73f9 b03d 4849 92bc
00000050: 82d0 a8bd f782 5bbd 1400 ee3c a3f0 1abd
00000060: f1e5 963d 07d3 69bd a836 43bc 806a 713c
00000070: 3089 14bd 2c04 c1bc 0018 89b8 90f5 7d3c
00000080: ac31 d13c 4061 673b 40bb 0abc 27e3 b63d
00000090: 25d2 99bd 2891 d4bc 189d a03c c2d6 403d
000000a0: 186f 71bc eaec 08bd f2aa 1d3d 80b8 c33b
000000b0: 1821 243c ea5a 19bd ddd0 3ebd 009e f53b
000000c0: e59f ca3d aaf2 8dbd e797 b03d a05b d4bc
000000d0: 88dd 8fbd a9b2 9d3d 90a2 19bc e906 a83d
000000e0: 5658 353d 121b c7bd 2aac 93bd 79a5 a43d
000000f0: 1bbd 883d 003a 5439 f482 81bd 7809 82bd
00000100: 3415 e93c 74b7 893c ec55 a83c 7a78 3e3d
00000110: b8fd 9dbc d098 b8bb 0027 7b3b 1e9c 87bd
00000120: d7f9 bb3d 23af a43d 60cd 8a3c 4738 c73d
00000130: f7d1 9a3d 9ced f93c 00e6 9fbb ce41 643d
00000140: b321 b4bd 6744 cbbd 2286 7d3d cb6a be3d
00000150: b130 c93d 581b a9bc 0a2b 5ebd aaa8 0fbd
00000160: ead7 2dbd 1007 61bd 40f5 ddba 798a 9c3d
00000170: 0288 94bd 178b 963d 1657 393d 8d1e bbbd
00000180: 0c4e a33c 23f1 8a3d a0ea 373b b8b6 bcbd
00000190: fd7c b0bd 92b4 5b3d dd31 c83d ba34 183d
000001a0: 8620 8cbd f443 a4bc d0fc 263c 0e8a 273d
000001b0: d82f 0e3c a075 f4bc e226 88bd 6a8b 003d
000001c0: 023f 6d3d c1d0 c33d 8704 64bd 6c3f a73c
000001d0: d252 163d ab14 8f3d eac1 21bd e0ec 83bd
000001e0: 4fd4 bcbd 6422 d73c 744c a93c 3bd8 c23d
000001f0: 0d64 b0bd d0e7 25bd 2737 963d 9ad5 493d
00000200: 3998 863d 477e 4abd 9ee8 783d 3de0 993d
00000210: 4b3a 933d 9825 c83c dd55 a53d 9533 82bd
00000220: c5d3 bc3d 64bb db3c ed02 57bd b746 78bd
00000230: fd81 30bd 1a75 2fbd 46e0 15bd b731 9c3d
00000240: 949d b3bc aa9f 2c3d 4367 a3bd 6dae afbd
00000250: 6464 fe3c 6303 c8bd f3b4 c13d 1722 9d3d
00000260: 8ffc 8f3d cd88 5ebd 5024 9abb cda3 bcbd
00000270: 6058 7bbb d653 9ebd f0bd 53bc dda8 2ebd
00000280: 90c4 0ebc 0847 febc 96b3 383d eaed 46bd
00000290: c8d1 fcbc 1cd8 eb3c 945f b53c 5fd3 bb3d
000002a0: f0a9 153c 3ab5 51bd e100 a33d 14fd d0bc
000002b0: 9bce a5bd c4c1 fc3c 3dfb 59bd 800e 383c
000002c0: b80a 933c 7bc6 973d e0ee b13b 9a2f 96bd
000002d0: 94aa be3c a078 31bd a3d2 1dbd 9db9 9c3d
000002e0: 89df 9e3d 760e 7f3d 302c 16bc 96e8 113d
000002f0: 2635 253d c2a3 473d 42ef b1bd 0035 6fba
00000300: 94a2 cf3c d87e 6fbc 3381 a4bd 4717 b8bd
00000310: 0034 d538 61c0 af3d d86c 92bd 9a24 adbd
00000320: 80b6 893c 8210 0a3d 6a1e 5d3d ecf4 8cbc
00000330: 160b 98bd fcb3 cf3c 67c9 2ebd a5fa 903d
00000340: 8c03 a9bc 0654 04bd 2030 9d3c ffca 843d
00000350: 30e0 bbbb c010 443b 1296 3f3d 48e4 97bd
00000360: ee6a 92bd eaf2 633d 4a17 a9bd b8e0 aebc
00000370: 8557 c43d 7355 5bbd 680f 423c 0044 dcbb
00000380: 0224 2b3d 74cf e73c 0a58 1dbd 2ab1 70bd
00000390: 0ad9 0f3d 4e1c 533d 000e df3b 0008 c23b
000003a0: d01f c3bd b2f6 c8bd 808e 093c af40 b5bd
000003b0: d8a8 30bc 0058 5cbc 00dd aa3c b85c 87bd
000003c0: e820 463c 3883 91bd a149 c33d 6fd9 c8bd
000003d0: 091c 973d cc07 19bd 220e 303d 198c 873d
000003e0: 594f c43d 6046 6f3b 6c89 e33c 734c 9a3d
000003f0: 10b8 433c a502 acbd b3af 97bd ec83 99bc

l3.bias f4 [20]
-0.07571904 0.05058474 0.093583904 0.037997074 -0.009942494 0.07196609 -0.049800362 -0.023351513
0.058672063 -0.017056957 0.04674294 -0.09599831 0.08907112 0.039634176 -0.029693939 0.08203424
-0.079445876 -0.02028881 0.06817325 -0.082941875
00000000: 9612 9bbd f231 4f3d eba8 bf3d d2a2 1b3d
00000010: d8e5 22bc f562 933d 77fb 4bbd ac4b bfbc
00000020: 1e52 703d 08bb 8bbc 8675 3f3d c39a c4bd
00000030: eb6a b63d 7257 223d b440 f3bc 9101 a83d
00000040: 85b4 a2bd b834 a6bc 6b9e 8b3d 6edd a9bd

output.weight f4 [8, 20]
0.19068328 0.20140097 -0.15841705 0.13034528 0.064674705 0.20681542 -0.09877242 0.13295001
-0.023613572 0.21828312 0.17768288 0.16699198 -0.026242062 -0.20792754 0.09890139 -0.03649415
-0.083529904 -0.11138482 0.10240936 0.08103642 0.027701229 0.15459737 0.19189861 0.055361867
0.15270716 0.18917218 -0.19907506 -0.07520166 -0.0651515 0.22009152 -0.14145628 -0.2187786
-0.12003781 -0.21490367 0.104659736 0.05179721 -0.1672396 0.19570193 0.090435475 -0.058501914
0.02374269 0.20083028 -0.006483227 0.19633356 0.117295355 0.12820262 0.096751004 0.019223541
-0.03523156 -0.19874303 0.08343279 -0.03944561 -0.18083733 -0.10967806 0.1621378 0.13792309
-0.04661709 -0.07321453 -0.027350083 -0.16505444 0.022963986 -0.14105162 -0.026439473 -0.011461943
-0.018129975 -0.21158786 -0.12300657 -0.104340486 -0.22132355 0.021286637 0.1820136 0.20548204
-0.107389964 -0.15938681 -0.047344506 0.17522669 -0.070288375 -0.07142776 0.19959724 -0.012054354
-0.104731746 0.059583634 0.041775703 0.1052123 -0.036271796 -0.004081145 -0.18369749 -0.21947733
-0.09328827 0.10796991 -0.19927874 0.21959555 0.030763417 -0.087687686 0.05482143 0.112532705
0.11754528 -0.19445024 0.10448262 0.07743588 -0.17966495 -0.1685287 0.045231104 -0.05484903
-0.18183315 -0.043256655 0.054053932 0.16328251 0.070904434 0.20488939 -0.023797184 0.07221338
-0.030704126 -0.045768738 -0.14627594 -0.10444895 -0.036830023 -0.029982835 0.00024355948 0.06230098
-0.08624625 -0.04615304 0.09491971 0.16192669 0.06598592 0.07264069 -0.082674146 -0.18894322
0.14303112 0.038187236 0.07306397 0.07309136 -0.20335281 0.020649478 0.13021788 0.11934951
-0.006647423 0.20698056 0.14933857 -0.059076995 -0.084804565 -0.18358885 -0.09547928 0.02396223
0.20135373 0.11148411 -0.12290832 0.21533722 -0.09159134 0.06394136 0.105650485 0.17801344
0.12064341 -0.056076795 0.06404978 0.10129091 0.2026082 0.1433926 0.114919454 -0.12084466
00000000: 7a42 433e 0e3c 4e3e 1438 22be 3c79 053e
00000010: 2c74 843d 6cc7 533e 3249 cabd 0c24 083e
00000020: 4071 c1bc 9c85 5f3e 80f2 353e f2ff 2a3e
00000030: 98f9 d6bc f5ea 54be d08c ca3d e47a 15bd
00000040: ba11 abbd b91d e4bd 00bc d13d 6cf6 a53d
00000050: b0ed e23c c64e 1e3e 1281 443e 20c3 623d
00000060: 445f 1c3e 5ab6 413e 55da 4bbe 5403 9abd
00000070: 266e 85bd ac5f 613e ead9 10be 7f07 60be
00000080: 62d6 f5bd b50f 5cbe d857 d63d 5029 543d
00000090: dc40 2bbe 1666 483e 3c36 b93d b49f 6fbd
000000a0: 0880 c23c 74a6 4d3e 4071 d4bb aa0b 493e
000000b0: 8c38 f03d 8c47 033e 6425 c63d b07a 9d3c
000000c0: f84e 10bd 4b83 4bbe d0de aa3d b891 21bd
000000d0: 6c2d 39be e49e e0bd 7407 263e b63b 0d3e
000000e0: 90f1 3ebd 80f1 95bd 480d e0bc 0804 29be
000000f0: f81e bc3c d66f 10be 9897 d8bc e0ca 3bbc
00000100: 5085 94bc 7daa 58be deea fbbd 77b0 d5bd
00000110: a4a2 62be 5061 ae3c c661 3a3e e269 523e
00000120: 45ef dbbd 4c36 23be 50ec 41bd a06e 333e
00000130: 5af3 8fbd b848 92bd 3863 4c3e a07f 45bc
00000140: 997d d6bd f80d 743d 001d 2b3d 8c79 d73d
00000150: bc91 14bd 20bb 85bb 321b 3cbe aabe 60be
00000160: ec0d bfbd 541f dd3d ba0f 4cbe a8dd 603e
00000170: 9003 fc3c 9a95 b3bd 708c 603d 8c77 e63d
00000180: 94bb f03d f71d 47be fcfa d53d b496 9e3d
00000190: 17fa 37be ca92 2cbe 4044 393d 60a9 60bd
000001a0: 7832 3abe e42d 31bd a867 5d3d 8833 273e
000001b0: 5836 913d 86ce 513e 50f2 c2bc 9ce4 933d
000001c0: 3887 fbbc 0078 3bbd 5cc9 15be 55e9 d5bd
000001d0: 14db 16bd 909e f5bc 0064 7f39 502f 7f3d
000001e0: e0a1 b0bd f80a 3dbd 4465 c23d 1cd0 253e
000001f0: a023 873d a4c4 943d 1051 a9bd 557a 41be
00000200: c076 123e 386a 1c3d 90a2 953d ecb0 953d
00000210: b83b 50be 1829 a93c d657 053e 846d f43d
00000220: a0d2 d9bb b6f2 533e 36ec 183e b8fa 71bd
00000230: 04ae adbd b7fe 3bbe a48a c3bd 704c c43c
00000240: ac2f 4e3e c851 e43d 5bb7 fbbd 5c81 5c3e
00000250: 3e94 bbbd b0f3 823d 485f d83d 2849 363e
00000260: e413 f73d c8b0 65bd 882c 833d 9c71 cf3d
00000270: 8678 4f3e 82d5 123e e45a eb3d 687d f7bd

output.bias f4 [8]
-0.17311826 -0.096818775 0.009564713 0.09200141 0.054578394 0.10933721 0.042948097 0.1562852
00000000: ea45 31be ec48 c6bd 50b5 1c3c 3c6b bc3d
00000010: 988d 5f3d 30ec df3d 58ea 2f3d 3a09 203e
