Simple_ANN_experience/saved_model/simpleANNlr=0.002bs=64My_Mass_Balance_loss.pt (torch, 34575 bytes, 8 tensors)

l1.weight f4 [50, 14]
0	0x3e287030	0.16449046
1	0xbe562788	-0.20913517
2	0xbe450001	-0.19238283
3	0xbe776423	-0.24159293
4	0x3d4016e8	0.046896845
5	0xbe0f979d	-0.1402268
6	0xbe039e78	-0.1285342
7	0x3db38298	0.08765143
8	0xbe06fa8a	-0.1318151
9	0x3cd44270	0.025910586
10	0xbe860312	-0.26174217
11	0xbe82776e	-0.25481743
12	0x3e5783b2	0.21046332
13	0x3e59c576	0.21266732
14	0x3e036c68	0.12834322
15	0xbc4e1d40	-0.012580216
16	0xbcfcb560	-0.030848205
17	0x3e152272	0.14563921
18	0x3d937020	0.071991205
19	0x3d96d604	0.07365039
20	0xbdf051e6	-0.11734371
21	0xbe35a54b	-0.17738836
22	0xbd7fbfe4	-0.06243886
23	0xbc0dcaa0	-0.008654267
24	0x3e0eb712	0.13937023
25	0x3df2a07c	0.11847016
26	0xbd7e0a30	-0.062021434
27	0x3e770b06	0.24125299
28	0xbe4b9682	-0.19881633
29	0xbe2c5974	-0.16830999
30	0xbe7e30d1	-0.2482331
31	0x3e518fa0	0.20464945
32	0xbe6d01e8	-0.23145258
33	0xbd9d4308	-0.07678801
34	0xbd22d178	-0.039750546
35	0xbe442d54	-0.19157916
36	0x3e8527a1	0.26006797
37	0x3e38956c	0.1802575
38	0x3db35e2c	0.08758196
39	0xbded70c2	-0.115937725
40	0x3e3f33ae	0.18672058
41	0xbe800e71	-0.25011018
42	0xbe17a240	-0.14807987
43	0xbdd6b896	-0.10484426
44	0xbb1a8500	-0.002357781
45	0x3e3373a8	0.17524588
46	0xbce2cbe8	-0.02768512
47	0x3e226d18	0.15861928
48	0xbe806c17	-0.25082466
49	0x3d8b1248	0.06790596
50	0x3de6e77c	0.11274621
51	0x3d6645d0	0.056218922
52	0xbe4076e8	-0.18795359
53	0xbe81949d	-0.25308695
54	0x3e0d5eec	0.13805741
55	0xbe1f107e	-0.15533635
56	0xbda079dc	-0.07835743
57	0x3e680008	0.22656262
58	0xbe1176e5	-0.14205511
59	0xbd360d48	-0.04444626
60	0xbe73a992	-0.23795155
61	0xbd7decb0	-0.0619933
62	0xbd85304e	-0.06503354
63	0xbe85b361	-0.26113418
64	0x3e6ab080	0.22918892
65	0x3e7db94a	0.24777713
66	0xbddc6994	-0.10762325
67	0x3e36c168	0.17847216
68	0x3d786d68	0.060651213
69	0xbdbddac6	-0.09270243
70	0xbde06e70	-0.10958564
71	0x3e7dfab6	0.2480267
72	0x3e1e572c	0.15462941
73	0xbe346c48	-0.17619431
74	0x3e45719a	0.19281617
75	0xbddd32a8	-0.108006775
76	0xbe39c9e4	-0.18143421
77	0xbd8f7cac	-0.07006201
78	0x3e0b31b8	0.13593185
79	0xbe31348c	-0.17305201
80	0x3e1b6998	0.15177
81	0x3e716f36	0.2357758
82	0xbd8e6d62	-0.06954457
83	0x3e640664	0.22268063
84	0x3e278a76	0.16361412
85	0xbc2192a0	-0.009861618
86	0x3e4f8eac	0.20269269
87	0xbe679ec1	-0.22619154
88	0xbd8e058c	-0.06934652
89	0x3df6f4e8	0.12058431
90	0xbe589410	-0.21150231
91	0x3d894e98	0.06704444
92	0x3d79ef58	0.06101927
93	0x3dfdd680	0.12394428
94	0xbe232c6c	-0.15934914
95	0xbdd7f8f8	-0.10545534
96	0xbe567080	-0.20941353
97	0xbccde630	-0.025134176
98	0xbd27db18	-0.04098043
99	0xbe4b9eaa	-0.19884744
100	0xbde1bf2a	-0.1102279
101	0x3e3251fe	0.1741409
102	0xbe0ea16a	-0.13928762
103	0x3e51043a	0.20411769
104	0xbdb36806	-0.08760075
105	0xbd9a3b64	-0.07530859
106	0xbe2aed5d	-0.1669211
107	0xbda9bdda	-0.082881644
108	0xbe6b9317	-0.23005329
109	0xbe78e36a	-0.24305502
110	0xbe1992fb	-0.14997475
111	0x3e334dec	0.17510194
112	0xbe27beba	-0.1638135
113	0x3e6df3c4	0.2323752
114	0x3e2216d2	0.15829018
115	0x3d128d78	0.035779446
116	0x3d77c8a8	0.060494095
117	0xbb793900	-0.003802836
118	0xbe2f0d38	-0.17094886
119	0xbd88640c	-0.066597074
120	0xbe609a4a	-0.21933857
121	0xbc3d8e20	-0.01156953
122	0xbe71af2b	-0.23601978
123	0xbe128b3c	-0.14310926
124	0x3e72f486	0.23726091
125	0xbdd254f4	-0.1027011
126	0x3e86372d	0.2621397
127	0xbe02d44f	-0.12776302
128	0x3c4a37a0	0.012342364
129	0x3dbafc7c	0.09130189
130	0x3e1cba4e	0.15305445
131	0xbde74934	-0.11293259
132	0xbdcb9450	-0.09940398
133	0xbe27b7ba	-0.1637868
134	0x3db182c8	0.08667523
135	0xbe45d4d4	-0.19319469
136	0x3e06a9b8	0.1315068
137	0x3e21745c	0.15767044
138	0x3e812143	0.2522069
139	0xbe668f48	-0.22515595
140	0xbe379810	-0.17929101
141	0xbe08b488	-0.13350117
142	0x3e07b6de	0.13253352
143	0xbb704b00	-0.0036665797
144	0xbe77ebe5	-0.2421108
145	0xbe1ec28f	-0.15503906
146	0x3e5d0e96	0.21587595
147	0x3de0b218	0.10971469
148	0x3e0966c8	0.13418114
149	0x3dc01fdc	0.09381077
150	0xbe3b0ac4	-0.18265826
151	0x3e836907	0.25666067
152	0xbc30d320	-0.010792524
153	0xbdf91f08	-0.12164122
154	0xbdfee15c	-0.12445328
155	0x3e725426	0.23664913
156	0x3e0632cc	0.13105315
157	0xbdd79b3a	-0.10527654
158	0xbd623ba4	-0.05523266
159	0x3d2ae4a8	0.04172197
160	0xbd0cfa30	-0.034418285
161	0xbe852dab	-0.26011404
162	0x3d864960	0.06556964
163	0x3e1593d2	0.1460717
164	0x3e48d534	0.1961258
165	0xbe5ebbef	-0.21751378
166	0x3e17ff08	0.1484338
167	0x3e214c4a	0.15751758
168	0xbe4536c8	-0.19259179
169	0xbdaf873c	-0.08570716
170	0xbdccf8da	-0.10008402
171	0xbe1217be	-0.1426687
172	0x3e41360a	0.1886827
173	0x3e036290	0.12830567
174	0x3d9bb88c	0.07603559
175	0x3d1a97b8	0.037742347
176	0xbe328bf8	-0.17436206
177	0xbe44052e	-0.19142601
178	0xbe3ce2a8	-0.18445837
179	0xbe74377c	-0.2384929
180	0xbe31387f	-0.17306708
181	0x3e21d686	0.1580449
182	0x3df37bfc	0.118888825
183	0xbe0b7a83	-0.13620953
184	0x3e35af86	0.17742738
185	0x3d9e2498	0.077218235
186	0xbd001c00	-0.031276703
187	0x3d8528bc	0.0650191
188	0xbe600f2e	-0.2188079
189	0x3d84c6b0	0.06483209
190	0xbda39386	-0.07987122
191	0x3e4e5e72	0.20153216
192	0xbe6240ea	-0.22095075
193	0x3e3e63a0	0.18592691
194	0xbd0d43a8	-0.03448835
195	0x3d873d48	0.06603485
196	0x3e2de674	0.16982442
197	0x3c9849b0	0.018589824
198	0xbd522730	-0.051306903
199	0xbe10c884	-0.1413899
200	0xbce9b560	-0.02852887
201	0xbd062c84	-0.032757297
202	0xbcd72710	-0.026263744
203	0xbde25488	-0.11051279
204	0x3dd87038	0.10568279
205	0x3dd0ff18	0.10204905
206	0x3d3d28b8	0.04618141
207	0x3e0568d6	0.13028273
208	0x3e815c97	0.25265953
209	0x3d44ec80	0.048077106
210	0x3ddfe7fc	0.109329194
211	0xbe82156a	-0.25406963
212	0xbc91c818	-0.017795607
213	0xbe074ecd	-0.13213654
214	0xbe7669da	-0.24063817
215	0x3e635d28	0.22203505
216	0xbe06ecbe	-0.13176247
217	0xbc8af3d0	-0.016961962
218	0x3e0b4eee	0.13604328
219	0x3e628d0c	0.22124118
220	0xbc8688d0	-0.01642266
221	0xbdc9da46	-0.098560855
222	0xbe5c186c	-0.21493691
223	0xbd2eefe4	-0.042709246
224	0x3e191890	0.14950776
225	0xbdd15d00	-0.102228165
226	0xbe6af2fa	-0.2294425
227	0x3de2e7e8	0.11079389
228	0x3e826617	0.25468513
229	0xbe523218	-0.20526922
230	0xbe7b4d8e	-0.24541304
231	0x3d27e798	0.04099235
232	0x3ce9bc80	0.028532267
233	0xbdf207be	-0.11817883
234	0xbe258122	-0.16162542
235	0x3dab2014	0.08355728
236	0xbe884545	-0.26615348
237	0x3e255eca	0.1614944
238	0xbe2a8530	-0.1665237
239	0xbcd94578	-0.026522383
240	0x3e810915	0.25202242
241	0x3e405c38	0.18785179
242	0x3bcda440	0.0062756836
243	0x3db38f08	0.087675154
244	0xbe86b034	-0.26306307
245	0xbe562ef0	-0.20916343
246	0x3df4598c	0.11931142
247	0x3decb464	0.11557844
248	0x3e1bedbe	0.1522741
249	0x3e0e3ff8	0.1389159
250	0xbd7ce53c	-0.061742052
251	0x3e84573b	0.25847802
252	0xbdeec25c	-0.11658165
253	0x3ce8fc60	0.028440654
254	0x3cee3cc0	0.029081702
255	0xbe51e9af	-0.204993

l1.bias f4 [50]
0	0xbdfd20ba	-0.12359758
1	0x3e6267e0	0.22109938
2	0xbe525999	-0.20541991
3	0xbe81fc8b	-0.25387987
4	0x3ddf575c	0.10905334
5	0xbdd71f16	-0.10503976
6	0xbe132d52	-0.14372757
7	0x3d336860	0.04380071
8	0xbc548080	-0.01297009
9	0x3cbf72c0	0.023370147
10	0xbe378156	-0.17920431
11	0x3e320220	0.17383623
12	0x3e6b2db4	0.22966653
13	0x3e5e57d0	0.21713185
14	0xbdb82238	-0.08990902
15	0x3e0fc088	0.14038289
16	0xbe2a052a	-0.16603532
17	0xbd9ec5d2	-0.07752575
18	0x3d741590	0.059590876
19	0x3e2e1370	0.16999602
20	0xbe59f041	-0.21283056
21	0xbe7a9b82	-0.24473384
22	0x3e1252aa	0.14289346
23	0x3e40757e	0.1879482
24	0xbe0ec623	-0.1394277
25	0xbd03bc80	-0.03216219
26	0x3e2a7ae6	0.16648445
27	0x3e3cff78	0.18456829
28	0x3d3dc8e0	0.046334147
29	0xbe35c1e4	-0.17749745
30	0x3cce5230	0.025185674
31	0x3dafc53c	0.08582541
32	0x3d95c89c	0.07313654
33	0x3d554500	0.052067757
34	0x3d6566f8	0.0560064
35	0x3ddae394	0.10687938
36	0x3e602dd8	0.21892488
37	0xbe5e516a	-0.21710745
38	0x3d291588	0.0412803
39	0x3d1189e0	0.03553188
40	0xbdaa3f42	-0.08312847
41	0xbe807206	-0.25086993
42	0xbe80c4da	-0.25150186
43	0xbe1bfca6	-0.15233096
44	0xbe55bc85	-0.20872696
45	0x3da3baa4	0.07994583
46	0x3df19804	0.11796573
47	0x3d97afd0	0.074065804
48	0x3bd5c180	0.006523311
49	0x3d23c9b0	0.039987266

l2.weight f4 [100, 50]
0	0xbccff9ac	-0.025387608
1	0x3ccb6e58	0.02483289
2	0xbcd1bb80	-0.025602102
3	0xbbda7c60	-0.0066676587
4	0x3d0db698	0.034597963
5	0xbcb934b8	-0.022608146
6	0x3df12b7e	0.117758736
7	0xbe08f426	-0.13374385
8	0x3c270020	0.010192901
9	0xbcd4f498	-0.025995538
10	0x3e08fa83	0.13376813
11	0x3d12c960	0.035836577
12	0x3d1395f8	0.036031693
13	0xbdf96e5f	-0.12179255
14	0x3c301980	0.010748267
15	0xbdb8bcb4	-0.09020367
16	0x3a971100	0.0011525452
17	0x3d2d9e94	0.04238756
18	0xbda13ffc	-0.07873532
19	0xbcf154d8	-0.029459402
20	0xbcac5c00	-0.021039963
21	0xbd4812a0	-0.048845887
22	0x3cacf7d8	0.021114275
23	0x3de449ae	0.11146866
24	0x3d53aaf8	0.05167672
25	0x3d9d4fdc	0.076812476
26	0x3e04662b	0.12929599
27	0xbc2ca910	-0.0105383545
28	0x3d9b3858	0.07579106
29	0x3de2605a	0.11053534
30	0xbcc727ac	-0.02431091
31	0x3dc200e6	0.094728276
32	0x3da16222	0.078800455
33	0x3dab3056	0.08358829
34	0xbd3e9894	-0.04653223
35	0x3e04e37d	0.12977405
36	0x3d27ab10	0.040934622
37	0xbbc12e40	-0.005895406
38	0xbdf700aa	-0.120606735
39	0x3d081594	0.033223704
40	0x3e04630b	0.12928407
41	0x3dc18416	0.094490215
42	0x3dda591c	0.106615275
43	0x3d278d44	0.040906206
44	0x3b5ca000	0.0033664703
45	0xbd35e52c	-0.04440801
46	0xbc0cf930	-0.008604333
47	0xbda33ed4	-0.07970968
48	0x3d1fc5e4	0.039007083
49	0xbc041a00	-0.0080628395
50	0x3de6345a	0.11240454
51	0xbd4963ba	-0.049167372
52	0xbd016666	-0.031591795
53	0xbdee15f0	-0.11625278
54	0xbbb6c860	-0.005578086
55	0xbde77672	-0.113018885
56	0xbd9aaddc	-0.07552692
57	0x3c816750	0.015796334
58	0x3d51769c	0.051138505
59	0x3d17bc04	0.03704454
60	0x3d018d58	0.031628937
61	0xbd9478b5	-0.072495855
62	0x3e00ef4f	0.12591289
63	0x3b881820	0.0041532665
64	0x3d29bc50	0.041439354
65	0x3de75b9a	0.112967685
66	0x3d2514bc	0.040302977
67	0xbe0b7282	-0.136179
68	0xbd8ae247	-0.0678144
69	0xbdf4342a	-0.11924012
70	0xbddfe15c	-0.10931656
71	0x3dd6eaba	0.10493989
72	0xbdc2553c	-0.094889134
73	0x3d933dac	0.07189497
74	0xbd81fe72	-0.0634736
75	0xbe079b9c	-0.13242954
76	0x3d819a18	0.06328219
77	0xbe0b9381	-0.13630487
78	0x3d0b4e68	0.03401032
79	0xbd9a495c	-0.075335234
80	0x3dca696c	0.09883389
81	0x3d9d3d9a	0.07677765
82	0x3dffa24a	0.12482126
83	0x3bb3bae0	0.0054849237
84	0xbd82d1a8	-0.06387645
85	0xbcf1157c	-0.02942919
86	0xbdf0260a	-0.117260054
87	0x3cc78668	0.024356082
88	0xbda3a81b	-0.07991048
89	0x3dd16f9a	0.102263644
90	0xbe0e02bc	-0.1386823
91	0xbd17f70e	-0.037100844
92	0xbdf850a8	-0.12124759
93	0x3be26e40	0.0069101155
94	0xbcb223b0	-0.021745533
95	0xbe05f89e	-0.13083121
96	0xbd450874	-0.048103765
97	0x3c4097c0	0.01175493
98	0x3d4f0314	0.050540045
99	0xbd8da0f4	-0.06915465
100	0xbd10398c	-0.03521113
101	0xbddcc042	-0.10778858
102	0xba1d6500	-0.0006004125
103	0xbda0cbdc	-0.07851383
104	0xbd209cea	-0.039212145
105	0x3dcaac3a	0.09896131
106	0xbc408e20	-0.011752635
107	0xbe0ddc65	-0.13853605
108	0x3cbd84d0	0.023134619
109	0x3b588180	0.0033036172
110	0xbdb8ea86	-0.09029107
111	0x3dea897a	0.11452003
112	0xbcaa226c	-0.020768367
113	0xbdae1a96	-0.085011646
114	0xbe0fd0c0	-0.14044476
115	0x3d9fea8c	0.07808408
116	0x3dde82ca	0.1086479
117	0xbe03a0b5	-0.12854274
118	0xbd2d702c	-0.042343304
119	0x3e0f930d	0.14020939
120	0x3d651f34	0.05593796
121	0xbdc78462	-0.09742047
122	0xbd6d23fc	-0.057895645
123	0xbcb71e40	-0.022353292
124	0x3c244e10	0.010028377
125	0x3d919aec	0.07109627
126	0xbd39cf6e	-0.045363836
127	0x3c1028a0	0.008798748
128	0xbda6b54f	-0.081400506
129	0x393bd000	0.00017911196
130	0x3e0e3207	0.13886271
131	0x3da9a204	0.08282855
132	0xbd8f6558	-0.07001752
133	0x3d2a82e0	0.04162872
134	0xbd59140e	-0.05299764
135	0x3d0c5354	0.034259155
136	0xbd807500	-0.06272316
137	0x3d3fd35c	0.046832427
138	0xbe08060c	-0.13283557
139	0x3df57d8a	0.11986835
140	0x3e0f6ecd	0.14007111
141	0xbde1946c	-0.11014637
142	0xbc97121c	-0.018441252
143	0xbdd3f075	-0.10348598
144	0x3d3d39a8	0.046197563
145	0x3da002ce	0.07813035
146	0xbd39922e	-0.045305423
147	0x3dfab5d2	0.12241711
148	0x3e05d6b9	0.13070191
149	0xbb3d0300	-0.00288409
150	0xbc7e5cd0	-0.015525058
151	0x3c0be6e0	0.008538932
152	0xbd0e250a	-0.034703292
153	0x3cb90ca0	0.022589028
154	0xbdf374b4	-0.11887494
155	0x3d8feff0	0.07028186
156	0xbcd5ef04	-0.026114948
157	0x3ce8e9c0	0.028431773
158	0xbde5d2e0	-0.11221862
159	0xbd6d632e	-0.057955913
160	0x3d92e5dc	0.071727484
161	0xbd1dc09e	-0.038513772
162	0x3da0c9d6	0.07850997
163	0x3d045278	0.03230521
164	0x3da120ac	0.0786756
165	0x3cf766f8	0.030200467
166	0xbdc0f91c	-0.09422514
167	0x3c8cddd0	0.017195612
168	0xbdae9608	-0.0852471
169	0xbd65bf34	-0.05609055
170	0xbdc7cccb	-0.09755858
171	0x3da5c866	0.080948636
172	0x3c0a15d0	0.008428052
173	0x3de3eabe	0.11128758
174	0x3d82552c	0.063639015
175	0x3dfdb1fa	0.12387462
176	0x3de60b6a	0.11232646
177	0x3dfe125a	0.12405844
178	0x3d951cac	0.07280859
179	0x3bbaa120	0.005695477
180	0x3ca908f8	0.02063416
181	0xbd891fa5	-0.06695489
182	0xbdf13a71	-0.11778725
183	0xbd31f8b2	-0.043450065
184	0x3dbc46ea	0.09193213
185	0x3dadb120	0.084810495
186	0x3d803bec	0.06261429
187	0x3d938a3a	0.07204099
188	0xbdb7a100	-0.08966255
189	0x3d921cd6	0.07134406
190	0x3db8eacc	0.09029159
191	0xbbef63a0	-0.0073055774
192	0x3c741ec0	0.0148999095
193	0x3d1bc580	0.038030148
194	0xbdf77931	-0.12083662
195	0xbe01c530	-0.12672877
196	0x3d6cd230	0.057817638
197	0x3d84261a	0.0645258
198	0xbd206fd2	-0.03916914
199	0x3e01c63f	0.12673281
200	0xbd91000a	-0.070800856
201	0x3d034d58	0.032056183
202	0x3c4cc340	0.012497723
203	0xbdb92df2	-0.090419665
204	0xbc074d80	-0.0082582235
205	0xbdf0ee78	-0.11764234
206	0xbd4db2f8	-0.050219506
207	0xbd63453a	-0.05548594
208	0xbc851010	-0.01624301
209	0x3df01a26	0.117237374
210	0xbdc11e10	-0.09429562
211	0x3d85cd9e	0.06533359
212	0x3e0ad2fd	0.13557048
213	0x3da3d31e	0.07999252
214	0xbc03ce80	-0.008044839
215	0x3d06f1d8	0.032945484
216	0xbdeef1d7	-0.11667221
217	0xbcf4665c	-0.029833965
218	0xbc281d10	-0.010260835
219	0x3dbb2f86	0.09139924
220	0xbd98ef56	-0.07467525
221	0xbdd40ac0	-0.10353613
222	0x3d9926d0	0.07478106
223	0x3d9f68a4	0.077836305
224	0x3dc735e0	0.09727073
225	0xbceb2a4c	-0.028706692
226	0xbd250ef0	-0.04029745
227	0x3e0731d7	0.13202606
228	0xbc9f8e68	-0.019477084
229	0x3d26282c	0.040565655
230	0xbe00933e	-0.12556168
231	0x3db87fdc	0.09008762
232	0xbde1ccee	-0.11025415
233	0xbd9475c8	-0.072490275
234	0xbddb7e01	-0.10717393
235	0x3e0cc189	0.13745703
236	0x3cb43b78	0.022001013
237	0xbd3d3144	-0.04618956
238	0x3e0bc41b	0.13649027
239	0xbda619b6	-0.08110373
240	0xbe05fd6a	-0.13084951
241	0xbe0af1d3	-0.13568811
242	0xb850c000	-4.976988e-05
243	0xbbdafea0	-0.0066831857
244	0x3c450160	0.012024254
245	0x3ca344d8	0.019930288
246	0xbb9a8dc0	-0.004716605
247	0xbd1c647a	-0.03818176
248	0x3dfa724a	0.1222883
249	0xbd9ad1e5	-0.075595655
250	0x3d921a54	0.07133928
251	0xbdcf18c4	-0.101121455
252	0x3d4d1e68	0.050077826
253	0x3cf2d070	0.029640406
254	0x3cf13bd0	0.029447466
255	0x3de1203e	0.10992478

l2.bias f4 [100]
0	0xbe0370cf	-0.12836002
1	0xbdbdfbb1	-0.09276522
2	0x3da8e5ae	0.08246933
3	0xbcdf5c78	-0.027265772
4	0xbdadc2f3	-0.08484449
5	0xbd897e86	-0.067135856
6	0xbe05ab8e	-0.13053724
7	0x3cd9ffc8	0.026611224
8	0x3daf54ba	0.08561082
9	0xbd88d64f	-0.06681501
10	0xbcc595cc	-0.02411928
11	0x3db3c7e8	0.087783635
12	0xbe028671	-0.12746598
13	0xbd82cdf2	-0.06386937
14	0xbc821308	-0.015878215
15	0xbbcaa560	-0.006184265
16	0x3d257714	0.040396765
17	0x3d81c47a	0.06336303
18	0x3c238bf0	0.009982094
19	0xbd82e302	-0.063909546
20	0x3bca0f20	0.006166354
21	0x3d34b21c	0.04411517
22	0x3dc3c4dc	0.09559032
23	0x3dccad10	0.099939466
24	0xbde96296	-0.11395757
25	0xbd8c2505	-0.068429984
26	0xbcac61f0	-0.021042794
27	0x3db2b556	0.08725993
28	0x3df4a936	0.11946337
29	0x3de306a6	0.110852525
30	0xbdc04e0c	-0.09389886
31	0x3dd1f4c0	0.102517605
32	0xbdb312ce	-0.08743821
33	0x3cf750f0	0.030189961
34	0x3d84bca2	0.06481291
35	0x3e0702f1	0.13184716
36	0x3d691eb4	0.056914046
37	0xbd75f16e	-0.0600447
38	0xbde08546	-0.1096292
39	0xbddc37a3	-0.10752799
40	0x3e0163c3	0.12635712
41	0x3db1293a	0.086504415
42	0xbd537718	-0.05162725
43	0xbdf5fb0e	-0.120107755
44	0x3dd66504	0.10468486
45	0x3df1a676	0.11799328
46	0xbdc0e7e4	-0.094192296
47	0x3de9729a	0.11398812
48	0x3de4def6	0.11175339
49	0xbdf15f5e	-0.11785768
50	0xbcc18a7c	-0.023625605
51	0x3d0d4844	0.034492746
52	0xbd2c93b8	-0.042133063
53	0xbcb07054	-0.021537937
54	0xbce5fd14	-0.028074779
55	0xbcca1ec8	-0.02467288
56	0x3d8de5b0	0.06928575
57	0x3e022565	0.12709577
58	0x3dc74d58	0.09731549
59	0x3dd31f66	0.10308723
60	0xbdf0f600	-0.11765671
61	0xbd989b83	-0.074515365
62	0xbd8eac40	-0.06966448
63	0xbc9cadf8	-0.019125924
64	0xbdc1b6b3	-0.09458675
65	0xbaa4dd00	-0.001257807
66	0xbccb4238	-0.024811849
67	0x3dd36b20	0.10323167
68	0xbd1c48d8	-0.038155407
69	0x3e01ff3d	0.12695022
70	0xbcf01ef4	-0.029311635
71	0xbd8cd169	-0.06875879
72	0xbb5f3040	-0.003405586
73	0x3ddb8e3e	0.1072049
74	0x3e10c477	0.14137445
75	0x3c836c40	0.016042829
76	0x3da7f4b6	0.08200972
77	0x3d929a2e	0.07158314
78	0xbcd922f0	-0.026505917
79	0xbe0e01b0	-0.13867831
80	0xbce99504	-0.028513439
81	0x3d96c776	0.07362263
82	0xbe09a6dc	-0.13442558
83	0x3dc66e02	0.09688951
84	0x3df796f2	0.120893374
85	0xbde2e772	-0.11079301
86	0xbca212cc	-0.019784354
87	0x3e020277	0.12696253
88	0x3cfd48c0	0.030918479
89	0xbde3046c	-0.11084828
90	0xbd837b44	-0.064199954
91	0xbda7bf1a	-0.081907466
92	0xbd07806a	-0.03308145
93	0xbdcb4a20	-0.099262476
94	0x3df3ddae	0.119075164
95	0x3de54916	0.11195581
96	0xbd03f068	-0.03221169
97	0xbde9052f	-0.11377942
98	0xbd47cbd8	-0.048778385
99	0x3c0c3160	0.008556694

l3.weight f4 [20, 100]
0	0x3d89d9bd	0.067309834
1	0x3d8b1a09	0.06792075
2	0x3c5a4d50	0.013324097
3	0xbd87f795	-0.066390194
4	0xbd8dd75b	-0.069258414
5	0x3cd97b2c	0.02654799
6	0xbdae225d	-0.08502648
7	0xbda58b82	-0.0808325
8	0xbc499c40	-0.012305319
9	0xbb9a1020	-0.0047016293
10	0xbd39fc3a	-0.045406558
11	0x3d1d7abe	0.038447134
12	0xbd871ab0	-0.06596887
13	0xbd23846a	-0.0399212
14	0x3d249182	0.04017783
15	0xbccbc36c	-0.024873458
16	0x3d5ee43a	0.054416873
17	0xbd56dbca	-0.0524557
18	0x3dcaa0a9	0.09893925
19	0x3bc153a0	0.0058998615
20	0xbd89a238	-0.06720394
21	0x3d3d0042	0.046142824
22	0xbd81e410	-0.063423276
23	0x3da9e199	0.082949825
24	0x3d1f0916	0.038827024
25	0x3d0b2432	0.033970065
26	0xbd10ff86	-0.035399936
27	0x3db39039	0.08767743
28	0x3db55349	0.08853776
29	0xbdac7a00	-0.08421707
30	0x3dbd45e5	0.09241847
31	0xbdb21348	-0.08695084
32	0x3d8cd733	0.068769835
33	0xbd8b5e82	-0.06805135
34	0x3dc70289	0.097172804
35	0x3db58385	0.08862976
36	0xbd53ae00	-0.05167961
37	0x3db9bf69	0.09069712
38	0xbcef0900	-0.029179096
39	0x3d83bc4f	0.064324014
40	0x3dbaa5b9	0.0911364
41	0x3c38e1a8	0.011284269
42	0x3db8735b	0.09006377
43	0x3b7a7040	0.003821388
44	0xbcd30d4c	-0.025763176
45	0x3d7812a2	0.060564645
46	0x3d8ad9b9	0.067798086
47	0xbd1b07f3	-0.037849378
48	0x3d472cd2	0.04862673
49	0x3d4ee522	0.050511487
50	0xbd61f61d	-0.055166353
51	0xbb5d05a0	-0.0033725277
52	0xbcfe05a8	-0.031008556
53	0x3cdd9944	0.027050622
54	0x3d8f9a39	0.070118375
55	0xbcd89700	-0.02643919
56	0xbc840838	-0.0161172
57	0xbd74c1a0	-0.059754968
58	0xbd952756	-0.07282893
59	0xbdc9475d	-0.098280646
60	0x3d840d49	0.064478464
61	0xbdc11aab	-0.09428915
62	0xbdc3fb95	-0.0956947
63	0xbd8dde32	-0.06927146
64	0xbd66137a	-0.056170918
65	0xbd1414c0	-0.0361526
66	0xbdaa29cb	-0.083087526
67	0x3d8f6ead	0.070035316
68	0xbd27086d	-0.04077952
69	0xbdc4cd5f	-0.09609484
70	0xbc7e6df0	-0.015529141
71	0x3b90a4e0	0.004414186
72	0xbda6af2d	-0.08138881
73	0xbc98ceec	-0.018653356
74	0xbd37ad63	-0.04484309
75	0xbdb12362	-0.08649327
76	0xbd87be75	-0.06628124
77	0xbdc13bdf	-0.09435248
78	0xbd3362ba	-0.043795325
79	0xbcf2f340	-0.029657006
80	0x3ced466c	0.028964244
81	0xbcecd9ac	-0.028912388
82	0x3d948a6b	0.07252964
83	0x3cec619c	0.028855138
84	0x3dac4cd9	0.08413095
85	0xbd3a4650	-0.04547721
86	0xbdb49e70	-0.08819282
87	0xbc30f3d8	-0.010800324
88	0xbced2194	-0.028946675
89	0xbd111d9a	-0.03542862
90	0x3d50dc12	0.050991125
91	0x3b17ae40	0.0023144633
92	0xbc966140	-0.01835692
93	0xbcee4938	-0.029087648
94	0x3c911894	0.017711915
95	0xbcef7b0c	-0.029233478
96	0xbcf66754	-0.030078568
97	0x3d8bfdc1	0.06835509
98	0xbc7758d8	-0.015096866
99	0x3cff8004	0.031188972
100	0x3d89df13	0.06732001
101	0xbd8463c8	-0.06464344
102	0xbc967514	-0.018366374
103	0x3dafc23d	0.0858197
104	0xbcc62a60	-0.024190128
105	0x3c309b68	0.010779239
106	0xbd38d747	-0.04512718
107	0xbabaef40	-0.0014261976
108	0xbd8affad	-0.067870475
109	0x3d420982	0.04737235
110	0x3cf9c454	0.030489124
111	0x3d9443f1	0.07239521
112	0x3db51939	0.088427015
113	0xbd5ed663	-0.054403674
114	0x3d137fe2	0.03601063
115	0xbd9b3c2a	-0.07579835
116	0x3d7e778a	0.06212572
117	0xbdb169a7	-0.0866273
118	0x3db5c751	0.08875907
119	0x39440400	0.00018693507
120	0x3d81547f	0.063149445
121	0xbdc2566a	-0.094891384
122	0xbdaa8610	-0.08326352
123	0x3d8331fd	0.06406019
124	0xbda974ea	-0.08274253
125	0x3d865933	0.06559982
126	0xbd9d4fed	-0.0768126
127	0x3c7945b0	0.015214369
128	0x3dc5cce7	0.09658223
129	0x3d957d21	0.07299257
130	0xbdb79dfb	-0.08965679
131	0x3b8bd0e0	0.004266843
132	0xba838980	-0.0010035485
133	0x3d22030a	0.03955368
134	0x3dbad351	0.09122337
135	0xbd9d9038	-0.07693523
136	0x3d70713a	0.05870173
137	0xbda92432	-0.08258857
138	0x3d7d156e	0.061788015
139	0x3d3ffaba	0.04686997
140	0xbd180020	-0.037109494
141	0xbdc3248f	-0.095284574
142	0xbca26768	-0.019824699
143	0x3dc24457	0.09485691
144	0xbcbbb288	-0.022912279
145	0xbd50a65a	-0.050939895
146	0x3da651b9	0.08121056
147	0xbcbb3f94	-0.022857465
148	0xbd60476d	-0.054755617
149	0x3dada9a7	0.08479624
150	0x3d2b2cda	0.04179082
151	0xbd578c03	-0.05262376
152	0x3db141e9	0.086551495
153	0x3d494322	0.04913629
154	0x3d8a6317	0.06757181
155	0xbdb4ce0b	-0.08828362
156	0xbcf30400	-0.029664993
157	0xbdc51b2f	-0.096243255
158	0xbc9118d4	-0.017712034
159	0x3dc647e7	0.09681683
160	0xbc4cde58	-0.012504183
161	0xbd670703	-0.05640317
162	0xbd7608bd	-0.060066927
163	0x3d3c5f6a	0.04598943
164	0x3be0b7b0	0.0068578348
165	0xbdb84842	-0.08998157
166	0xbc85e8f4	-0.016346432
167	0x3d923401	0.07138825
168	0xbdb2ed97	-0.08736723
169	0x3ce7ceac	0.028296791
170	0xbda9e0b2	-0.0829481
171	0xbd0448a6	-0.032295845
172	0xbd12b5fc	-0.035818085
173	0xbd00a64c	-0.031408593
174	0x3d51888e	0.05115562
175	0xbd03d686	-0.032187007
176	0x3d2453f2	0.04011912
177	0xbc91d7ac	-0.017803036
178	0xbceff518	-0.029291674
179	0xbd8f889b	-0.07008477
180	0xbd52fa90	-0.051508486
181	0xbd919c5a	-0.071099
182	0x3d571df6	0.052518807
183	0x3cf688fc	0.030094616
184	0x3d738b72	0.059459157
185	0x3db35ec7	0.08758312
186	0x3d8f6e3b	0.07003447
187	0x3c95de98	0.018294618
188	0x3d09803e	0.033569567
189	0xbdbb84f5	-0.09156219
190	0xbd90c5d0	-0.0706898
191	0xbd324cc7	-0.04353025
192	0x3bfdd560	0.0077463835
193	0xbd83c9de	-0.064349875
194	0x3d79cfee	0.060989313
195	0xbdbc967f	-0.09208392
196	0x3d963221	0.0733378
197	0x3d0fe9c6	0.035135053
198	0xbc338b70	-0.010958537
199	0xbd7da70a	-0.06192688
200	0xbbd78e30	-0.0065782294
201	0xbdc68b88	-0.09694582
202	0xbce55578	-0.027994856
203	0x3db63771	0.08897293
204	0x3d5bdb8a	0.053676166
205	0xbdbd1f42	-0.092344776
206	0x3ad0d880	0.0015933663
207	0xbd549ea0	-0.05190909
208	0x3c8ce4b8	0.017198905
209	0x3dbe6f0b	0.092985235
210	0xbdc4f2d8	-0.09616631
211	0x3d866edb	0.06564113
212	0x3d5a954e	0.053365044
213	0xbcc92f18	-0.024558589
214	0x3cbffaf8	0.0234351
215	0x3d3b6ca2	0.045757897
216	0x3dc077ed	0.09397874
217	0x3d80fd99	0.0629837
218	0xbd9011a3	-0.07034614
219	0x3d1a49de	0.0376681
220	0xbd40ca6d	-0.04706805
221	0xbdb669c2	-0.089068905
222	0xbdb18940	-0.086687565
223	0x3dc31589	0.09525592
224	0xbd91bc23	-0.07115962
225	0x3d2bdd4a	0.041959085
226	0x3d8e5f3f	0.069517605
227	0x3c9daf54	0.019248642
228	0x3d855ae1	0.065114744
229	0xbca47340	-0.020074487
230	0xbdc44897	-0.09584158
231	0x3cd5571c	0.026042514
232	0x3d109a82	0.0353036
233	0x3d40bad2	0.047053166
234	0x3cf1b17c	0.029503576
235	0x3cfb36e4	0.030665822
236	0x3d8804a9	0.06641514
237	0xbdaa0dd6	-0.0830342
238	0xbdc91df8	-0.09820169
239	0xbdc97ada	-0.09837885
240	0xbd61e90d	-0.055153895
241	0x3dab4141	0.083620556
242	0xbdb56e68	-0.08858949
243	0x3953e000	0.00020205975
244	0x3cb7ab88	0.02242066
245	0x3d9710cd	0.07376251
246	0x3d0c5ca6	0.034268044
247	0x3c54d3b0	0.012989923
248	0x3d963f81	0.07336331
249	0x3aa99ac0	0.0012939796
250	0x3db551fd	0.08853529
251	0x3c08eb68	0.0083569065
252	0xbcc20a58	-0.023686573
253	0xbdb1f567	-0.08689385
254	0xbd1c290a	-0.038125075
255	0x3c060c30	0.008181617

l3.bias f4 [20]
0	0xbd87a15c	-0.06622574
1	0xbdc9f92b	-0.09861978
2	0x3c80d4e8	0.015726522
3	0x3daedf61	0.085387
4	0xbd5aaecd	-0.05338936
5	0xbd746f63	-0.05967654
6	0xbd9863ea	-0.07440932
7	0xbda84fb8	-0.0821833
8	0x3da52c91	0.08065141
9	0x3cfd5344	0.030923493
10	0x3d83a95f	0.06428789
11	0xbd821236	-0.0635113
12	0xbd8e6112	-0.069521084
13	0x3d0ebc22	0.034847386
14	0xbd372e7a	-0.044722058
15	0x3d247126	0.04014697
16	0x3bd109e0	0.006379351
17	0xbd33ebbd	-0.04392599
18	0x3d826ab1	0.06368006
19	0x3d229d46	0.03970077

output.weight f4 [8, 20]
0	0x3dc2bb90	0.09508431
1	0xbe04c89a	-0.12967148
2	0xbd0696b4	-0.032858565
3	0xbe645924	-0.2229963
4	0x3e4b759c	0.19869083
5	0x3e025abc	0.12729925
6	0xbbf37220	-0.0074293762
7	0xbe253c30	-0.16136241
8	0xbe5a80e9	-0.21338238
9	0x3e19bfc8	0.15014565
10	0xbd4eebdc	-0.0505179
11	0xbe479582	-0.19490626
12	0xbe4b3693	-0.19845037
13	0x3e546774	0.20742589
14	0x3e0affe8	0.13574183
15	0x3e1d1ccc	0.15343016
16	0xbc46f7f0	-0.012144074
17	0xbdd7a88c	-0.10530195
18	0x3e2bbbf2	0.16770914
19	0x3b48e040	0.0030651242
20	0xbd1c00ac	-0.03808658
21	0xbdcd3901	-0.10020638
22	0xbe2fb986	-0.17160615
23	0x3d89bce8	0.06725484
24	0xbc1bd070	-0.009510145
25	0xbe6194ef	-0.2202947
26	0xbe646376	-0.22303566
27	0x3c0f6950	0.008753136
28	0x3dee2d90	0.11629784
29	0x3e1843f2	0.14869669
30	0xbd889da4	-0.066706926
31	0xbdf76d39	-0.120813794
32	0x3dda7a70	0.10667884
33	0x3e2049aa	0.156531
34	0x3cca1820	0.024669707
35	0xbd5f2734	-0.054480746
36	0xbe432f2d	-0.19060965
37	0xbdd4da59	-0.10393209
38	0xbd9b3cf0	-0.07579982
39	0x3ce99fc0	0.028518558
40	0x3cf37c60	0.029722393
41	0x3d0f6170	0.035005033
42	0xbcba6de8	-0.022757486
43	0x3e5bb2c2	0.2145491
44	0x3d29d048	0.041458398
45	0xbdb259cc	-0.08708534
46	0xbd5fcb9c	-0.054637536
47	0xbdfb7280	-0.122776985
48	0x3e12396a	0.14279714
49	0xbe0756a6	-0.13216648
50	0xbd90e79c	-0.07075426
51	0xbb6b39c0	-0.0035892576
52	0x3ded4a28	0.1158641
53	0x3e407406	0.1879426
54	0x3e076aa0	0.13224268
55	0x3e02099c	0.12698978
56	0x3dbe483c	0.09291121
57	0x3db03190	0.08603203
58	0x3d2326a0	0.039831758
59	0xba977100	-0.0011554062
60	0xbe54b552	-0.20772293
61	0xbc35f890	-0.011106625
62	0xbce690e0	-0.028145254
63	0xbe1e8326	-0.15479717
64	0xbe29e2ea	-0.16590467
65	0xbe046dec	-0.12932557
66	0xbdde1569	-0.108439274
67	0x3dc7c428	0.09754211
68	0xbe1b5baa	-0.15171686
69	0xbd082948	-0.033242494
70	0x3cd4e670	0.025988787
71	0xbd92da22	-0.07170512
72	0xbd66ff24	-0.056395665
73	0xbe2aa6b2	-0.16665152
74	0xbc2989e0	-0.010347813
75	0x3e16fa0c	0.14743823
76	0x3e3d2dce	0.18474504
77	0xbd70ae30	-0.05875987
78	0x3e28adf6	0.16472611
79	0xbe39e286	-0.18152818
80	0x3da14664	0.07874754
81	0xbded3e3c	-0.11584136
82	0x3d172238	0.036897868
83	0xbe590f1b	-0.21197169
84	0xbe12558f	-0.1429045
85	0x3d099f78	0.033599347
86	0xbe44a9a1	-0.19205333
87	0xbe1143f4	-0.14186078
88	0x3e0ed5c2	0.1394873
89	0x3e50d2f8	0.20392978
90	0x3e2beeba	0.16790286
91	0x3e081ade	0.13291499
92	0xbe06a9fe	-0.13150784
93	0x3d8e0158	0.0693385
94	0x399ec200	0.0003028065
95	0xbe1a67cc	-0.15078658
96	0x3e2ac2da	0.16675892
97	0xbc202f60	-0.00977692
98	0xbcac9f08	-0.021071926
99	0xbe5c917f	-0.21539877
100	0x3cef8b10	0.029241115
101	0xbe1864bc	-0.14882177
102	0xbe11ab5c	-0.14225525
103	0xbdff0a15	-0.12453095
104	0xbe5d63ca	-0.21620098
105	0xbda03522	-0.07822634
106	0x3d910da0	0.07082677
107	0x3deb8334	0.114996344
108	0x3e072378	0.13197124
109	0x3e41b10e	0.18915197
110	0x3dae3bec	0.08507523
111	0xbdbd7258	-0.09250325
112	0xbda27c6a	-0.07933886
113	0xbe1486d4	-0.14504558
114	0x3e1d10f2	0.15338495
115	0x3e445222	0.19171956
116	0xbcdcb550	-0.026941925
117	0x3db9db50	0.09075034
118	0xbd2a24d8	-0.041539043
119	0x3e1d7bd0	0.15379262
120	0xbcc892b8	-0.024484023
121	0xbd694954	-0.056954697
122	0xbe6469c2	-0.22305968
123	0xbd9a1e0c	-0.07525262
124	0x3e0a6904	0.13516623
125	0xbaab5e00	-0.0013074279
126	0xbcda31f0	-0.02663514
127	0xbe24f90e	-0.16110632
128	0x3e2feb90	0.17179704
129	0xbd1596d0	-0.03652078
130	0x3e3d9880	0.18515205
131	0xbd73fbc0	-0.05956626
132	0x3c9f9400	0.019479752
133	0xbe460f1d	-0.19341703
134	0x3e0c40be	0.13696572
135	0x3da98528	0.08277351
136	0x3d91dc48	0.071220934
137	0x3e247762	0.16061166
138	0xbe46d1ec	-0.19416016
139	0x3e343880	0.17599678
140	0x3e60e860	0.21963644
141	0xbe3ff37b	-0.18745224
142	0xbdf33ffe	-0.1187744
143	0x3e64581a	0.22299233
144	0xbd88c41a	-0.066780284
145	0x3d8d71cc	0.06906471
146	0xbe19c513	-0.15016584
147	0xbe4ed0c2	-0.20196822
148	0x3dd29e40	0.1028409
149	0xbdf68896	-0.120377705
150	0xbdbab4e4	-0.091165334
151	0xbe1980fb	-0.14990608
152	0xbd8ad8ee	-0.06779657
153	0xbdbc1d8a	-0.09185322
154	0x3e4193f4	0.18904096
155	0x3c83b4b8	0.016077384
156	0x3e575ba0	0.21031046
157	0xbe0c28f6	-0.136875
158	0x3da99140	0.08279657
159	0xbe023384	-0.12714964

output.bias f4 [8]
0	0x3e2a04c4	0.1660338
1	0xbd7d5fdc	-0.061858997
2	0xbd9994be	-0.074990734
3	0x3e05e254	0.13074619
4	0x3e2b451c	0.16725582
5	0xbe3cf12f	-0.18451379
6	0x3dda0d24	0.106470376
7	0xbd944af4	-0.07240859
