Simple_ANN_experience/saved_model/simpleANNlr=0.002bs=512_MSE.pt (torch, 34575 bytes, 8 tensors)

l1.weight f4 [50, 14]
00000000: 448e 953d b042 ee3d e6ea bfbd 60c9 b4bc
00000010: ac7a 243e 0414 77bd 6091 7dbd 7a03 84be
00000020: 9aa9 783e b8c1 2e3d 02a3 2ebe c26b 16be
00000030: ba4f 3d3e 3ee6 573e 0038 0cbc c51f 67be
00000040: a27a 523e ff67 2fbe a81f 043d 53e7 853e
00000050: 785d 2abe 30b9 963d 303f 42bd aae4 fdbd
00000060: 4000 b6bd 52b4 443e b6e2 0d3e d872 66bd
00000070: 109a e13d a656 95bd 7c54 453e 6cca 823d
00000080: 3420 bfbd 1050 c43c 0026 04bc 36a5 513e
00000090: 46eb 7e3e 00d2 363e 00e9 403e 207c a33d
000000a0: 2c11 36be 6e87 1d3e 3cd7 bc3d b8de 323e
000000b0: 8612 733e 108b fc3d c8fe 52be 1492 4ebe
000000c0: 6010 f7bc f704 45be 745b 4fbe b034 d93d
000000d0: 6c51 e33d ff01 823e ed4f 833e 3577 55be
000000e0: 8c6b a5bd b02d 68be 2c8f 5fbe 266b cbbd
000000f0: 755b 28be f8a0 413d e6e4 033e 4000 a93b
00000100: dc3d 023e 0096 6b3e b86b cf3d 5e0f b0bd
00000110: 88b5 603d 1c14 72be ae35 59be 6079 5c3e
00000120: 1b72 33be 08be d0bc 70b2 0fbd 88cd 35be
00000130: ea32 1cbe c05b 2d3d ea5f 8dbd 0415 b23d
00000140: 1ab2 2cbe 4e5f 9abd 2e80 91bd f079 ec3d
00000150: c7dd 0fbe e4bb 1abd 1872 ebbc 7cc6 2e3e
00000160: 68ce 4fbe 40c3 dbbb d399 863e 3414 393e
00000170: b051 913c 1c40 a43d 46b2 063e 22de 94bd
00000180: b8a0 413e f0e7 a1bc 303c e0bd 50d9 52bd
00000190: a4e0 fc3d 91e1 5abe 5e21 0fbe ee0d 233e
000001a0: ee05 6cbe 3c1d d53d 6127 58be f901 67be
000001b0: 9264 1dbe e48e 4fbe c0eb 2abc 8a67 183e
000001c0: b822 c5bd 9bab 32be 0079 32be 38a4 383d
000001d0: 0804 483e 6888 193d 5a37 51be deec 573e
000001e0: 8a48 71be f02c 2cbe 1879 723d 8029 063d
000001f0: 6c5e e1bd 58e4 4b3e 1810 ab3d 74b2 89bd
00000200: d2cc efbd d67a 623e c040 88bd 14f3 3f3e
00000210: 900d 3d3e 3650 623e 200c 7cbc dc65 f0bd
00000220: d65f 52be 2634 5bbe 41ab 1abe 1070 833d
00000230: 80a9 6a3d a2b7 23be b4f5 db3d b8d6 263d
00000240: 15e4 6dbe 928a 83be 7a04 9ebd 3461 08be
00000250: c493 b7bd 004c c73a d239 55be e07f 2dbd
00000260: be1f 313e 66b7 5a3e 7894 683d 38a1 14bd
00000270: 8cb8 2e3e 5b58 06be 007c cc39 001a debb
00000280: dfc8 7ebe 9c52 0cbe d4ec fc3d 10cf 87be
00000290: 5c57 ae3d b4f2 68be 1c0e c13d 0815 db3d
000002a0: 9af6 253e 9e9b 7abe 0a0b 5d3e c08c df3d
000002b0: 5070 a93c 80e5 233e 5cbb d83d 16d3 d1bd
000002c0: a667 333e f1c4 873e 7c23 5ebd a0d3 193d
000002d0: 60a6 31be ccaa 27be ca95 4cbe 78ad 0d3e
000002e0: 5057 193e c5a2 813e 803d 6abd e074 63bd
000002f0: d00c 163d 8052 6ebb 2005 003c 4084 f9bb
00000300: 3616 f9bd d2fe 763e 40c3 6bbc a099 fc3d
00000310: 1228 543e 660f 4d3e 6f4a 0dbe 325d 603e
00000320: 207d d5bc 7447 c5bd 8074 24bb 5e15 5abe
00000330: cc13 0e3e a022 78bc 103f 883c 1838 81be
00000340: 004e 56bb b051 c73d 3a08 493e d2bd 6a3e
00000350: 26f2 56be c222 19be a8f8 dcbc 10f1 923d
00000360: 72cf 4c3e be05 c0bd 34e8 68be dcbc 2bbe
00000370: def3 13be c0db 193d 3146 863e 5a68 213e
00000380: 8015 a2bc 1897 523e f88c 75be 267c 1c3e
00000390: be1f 13be 1038 ce3c b823 643e 5659 98bd
000003a0: 88dd 5f3e 10a4 50bd c055 033d e0c1 163c
000003b0: c4b8 33be dc4e a23d 30f2 4abe 6f15 01be
000003c0: 109e 8f3d b45c 72be 6e39 fbbd 72f8 edbd
000003d0: 1a9e 7b3e c69c 663e 2c37 3ebe 4835 f53d
000003e0: 5af5 663e ca45 653e 4025 823c 74b6 da3d
000003f0: 5cc0 423e f055 e1bc 20f2 443c 1022 46be
0.07302526 0.116338134 -0.09370975 -0.02206868 0.1606242 -0.060321823 -0.06190622 -0.25783902
0.24283448 0.042665213 -0.1705437 -0.14689544 0.18487445 0.21083924 -0.008558273 -0.22570713
0.20554593 -0.17129515 0.032256752 0.2615305 -0.16637218 0.073595405 -0.04742354 -0.1239713
-0.088867664 0.19209412 0.13856015 -0.056261867 0.11015713 -0.072919175 0.1927051 0.06386265
-0.09332314 0.023963958 -0.0080657005 0.20473179 0.24894437 0.17853546 0.18838882 0.07982659
-0.17779988 0.15383694 0.0922074 0.17467773 0.23737535 0.123312116 -0.20605004 -0.20172912
-0.030159175 -0.19240175 -0.2024973 0.106057525 0.11099514 0.25392148 0.25646916 -0.20846255
-0.080771536 -0.22673678 -0.2183196 -0.09932546 -0.16441138 0.047272652 0.12880287 0.0051575005
0.1271891 0.23006439 0.101279676 -0.08596681 0.05486062 -0.23640484 -0.21211883 0.21530676
-0.17523997 -0.025481239 -0.03508228 -0.17754185 -0.15253797 0.042323828 -0.0690306 0.08695415
-0.16864815 -0.07537709 -0.071045265 0.11546695 -0.14049445 -0.037776843 -0.028740928 0.17067903
-0.20293581 -0.006706625 0.26289234 0.18074113 0.017739147 0.080200404 0.13153943 -0.07268931
0.18908966 -0.019763917 -0.1094898 -0.051476777 0.12347534 -0.2137511 -0.13977572 0.15923283
-0.23049137 0.10405967 -0.21108772 -0.22559346 -0.15370396 -0.20269352 -0.010432184 0.14883247
-0.09625763 -0.17448275 -0.1742897 0.045078486 0.19532788 0.037483603 -0.20431271 0.21086451
-0.23562828 -0.16814017 0.059197515 0.03275442 -0.11004338 0.19911325 0.08352679 -0.0672349
-0.11708988 0.2211717 -0.06652975 0.1874507 0.18462205 0.2210091 -0.01538375 -0.11738178
-0.20544371 -0.21406612 -0.1510439 0.064178586 0.057290554 -0.15988019 0.107402235 0.040732116
-0.23231538 -0.25691658 -0.077156976 -0.1331833 -0.08963731 0.0015205145 -0.20822838 -0.04235828
0.17297265 0.21359023 0.056782216 -0.036286563 0.17062587 -0.13119642 0.000390023 -0.006778002
-0.24881314 -0.13703388 0.12349859 -0.26525164 0.08512756 -0.22748834 0.09426519 0.10697371
0.16207352 -0.24473426 0.21586242 0.10915518 0.020683438 0.16005516 0.10582611 -0.102453396
0.17520007 0.26517442 -0.05423306 0.037555337 -0.17348623 -0.16373748 -0.19979015 0.13835704
0.14974713 0.25319496 -0.057187557 -0.055531383 0.036633313 -0.0036365092 0.007813722 -0.0076146424
-0.121624395 0.24120644 -0.014389813 0.12333989 0.2071841 0.20025405 -0.13797925 0.21910551
-0.02606064 -0.09632769 -0.0025093853 -0.21297213 0.1387474 -0.015144974 0.016631633 -0.2523811
-0.00327003 0.097323775 0.19632044 0.22923973 -0.2099081 -0.14954665 -0.026974037 0.07174885
0.20001009 -0.09376095 -0.22744828 -0.16771263 -0.14448497 0.037563086 0.26225427 0.15762463
-0.019785643 0.2056545 -0.23979557 0.15281734 -0.14367577 0.025173217 0.2227925 -0.074389145
0.21861851 -0.050937712 0.0320642 0.009201497 -0.17550951 0.079251975 -0.1981895 -0.12605833
0.0701257 -0.23668176 -0.12266813 -0.11619653 0.2457203 0.22520742 -0.18575734 0.11973053
0.22554532 0.22389904 0.015886903 0.106793314 0.19018692 -0.027506799 0.012020618 -0.19348931

l1.bias f4 [50]
00000000: bca2 c53d 7567 73be f639 723e 6e29 e6bd
00000010: fc52 c93d 545d 60be 5db3 69be d48f 0d3e
00000020: 20b0 03bd 335e 43be d08c e83c b60d e8bd
00000030: ed32 85be ec5a 29bd e08b 173d 9695 353e
00000040: e4ff b2bd 3825 1d3e 4e4e 6f3e a6df 26be
00000050: f434 9fbd fb3e 6cbe fcd1 913d 20ee b73d
00000060: a0e2 66bd 164f 27be fc4c d33d 3706 84be
00000070: 5bba 35be 7a97 febd 72e3 383e e0d5 55bc
00000080: f64b 223e 5099 24bd f719 82be 56f3 643e
00000090: 3628 0c3e 80be d13b c66e 303e ca24 2dbe
000000a0: dc02 15bd b61d 1abe 1cf6 e73d bbf3 813e
000000b0: 80d7 bcbb 0090 adbb 7a01 80be cad1 0b3e
000000c0: 6c12 313e d4da e7bd
0.0965018 -0.23769934 0.23654923 -0.11238371 0.09830281 -0.21910602 -0.22822328 0.13824397
-0.032150388 -0.19078903 0.028387457 -0.1133074 -0.26015416 -0.041346475 0.03699863 0.17732844
-0.087402135 0.15346229 0.23369715 -0.16296253 -0.07773772 -0.230709 0.071201295 0.089809656
-0.05636847 -0.16338763 0.10317418 -0.25785992 -0.1774687 -0.124312356 0.18055514 -0.01305148
0.1584929 -0.040185273 -0.25410435 0.2235845 0.13687214 0.006400883 0.17229757 -0.16908565
-0.03637968 -0.15050396 0.113262385 0.25381264 -0.0057629943 -0.005296707 -0.25001127 0.13654247
0.17292184 -0.11321035

l2.weight f4 [100, 50]
00000000: ba67 933d a0a8 e4bd 08fe 9c3c 82b0 06bd
00000010: 6638 853d 1801 383d fc21 143d 26cd 953d
00000020: 9e4e 5dbd 309f 473d 494f 093e 0919 063e
00000030: 0c2a a5bd a24c 02bd 3001 65bc 7850 523d
00000040: f013 883c 0858 b8bc 4a5e 883d af2a f9bd
00000050: 803e 223d 01d2 b5bd e89e bebd e176 e8bd
00000060: 83af 99bd d61f be3d efbb e2bd 5af3 ac3d
00000070: 2ed8 a33d d00d e8bc a841 0bbd f680 93bd
00000080: 7e6b f83d b1ce 0d3e f0cf 60bc 2d19 9dbd
00000090: 7000 21bc 88e9 fabd aac5 0cbe 505c 2bbc
000000a0: 3820 d5bd 0aa6 c0bd 6cf5 963d 3812 06bd
000000b0: acf3 9e3d 885f cf3c 02c3 a93d 70e6 c73d
000000c0: 5645 dbbd 94bb bfbc c08e f3bb 103f 453c
000000d0: 90d5 a43d 7c77 6ebd 00a1 c7ba ba99 f5bd
000000e0: 5880 6a3d 91f8 edbd 28bb 8d3d 2063 843c
000000f0: bcd7 c0bd 00f1 ad3c 4083 41bd 20cf bdbb
00000100: f553 f2bd dc22 16bd 36c7 f93d 10c6 d33d
00000110: 7875 ab3d 7803 a43c e8cc cb3c 00ab 20bc
00000120: 608e 423d bd1b 053e 7a7c e4bd c55e d9bd
00000130: 54d5 e0bc bc76 24bd b66f fe3d cb62 0f3e
00000140: c2ca f7bd d142 a0bd 98ba 8cbc 34df cc3d
00000150: 5269 b4bd 3498 dc3d 16a0 bdbd 4877 943d
00000160: d0d7 353d d7cf 083e f934 10be cc43 b63d
00000170: 7034 ac3c e71b a5bd 768f 68bd 9329 0f3e
00000180: f060 023d 0a63 97bd f050 46bc 5a20 00be
00000190: 5056 62bd fac8 cf3d 9216 e6bd 41bd 00be
000001a0: 9314 023e 8016 483b 78d6 dcbd f688 0fbd
000001b0: e89b ddbd 5e79 b43d 4c04 9a3d 08d3 b43d
000001c0: 80f0 daba 603a f93c 9856 4c3d c2ce abbd
000001d0: 837a b2bd 4cc2 0fbd f489 bcbd 1a16 ff3d
000001e0: 8c0e 72bd a19c 86bd e678 d83d 807c c8bd
000001f0: 00aa b3ba b0fd f93c b83b 663d 98e0 d9bd
00000200: 8e1b f13d 405b 75bc 06ff e8bd 2085 67bd
00000210: ec72 823d 0093 74bc ed08 0b3e ec3d 42bd
00000220: 42de 13bd bd79 073e 7812 dd3c 8069 e3ba
00000230: e16e 0cbe 021c ee3d c434 f2bd 58f9 ea3c
00000240: 5a3a d53d 787b d33c fa6c e03d 9557 063e
00000250: 9f0a 0a3e fc4e 883d 80ca deba 305a b93c
00000260: 346a 643d b8d5 573d 5403 77bd e061 84bb
00000270: 85a0 f0bd c83b bd3c a6fd e83d ad05 083e
00000280: 6a2e da3d 18b2 8cbd e06d d9bb f0a8 843d
00000290: 4846 d23c ce1b e03d 66ce 9c3d a85b 863c
000002a0: 84b1 b1bd fcfe 063d 1467 61bd 2eab a4bd
000002b0: d67b d63d 385a f5bd 360d 6abd f25a 78bd
000002c0: 2a0a ecbd be41 a2bd a173 0e3e b80c 843c
000002d0: 0acd 883d c42a 433d 607d 7c3d d2ea 8d3d
000002e0: 8463 afbc 44fe f2bd a4de 0fbe 0c86 cf3d
000002f0: 7de1 80bd 04f1 67bd 8833 85bc 5523 0f3e
00000300: d0d9 ec3c 9867 d73c 9b6c a9bd 6c76 163d
00000310: f4c4 78bd 20e7 ee3b 21e7 0b3e c046 2b3c
00000320: 289a 863d 98e5 c5bd d0f3 153c ca6e c33d
00000330: 289d 02bd 1c9b 093d 589c f83c 7029 1b3d
00000340: d070 943d e88f f53c 4064 68bb 8b4a ffbd
00000350: 018d 8fbd 004b 2a3b 48eb 7abd 9c7d 833d
00000360: a930 93bd d1f1 eabd 62f7 58bd f657 c5bd
00000370: 0c63 a1bc 29dd 063e f209 08bd a048 553c
00000380: 5726 b0bd 6603 68bd d0f8 d53d 3046 203d
00000390: 6005 e53b 8076 0abc 3c26 87bc ce11 f23d
000003a0: 9e11 a2bd 084a 953c e009 263d 0036 32bd
000003b0: 0265 e83d ad65 0b3e 300d b0bc 609e 833d
000003c0: 405c 123b b6b7 0cbe 6a73 ec3d 5657 b7bd
000003d0: d04f d43d 9dca 99bd 3851 59bd d2e1 45bd
000003e0: 5407 bb3d a0e7 6cbc 8a07 d7bd 309a 5f3c
000003f0: cefd 09bd 0a3a ab3d 7865 5b3d 7ec5 5abd
0.07197519 -0.11164975 0.0191641 -0.032883175 0.06504898 0.044922918 0.036165223 0.073145196
-0.054030053 0.048735797 0.13409151 0.13095488 -0.080646604 -0.031811364 -0.013977334 0.051346272
0.01661107 -0.022502914 0.06658609 -0.121663444 0.039610386 -0.08877946 -0.09307653 -0.11350799
-0.07504179 0.09283416 -0.11071002 0.08444853 0.080002174 -0.028326899 -0.03399816 -0.07202332
0.121298775 0.13848378 -0.013721451 -0.076708175 -0.009826764 -0.12251574 -0.13747278 -0.010459021
-0.10406536 -0.094066694 0.07371029 -0.03273222 0.077613205 0.025314108 0.08289148 0.09760749
-0.10706584 -0.023404874 -0.0074327886 0.012038961 0.08048546 -0.058219418 -0.0015230477 -0.11992212
0.057251304 -0.11619676 0.06920463 0.016160548 -0.09416148 0.021233082 -0.04724431 -0.0057925135
-0.1183242 -0.03665434 0.121961996 0.10340512 0.08372015 0.020021185 0.02487798 -0.009806395
0.04749906 0.12998863 -0.111565545 -0.10613779 -0.027445473 -0.040152296 0.12423651 0.1400253
-0.1209922 -0.07825244 -0.017178819 0.1000351 -0.08809151 0.10771218 -0.092590496 0.072493136
0.044395268 0.13360535 -0.14082707 0.0889965 0.021021098 -0.080619626 -0.05677744 0.13980703
0.031830728 -0.07391937 -0.012104258 -0.12512341 -0.055258095 0.10145755 -0.11234774 -0.12572195
0.12703161 0.003053099 -0.10783094 -0.035042726 -0.108207524 0.088122115 0.07520351 0.088293135
-0.0016703755 0.030423343 0.04988727 -0.08389045 -0.087147735 -0.035097405 -0.09206 0.124553874
-0.059095904 -0.06572843 0.105699345 -0.097893715 -0.001370728 0.030516475 0.056209296 -0.10638541
0.11772834 -0.014975369 -0.11376767 -0.056523442 0.06369576 -0.014927626 0.13577624 -0.047422335
-0.036100633 0.13230033 0.026986346 -0.0017350167 -0.13714172 0.11626436 -0.118264705 0.02868335
0.1041152 0.02581571 0.10958286 0.13119347 0.13480614 0.0665569 -0.0016997606 0.022626013
0.055765346 0.052694052 -0.06030591 -0.004039988 -0.11749367 0.023099795 0.113765046 0.13283415
0.10653384 -0.06869906 -0.0066354126 0.06477535 0.025668278 0.10942803 0.07656555 0.016401127
-0.086764365 0.032958016 -0.055029944 -0.080404624 0.104728386 -0.119800985 -0.057141505 -0.060633607
-0.11525376 -0.079226956 0.13911296 0.016119346 0.06679733 0.047648206 0.061643004 0.06929554
-0.021409757 -0.118649036 -0.14049774 0.10132989 -0.062930085 -0.056626335 -0.016259924 0.13978322
0.028912455 0.026294515 -0.08272668 0.03673403 -0.060734704 0.007290736 0.13662387 0.01045388
0.06572372 -0.09662932 0.009152368 0.09542616 -0.031888157 0.03359519 0.030347988 0.037881315
0.0724808 0.029975846 -0.0035460144 -0.1246539 -0.07009316 0.0025984645 -0.061259538 0.064204425
-0.071870156 -0.11471904 -0.052970298 -0.09635918 -0.01970055 0.13170303 -0.03321261 0.013017803
-0.08601063 -0.056643866 0.10447848 0.039129436 0.006989166 -0.008451104 -0.016497724 0.11819802
-0.079135165 0.018223777 0.04053676 -0.04350853 0.11347391 0.13613005 -0.021490663 0.06426692
0.0022332817 -0.13741955 0.11545451 -0.08952205 0.103667855 -0.075093485 -0.05305597 -0.048311062
0.09132257 -0.014459521 -0.10499485 0.013647601 -0.033689313 0.083606794 0.053563565 -0.053411

l2.bias f4 [100]
00000000: 66c8 5dbd 13e4 0d3e 7274 e53d 80d8 28bb
00000010: 001d 513c f285 e3bd 0a1d 9dbd 7d64 f0bd
00000020: f2f8 f73d b717 0b3e e85e c53c 2ea8 fa3d
00000030: 4cf0 033d e6fe e33d 40fa aebb b7a9 adbd
00000040: ea84 01bd b653 e83d d00d 4cbd d7e5 033e
00000050: 0453 463d 7aef bbbd b798 0f3e e8b8 eebc
00000060: 22f1 c03d ce31 64bd d049 ee3c 72b9 91bd
00000070: b233 c23d 811e a2bd 185b 4e3d c65f 02be
00000080: 6c65 a7bd bc06 35bd 9446 2d3d 1ff3 81bd
00000090: 1003 d3bd 3426 263d 8a39 fa3d f8f5 35bd
000000a0: 18f9 0cbe 825d f9bd 1415 c8bd b257 eb3d
000000b0: 2284 d73d c007 e1bb 7046 07be 0559 a8bd
000000c0: 80e4 7d3c 7663 c63d 2977 a8bd 6070 b43b
000000d0: 8072 5cbc 32db 98bd 4649 f23d 49a8 073e
000000e0: 905e 48bc 8946 edbd 5890 393d c01a 283d
000000f0: 1091 1cbc 12c4 05bd 7b93 103e b4cc d03d
00000100: 10e5 c73d c8a4 dd3d 0c0b 583d 2086 f53b
00000110: 6770 90bd 06df d23d 60d1 fc3c c1cf f0bd
00000120: bc0b b4bd 0884 13bd ad37 003e d344 87bd
00000130: 2cce f4bd 2066 aa3c f8f0 09be 34e4 3a3d
00000140: 80fb 223c 705d 4abd 6e91 48bd 8881 093d
00000150: 1184 febd fea0 d3bd 51af d0bd 80ab 1d3d
00000160: afe3 093e 4d12 013e 6421 93bc 981e 813d
00000170: 7e1a fe3d c319 073e e78e 0ebe 5e7d 67bd
00000180: 0cc7 d2bd fe49 74bd 108b 803d 4b75 a0bd
-0.054146193 0.13856535 0.11203851 -0.002576381 0.012763262 -0.111095324 -0.076715544 -0.117379166
0.121080294 0.13583265 0.024093106 0.12239109 0.032211587 0.111326024 -0.0053398907 -0.08479636
-0.031620897 0.113440916 -0.04981786 0.12880646 0.048419014 -0.09176536 0.140231 -0.029140905
0.094209924 -0.05571156 0.02908793 -0.07115449 0.09482516 -0.079159744 0.050379843 -0.12731847
-0.081736416 -0.044195876 0.042303637 -0.063452 -0.103033185 0.040563777 0.12218006 -0.044424027
-0.13766897 -0.12176038 -0.09769645 0.11491336 0.10523249 -0.006867379 -0.13210464 -0.08220104
0.015496373 0.096869394 -0.08225853 0.00550656 -0.013455033 -0.07463683 0.11830382 0.1324779
-0.012229577 -0.11585719 0.045303673 0.041041136 -0.00955607 -0.03265769 0.1411876 0.10195294
0.09760487 0.10822445 0.05274491 0.0074927956 -0.07052689 0.102964446 0.030861557 -0.11758376
-0.08791301 -0.036014587 0.12521239 -0.06604924 -0.11953387 0.02080065 -0.13470829 0.045627788
0.009947658 -0.049405515 -0.048966818 0.033570796 -0.124275334 -0.10333441 -0.10189689 0.038493633
0.1346576 0.12604637 -0.017960258 0.063046634 0.12407397 0.13193421 -0.139217 -0.056516044
-0.102918714 -0.059640877 0.06276524 -0.07834872

l3.weight f4 [20, 100]
00000000: 7b1a c0bd 70e2 303c 9cda e33c d802 b63c
00000010: 09a1 853d ba2e 63bd b1bb 8f3d 4059 01bd
00000020: 54a8 853c 20d9 af3c 22e5 593d d5c7 803d
00000030: 0a91 1ebd 0a70 79bd a930 9c3d aa06 aebd
00000040: f28b b0bd d1b2 843d 2a40 bbbd 8fc7 b6bd
00000050: 7813 abbd ed1d c3bd beb7 723d 4dd1 b5bd
00000060: 008d 0b3a 5e79 643d 766f a7bd 7f50 afbd
00000070: e2a1 433d ccf4 903c 82ab 343d b572 be3d
00000080: 4a78 00bd 7d4b 96bd 7245 163d 5567 9d3d
00000090: 3064 443c 0a15 253d c4b0 12bd b1b9 a53d
000000a0: ce88 8fbd 2da1 90bd a793 1fbd 9143 8d3d
000000b0: 63b7 99bd 2932 913d e992 953d 620d 323d
000000c0: 349e f5bc a5a7 9abd d034 443c 2ea5 673d
000000d0: a84a 90bd 02d8 693d 2606 16bd 6bf5 9dbd
000000e0: d97f ba3d 0c29 fcbc 80c3 6e3c 6035 9fbd
000000f0: 737f 9abd f327 93bd 7895 cdbc 18a5 413c
00000100: 4090 27bd a029 0ebd 38c8 fcbc 3469 fdbc
00000110: 6362 36bd d410 8fbc 20c9 cdbb c490 dc3c
00000120: 54ea 94bc 225f 663d 2c16 acbc 7da0 69bd
00000130: c027 b2bd 82a6 5c3d 7a54 3f3d beb7 96bd
00000140: 36c7 353d eb52 a4bd f008 243c 99fb bc3d
00000150: 9c5b 19bd 8391 3cbd 6d35 21bd 5846 c6bc
00000160: 8098 1d3c d06d 733c 473a 20bd c48a ce3c
00000170: fdb6 813d 7dd0 44bd b24e 293d bf0a 833d
00000180: 1de1 993d 6045 783b 9057 3fbc 3d69 34bd
00000190: a700 60bd a0c1 2fbd 0d22 43bd 9a82 63bd
000001a0: c911 893d 50b3 0d3c 4abd 6b3d bace 50bd
000001b0: 0c82 c7bc 0017 c03c a886 8cbd 7211 693d
000001c0: 543d d4bc ecfe ec3c 5a7d 62bd a697 0ebd
000001d0: cb28 a8bd 8dfe c5bd ac67 88bd 20b2 c23c
000001e0: 7545 8bbd dda0 4fbd d6ee 763d 3445 803c
000001f0: d46d bebc 0ded 36bd a2e9 353d a016 cabc
00000200: a084 d83b 420e c2bd 9a79 93bd ed76 a6bd
00000210: 33b5 92bd 4e58 a7bd 64a6 e03c 7522 c53d
00000220: 2303 b0bd 4c22 b23c e676 8dbd b89e b33c
00000230: 60cd 8f3c a536 96bd 00b7 c4bd d46a c73c
00000240: 1309 a2bd f74e 47bd 301a bdbd e0e5 a6bb
00000250: 40cb 51bc 3871 90bd 9ca9 fb3c 8ece 9ebd
00000260: a41c f93c a33c cc3d 0cf5 a93c 8050 983c
00000270: 803b 54bc 7cda e93c f04f 233c 1e8e 763d
00000280: 80da f93b c3eb a5bd cee5 5f3d 7b8a 9abd
00000290: c357 57bd 1696 213d fd2f 32bd 18a7 d1bc
000002a0: 142d 983c c97c ca3d 006a a7bd 9945 8d3d
000002b0: 984d 883c d3c7 983d b0c7 dc3b 2634 0bbd
000002c0: 254f bfbd 0d56 bfbd 463c 3d3d bc41 12bd
000002d0: eacc 21bd 2a75 09bd a3b1 94bd c723 b83d
000002e0: 355a cb3d c9df a73d bfc3 833d 34a9 e43c
000002f0: 879f 6dbd 9453 d73c 8cb2 adbc ebff 99bd
00000300: 4083 693b b05f 6ebc a0d5 983c c07f 713b
00000310: e218 773d 17b9 903d 7088 01bc ba2c 4a3d
00000320: 123a 153d da04 80bd 4d16 47bd afd1 a73d
00000330: 434c a13d 11fb bc3d d269 623d 1833 35bc
00000340: f45f c3bc 6d92 b4bd 294b 8c3d 028d 253d
00000350: a850 ca3c 18be 983c d223 5f3d a40c 02bd
00000360: 31cb c93d e374 c7bd 5154 9b3d 2ca8 f6bc
00000370: 82a1 3b3d 279a 57bd 1ffb c43d 062c 9abd
00000380: 80a5 f3bb d827 773c f2b8 623d 06c8 663d
00000390: 835b 70bd 3220 603d 0031 113c eaa7 2a3d
000003a0: 74ef f03c e202 aebd d5c7 893d c954 bd3d
000003b0: 070c 27bd 2a73 60bd 4be0 993d 1d21 66bd
000003c0: ab2e a6bd 5af4 55bd 021b 533d 571c 3dbd
000003d0: 0b94 ae3d 22e0 4a3d 7aee 7bbd 92eb 103d
000003e0: 5e17 563d c096 b53a 3085 06bd 93b7 68bd
000003f0: 1bb2 9b3d 730d 9ebd 437f b13d 6a26 adbd
-0.09380051 0.010796174 0.027814202 0.022218153 0.06524856 -0.055464484 0.07018221 -0.031579256
0.016315617 0.021465838 0.053197034 0.06288115 -0.03871254 -0.060897864 0.07626469 -0.08497365
-0.086204425 0.06479419 -0.09143098 -0.089247815 -0.08353323 -0.09527192 0.05925726 -0.088778116
0.000532344 0.055779807 -0.08175556 -0.08560275 0.047761805 0.017694853 0.044108875 0.092992224
-0.031364717 -0.07338617 0.036687322 0.07685725 0.011986777 0.040303268 -0.035813108 0.080920584
-0.07008515 -0.07061992 -0.03895917 0.06897653 -0.07505681 0.070896454 0.073034115 0.043469794
-0.029982664 -0.07551507 0.011975482 0.056554012 -0.070454895 0.057090767 -0.036626957 -0.077128254
0.09106416 -0.030781291 0.014572978 -0.07773852 -0.0754384 -0.07185354 -0.025095686 0.011819147
-0.040909052 -0.034707665 -0.03085719 -0.030933954 -0.044527423 -0.017464079 -0.0062800795 0.026924498
-0.018178143 0.05624307 -0.021006666 -0.05703782 -0.08698988 0.05386973 0.046711423 -0.07359265
0.044379435 -0.08023628 0.0100118965 0.09227676 -0.03744088 -0.04603721 -0.03935759 -0.024203464
0.009618878 0.014857724 -0.039118078 0.025212653 0.0633373 -0.048050392 0.041334815 0.06398534
0.0751364 0.0037883148 -0.011678591 -0.044045676 -0.054688122 -0.042909265 -0.047639895 -0.055544473
0.066928454 0.008648708 0.057553567 -0.0509784 -0.024354003 0.023448467 -0.06861621 0.056901403
-0.02590815 0.02893015 -0.055295326 -0.034812592 -0.08210906 -0.09667692 -0.06660399 0.023766577
-0.06800357 -0.05069052 0.060286365 0.015657999 -0.02324573 -0.044659663 0.044412263 -0.024668992
0.006607607 -0.09475376 -0.07200928 -0.08128152 -0.07163467 -0.0817114 0.027423091 0.09625713
-0.08594348 0.02174487 -0.06907444 0.021926269 0.017553985 -0.07334641 -0.09605217 0.024342932
-0.07911887 -0.04865929 -0.092335105 -0.005093321 -0.012804806 -0.07052845 0.030720524 -0.07754241
0.030409165 0.09972503 0.02074673 0.018593073 -0.012953639 0.028546564 0.009967789 0.060194127
0.007624924 -0.081016086 0.05466252 -0.07545944 -0.05257393 0.039449774 -0.043502796 -0.025592372
0.018576182 0.09887082 -0.08174515 0.0689804 0.016638562 0.074599884 0.006737672 -0.03398528
-0.093412675 -0.09342585 0.04620006 -0.03570722 -0.039502062 -0.033559002 -0.07260444 0.08991199
0.09929315 0.081969805 0.0643382 0.027912714 -0.058013465 0.02628497 -0.021203302 -0.075195156
0.003563121 -0.014549181 0.018656552 0.0036849827 0.060326464 0.07066553 -0.007906064 0.04935906
0.036432333 -0.06250925 -0.048605252 0.08194291 0.07875874 0.092275746 0.0552767 -0.011059545
-0.023849465 -0.08816991 0.06850273 0.04041768 0.024696663 0.018645331 0.05447752 -0.031750336
0.09853209 -0.09739091 0.075844415 -0.030109487 0.045808323 -0.052637246 0.0961821 -0.07527928
-0.0074355006 0.015085183 0.05535216 0.0563431 -0.058681022 0.054718204 0.00886178 0.04166404
0.029411055 -0.084966436 0.06727568 0.09244687 -0.040782955 -0.05479733 0.075134836 -0.056183923
-0.0811437 -0.052234985 0.05153943 -0.046169605 0.08524331 0.049530156 -0.061506726 0.035380907
0.05226838 0.0013854131 -0.03284186 -0.056815695 0.0760233 -0.07717409 0.08666851 -0.084545925

l3.bias f4 [20]
00000000: 8cd3 e3bc bab5 b9bd 6fbe cbbd 9271 1f3d
00000010: 0733 52bd cd3d aa3d 733e b9bd 8067 a4bb
00000020: a04d 61bb 9e08 a8bd 40c7 543b f2c7 b6bd
00000030: b0d5 42bc c225 643d ecc9 f5bc f49c dc3c
00000040: 3b7e cb3d eab2 c0bd 5ce5 ff3c c066 a73c
-0.027810834 -0.09067865 -0.09948432 0.03892667 -0.051318195 0.08312569 -0.09045114 -0.005017221
-0.0034378543 -0.082047686 0.0032467395 -0.08924855 -0.011891767 0.05570007 -0.03000351 0.02693031
0.09936186 -0.09409125 0.031237297 0.020434737

output.weight f4 [8, 20]
00000000: a031 4fbd bae8 0c3e 1a65 93bd 88fc 973c
00000010: ac6b 18bd 51da 5dbe dc0f 343e b025 4cbd
00000020: 9e37 403e 1834 d2bc 18f7 e63d cc03 a93d
00000030: 70e6 dcbc 1c54 9bbd a0c0 df3b 0c49 503e
00000040: d81a 233d eaba 64be 5025 153d 1822 13be
00000050: f870 f93d 98f3 753d b8fb 023e 5460 bebd
00000060: 048c 2f3e 009d 463e bb44 e5bd 4272 273e
00000070: fc3f 2bbd f571 d7bd 4019 0f3e 4cde aabd
00000080: 880b a03c 08c2 f3bd ce98 0a3e 06d4 133e
00000090: 50d7 f13d a2f6 143e 702d bbbc ee3f 463e
000000a0: 60a7 2f3e b8f6 3f3d c2e7 263e d41e fbbd
000000b0: 388f 3abd 429d 93bd 6835 aabc 0492 de3d
000000c0: 87c5 e4bd 2495 29bd 807f 41bd d077 863c
000000d0: c071 763b b6dd 133e e880 e53d 8292 633e
000000e0: 2c3a 4abd d605 4a3e 6e51 15be 4818 973c
000000f0: 0ed2 0bbe b846 943c b431 2cbe 066f 373e
00000100: 2e5c 49be b8ec 253e a06d a8bd 001c f63c
00000110: 02bd 5a3e 90d2 173d 5215 85bd f659 3f3e
00000120: 402d e63c 3017 413e 4e23 1f3e ca1b 363e
00000130: f000 e23d 0046 2dbc 9a19 e4bd 462f 35be
00000140: 54ec e73d a099 2b3d c006 623b 1883 7b3d
00000150: 9658 243e a063 753c 00ef 04ba 2649 5e3e
00000160: eec6 91bd 3242 61be 20b9 51be be79 57be
00000170: 58c4 84bc f055 4fbe a11f febd 301c 253c
00000180: fd2f 3abe c875 533e 44e8 d83d fe01 5abe
00000190: 6ef9 8dbd 1d1b 2dbe 2073 bb3d b637 603e
000001a0: 7a77 5c3e c00a 3f3b 9e6f 16be 0c22 34be
000001b0: e493 8b3d 2001 a7bc d01b 78bd d797 48be
000001c0: 76ea 203e 8c0c 5a3e d522 1cbe 6899 e4bd
000001d0: dabd 1f3e 287b 3abd 6a96 25be 78f9 a6bc
000001e0: b8e4 8c3d 698c 56be dab5 08be 10b4 aa3d
000001f0: 28e3 c0bc 70b5 fb3d 34ab 893d 0450 aa3d
00000200: b05d 29be 0c72 cd3d 34cd de3d 785f 073d
00000210: 82ab 2b3e 1ca4 dbbd c797 49be d04b 8ebd
00000220: 0037 71bd 0565 0cbe 02ee 093e fc9d 84bd
00000230: d001 0c3c 4c48 4a3e f04d 933d fb2c 06be
00000240: 1f47 3fbe 8316 5cbe fc86 06be f00b 53bd
00000250: 9439 fbbd c419 b13d 82d5 13be 029b 36be
00000260: 08c8 4d3e 9ad4 343e 19a6 56be 2252 3cbe
00000270: f6e9 d4bd 782b 0bbe e46f c23d 3084 f63d
-0.050584435 0.13760653 -0.07197018 0.018553033 -0.03721206 -0.21665312 0.17584175 -0.04984063
0.18771216 -0.025659606 0.11277598 0.08252677 -0.02696535 -0.07584402 0.0068283826 0.20340365
0.039820522 -0.22336927 0.036412537 -0.14368474 0.1217975 0.060046762 0.12791336 -0.09295717
0.17143255 0.19395828 -0.1119475 0.1635218 -0.041809067 -0.105197825 0.13974476 -0.08343181
0.019536749 -0.11902243 0.13534853 0.1443635 0.11808646 0.14547208 -0.022848815 0.19360325
0.17153692 0.04686615 0.16299346 -0.122617394 -0.04554674 -0.07207729 -0.02077742 0.10867694
-0.11170488 -0.041401997 -0.047240734 0.016414553 0.0037604421 0.14440045 0.112062275 0.22223857
-0.049371883 0.19728789 -0.14581844 0.018444195 -0.13654348 0.018100128 -0.16815835 0.17913446
-0.1966407 0.16203582 -0.08224034 0.030042648 0.21361163 0.037066042 -0.06498207 0.18686661
0.028097749 0.18856502 0.15540811 0.17784038 0.11035335 -0.010575771 -0.111376956 -0.17693815
0.11324373 0.041894555 0.0034488887 0.061404318 0.16049418 0.014977366 -0.0005071014 0.21707591
-0.07118021 -0.21997908 -0.20480776 -0.21042535 -0.016206905 -0.20247626 -0.124083765 0.010077521
-0.18182369 0.20650399 0.10591176 -0.21289822 -0.069323406 -0.16904874 0.09152818 0.21896252
0.21529952 0.0029150695 -0.14691016 -0.17591113 0.06815317 -0.020386279 -0.0605734 -0.19589172
0.1571444 0.21293849 -0.15247662 -0.111620724 0.15599766 -0.045527607 -0.1617066 -0.020382628
0.06879562 -0.20952 -0.13350621 0.083351254 -0.023545817 0.12290466 0.067221075 0.08316043
-0.16539645 0.10031518 0.10878983 0.03305003 0.16764644 -0.10724661 -0.19686805 -0.06948054
-0.058890343 -0.13710411 0.13469699 -0.06475446 0.008545354 0.19754142 0.071926 -0.13103096
-0.18679474 -0.21492963 -0.1313743 -0.051525056 -0.122668415 0.086474925 -0.14436916 -0.17832568
0.20095837 0.17659226 -0.20961799 -0.18390706 -0.10396187 -0.13590801 0.09493998 0.120369315

output.bias f4 [8]
00000000: 18bc 92bc 5ade 493e 5476 80bd 44d1 4b3e
00000010: e037 8ebb 6137 4cbe 13d3 0fbe fe7e 253e
-0.017911956 0.19713727 -0.06272569 0.19904047 -0.004340157 -0.19943 -0.14045362 0.16161725
