Simple_ANN_experience/saved_model/simpleANNlr=0.001bs=512_mass_balance.pt (torch, 34575 bytes, 8 tensors)

l1.weight f4 [50, 14]
000000 68 3d 1b be 77 29 86 3e 38 d4 85 bd c0 0f 8e 3c
       -0.15160143 0.2620351 -0.06534618 0.017341495
000010 54 e7 f7 3d 80 a1 7f 3b 0c 26 13 3e 08 5b e0 3d
       0.12104669 0.0039006174 0.14369982 0.10954863
000020 bf a4 57 be 43 a5 85 3e c8 d3 3f be 6e d3 53 be
       -0.2105894 0.26102647 -0.18733132 -0.20686123
000030 68 24 db bd 86 e3 1f 3e e8 f3 4c 3d c0 c1 3a 3c
       -0.10700303 0.15614137 0.050037295 0.011398733
000040 90 af e5 bd 14 c0 d2 bd 00 77 ad 3b 72 6c f0 bd
       -0.112151265 -0.10290542 0.005293727 -0.11739434
000050 87 81 3a be 50 49 7b be 9c 0b e8 3d f4 24 c6 3d
       -0.18213473 -0.24539685 0.11330339 0.09675017
000060 18 1d 34 3e 90 83 2e be 36 7f db bd c8 3a a5 bd
       0.17589223 -0.17042375 -0.10717623 -0.08067852
000070 96 2e 3e be b0 bb 2d 3e 60 b6 b4 3c 5a a0 3c 3e
       -0.18572459 0.16966128 0.02205962 0.18420544
000080 ec d8 b9 3d 48 f7 38 be ce 1a 08 be af 68 50 be
       0.09074578 -0.1806308 -0.13291475 -0.20352434
000090 8e 18 63 3e 34 a4 2f bd 48 a1 7f 3d e4 ba 07 3e
       0.22177336 -0.042881206 0.06240967 0.13254887
0000a0 76 4f d3 bd 4e 35 6c 3e a9 96 15 be 0e 30 06 3e
       -0.1031789 0.23067209 -0.14608254 0.13104269
0000b0 38 ba b3 3d 4c fe c8 3d 00 dc 19 3a 9c 2e 11 bd
       0.08775753 0.09814128 0.00058692694 -0.03544484
0000c0 50 72 20 bd 0b 12 48 be fa 8c 5e 3e 40 5f 65 be
       -0.039171517 -0.19538133 0.21733466 -0.22399616
0000d0 16 35 4a be c8 42 f1 3d 93 4e 86 be a0 76 48 3e
       -0.19746813 0.11780316 -0.26231822 0.19576502
0000e0 d0 8d a5 3c 78 ab aa 3d 12 a9 6a 3e 06 86 ac bd
       0.020209223 0.08333486 0.22916058 -0.084240004
0000f0 b6 1c 54 3e 1e d6 11 be 94 e9 e7 3d a0 4d 10 3e
       0.20714077 -0.14241835 0.11323848 0.14092112
000100 b2 e0 40 be 00 85 a4 3c a3 55 25 be a0 dd 4d be
       -0.18835714 0.02008295 -0.16145949 -0.20104074
000110 80 68 af 3d dc ac 62 bd 18 c2 6c 3e 40 33 60 bc
       0.08564854 -0.055340633 0.23120916 -0.013684094
000120 52 8a 34 3e 84 15 c7 bd 7e 6c 64 be cc 9d 2b be
       0.1763089 -0.09720901 -0.22307011 -0.16759413
000130 5e 95 62 3e 06 39 75 3e 96 c5 ae bd d2 0c 7b 3e
       0.22127292 0.23947534 -0.0853378 0.2451661
000140 06 53 6e be 06 7d ae bd f2 c8 4e be a1 b4 3f be
       -0.23273858 -0.0851994 -0.20193842 -0.18721248
000150 f8 55 35 bd 18 ee 38 be 48 26 ae bd 6c 59 eb 3d
       -0.04427144 -0.18059576 -0.08503395 0.11491665
000160 53 e3 87 3e f6 87 7e be c0 4b 7e 3d 08 92 75 be
       0.26540622 -0.24856552 0.06208396 -0.23981488
000170 c8 93 1e 3e 6c 79 95 3d ac 0e a1 3d be 59 53 3e
       0.15486062 0.0729855 0.078641266 0.20639703
000180 7a ed 32 be e4 1b ab 3d bc 16 af bd 9c 38 94 3d
       -0.17473403 0.08354929 -0.08549258 0.0723736
000190 4c 34 e3 3d fc 76 37 bd 68 ca 1d 3e a0 f6 3e 3d
       0.11093959 -0.044791207 0.15409243 0.04662192
0001a0 79 68 66 be e0 1c 20 3e e6 f3 08 be 04 7a 50 3e
       -0.2250079 0.15636015 -0.1337429 0.20359045
0001b0 f2 18 ed bd c0 3d 21 3e 68 dc 53 be fa 45 5b 3e
       -0.115770236 0.15746212 -0.20689547 0.21413413
0001c0 70 a1 d7 bd f8 c0 2f 3e 44 2e 0d 3e 46 95 47 3e
       -0.10528839 0.17163455 0.1378718 0.19490537
0001d0 28 10 08 bd a0 e3 5e 3c 2d 21 83 3e 40 42 89 bb
       -0.033218533 0.013604075 0.2561125 -0.004188806
0001e0 6b cf 32 be bc cd a7 bd 50 f6 c8 3d 40 d1 68 bc
       -0.17461936 -0.081935376 0.098126054 -0.014210045
0001f0 00 7a af bb 00 6e 64 3e 0d 4f 06 be c0 78 00 3e
       -0.0053551197 0.22307587 -0.13116093 0.12546062
000200 92 61 70 3e 52 63 97 bd 2e 09 e2 bd de 06 76 be
       0.2347472 -0.07391991 -0.11036907 -0.24026057
000210 da db 8b bd 28 f9 55 3e 20 9b 63 3d 30 31 a8 3c
       -0.06829043 0.20895827 0.05556786 0.020531267
000220 50 cb c7 3c 5c f6 1a 3e 05 dc 5a be b2 3e 5e be
       0.02438894 0.15133041 -0.21372993 -0.21703604
000230 0a 1d 02 3e 2c ca 17 3e 80 b2 70 3c ee 43 75 3e
       0.1270639 0.14823216 0.014690995 0.23951694
000240 94 3c 3a 3e f0 94 83 be 4f 7e 83 3e 80 da ce bb
       0.18187171 -0.25699568 0.25682303 -0.0063126683
000250 64 d6 8b 3d 8a d4 7b be a8 c5 53 be 66 2e 77 3e
       0.06828001 -0.24592796 -0.20680869 0.24138793
000260 70 3d 1d 3e 18 dc 35 3e 9e b0 5e be 30 fd 3f 3e
       0.15355468 0.1775974 -0.21747062 0.18748927
000270 60 84 91 3d 56 2b cf bd 3e 10 52 be a8 b4 3b 3d
       0.07105327 -0.101156875 -0.20514008 0.045826584
000280 c0 bf 39 bc 4b 3c 44 be 8e 71 d8 bd ee 7e 6f be
       -0.011337221 -0.19163625 -0.10568534 -0.23388264
000290 80 15 03 3c e8 6b 06 3e 04 a9 5b 3e 50 e1 4d be
       0.0080007315 0.131271 0.21451193 -0.20105481
0002a0 46 4f 58 be 00 3f 8b 3b 40 04 1d be fe f5 0e be
       -0.2112399 0.0042494535 -0.15333652 -0.13961026
0002b0 72 f6 7d 3e 0b 87 2a be 38 dd 68 be ca e3 52 be
       0.24801043 -0.16653077 -0.22740638 -0.20594707
0002c0 64 b1 17 3e 84 98 47 be 24 4a e6 3d 91 86 82 be
       0.14813763 -0.19491774 0.1124461 -0.2549329
0002d0 8d 4d 71 be b0 11 9a 3d b8 6a 31 be c2 7f 81 be
       -0.2356474 0.07522905 -0.17325866 -0.25292784
0002e0 40 a1 aa 3c ec b0 1b 3e a0 f1 a6 3c 63 24 84 be
       0.020828843 0.15204209 0.020378888 -0.2580901
0002f0 88 d8 93 3d d0 1e 92 3d c9 cd 04 be c8 69 30 3d
       0.072190344 0.07134783 -0.12969126 0.04306963
000300 aa d1 ae bd 08 f9 2e 3e fb c1 7e be 42 57 a8 bd
       -0.08536084 0.17087185 -0.24878685 -0.08219768
000310 18 79 71 bd 00 c9 43 bb 77 24 01 be c8 a5 1c 3d
       -0.058953375 -0.0029874444 -0.12611566 0.03824404
000320 80 fc d9 3c 04 77 72 bd 90 7c 99 3c 80 da ae bd
       0.02660966 -0.059195533 0.018736154 -0.08537769
000330 50 0f 2e be a0 36 6e 3d 64 e2 4b 3e 00 13 63 3d
       -0.16998029 0.058157563 0.1991058 0.05543804
000340 01 97 82 3e 00 f7 a4 bd 08 8c 71 bd 98 98 94 3d
       0.25505832 -0.08054924 -0.058971435 0.072556674
000350 6a e6 7a 3e 6a cb 56 3e 6c 5b ca 3d 4c 60 78 be
       0.24501958 0.20976034 0.098807186 -0.24255484
000360 a2 9d 73 3e b9 86 81 3e 00 0f 15 3e 3c 62 02 3e
       0.23790601 0.25298098 0.14556503 0.12732786
000370 cc a0 88 3d b4 00 fb bd 80 2d 6a bc f2 95 37 be
       0.066712946 -0.122559935 -0.014293075 -0.17928293
000380 80 aa 32 bc 5e aa 74 3e 32 2d 81 be 4e ba 7f 3e
       -0.010904908 0.23893115 -0.25229794 0.24973413
000390 34 2d 1f be 50 fe 87 3c d9 99 08 be e0 0f 33 3d
       -0.15544587 0.016600758 -0.13339938 0.04371631
0003a0 d0 70 cd 3c ba 67 1a be 8a de 73 3e 54 e7 aa 3d
       0.025078207 -0.15078631 0.2381536 0.083449036
0003b0 64 cc 74 bd 56 02 79 3e 1c 8c c1 bd d8 7e 18 3e
       -0.059765235 0.24317297 -0.09450552 0.14892137
0003c0 ac e3 d3 bd 44 3c 0c be 9a 2e 79 3e 5a 2b 29 3e
       -0.10346159 -0.13694865 0.24334183 0.16520444
0003d0 c3 a2 78 be 52 5b b6 bd 1e 71 23 be b0 c1 13 3d
       -0.24280839 -0.08904137 -0.1596112 0.036073387
0003e0 c0 e8 8d 3c c0 81 56 be 40 26 e3 3d 2e d1 bb bd
       0.017322898 -0.20947933 0.1109128 -0.09170757
0003f0 0c 4d 48 3e 88 d4 04 3d 3e 51 51 3e 99 7d 88 3e
       0.19560641 0.032429248 0.20441148 0.26658323

l1.bias f4 [50]
000000 44 ad bb 3d a4 b7 0e bd 87 52 81 3e 50 f9 e6 3d
       0.09163907 -0.034843102 0.25258276 0.11278021
000010 bc 59 16 bd cc 46 48 be de 62 92 bd 4f 1f 43 be
       -0.03670667 -0.19558257 -0.07147764 -0.19054912
000020 5e 5a 17 be 20 36 d8 3d bc dd db bd f6 5f 26 3e
       -0.14780566 0.105571985 -0.10735652 0.16247544
000030 08 ab 48 be 90 02 12 3e 38 68 36 3d a0 52 74 bc
       -0.19596493 0.1425879 0.044532984 -0.014912277
000040 a0 88 1a 3d 1c 13 76 be 20 60 f3 bc 24 68 5c be
       0.037727952 -0.24030727 -0.029708922 -0.21524101
000050 84 37 7f bd 00 cd be 3b 85 37 83 be 0e 83 2d 3e
       -0.062308803 0.0058227777 -0.25628296 0.16944525
000060 ca aa 1e be 8a 92 4e be 2e 60 ee bd ce 37 63 3e
       -0.15494838 -0.20173088 -0.116394386 0.22189257
000070 d8 79 0d 3d bd 17 5f be a2 88 6d 3e 08 7f 15 3d
       0.034540027 -0.21786399 0.23196653 0.0364981
000080 7f b0 88 3e 14 d2 0d 3e 55 df 04 be 20 73 44 3d
       0.26697156 0.1384967 -0.1297582 0.047961354
000090 7c 5b 0f be c0 be 96 bd b0 fc 46 3d 19 12 26 be
       -0.13999742 -0.073606014 0.048580825 -0.16217841
0000a0 5a 89 fa bd b0 df c5 3d 80 bf 91 3b 5a 08 f6 bd
       -0.12233229 0.09661806 0.0044478774 -0.12013312
0000b0 90 7f 65 be 11 0f 83 be b0 48 3b be 90 50 8a bc
       -0.22411942 -0.25597432 -0.18289447 -0.016884118
0000c0 d6 5f 0c 3e e2 5a 31 3e
       0.13708434 0.17319825

l2.weight f4 [100, 50]
000000 50 3c 87 3c 3c 46 c8 bc 00 ce f6 bb 60 dc 02 3c
       0.016508251 -0.024447553 -0.0075318813 0.007987112
000010 dd a7 d2 bd 40 a3 e4 bb a0 78 b9 bd ae a6 00 be
       -0.10285924 -0.0069774687 -0.090562105 -0.12563583
000020 e2 78 0b bd e0 54 f0 3c c0 66 e8 bb 56 6f c0 3d
       -0.03405083 0.029337347 -0.007092327 0.09396236
000030 5e 31 80 3d d0 7a 2b 3c 20 85 fa bb 18 e5 22 bd
       0.06259416 0.0104662925 -0.0076452643 -0.039769262
000040 d4 19 54 3d 34 05 c9 3d b2 ab df bd ea 19 2c bd
       0.051782444 0.098154455 -0.1092142 -0.0420169
000050 4c 9d 53 3d 5a b9 eb 3d 04 a1 04 be a8 55 83 3c
       0.051663682 0.115099624 -0.12952048 0.016032055
000060 a0 2f c3 3c 84 46 7e 3d f2 e0 9a 3d 50 b1 90 3d
       0.02382642 0.062078968 0.07562436 0.0706507
000070 2c d2 0e 3d 80 1a cf 3d 30 50 f2 3c 54 be 93 bc
       0.034868404 0.10112476 0.029579252 -0.018035091
000080 41 22 05 be 35 7d 07 be 19 31 9a bd 0a 9e de 3d
       -0.13001348 -0.13231356 -0.07528896 0.10869987
000090 78 1a 01 3d 84 63 19 3d 28 03 8a bc 2e f9 c0 3d
       0.031519383 0.03744842 -0.016847208 0.09422527
0000a0 be 96 e3 3d b8 92 ab 3c 71 75 d8 bd 6a 07 36 bd
       0.11112736 0.020943984 -0.10569275 -0.044440664
0000b0 f0 a8 f4 bc c6 02 b2 3d 48 bf 13 bd 72 59 8e 3d
       -0.029865712 0.08691935 -0.036071092 0.06950654
0000c0 c6 62 08 be 60 41 d3 3d f6 7b bb bd 70 cf 76 bc
       -0.13318929 0.10315204 -0.09154503 -0.015064105
0000d0 f0 46 ed 3c 34 e5 56 3d 96 d6 e6 3d 40 1c 2c 3c
       0.02896449 0.05246468 0.11271398 0.010504782
0000e0 dd 55 c0 bd 00 ba 60 3a 34 65 37 3d 38 bd 46 3d
       -0.09391377 0.0008572638 0.04477425 0.048520297
0000f0 28 31 bb bc af 1d 88 bd 86 ed cf 3d d4 ab 2a 3d
       -0.022850588 -0.06646287 0.10152726 0.041667774
000100 cc c3 21 3d 0f c8 e2 bd 0c 6a 39 bd e1 72 02 3e
       0.039493367 -0.110733144 -0.04526715 0.12739135
000110 14 b3 c3 bc 80 80 ae bc 9a cd 78 bd 92 59 23 bd
       -0.023889102 -0.021301508 -0.060742952 -0.039880343
000120 18 b0 ae bd c8 d8 f1 bc 2e c8 93 3d 00 dd 02 be
       -0.08529681 -0.029522315 0.072159156 -0.12779617
000130 b4 38 50 3d c0 8f 0a bb 64 8c fa bc 26 14 a6 3d
       0.050835326 -0.002114281 -0.030584522 0.08109312
000140 b1 01 ca bd db db 0e be 6c 02 e8 bc 86 96 e9 3d
       -0.09863604 -0.13951056 -0.028321467 0.11405663
000150 c4 09 a3 bd d3 c3 05 3e ea d7 e1 3d f4 88 90 bc
       -0.07960847 0.13062982 0.110275105 -0.01764343
000160 92 a3 8b 3d 2c e5 ac bd 84 33 07 3d 08 11 2a 3d
       0.06818308 -0.084421486 0.033008114 0.04152015
000170 f4 60 96 3d fc f4 98 3d 73 67 b8 bd 80 89 3d 3b
       0.07342711 0.07468602 -0.090041064 0.0028921068
000180 6b 01 f4 bd 07 58 04 3e d8 4c c4 bc fd 81 e8 bd
       -0.11914333 0.12924205 -0.023962423 -0.11352918
000190 8d 75 0e be 10 e9 bb bd 84 ec 0d be 8c 5f a1 bc
       -0.1391203 -0.091753125 -0.13859755 -0.01969888
0001a0 80 b6 2c 3d a6 0e 1e bd 30 67 ca bd a4 2e 9f bc
       0.042166233 -0.03858819 -0.09882963 -0.01943142
0001b0 e0 ae 72 3d 22 48 fc bd 36 47 66 bd 72 fc f2 3d
       0.059248805 -0.12318446 -0.056220256 0.11864556
0001c0 cf 67 07 be b4 d1 ee bd 1b f0 05 be f6 e8 8b 3d
       -0.13223194 -0.116610914 -0.13079874 0.06831543
0001d0 b8 7f ee 3c 11 ab 06 be a0 ac a9 bd 86 8d a4 bd
       0.029113635 -0.13151194 -0.08284879 -0.08034806
0001e0 4e 5a f6 3d 9e 79 a8 bd 1a 63 07 be 80 e0 91 3d
       0.12028943 -0.08226322 -0.13221398 0.07122898
0001f0 18 68 cb 3d 4c 0b 4f 3d e2 02 de 3d b0 91 8d 3d
       0.09931964 0.050547883 0.108403936 0.06912553
000200 1c d0 d4 bc 34 5c b9 3d 90 94 28 bc c0 02 fc 3c
       -0.02597814 0.090507895 -0.010289326 0.03076303
000210 80 87 de 3a 96 a9 40 bd c5 8a 8f bd 98 e6 8e bd
       0.0016977638 -0.04703673 -0.0700889 -0.06977576
000220 31 db 02 be ba fe eb bd c8 e3 75 bd aa d0 bf bd
       -0.12778927 -0.115231946 -0.060031682 -0.093659714
000230 84 3f 75 bd e0 2d dd 3d f0 b9 82 3d 52 1d 19 bd
       -0.059875026 0.107997656 0.06383121 -0.037381478
000240 80 51 20 3d f0 ae 6e 3d e4 8f f4 bd e8 30 a3 3c
       0.039140224 0.058272302 -0.119415075 0.019920781
000250 3d 95 a0 bd d8 cd a8 bc d0 35 07 3c 19 61 06 3e
       -0.07840965 -0.020605966 0.008252576 0.13122977
000260 d8 3a 7b 3d 48 5d 2b bd 56 a4 d3 bd 00 53 62 3b
       0.061335415 -0.041837007 -0.10334079 0.0034534335
000270 3a 64 c8 bd 6e a9 a8 3d e8 c2 8e 3c 72 76 ee 3d
       -0.09784742 0.08235441 0.017426923 0.116436854
000280 16 23 fc 3d 56 e5 a0 3d 76 f7 f7 3d 25 bc 96 bd
       0.123113796 0.07856242 0.12107746 -0.073601045
000290 86 3a f5 bd 70 91 78 3c 74 1d dc bc d2 73 e7 bd
       -0.11974053 0.015171394 -0.026869513 -0.11301388
0002a0 1b 5e 0a 3e 80 dd f5 3a a6 bd d6 3d 34 b8 58 3d
       0.13512461 0.0018758029 0.10485391 0.052910045
0002b0 06 43 15 bd 69 7f 8f bd 0a ff 52 bd 4c ed d0 3d
       -0.03644087 -0.070067234 -0.051512755 0.10201511
0002c0 00 86 b4 bb 36 1b c4 bd be 44 de bd 88 6a 24 bd
       -0.005509138 -0.095755026 -0.10852955 -0.04014066
0002d0 61 0a 88 bd 4a 20 9b 3d 98 fc 9a 3d a0 e5 7b bc
       -0.066426046 0.07574518 0.0756771 -0.015374571
0002e0 78 01 67 3d 02 24 69 bd 71 cb 05 3e b6 e1 f1 3d
       0.056397885 -0.056919105 0.13065888 0.11810629
0002f0 3e dd 06 be 00 5e 34 3c 00 54 16 3a 24 50 9a bd
       -0.13170335 0.0110087395 0.0005734563 -0.07534817
000300 dc 1b a6 bd 08 18 0d 3d d0 d2 a5 3c 3a fe a1 bd
       -0.081107825 0.034446746 0.020242125 -0.07909818
000310 40 14 ed bc 46 02 f0 3d e0 b8 79 bc 72 24 bd bd
       -0.02894032 0.117191836 -0.015241832 -0.09235467
000320 5e 94 ba 3d ac db c9 3d 34 cb c4 bc 1f f5 a0 bd
       0.0911033 0.09856352 -0.024022676 -0.07859253
000330 e4 91 7b 3d 06 46 ec bd c4 90 8a bd 70 fc 08 bc
       0.06141843 -0.115367934 -0.06765893 -0.008360967
000340 f4 79 76 3d 1a 32 e2 bd da 19 8b 3d c9 87 05 3e
       0.060174897 -0.11044712 0.0679204 0.13040079
000350 36 1f a3 3d 84 a3 8e bd 92 74 08 be f4 1b db bd
       0.079649374 -0.06964782 -0.13325718 -0.10698691
000360 e2 63 db bd b1 5a 0a 3e 9a b1 d6 bd f8 4d d4 bc
       -0.107124105 0.13511159 -0.104830936 -0.025916085
000370 bd 9a a7 bd b7 5b 0f be 10 f4 b3 bd c8 bc 2a bd
       -0.08183811 -0.1399983 -0.087867856 -0.041683942
000380 ff ca 0f 3e 60 c3 92 bb 96 f2 e0 bd a0 53 bb 3c
       0.1404228 -0.004478857 -0.109837696 0.022867024
000390 92 e3 dd bd e0 8e a6 3b d0 2f 73 3c 34 52 0b bd
       -0.10834421 0.00508295 0.014842942 -0.034013942
0003a0 5a e2 e4 bd 55 54 03 3e 62 b0 9f 3d 4e 0c 2e bd
       -0.11175986 0.12825139 0.07797314 -0.042492203
0003b0 80 cd c8 bc 48 71 90 3c d8 6b 85 3d 84 3b 7b 3d
       -0.024512053 0.017632142 0.0651471 0.061336055
0003c0 40 18 93 3d 98 21 a8 bc f4 0e 6c bd 3d 04 04 3e
       0.0718236 -0.020523831 -0.057631448 0.12892242
0003d0 00 6c 21 ba d0 64 90 3d 38 48 05 be a0 30 a6 3d
       -0.0006157756 0.070504785 -0.1301583 0.08114743
0003e0 6b 71 a5 bd b6 46 f1 3d a8 bb 9d bc c2 fb 88 3d
       -0.080782734 0.11781065 -0.01925452 0.06688644
0003f0 5a 00 d0 bd 00 cc 8b bd f7 e8 05 3e 20 82 e5 3b
       -0.10156317 -0.06826019 0.1307715 0.0070040375

l2.bias f4 [100]
000000 70 cb 58 3d 4a 2a a8 3d 50 3a 0c bd fa ee b5 3d
       0.052928388 0.08211191 -0.0342353 0.08883472
000010 48 91 8e 3d 50 73 d4 3d da 75 43 bd 78 18 3e bd
       0.06961304 0.103735566 -0.047719814 -0.046410054
000020 da 56 0a be a0 c9 22 bd a8 be 26 3d ec 14 7d 3d
       -0.13509694 -0.039743066 0.040709168 0.06178753
000030 f8 fa 23 3d 9a 24 99 bd 5e 09 fb bd 48 34 c1 3c
       0.040034264 -0.07477684 -0.12257646 0.0235845
000040 8d 13 a1 bd f5 67 95 bd 40 68 ab 3b 96 d6 f5 bd
       -0.07865057 -0.07295219 0.0052309334 -0.1200382
000050 40 35 40 3d 24 1b 3c bd 80 b5 b8 3c 0c 49 c9 bd
       0.046925783 -0.04592432 0.022547483 -0.09828386
000060 e0 1f 94 bc 04 57 0d 3d 4c cf a3 bd 5e 1d 84 3d
       -0.018081605 0.034506813 -0.07998523 0.06450914
000070 6e 3a 0e bd 08 e6 3b 3d ca b1 08 be e0 37 d4 bd
       -0.03472369 0.04587367 -0.13349071 -0.1036222
000080 08 47 ff bc 78 05 62 bd a6 9f e9 3d 84 3a 0f 3d
       -0.0311618 -0.055180997 0.11407404 0.034967914
000090 10 c4 77 bd 08 92 d4 3c 86 0c 64 bd c0 78 eb 3b
       -0.060489714 0.02594854 -0.055676006 0.0071860254
0000a0 a1 9e 03 3e 0e fe 31 bd 8c af 88 3d e6 e7 dc 3d
       0.12853481 -0.043455176 0.06674108 0.107864186
0000b0 46 d2 e7 bd 7e 20 ea 3d 3a ac 9c 3d 1e a0 e6 3d
       -0.11319403 0.11431979 0.07650037 0.11261009
0000c0 18 ef a0 bd d8 be 09 3d 40 d5 70 3b 3e 3c 65 bd
       -0.078581035 0.03362927 0.00367482 -0.055965655
0000d0 1f e3 0d 3e 46 58 f1 3d fc 13 a5 bc fc eb 43 bd
       0.13856171 0.11784415 -0.02015113 -0.047832474
0000e0 45 fe 9e bd c0 6d 1b 3c ae 74 b2 3d 2b d8 c7 bd
       -0.07763342 0.009486616 0.08713661 -0.09758028
0000f0 69 1a 09 3e 20 e1 6a bc 52 d7 89 3d 8c 30 be bc
       0.13388981 -0.014335901 0.06730522 -0.023216508
000100 20 48 b1 bb 42 86 e9 bd 10 52 21 bc 42 52 a2 3d
       -0.0054102093 -0.11402561 -0.009846225 0.07925846
000110 60 76 85 3c cc 0b a9 3d 80 e3 05 bb 8a 74 e7 3d
       0.016291797 0.08254203 -0.002042979 0.11301525
000120 22 1d 14 bd aa dc 09 be 15 6d 02 3e 80 16 de 3d
       -0.036160596 -0.13463083 0.12736924 0.10844135
000130 0d 16 0b be b4 23 c8 3d 61 48 04 3e fc ce db 3d
       -0.1358263 0.09772435 0.12918235 0.107328385
000140 e5 53 0f be 38 32 88 bd 2e 46 05 be e2 c1 e1 bd
       -0.13996847 -0.066502035 -0.13015053 -0.11023308
000150 20 23 1c bd 00 37 27 ba 42 06 fe 3d ca c9 f1 3d
       -0.038119435 -0.000637874 0.12403537 0.11806066
000160 ce 59 c2 3d 40 0b c8 bb 60 32 0d 3c f9 52 ea bd
       0.09489785 -0.0061048567 0.008617967 -0.11441607
000170 9c 7d 15 bd ba a5 77 bd ce 16 d1 3d 00 2b a6 bb
       -0.036496744 -0.060460784 0.10209428 -0.005071044
000180 a8 05 ab bd 2a 78 d0 bd 03 3f 0f 3e d8 b9 85 3c
       -0.08350688 -0.101791695 0.13988881 0.016323969

l3.weight f4 [20, 100]
000000 32 5e 0a 3d f7 42 b3 3d 32 11 02 3d 76 e1 11 bd
       0.033781238 0.08753007 0.03175468 -0.035615407
000010 78 d3 b1 3c 40 00 be bd 3a ca aa bd e6 16 0f bd
       0.021707281 -0.092773914 -0.08339353 -0.034933947
000020 22 a9 2f 3d 17 74 bd bd 0d 4d 43 bd fd be aa 3d
       0.042885907 -0.09250658 -0.047680903 0.083372094
000030 92 31 96 bd da 0b a1 bd 98 5d 7e bc ec 79 87 bd
       -0.073336735 -0.07863589 -0.015525244 -0.066150516
000040 a0 90 09 bd 1d 46 1a bd 30 dc 96 3b 60 f0 8b bd
       -0.03358519 -0.03766452 0.004603885 -0.06832957
000050 33 f9 93 3d 6b 43 ca 3d 00 34 c6 b8 50 12 c8 bd
       0.07225265 0.0987614 -9.4510615e-05 -0.09769118
000060 ca e4 87 bd 34 a5 80 bd e8 14 e7 bc b5 cb b5 3d
       -0.06635435 -0.0628151 -0.028208211 0.08876745
000070 c3 82 3f bd 12 8e 39 3d 3a 1e a8 bd 30 52 4c bd
       -0.046755563 0.045301504 -0.0820889 -0.049883068
000080 76 39 21 3d 84 98 ce 3c 69 11 91 3d 1a 1b ae bd
       0.03936144 0.02521921 0.07083399 -0.08501263
000090 7e 4b 8a bd 60 83 4d bd 17 c1 84 3d e0 b4 f0 bc
       -0.0675268 -0.050174117 0.064821415 -0.029383123
0000a0 ca 09 3d bd 68 57 bb bd 60 f6 6f 3b 64 0a dc 3c
       -0.046151914 -0.09147531 0.0036615357 0.026860423
0000b0 d3 5f 82 3d e8 aa 07 bc 8f e3 92 3d ea 1e 4d bd
       0.06365933 -0.008280493 0.071723096 -0.05007831
0000c0 71 ab 83 3d 25 c2 81 bd 7a 69 6c 3d 48 96 8a bd
       0.06429184 -0.06335858 0.057717778 -0.06766945
0000d0 08 b0 99 bc e6 19 03 3d 80 56 e3 3b 4c c1 fd 3c
       -0.018760696 0.03200712 0.006937802 0.03097596
0000e0 bc 02 d4 3c 12 07 9d bd d1 9d 80 3d 98 15 7d bc
       0.02588021 -0.07667364 0.06280101 -0.015447043
0000f0 cf e2 b7 bd 0e 55 81 bd 8a 2e 77 bd d0 cc 92 3b
       -0.08978807 -0.06315051 -0.060347117 0.004479982
000100 fa a0 c3 bd 93 02 5d bd 03 d6 79 bd cd 1b 1f bd
       -0.09552188 -0.053957533 -0.060995113 -0.038844872
000110 3a 1a 45 bd 4a 5e 2c bd f2 57 4b 3d e5 fc 98 bd
       -0.048120715 -0.04208211 0.049644418 -0.07470111
000120 d1 93 b9 3d 00 98 92 b9 1a ce 7a 3d 67 5f 1c bd
       0.09061397 -0.0002796054 0.06123171 -0.03817692
000130 6c 7c 14 bd 45 10 be 3d 3e b8 07 3d 6c 8f f4 bc
       -0.03625147 0.09280447 0.03313469 -0.029853545
000140 71 7b cb 3d 42 10 13 3d 3e 2d 59 3d 2f 9b 9a 3d
       0.09935654 0.035904177 0.053021662 0.0754913
000150 8e 33 47 3d 63 cb b2 3d fe 7a 59 3d 70 ad 61 bc
       0.04863315 0.08730199 0.05309581 -0.013774261
000160 7d 49 a5 3d 9f cb b9 bd c1 c0 a7 3d 33 c1 4f bd
       0.080706574 -0.09072041 0.08191062 -0.05072136
000170 60 ab 79 bb e6 90 1c 3d 38 92 9d 3c 09 8f 9a 3d
       -0.0038096532 0.038224123 0.019234762 0.07546813
000180 0c 3c a3 bc 5d 30 59 bd 6e d8 27 3d cc af dc bc
       -0.019926094 -0.05302464 0.040977888 -0.026939295
000190 8e 7a 9f bd d0 bc be bd 60 94 8b bd 96 2c 0a 3d
       -0.07787047 -0.09313357 -0.0681541 0.033733927
0001a0 5a b6 32 bd e3 65 46 bd 80 46 8f bd a2 59 a0 bd
       -0.043630935 -0.04843701 -0.06995869 -0.07829596
0001b0 06 1d 7e 3d 0c 2e a5 3c de 94 0d 3d f3 4d 30 bd
       0.062039398 0.020163558 0.0345658 -0.04304309
0001c0 a9 59 89 3d fa 61 bc bd ca 1c 18 bd aa 1e 6e 3d
       0.067065544 -0.09198375 -0.03713683 0.058134712
0001d0 5d dc ca bd 13 f9 28 bd 53 3f c2 bd 92 ef a7 bd
       -0.09905312 -0.04125316 -0.094847344 -0.08199991
0001e0 4d 3d ca bd 78 ff 86 bc 1e 27 87 bd 49 76 87 3d
       -0.098749734 -0.016479239 -0.06599258 0.06614358
0001f0 91 da a5 3d f9 65 cc 3d b8 7c c5 bd 8a 4c 28 3d
       0.08098329 0.09980387 -0.09642929 0.04108862
000200 91 f8 c0 3d 15 57 c9 bd 37 47 c7 bd 73 80 38 bd
       0.0942241 -0.09831063 -0.0973038 -0.045044374
000210 88 ab bd 3c d4 cc ec bc 6d 6c 31 bd 85 e5 9b 3d
       0.023153082 -0.028906263 -0.043316294 0.07612137
000220 5d ca 29 bd 78 24 a7 3c 00 bf 9b bc 4a ae 7f bd
       -0.041452754 0.020403132 -0.019011974 -0.062422074
000230 ee 9a 74 3d 00 29 a1 bc 26 6c 27 3d de 2f 63 3d
       0.059718065 -0.01967287 0.040874623 0.05546557
000240 d9 62 bf 3d 26 bd 80 bd 03 92 ba bd 60 a6 9f bb
       0.093450256 -0.06286077 -0.09109881 -0.0048721284
000250 10 4f 48 bd 30 b7 7d bc 31 94 c7 3d 4a 95 07 bd
       -0.048903525 -0.01548557 0.09745062 -0.033101358
000260 22 b9 71 3d 69 2c 82 3d 62 17 7a 3d bd 8c 51 bd
       0.059014447 0.06356127 0.061057456 -0.05115961
000270 e0 94 82 3c 80 cf a8 ba fd 4c 99 3d 2e 8e 90 bd
       0.01594013 -0.0012879223 0.074853875 -0.070583686
000280 90 9b c1 bd 97 ff 37 bd 92 9f 0c 3d 03 49 4f bd
       -0.09453499 -0.044921484 0.034331866 -0.05060674
000290 d7 f0 bc 3d 0a b3 60 3d c7 6a 91 3d 2a b3 a5 bd
       0.09225624 0.054858245 0.07100444 -0.080908135
0002a0 40 ad 02 bc a0 1a 8c bb c2 98 54 3d 0c 37 e4 3c
       -0.007975876 -0.004275635 0.051903494 0.02785828
0002b0 42 28 10 3d e5 04 a7 3d e1 38 a0 3d 0d 67 48 bd
       0.035194643 0.081552304 0.07823349 -0.048926402
0002c0 fd 59 87 bd a2 b7 0b 3d ac 77 80 3c f0 53 7a bd
       -0.06608961 0.034110673 0.015682064 -0.061115205
0002d0 17 15 c2 3d 6f 15 a5 3d 32 11 66 3d 99 b6 c3 3d
       0.09476679 0.08060729 0.056168742 0.09556312
0002e0 82 6d 28 3d 50 28 85 bb 9a e3 49 bd 59 8a 94 3d
       0.04112006 -0.0040636435 -0.049289323 0.0725295
0002f0 0c 42 eb 3c d4 ee eb 3c b5 7c a2 bd 89 4d b5 3d
       0.028718017 0.028800406 -0.07933942 0.08852679
000300 54 47 88 3c 53 31 b5 bd 94 de ea bc c2 39 bd bd
       0.016635574 -0.088472985 -0.028670587 -0.09239532
000310 70 96 50 bd 98 86 5d 3c 1e f0 10 3d 18 21 9b 3c
       -0.05092472 0.013520859 0.035385244 0.018936679
000320 81 6f cc 3d 88 d8 82 bc a8 21 35 bc 80 f2 1b 3c
       0.09982205 -0.01597239 -0.011055388 0.009518266
000330 19 9e 80 3d 5e 9d 28 3d 90 d7 64 bd c3 90 ab bd
       0.06280155 0.041165702 -0.05586964 -0.083772205
000340 d8 87 e1 bc 3e 29 47 3d c2 75 5b 3d 73 58 33 bd
       -0.027530596 0.048623316 0.0535791 -0.043785524
000350 40 58 20 bb 4d d1 2b bd 56 52 13 3d 4c eb 83 bd
       -0.0024466664 -0.04194765 0.035967194 -0.06441364
000360 47 3c 9d 3d cd 70 7f bd d0 90 64 3c 27 b2 7d bd
       0.076775126 -0.062363435 0.013950542 -0.061937477
000370 18 70 d6 bc 77 52 5a bd da 89 3a 3d ee 62 36 3d
       -0.026176497 -0.0533013 0.04554162 0.04452794
000380 76 f4 11 3d cd 73 44 bd f0 85 0c bc b8 2e c3 bc
       0.035633527 -0.047962 -0.008576855 -0.023825988
000390 d1 49 8b 3d e1 73 88 3d 06 93 12 3d 2f 61 85 3d
       0.06801189 0.06662727 0.035784744 0.06512677
0003a0 ab 16 9c bd 80 75 3b 3c 10 74 9b bd 94 96 e6 bc
       -0.07621511 0.011441588 -0.075904965 -0.028147973
0003b0 72 52 18 3d 78 d7 fd bc 23 d3 41 bd cb b3 9b 3d
       0.037188 -0.030986533 -0.047320496 0.07602652
0003c0 c0 29 82 bd 7d ba 2d bd 89 02 93 3d b3 cc 7a bd
       -0.063556194 -0.042414177 0.07178218 -0.061230373
0003d0 8f 39 b8 3d 67 1b 7c bd 0e dd 07 3d bd dc 3b bd
       0.089953534 -0.06154957 0.0331698 -0.04586481
0003e0 c5 b9 8a 3d 0f 4d b2 bd b8 af 9c bd 22 34 ad bd
       0.06773714 -0.08706104 -0.07650703 -0.08457209
0003f0 e6 f6 86 bd 96 7d a0 bd b0 5f bf bd 30 e8 8b bd
       -0.06590061 -0.078364536 -0.09344423 -0.068313956

l3.bias f4 [20]
000000 e8 93 c0 bd 00 2f 0b 3b 54 ca d3 bc 90 fd 72 bd
       -0.09403211 0.002123773 -0.025853314 -0.059323847
000010 51 04 91 3d d0 86 b8 bd 63 55 25 bd 9a d7 58 bd
       0.070809014 -0.090100884 -0.040364634 -0.05293999
000020 e2 f0 02 3d 2d 95 ba bd 6c 25 b4 3c ca fe 74 bd
       0.031968005 -0.09110484 0.0219905 -0.0598133
000030 f1 38 bc 3d 78 20 f6 bc 19 cc 8b 3d 1f c6 a0 3d
       0.09190548 -0.03004478 0.06826038 0.078502886
000040 c0 6c 4e 3b 68 ee a1 bd 48 19 cc bc ad 7c 61 bd
       0.0031497926 -0.079068005 -0.024914399 -0.05505054

output.weight f4 [8, 20]
000000 74 01 80 3d 22 63 c2 bd 68 b4 2b 3e 50 dd d8 3d
       0.06250277 -0.09491564 0.16768038 0.10589087
000010 3d a1 49 be e2 7e 30 3e 0c 73 ed 3d e0 ae 00 bc
       -0.19690414 0.17235902 0.11594209 -0.007854193
000020 80 55 e5 3c b4 91 7d bd 94 dd b6 3d b1 79 06 be
       0.027994871 -0.06190653 0.089289814 -0.13132359
000030 d0 69 8c 3d 9c 1b 06 3e b4 8b 1b 3e 40 e8 c7 bb
       0.0685612 0.1309647 0.15190011 -0.0061006844
000040 c0 22 ca bc da 9c ca bd f8 2f d8 3d fa ee 12 be
       -0.024674773 -0.09893198 0.10556024 -0.14348975
000050 4a 02 5b 3e 7c 05 2b bd 6c 4f 49 be 98 db 33 3d
       0.21387592 -0.041753277 -0.19659203 0.043910593
000060 c8 74 1c bd 10 84 de bc 82 16 8c bd c4 1d 8a 3d
       -0.03819731 -0.027162582 -0.068402305 0.067439586
000070 d0 29 d2 3c 58 e6 56 be 88 64 22 bd fc 0a 36 bd
       0.025654703 -0.20986307 -0.039646655 -0.04444407
000080 f8 70 56 3e 82 87 14 3e 00 2d 29 3d b4 54 2b be
       0.20941532 0.14504817 0.04130268 -0.1673153
000090 80 a7 63 bd 2c 3a 2f 3e ca 65 42 be fc c3 af 3d
       -0.055579662 0.17112035 -0.18984142 0.08582303
0000a0 fa 31 05 3e 58 7c 7f 3d 68 02 33 3e e0 7f 7f 3c
       0.13007346 0.062374443 0.17481387 0.015594453
0000b0 30 27 85 bc c4 a4 f0 3d 10 b4 fe 3c 98 79 cb bc
       -0.016254038 0.117501765 0.03109172 -0.024838254
0000c0 78 0c d2 3d 6e db 99 bd 61 5f f3 bd 8e 2c 12 be
       0.102562845 -0.07512556 -0.118834265 -0.14274809
0000d0 c4 cf ad 3d a6 fd 60 3e f4 59 de 3d 10 8d 28 3e
       0.08486894 0.21971759 0.10857001 0.16460061
0000e0 e0 5f 63 be 00 42 45 3c 58 2d 51 3e 7a 20 1c be
       -0.22204542 0.012039661 0.20427454 -0.15246764
0000f0 e9 3f 28 be 18 d7 ac bc 58 d9 bf bd c0 7a d3 3b
       -0.1643063 -0.021098658 -0.09367627 0.006453842
000100 00 04 3b 3c 10 7f 9f 3c 76 0b 61 be a0 4d 11 3d
       0.011414528 0.019469768 -0.21977028 0.03547442
000110 f8 b4 06 3d c4 94 dd bd 68 ae 37 3e 4c 3e 1f 3e
       0.03288743 -0.108193904 0.17937624 0.15551108
000120 a6 67 24 3e 28 a4 43 3d d2 07 39 be 3b ec 04 be
       0.16055164 0.047763973 -0.1806939 -0.1298074
000130 f4 c6 ea 3d fe f4 00 be 30 0c bc 3d 36 47 01 3e
       0.114637285 -0.12593457 0.09182012 0.12624821
000140 a7 01 32 be 84 e5 bf bd 68 ee 53 3e 88 30 aa 3d
       -0.17383443 -0.093699485 0.20696414 0.08310038
000150 34 bc d9 3d ca 00 58 3e 7c 9b 25 bd fd 50 e5 bd
       0.106316 0.21094051 -0.040431485 -0.11197088
000160 5a ac 1b 3e 14 cb 3b be dc 3b 31 be b4 78 f7 3d
       0.15202466 -0.18339187 -0.17307991 0.12083569
000170 9c 6d b5 3d 9b 48 2a be 74 bc 8a 3d b4 15 3b bd
       0.08858797 -0.1662926 0.06774226 -0.045674995
000180 50 62 b4 3c 92 85 02 be 14 c0 f2 3d 30 f9 dd 3c
       0.022019535 -0.12746266 0.11853042 0.02709636
000190 b2 f4 dd bd 0c 57 87 3d aa 00 3c 3e e0 b0 96 bc
       -0.108376876 0.066084 0.18359628 -0.018394887
0001a0 f8 1f ae 3d da d1 3b 3e 54 31 7f bd 42 ce 63 be
       0.08502191 0.18341771 -0.062302902 -0.2224665
0001b0 62 bf 3d be be d3 23 be 60 b6 8f 3c 48 89 6b bd
       -0.18530038 -0.15998742 0.017543018 -0.05750397
0001c0 8a b6 ba bd c6 b2 2c be 8c 81 be 3d 70 00 0a 3e
       -0.09116848 -0.16865072 0.09302053 0.1347673
0001d0 4e 61 37 be d6 58 c3 bd d0 0d 6c bd 42 dd 83 bd
       -0.17908213 -0.095384285 -0.05763036 -0.06438686
0001e0 88 52 67 3d 62 f6 0c be a8 a3 51 3d 24 bc 92 bd
       0.056475192 -0.13765863 0.051181465 -0.07164791
0001f0 68 3f 7e bd 7e ed 94 bd c0 d9 61 be d8 fb d6 bc
       -0.062072188 -0.072718605 -0.22055721 -0.026243135
000200 44 9e 2a 3e 84 79 3c be c8 a4 31 3d 74 88 70 bd
       0.16661936 -0.1840573 0.04337004 -0.05872388
000210 a8 0a b0 3d b0 b7 7a 3d f4 25 62 3e 52 27 80 bd
       0.085957825 0.061210334 0.2208479 -0.062575
000220 68 b0 4e be 80 7a 86 3c 60 35 87 bc 6c 54 bc bd
       -0.20184481 0.016415834 -0.016504943 -0.0919579
000230 c8 a4 51 be 8d 97 ed bd be 2e e9 bd 00 64 17 be
       -0.20473015 -0.11601172 -0.113858685 -0.1478424
000240 58 f5 aa 3d 5d 73 41 be 50 98 a3 3d 8a 1e 49 3e
       0.08347577 -0.18891664 0.07988036 0.19640556
000250 8e 57 58 3e 30 c3 ef 3d 0c 7b 2e 3e 34 de a5 bd
       0.2112715 0.11707151 0.17039126 -0.080990225
000260 9e a9 29 3e 73 1b fc bd e0 e6 c7 bc c8 1d bf bc
       0.1656861 -0.12309923 -0.024402082 -0.02332963
000270 cc d8 0b bd 50 b3 79 bd 34 3a 62 be 3a 70 4f 3e
       -0.0341423 -0.06096202 -0.22092515 0.20257655

output.bias f4 [8]
000000 64 15 fc 3d 28 d3 6f bd 18 46 79 3d ee bf 03 3e
       0.123087674 -0.058550984 0.060857862 0.12866184
000010 d8 9d 47 3d 94 b8 27 be d8 0c 1f 3e 51 63 e9 bd
       0.048734516 -0.16379005 0.15532243 -0.11395896
