Simple_ANN_experience/saved_model/simpleANNlr=0.005bs=512My_Mass_Balance_loss.pt (torch, 34575 bytes, 8 tensors)

l1.weight f4 [50, 14]
00000000: 8c87 88be 3f2e 67be e4b6 bbbd 4ef7 26be
00000010: b0d4 c13d e0ac 0fbe ba1b 183e 00a4 083b
00000020: 32d2 adbd 84db 2dbe eeda 253e 2063 4ebe
00000030: 6a8a f7bd c039 2c3e db81 67be 60f3 e83d
00000040: b8c2 6b3e d44d 653e a6e9 8bbd 3b64 29be
00000050: 5cd9 79bd d240 2abe 1881 da3d 0095 3cbb
00000060: d88f 0e3e 709a bb3d 4f48 40be b8e2 533d
00000070: 7a41 78be 06bd 5dbe 6014 a73d 8d0b 3ebe
00000080: 007e 11bc 18f1 cd3d 7ea6 83bd d813 473e
00000090: 00b0 81b9 a445 19be 2099 513c 54cd 5a3e
000000a0: 5889 46bd 7848 35be 5442 c93d 6012 433d
000000b0: e8e0 e73d 7946 12be 8adb 673e 4b57 813e
000000c0: 58fa c7bd 030a 0cbe 3014 c53d b82c bd3d
000000d0: 84bd f8bd 6974 59be 00e2 89bc 58db 243d
000000e0: d009 b23d 5ca6 1c3e 80a5 443b 961b 83bd
000000f0: 48bd df3d 3499 893d bc08 8b3d f0ae 243e
00000100: 9679 60be 007b 8cbb c8b8 0bbd 0aca 37be
00000110: 743d 53be b0fe 133d 90cd 633e 32c8 bcbd
00000120: 02e0 1fbe 00c0 0cbe 0200 163e a3c4 833e
00000130: f8a0 e53d 06cb bcbd 7c43 be3d 18a3 893d
00000140: cc26 84be 8d52 873e 6051 943c 3995 83be
00000150: dac7 583e 7f15 803e 8642 6a3e 9a6d 6abe
00000160: 31b8 7bbe b425 88be 636b 52be d0d5 0ebe
00000170: 8807 373d 3a68 3a3e b082 ccbc c0f3 0e3d
00000180: 2c9e 5f3e e03d 5fbd be07 46be d817 63be
00000190: 5073 003d 00d6 083d c8ac 093d c04d 383c
000001a0: fed3 6d3e c97d 37be 3888 313e 2b4d 843e
000001b0: 8009 58bb d0ac 913c 40c4 aabb 217e 00be
000001c0: 7a01 1e3e 704e ae3d 5100 4fbe 39cf 80be
000001d0: fca7 243e 4eeb 493e 2813 43be 324f 043e
000001e0: e840 3c3d 0013 993d 0865 61be fe07 4d3e
000001f0: 6278 7f3e e847 653d f455 6d3e fd13 76be
00000200: 6099 0a3e a6db 733e 70b7 2d3e 50fd 403e
00000210: b859 e73d 74a5 583e 0858 ef3d 50fa 52be
00000220: 5050 353d 40aa 4abd 8096 17be ac71 a4bd
00000230: 0085 96bb 8aa9 d6bd 0891 f03d 867e 10be
00000240: 58c5 be3d 8cb1 dabd bc94 ca3d e8e9 d2bc
00000250: c802 1abe 90c2 ddbc 7415 ca3d 82f3 123e
00000260: c0fc 7bbc f0d3 37be 0502 11be 0718 3bbe
00000270: e0a2 07bd 9ae6 6e3e 50df 15be 7033 4d3e
00000280: 49fe 1cbe af67 16be 8c9e 47bd 1cbe 3a3e
00000290: 6e2c 653e 482c 3dbe 0972 0bbe 7457 d5bd
000002a0: 48e8 d83d 80d5 92bb 6af1 6f3e c23a 4e3e
000002b0: 7828 58bd a090 873d 808f 21bb f0f5 ec3c
000002c0: 6085 ca3c 3506 873e f44e 0d3e ee25 1cbe
000002d0: 48ef f03d c79e 6fbe f04c 52bd 6eb9 0fbe
000002e0: 802d 6e3d c4f6 873d caf5 4fbe fef4 1abe
000002f0: b6a7 613e e8d6 5abe a8ec cebc b448 533e
00000300: bdb0 10be 7c19 47be 0a14 723e b8e4 9a3d
00000310: bf80 36be 4c0f 48bd 9a0b 8bbd bc85 1abe
00000320: 0038 563c a0fe 09bd 2400 463e 08c4 953d
00000330: d6cf 6fbe 603d 89bc 0bae 14be 68be 043d
00000340: 20ad 273d d8e0 0fbd 036b 58be 8858 7fbe
00000350: e0a2 2fbc 2fc3 883e 80e1 12bc d183 6fbe
00000360: 529a 733e bc9c c13d 52de 44be 685e 51bd
00000370: 8f33 02be 5c94 2f3e a315 873e 9ef5 a6bd
00000380: e8c7 433d 8c17 2ebe 8c93 0e3e 209e 0ebe
00000390: 9b18 7fbe 006e caba 385a 93bd 1a52 53be
000003a0: ca8a 393e 7332 0dbe cf34 0cbe 1010 4fbd
000003b0: 2074 333d 44f1 00bd 8cb0 2cbd 3078 c3bc
000003c0: e08f 123d 34c3 543e 767e 793e 1c67 953d
000003d0: 648c 48be 2cc4 ba3d 707d 963c f24a 80be
000003e0: 90b8 2e3d 9f2b 863e a2ae 4e3e c0b5 153d
000003f0: a444 593e b22c 80bd 8c07 72be 089b be3d
-0.26665914 -0.22576235 -0.09165743 -0.16305277 0.09464395 -0.1403079 0.14854327 0.0020849705
-0.08487357 -0.1697827 0.16196796 -0.20155 -0.12086947 0.16818905 -0.2260813 0.11374545
0.23023498 0.2239297 -0.06831674 -0.16542141 -0.060998306 -0.1662629 0.10669154 -0.0028775334
0.1392206 0.09160316 -0.18777584 0.051729888 -0.24243727 -0.21654138 0.08158183 -0.18559094
-0.008880138 0.100557506 -0.0642824 0.19441164 -0.00024735928 -0.14967972 0.0127928555 0.21367389
-0.048470825 -0.17703426 0.09827104 0.047624946 0.11322194 -0.14284696 0.22642341 0.25261912
-0.09764546 -0.13675694 0.09622991 0.09237045 -0.12145522 -0.21235813 -0.016831398 0.040248245
0.08693278 0.15297836 0.0030005872 -0.06401746 0.109247744 0.06718674 0.06788775 0.16082358
-0.21921381 -0.0042871237 -0.034111768 -0.17948166 -0.20628911 0.03613156 0.22246385 -0.09217872
-0.15612796 -0.13745117 0.1464844 0.2573596 0.11212343 -0.09218411 0.092902154 0.06720561
-0.2581085 0.2643017 0.018105209 -0.25699785 0.21169987 0.250164 0.22876939 -0.22893372
-0.24581982 -0.26591265 -0.20548777 -0.1394875 0.044684917 0.18203822 -0.02496466 0.034900427
0.21837682 -0.054502368 -0.19338891 -0.22177064 0.03135997 0.03340721 0.033612043 0.011249006
0.232254 -0.17919077 0.1733712 0.25840124 -0.0032964647 0.017782599 -0.005211383 -0.12548114
0.15430251 0.085110545 -0.20214964 -0.25158098 0.16079706 0.19718668 -0.19050276 0.12920836
0.045960337 0.07474327 -0.22011197 0.2002258 0.24948266 0.05597678 0.2317732 -0.24031062
0.1353507 0.23814258 0.16964507 0.18846631 0.11296409 0.21156865 0.116867125 -0.20603299
0.044266045 -0.04947877 -0.14803505 -0.08029494 -0.0045934916 -0.10481556 0.117464125 -0.14110765
0.09314984 -0.10678396 0.0989165 -0.0257463 -0.15040123 -0.027070314 0.09867373 0.14350703
-0.0153800845 -0.17951941 -0.14160927 -0.18270884 -0.033114314 0.23330155 -0.14635968 0.20039153
-0.15331377 -0.1468799 -0.048735186 0.18236583 0.2238023 -0.18473923 -0.1361772 -0.10417071
0.10591179 -0.0044810176 0.23431936 0.20139602 -0.05277297 0.06619382 -0.0024652183 0.028925866
0.024721801 0.26371923 0.1379965 -0.15248844 0.11764389 -0.23400412 -0.051342905 -0.1403558
0.05814886 0.06638864 -0.20308605 -0.1513252 0.22036633 -0.21371043 -0.02525933 0.20633203
-0.1412992 -0.19443315 0.23640457 0.07563156 -0.1782255 -0.048842713 -0.06789322 -0.15090078
0.013074875 -0.033690095 0.19335991 0.073127806 -0.23419127 -0.016752899 -0.14519517 0.032408148
0.04093659 -0.035126537 -0.21134572 -0.24936116 -0.010719985 0.26711413 -0.008964896 -0.23390128
0.23789337 0.09453723 -0.19225433 -0.051115423 -0.1271498 0.17146438 0.26383695 -0.081523165
0.047798067 -0.1700117 0.13923472 -0.13927507 -0.2491173 -0.001544416 -0.07194942 -0.20636788
0.1811935 -0.13788776 -0.1369202 -0.050552428 0.043811917 -0.03148009 -0.042160556 -0.02386102
0.03578174 0.20777589 0.24364647 0.07295057 -0.19584805 0.09119448 0.01837036 -0.2505718
0.04265648 0.26205155 0.20183805 0.036550283 0.2121759 -0.06258525 -0.23635691 0.093069136

l1.bias f4 [50]
00000000: 5285 27be ff0c 06be c896 cc3d 4bec 07be
00000010: cf71 77be fc8f 393e a8b3 69bd 1e3e 27be
00000020: 6cc9 55bd 7a47 c6bd e2aa 5dbe bcec b63d
00000030: d222 fabd 7451 55be 1dfe 823e ce2d 80be
00000040: 8b64 88be 375a 823e d806 aabc 363d 17be
00000050: 7041 58be a021 f63d ed32 863e 6041 98bd
00000060: dc6d e43d 82d7 19be 513e 88be 86de 733e
00000070: 7ef3 50be d8f1 1dbe b8a9 02bd 6a68 babd
00000080: 09c6 85be a95c 2ebe 1e4f adbd d80a 043d
00000090: 622d 473e 4a15 293e de1b 6b3e 3446 573e
000000a0: 4b5a 873e 2899 9b3d d25d 7c3e 786e fdbd
000000b0: 1380 23be a487 b53d daa0 f9bd 2c5f 993d
000000c0: 8e3b 9fbd 8463 76be
-0.16359451 -0.13090895 0.09989697 -0.13273732 -0.24164508 0.18121332 -0.0570561 -0.1633229
-0.052194044 -0.09681602 -0.21647218 0.08931872 -0.12213673 -0.20831853 0.25584498 -0.25034946
-0.26639208 0.25459453 -0.020755216 -0.14769444 -0.21118712 0.12018132 0.26210728 -0.07434344
0.111537665 -0.15023616 -0.26610044 0.23815355 -0.20405385 -0.15424287 -0.031900138 -0.09101947
-0.2612765 -0.17027535 -0.08462356 0.032236904 0.19450906 0.16512027 0.22959849 0.21022874
0.26436076 0.075975716 0.24645165 -0.12374586 -0.15966825 0.08863762 -0.12188883 0.07488856
-0.07775031 -0.240614

l2.weight f4 [100, 50]
00000000: 6c83 b0bd c90a 0d3e c2c6 b93d 4ed0 953d
00000010: 9bb6 debd 0829 6abd c6d9 f8bd c02a 7fbb
00000020: 9c3e b8bc ee22 fcbd 4a98 cabd 4ee0 24bd
00000030: 3829 833c 0bc5 0f3e cadb ae3d 91e6 073e
00000040: 7261 5fbd c44f 873d 7674 adbd eb9e a7bd
00000050: ead7 e7bd 00f0 1ab9 54d6 16bd 00a6 dab9
00000060: 3431 fbbd 6233 fe3d 5cb6 db3d 7c79 bfbd
00000070: c0da 9abb 9d2a 0b3e a0fa d13c 62d7 e23d
00000080: 8045 65bb d05a 6fbc 8892 ca3c a854 bd3d
00000090: 2286 9e3d 7c23 dbbd faf2 0ebe 28d0 b3bd
000000a0: bcf4 9e3d a3e7 90bd 9de3 f3bd 52c5 f73d
000000b0: 008d 80bb d8ac 143d bb4e bfbd 35f2 0d3e
000000c0: 0297 e33d f0ff b4bc 634f 073e e81a 04be
000000d0: 9563 09be ea4f d5bd 7492 0ebd e3e6 0d3e
000000e0: 3473 16bd 8cdb d53d 14d3 163d 988d 993c
000000f0: 1e86 9abd 5ff4 87bd 44f0 20bd 5aad e03d
00000100: 9235 c2bd fe63 b13d 20bb 7c3d 4d4f 0f3e
00000110: 8693 f73d de84 40bd e8b5 75bd 18ea d2bd
00000120: 1062 2cbc 91e9 8bbd 3c7b 0a3d 4d21 003e
00000130: 92ec 913d a67c 02be f8bc 90bc 08d7 bf3d
00000140: 0006 253b d2ff 943d d064 363c 8cc6 a2bc
00000150: dcc6 d1bd 40e7 c33d 754d 033e c4e1 413d
00000160: 10e8 693d c020 783d 0088 763d 5c62 98bd
00000170: b621 e73d 809c a33a 202d 133c 52b9 43bd
00000180: 672d 013e 0052 713b 40ae 09bd eafb 4ebd
00000190: 9b31 03be d8e0 483d 6c91 c5bd 28bb ecbd
000001a0: 0c04 90bc c01d 27bc 9032 013d f4e5 c0bd
000001b0: 006d 80bc 9681 ac3d 5c42 dbbd 68e1 423d
000001c0: 80ec 7dbb 160d d5bd e510 cabd 4c07 223d
000001d0: 9fdc 08be 98fa 25bd 0e5c a3bd 7c4d cdbc
000001e0: 600e 4c3c ac1d a0bc 94f9 8dbc a076 9e3c
000001f0: 08e5 903c 15a4 c5bd 0234 bbbd 76c4 bbbd
00000200: 60f1 833b 0044 7b3b 78ae 0cbd 6d2f 84bd
00000210: d856 4f3d 780a f3bc 8d8f f0bd ac31 933d
00000220: c61b 75bd 9c50 b0bc 28a5 6b3d ae85 d03d
00000230: 9a78 ddbd 483a fbbd f465 bdbc 5c04 ce3d
00000240: ad8c 0fbe 6891 7ebd 84fc 053d a7cc afbd
00000250: b488 753d f8d1 f5bd b466 993d 02b7 07be
00000260: ea9c b83d f76d e3bd 7c02 9e3d 28a4 95bd
00000270: 1630 eabd 0ed2 f23d 001b 183d 9839 b43c
00000280: dd05 9fbd cc00 c83d 5ed1 36bd c0a7 31bc
00000290: 209f 48bc 4ddd 0e3e 228e d13d 7455 4bbd
000002a0: 441c ae3d f644 a93d 1808 39bd e823 ae3d
000002b0: 925f d33d 808d 3b3c f4bb 0e3d 4cf2 933d
000002c0: 9e56 d2bd cccb e1bc 2575 ebbd 00b6 4a3b
000002d0: 782f a53d a226 47bd d01c 51bc feba ed3d
000002e0: f878 06bd 1e68 ee3d 248d 463d c03f 92bc
000002f0: 776d 0cbe 3839 d33d f9ea abbd 1859 023d
00000300: 4b3c 083e 29d0 0cbe 9060 b43c c090 a93b
00000310: 2e1e 45bd 8633 b8bd f085 4b3c ba8a b5bd
00000320: 923a ee3d 6448 dbbd f28f 76bd 4ab0 ab3d
00000330: 246d 353d de7a 09be 1019 c63d ca21 78bd
00000340: 9f29 babd e4ff 013d 0513 033e 20a3 133d
00000350: 001d 68ba ab46 073e 180c a83d 82c4 f7bd
00000360: c0b0 723c 58f4 bebd b03a 9e3c 6f36 073e
00000370: 0be0 d3bd 2d7c f0bd a014 37bc 82fd 0dbe
00000380: d249 f73d c0e4 65bd f57d c8bd 10de 3bbc
00000390: 908a e0bd d056 d2bd e436 1b3d 5aac b33d
000003a0: d79f fcbd f07d 9a3c a261 f73d 6578 b7bd
000003b0: 7e79 c0bd 18e2 d43d beec ce3d 0ca6 9dbc
000003c0: eda3 053e c295 60bd d0ac 0c3c c1d6 073e
000003d0: 9295 6ebd a8ea aabd e8bf f93c 1eff e53d
000003e0: fa61 f73d 3001 35bc fd74 0b3e 9a33 1abd
000003f0: d4db 153d bad5 c53d eebb 44bd 02a1 9c3d
-0.08618817 0.13773645 0.09071113 0.073151216 -0.10874673 -0.057168037 -0.12150912 -0.0038935393
-0.022490792 -0.1231135 -0.09892328 -0.040252976 0.016010866 0.1404001 0.08538015 0.13271548
-0.05453629 0.06607011 -0.08469479 -0.08184608 -0.11320479 -0.00014775991 -0.036825493 -0.0004170388
-0.12265244 0.12412144 0.10728142 -0.09349343 -0.004725784 0.13590474 0.025632203 0.11076237
-0.0034984052 -0.014609054 0.024728075 0.092446625 0.077404276 -0.107001275 -0.13959876 -0.08779937
0.07761523 -0.07075431 -0.11908648 0.12098183 -0.0039230585 0.03629765 -0.093411885 0.13861926
0.11112787 -0.022094697 0.13213877 -0.12900889 -0.13416894 -0.10415633 -0.034807637 0.13857608
-0.03673096 0.10442266 0.036822394 0.018744275 -0.07545112 -0.06638407 -0.039291635 0.10970564
-0.09482874 0.0866165 0.061701894 0.13995095 0.12088685 -0.047001712 -0.059987932 -0.10298556
-0.010521427 -0.06831659 0.03380893 0.12512703 0.071252 -0.12742862 -0.017668232 0.09367186
0.0025180578 0.07275356 0.011132434 -0.019870065 -0.102430075 0.09565592 0.12822516 0.047334448
0.057106078 0.060578108 0.060188293 -0.074406356 0.11285727 0.0012482554 0.008982927 -0.047784157
0.12614976 0.0036822557 -0.033613443 -0.050533213 -0.12811892 0.049042553 -0.09646878 -0.11559135
-0.017580055 -0.010199964 0.03154236 -0.0941886 -0.015676975 0.08423154 -0.107060164 0.047578245
-0.0038745701 -0.104028866 -0.098665036 0.03955774 -0.1336541 -0.040522188 -0.079765424 -0.025061361
0.012454599 -0.019545399 -0.017330922 0.019343674 0.017687336 -0.09650437 -0.09140779 -0.09168331
0.004026577 0.0038340092 -0.034346074 -0.06454358 0.05061993 -0.029668078 -0.1174613 0.071872085
-0.05984094 -0.021522813 0.057530552 0.101817474 -0.108140185 -0.12266976 -0.023119904 0.10059425
-0.14018507 -0.06215039 0.03271152 -0.08583956 0.059944823 -0.12002939 0.07490292 -0.13253406
0.09014304 -0.111049585 0.077153176 -0.07306701 -0.11434953 0.11856471 0.037135124 0.02200012
-0.0776479 0.09765777 -0.04463326 -0.010843217 -0.01224497 0.13951607 0.10232188 -0.04964204
0.08501485 0.082651064 -0.045173734 0.08502942 0.10320963 0.01144731 0.034847215 0.07223949
-0.10270427 -0.027562998 -0.11496953 0.0030931234 0.080656946 -0.048620827 -0.012763217 0.116079316
-0.03283021 0.116409525 0.048474446 -0.017852664 -0.13713633 0.10313648 -0.08394427 0.031823248
0.1330425 -0.13751282 0.0220187 0.0051747262 -0.048124485 -0.08994202 0.01242207 -0.088643506
0.11632265 -0.10707167 -0.06019587 0.08383234 0.044293538 -0.13425776 0.09672749 -0.0605791
-0.0908997 0.031738177 0.12800224 0.03604424 -0.0008854419 0.13210551 0.08205432 -0.12098028
0.014812648 -0.093239486 0.019315094 0.13204359 -0.10345467 -0.11742435 -0.011174351 -0.13866237
0.12074627 -0.056126356 -0.097896494 -0.011466518 -0.10963929 -0.102704644 0.037894145 0.08773108
-0.123351745 0.01885888 0.12079169 -0.0895851 -0.09398173 0.103946865 0.10103749 -0.019244216
0.13050814 -0.05483032 0.008586124 0.13265516 -0.05824811 -0.083455384 0.030487016 0.112303
0.120792344 -0.011047646 0.13618846 -0.037646867 0.036586598 0.09659906 -0.048030786 0.07647897

l2.bias f4 [100]
00000000: 345d 96bc cc1c c4bd 8e77 28bd 00f8 4c3c
00000010: a4e3 d23d d235 b53d d0f6 85bc a89a 483d
00000020: 32cf ee3d cf49 d3bd 7fcb 8ebd 7219 e23d
00000030: dad2 ab3d ee6a 823d d07a 443c 56fd e03d
00000040: 2ce9 93bd 0d09 cfbd f834 423d 3448 82bd
00000050: 54b5 853d 102b 813c 40c9 82bb 0f04 b7bd
00000060: 2e80 fd3d 2852 d1bd 4f98 073e d0c8 3e3c
00000070: 9fde 0bbe 3c6a 3b3d 13cd 063e c036 75bc
00000080: c00d 6fbb f064 68bc 90c5 3bbd 269f 30bd
00000090: f60c db3d 4094 0f3c 08ea e13c 04c1 d73d
000000a0: c3bf 07be 36ef 0dbe d892 0f3d 9c7c 16bd
000000b0: 81ac 03be a078 123c b385 95bd 4a89 923d
000000c0: c067 e1bd 7e5a fd3d 7add b3bd fff6 0f3e
000000d0: 3003 75bc 26f8 9a3d 8180 0d3e f0bc b23c
000000e0: bc65 b63d c4cd 02bd a821 e4bd d1b0 063e
000000f0: b2cf 06be 00a8 7139 de9f adbd 2ad7 cc3d
00000100: cd63 0abe 2e7b 913d 5454 2b3d 729f f33d
00000110: 8217 b0bd 60c8 943c e868 d43d 2bfb 033e
00000120: c6b6 cb3d 3296 f13d 405e c83c fc95 45bd
00000130: facb a83d f298 ad3d d8b3 84bc de7d 9fbd
00000140: bc58 843d 56aa b33d c0c3 90bc 4b8b a1bd
00000150: 60b2 f5bb 13b6 0dbe 52e2 b6bd f0dd b73c
00000160: 896d e8bd 0cb8 563d be98 f2bd bb88 03be
00000170: ac3b aabd 7577 8ebd 461f c93d 00a6 a239
00000180: ea3b 9d3d 841a 6ebd 7045 4d3d b640 f9bd
-0.01835499 -0.09575805 -0.04112964 0.0125103 0.10297325 0.08848156 -0.016353041 0.048975617
0.11660613 -0.10316812 -0.069724075 0.110400096 0.08389826 0.063680515 0.011992171 0.1098582
-0.072222084 -0.10109148 0.047413796 -0.06361428 0.06528726 0.015767604 -0.003991276 -0.08936321
0.12377964 -0.10220748 0.13241695 0.011644557 -0.13659142 0.04575561 0.13164167 -0.014966667
-0.0036476701 -0.014184222 -0.045842707 -0.043120526 0.106958315 0.008763373 0.027577415 0.10534862
-0.13256745 -0.13860783 0.03505215 -0.03673993 -0.12858774 0.008939892 -0.07300892 0.07155092
-0.11006117 0.12370776 -0.08782478 0.14059065 -0.014954373 0.07566862 0.13818552 0.021818608
0.08906123 -0.031934515 -0.11139232 0.13153388 -0.13165167 0.00023046136 -0.08477758 0.10001977
-0.13514633 0.07103573 0.04182847 0.11895646 -0.08598234 0.018161952 0.10371572 0.12888782
0.09946971 0.117962256 0.024459004 -0.04823874 0.082420304 0.08476438 -0.016199037 -0.07787679
0.06462237 0.087727234 -0.017671466 -0.07887896 -0.0074980706 -0.13838987 -0.08929886 0.022444695
-0.11349017 0.052421615 -0.118455395 -0.12845127 -0.08312163 -0.06956378 0.09820418 0.00031022727
0.07677443 -0.058130756 0.05011505 -0.12170546

l3.weight f4 [20, 100]
00000000: e9d7 9a3d a10a c23d 0ef8 6b3d 73bd bd3d
00000010: 6632 123d f438 ecbc 0005 40ba 0098 ab38
00000020: 6059 663b a897 96bc 62c9 92bd b09e ce3b
00000030: 3aa3 04bd ad24 34bd f7ee 2dbd b277 5c3d
00000040: c09c 14bb b074 fd3b 607d 783b 30e6 ed3b
00000050: bb12 993d 706a 40bd 0071 15bb e805 f8bc
00000060: 6d43 9d3d d176 bc3d 4045 613b 032f b6bd
00000070: c04a 193b 0c86 b13c ca1d 17bd 5dfd 59bd
00000080: a06a 89bd c3f8 853d 105b 6dbc ac23 efbc
00000090: 0028 84b9 b05b 993b b491 b7bc 4e81 233d
000000a0: 6926 bc3d 3036 53bc 8495 16bd 71a9 9e3d
000000b0: 4e6f 0f3d f61e 03bd 9016 72bc f1cc c53d
000000c0: 3461 883c a8c1 6ebc fa1b a1bd 52f0 99bd
000000d0: d024 01bd 0010 9b3c 40bf 69bd 9404 d23c
000000e0: 5a1d abbd a8cd 5bbc 08e0 b53c 261b 213d
000000f0: 54e1 f03c 62cf 233d acf1 b43c eee1 1b3d
00000100: 6687 433d 98a0 8f3c 1a18 55bd 4cbc a3bc
00000110: eccc 85bc 6013 14bd c07e af3c c51e ccbd
00000120: 1897 bebd 243d 15bd 206d 9dbd 60a4 63bb
00000130: c82a 92bd 6b7f b7bd 3287 2b3d b38f abbd
00000140: 4d0c babd 3278 473d 2c12 993c 979f b3bd
00000150: ebe2 be3d 0724 c4bd 2dc2 51bd 6088 57bd
00000160: 0d4b 2dbd 8301 27bd facb 233d 7bfa aabd
00000170: b210 613d 9c2e 89bd f94b bc3d a3b2 993d
00000180: e49c fd3c 8379 98bd a11d 963d 01cd ab3d
00000190: a825 bdbd f2fb 0c3d 8ac7 55bd 00f4 e9bc
000001a0: 7a8c b2bd dea2 413d a04c d9bb 3ed4 8fbd
000001b0: 28c7 903c a0ac b5bd 04a1 cf3c d0c7 6bbd
000001c0: 6a07 613d fa8a 7fbd 03b9 9fbd f537 ca3d
000001d0: 2a17 92bd 3a9f 5fbd 205f f83b 7a04 77bd
000001e0: c4d7 e53c 5813 c4bd 62fe 523d 92c6 8ebd
000001f0: f093 37bc 02de 2f3d b5c8 aabd d663 3f3d
00000200: 3665 4a3d 7001 51bd 282d 393c 283d d4bc
00000210: 2c58 df3c 40e5 303b d4a9 b43c d1b9 c73d
00000220: ed4f 65bd c8cf c5bc 3fe5 b73d a8cb 9abc
00000230: 81ad ae3d d653 83bd a479 e43c 5d30 cc3d
00000240: d4ff 873c 22f4 453d 8274 7f3d 5a0a 773d
00000250: aaa4 0d3d b856 bb3c 8cb7 eebc 58fc b63c
00000260: 43e6 b1bd 002a 9dbb d139 883d 7df4 29bd
00000270: 25cf c53d ce60 8ebd 0448 fb3c ae07 92bd
00000280: 407b 0e3b 5666 653d 870e 7abd 2a9e 29bd
00000290: 25a5 c53d 0026 df3b 0afa a1bd 2247 503d
000002a0: 23e5 2cbd 1d3d 3cbd c3e6 59bd 9844 163c
000002b0: 6353 ac3d a05f c9bb 14d5 e9bc 73cc 873d
000002c0: 3a1c 3bbd 0dd5 c83d 0b48 b13d 6a6a 70bd
000002d0: f114 c43d 788a c73c 4029 2f3c 7052 91bd
000002e0: b04a bdbb 22f1 96bd ec3b f83c 1878 6c3c
000002f0: 9b33 963d bbc4 b0bd 20fa b7bb 1819 073c
00000300: 3262 7d3d 4053 a5bc 406b b8ba f009 55bc
00000310: 4716 c6bd 9c77 12bd 3acb 1cbd 0020 6c3c
00000320: a072 663b cc04 b5bc 8fff c7bd 68ef b4bc
00000330: bc77 fa3c 002a ff3b b8e6 fcbc a3df 7abd
00000340: 9a3f 9ebd 81c3 883d c1b1 8d3d 9423 ddbc
00000350: 4fe8 acbd f893 a6bc 2a65 b8bd 4c56 95bc
00000360: d207 023d a57f 8fbd 40b5 7e3c 403b 32bc
00000370: 93c8 1dbd 0036 0cbb ca62 06bd d07c 083c
00000380: 6cdb d6bc bfe9 883d a1b7 a23d e84e 37bc
00000390: 106c 33bc 2c21 ae3c a737 34bd 0ec0 253d
000003a0: 9088 78bd 7d69 65bd 45c0 c53d 2189 803d
000003b0: fd88 bebd 3eb5 353d 206d b33b 34c8 d6bc
000003c0: a1fc bd3d 3ddf 91bd bb35 ae3d 509a 873b
000003d0: 973b b2bd 0ef4 8ebd 807f 2e3c 9ac0 673d
000003e0: 9808 563c 3e82 473d fe8d 783d 554a 9c3d
000003f0: 18c1 053c 0e4e 473d 0ad2 1fbd 4a6c 7c3d
0.07560713 0.094746836 0.05760961 0.0926465 0.035692595 -0.028835751 -0.0007324964 8.1822276e-05
0.0035148486 -0.018382862 -0.07167317 0.006305538 -0.032382227 -0.04398029 -0.042464223 0.053825088
-0.0022676438 0.0077348575 0.0037916526 0.0072601065 0.07474276 -0.046976507 -0.002280295 -0.030276254
0.07678876 0.0920235 0.0034373552 -0.088956855 0.0023390502 0.021670364 -0.036893643 -0.05322014
-0.0670979 0.06541588 -0.014487043 -0.029191814 -0.00025206804 0.0046801195 -0.022408344 0.039918236
0.09187014 -0.012891337 -0.036763683 0.07747162 0.035018258 -0.03201195 -0.014775887 0.0965823
0.016647913 -0.014572538 -0.07866664 -0.075165406 -0.031529248 0.018928528 -0.057067156 0.025636949
-0.08355208 -0.0134157315 0.022201553 0.03933253 0.02940432 0.039992698 0.022087894 0.03805726
0.047736548 0.017532632 -0.05202494 -0.019987248 -0.016333066 -0.03615129 0.021422744 -0.09966806
-0.093061626 -0.03643526 -0.076868296 -0.0034735426 -0.07137066 -0.0895985 0.04187698 -0.08377018
-0.090843774 0.04869861 0.018685423 -0.08770674 0.09320625 -0.09577184 -0.05121057 -0.05262029
-0.042307902 -0.040772926 0.03998945 -0.083485566 0.054947563 -0.06698343 0.09194178 0.075047754
0.0309586 -0.074450515 0.0732987 0.08388711 -0.09235698 0.03441996 -0.05219225 -0.028558731
-0.087182 0.047274463 -0.006631449 -0.07022904 0.01767309 -0.08870816 0.025345333 -0.057563603
0.05493871 -0.062388398 -0.0779896 0.09873954 -0.071333244 -0.05459521 0.007579699 -0.060307004
0.028056987 -0.09574002 0.05151213 -0.06971468 -0.011204705 0.042936333 -0.08339063 0.04672607
0.04941293 -0.05102676 0.01130227 -0.025908068 0.027263723 0.0026992112 0.022053637 0.097522385
-0.055984426 -0.02414693 0.08979272 -0.018895939 0.08529187 -0.06412475 0.027890034 0.09970162
0.01660148 0.048328526 0.06236697 0.060312606 0.034580864 0.0228685 -0.029140256 0.022337124
-0.08686497 -0.0047962666 0.066516526 -0.041492928 0.0965865 -0.06952058 0.030673988 -0.07130371
0.0021740943 0.0560058 -0.06104901 -0.041410603 0.096506394 0.00680995 -0.07909019 0.050849088
-0.04221071 -0.04595672 -0.053198587 0.009171627 0.08414342 -0.0061454326 -0.028543986 0.066307925
-0.045681216 0.09806261 0.08656319 -0.058695234 0.09574307 0.02435802 0.010690987 -0.07095802
-0.0057767257 -0.07370211 0.03030201 0.014432929 0.07334062 -0.08631273 -0.005614534 0.008245729
0.061861224 -0.020181298 -0.0014070049 -0.013002858 -0.09672218 -0.0357586 -0.03827975 0.014411926
0.0035163537 -0.022097014 -0.09765541 -0.022086814 0.030574672 0.007786989 -0.030871734 -0.061248433
-0.07726975 0.066779144 0.069186695 -0.026994504 -0.08442747 -0.020334229 -0.090036705 -0.018229626
0.03174574 -0.07006768 0.015546143 -0.010878384 -0.03852136 -0.0021394491 -0.032809056 0.008330539
-0.026227675 0.066852085 0.07945181 -0.011188246 -0.010951057 0.021256052 -0.043998387 0.04046636
-0.06067711 -0.056008805 0.09655813 0.06276155 -0.09303472 0.0443623 0.005475655 -0.026218511
0.09276701 -0.071226574 0.08506342 0.0041382685 -0.08702772 -0.069801435 0.010650516 0.056580164
0.013063572 0.048708193 0.06068229 0.07631365 0.008163713 0.048658423 -0.03901867 0.06162671

l3.bias f4 [20]
00000000: 0a83 1bbd b280 543d 3721 c73d 8675 03bd
00000010: 30f4 153c d48a e8bc cb9b bcbd 00cd 90bc
00000020: 9150 983d 0cd3 91bc 80ec c3bd 40ae 463b
00000030: ed79 28bd 5726 c73d 520e 3e3d 0c80 903c
00000040: 0357 be3d d062 aabd 9892 63bc eab6 c7bd
-0.037966765 0.051880546 0.09723132 -0.0320945 0.009152457 -0.02838651 -0.09209403 -0.017675877
0.07437242 -0.01780083 -0.09566593 0.0030316263 -0.041131902 0.097241096 0.046400376 0.017639183
0.0929394 -0.08319628 -0.013889931 -0.09751685

output.weight f4 [8, 20]
00000000: 1040 75bd cb12 35be 7223 3d3e 8ec6 9abd
00000010: 767d 3d3e e2dd 03be f0d9 1d3d 4c79 263e
00000020: 7c2c 06be 0eb8 06be 2897 ce3d d059 613e
00000030: 4606 603e 804b abbb 4868 f93d 42fd dbbd
00000040: 108c 613e ea9c 453e 322f 403e b808 373d
00000050: 88a0 b33d 1e69 013e 1867 fb3d 02b5 afbd
00000060: 44aa 013e fce1 5d3e a40d 893d 342e f63d
00000070: 10aa 1fbd a87f 183d 4c44 ef3d c24d 503e
00000080: d0ea e4bc 2089 98bd 6415 ed3d 49ca 63be
00000090: c0f7 f43c 9236 48be c4e0 51bd c05c 663d
000000a0: a50e 10be 088c c33d ec85 41be 14f6 9fbd
000000b0: 1c7b a2bd 4053 4bbb e434 21be 144e 3bbd
000000c0: 354e 4abe eccc 13bd 001b 80bd 1839 d0bd
000000d0: 7de0 31be 3c3e 10bd 98f7 383e 7817 0bbe
000000e0: c0bb 0d3c 1e98 ccbd c0bd 43bb 3c22 d13d
000000f0: 484d 27be d05a c43d 6888 823c 6e86 43be
00000100: d170 f1bd b0d6 07be d064 b73c ba64 513e
00000110: 04fd 0a3e 08b7 973c b6d6 e9bd 589b 7c3d
00000120: 1c15 c1bd 0630 0c3e 2677 563e cc64 51be
00000130: 7047 7d3d 14d8 fe3d 3562 1abe 138a 54be
00000140: 502f 683d 00c3 4aba f611 63be e4e0 903d
00000150: 04bc 31bd d814 1a3d d822 d23d f834 a8bc
00000160: 2d7b 00be bf00 58be 3845 f1bc e0a3 9f3d
00000170: 6c73 143e 64cb 323e 60aa c7bd 10cd efbc
00000180: 928b 453e 3c9b 3a3e 0c96 263e 887f 783d
00000190: 940c 863d b861 a9bc 82b3 5c3e 3492 12bd
000001a0: 48b3 4d3d c872 51bd 5835 9f3d 88f0 a03d
000001b0: 1c4e 873d e428 30be 58f3 aa3d 986e 803d
000001c0: e4d4 29be f279 88bd 90e8 383c 50ad 0f3c
000001d0: 98bf 213e e85e 04be 141b d33d eed1 3c3e
000001e0: e4b1 5d3e 6ad2 80bd 9081 183e 8218 3dbe
000001f0: 9e1c 5bbe c3ca 2bbe 2a4e b5bd 0863 6e3d
00000200: a06d 0dbc 41d1 0dbe 6004 aebd e8d2 3ebe
00000210: 169d 15be 3e22 513e 0d9d 2dbe 431a 63be
00000220: 002b 18be a253 043e c84e a2bc 488f 36bd
00000230: c0ca 3fbb 408d e3bc 6c07 24be 18b4 5b3e
00000240: 483a b53c 681e 88bd 669c 88bd 80b8 f3bc
00000250: 6718 cebd 0878 3cbd e827 5e3d 3a17 4ebe
00000260: 68e8 233d 30d5 ccbc f8f5 243e 0466 73bd
00000270: a00b 1fbe 2065 c3bc 48de 6f3d 54cb 543e
-0.059875548 -0.1768295 0.18470553 -0.075574026 0.18504891 -0.1287761 0.03853792 0.16257209
-0.13102907 -0.13156149 0.100874245 0.22006917 0.21877393 -0.005227506 0.12178093 -0.107416645
0.22026086 0.19298139 0.18768004 0.04468605 0.08770853 0.12637755 0.12275523 -0.085794464
0.12662607 0.21668237 0.06692055 0.12020531 -0.038980544 0.037231117 0.116829485 0.20342162
-0.027943999 -0.074480295 0.115763456 -0.22245134 0.029903293 -0.19552067 -0.051239744 0.056240797
-0.14068086 0.09548193 -0.18898743 -0.078106076 -0.079336375 -0.0031024963 -0.15742832 -0.045728758
-0.19756396 -0.0360841 -0.0625515 -0.1016714 -0.17370792 -0.0352156 0.180632 -0.13583171
0.00865072 -0.099899516 -0.0029867738 0.10211608 -0.16338074 0.095876336 0.015934184 -0.1909425
-0.11789096 -0.1326549 0.022386938 0.2044858 0.1357308 0.018519893 -0.11417906 0.061671585
-0.094278544 0.13690194 0.20943889 -0.20448607 0.061835706 0.124435574 -0.15076526 -0.20755796
0.056685746 -0.0007734746 -0.2217482 0.070741445 -0.043392196 0.037617534 0.10260552 -0.02053307
-0.12546988 -0.21094035 -0.029451951 0.077949286 0.14497155 0.174604 -0.09749293 -0.029272586
0.19291523 0.1822328 0.16268176 0.0606685 0.06545368 -0.020676479 0.21552852 -0.03578396
0.050219804 -0.051134855 0.077738464 0.07858378 0.06606695 -0.17203099 0.083471954 0.06271094
-0.16585118 -0.06663884 0.011285916 0.008769348 0.15795743 -0.12926829 0.10307899 0.18439457
0.21649891 -0.06290133 0.14893174 -0.1846638 -0.21397635 -0.16776566 -0.08852799 0.058199912
-0.008632094 -0.13849355 -0.08496928 -0.18635142 -0.14610705 0.20423219 -0.16954441 -0.22177987
-0.14860153 0.12922528 -0.019812956 -0.044570237 -0.0029265136 -0.027777314 -0.16018456 0.21455419
0.022122517 -0.066464245 -0.06670456 -0.029751062 -0.10063248 -0.04601291 0.054237276 -0.20126048
0.04001656 -0.025004 0.16109455 -0.05942346 -0.15531778 -0.023851931 0.058561593 0.20780689

output.bias f4 [8]
00000000: d430 d23d 121a 153e 6e91 5bbe 8024 833d
00000010: 5062 41be f84f 5fbe 41c9 cabd 49f5 57be
0.102632195 0.14560726 -0.21442196 0.06403446 -0.1888516 -0.2180785 -0.099016674 -0.21089663
