Simple_ANN_experience/saved_model/simpleANNlr=0.005bs=64MSELoss.pt (torch, 43151 bytes, 8 tensors)

l1.weight f4 [50, 30]
00000000: 2054 233c 00c6 e23d 80ac a83d 1063 17be
00000010: fbf0 b9bd 86f7 303e b0d7 1c3c 2cb0 783d
00000020: 7079 c33c 7612 1e3e 4d2d 32be 8cdc 583d
00000030: d816 d23d 2dff e3bd 79a8 26be a08c 5ebc
00000040: 87d2 36be 2b26 0bbe 4194 dcbd 24c6 2a3d
00000050: 0c9c 52bd 70f0 4bbc c88a 983d 3012 0e3d
00000060: 520e 233e 2ab8 fcbd f42d 253d d0d4 f93d
00000070: a45f 8e3d 3c25 c73d 4d1f 22be 44fa a6bd
00000080: f49d 813d f872 be3c fcc9 5d3d 8408 ca3d
00000090: 2429 04bd 1065 13bd a106 30be a79e 32be
000000a0: 1672 2d3e 9084 debc 7057 273e b8e2 9cbc
000000b0: 0403 24bd 709d 8e3d 60f2 193c dc77 b83d
000000c0: c0c3 e93d 1b63 03be 3633 0f3e 42f6 adbd
000000d0: dcf1 b63d a788 e0bd cfaf e5bd 64ed 293e
000000e0: 1af2 d6bd 3c5c f33d c0a2 573c 6894 603d
000000f0: 84c4 14bd 5062 6f3c 96b7 0a3e 44ce bd3d
00000100: 2f66 17be a492 30be 388b 133e 003e 40bb
00000110: 70d3 dfbc 0227 16be 392d 8abd e884 833d
00000120: de70 083e b083 323d 3afd 263e 44fa 3e3d
00000130: c072 3d3d 5193 9cbd 5866 423d 1e65 88bd
00000140: 6cd6 d33d df41 33be d2d5 2f3e 6c86 123e
00000150: da3e adbd a79b 1abe 88c6 e13d fabb 803d
00000160: 3a34 293e a87f 9fbc 6346 32be 5423 94bd
00000170: 3061 033e 3d55 37be f0f6 703d 6ea9 2a3e
00000180: c25b 053e 0499 66bd 9caa 6f3d 9074 cb3d
00000190: a44e 763d 3a22 0f3e b826 1e3d 8842 073e
000001a0: 8021 c73a 702f ffbd 2897 4b3d 1000 c83c
000001b0: 2cd3 70bd 44c2 983d 88d2 bf3c c059 1f3e
000001c0: 5c2f bf3d 0011 66bc f077 0dbd c013 00bd
000001d0: ee22 1a3e 76ba 2dbe e3df 0bbe 0036 fdba
000001e0: f845 dd3d 2845 e93d 3834 19bd f0b2 16bc
000001f0: 8873 c13c 318a eabd b86d 00be b66b aabd
00000200: 60b5 973b 800d bc3b f002 09bc 34f7 3ebd
00000210: 8e6d 203e ec29 60bd 2a4a 06be 7c8d 2d3e
00000220: 7278 9cbd b058 dbbd a076 2d3e 1d8f 35be
00000230: fcfd 7b3d 2c58 db3d 3a33 0b3e 3891 f53d
00000240: b67c 8dbd 0080 12b7 9813 d63d feb3 01be
00000250: e1f5 1cbe b8b6 a23d 5811 86bd 809b e33b
00000260: 1750 05be 0067 5c3b 7ee8 073e a438 da3d
00000270: 80b9 343e a251 863d 0a83 363e 602a 393d
00000280: 5c5c a43d e079 023e 6e3c 193e 94d0 d93d
00000290: e04b cf3c 022b 18be 60a3 0f3d e06d ca3d
000002a0: f085 073d 088e 583d 7468 1abd d6d3 883d
000002b0: c0dd cb3c 401b bbbb baba 0fbe 67e5 25be
000002c0: 085e 1fbe f882 22bd 74e4 39be dd82 e6bd
000002d0: f8a7 d0bd 6435 2e3d 4061 b13c a0a6 ccbc
000002e0: 4c99 25bd bc1a a83d 4050 bf3d 5ccf 643d
000002f0: 1c9a 7fbd 64e8 1dbe b4a1 24be 2c1a d73d
00000300: a4af 43bd 323e 013e 1ea1 293e d0f8 89bd
00000310: 8e13 a5bd 80d3 3bbb 2871 7b3d 52ff 193e
00000320: 9451 b13d a478 453d c03a b93b 3426 ce3d
00000330: 00ea 7dbb ec2d fbbd a2fe 813d 6053 453c
00000340: 6c52 f33d e448 283e a73b c8bd f239 18be
00000350: d6ef 0c3e 3b82 f6bd 7cd8 163e c6ce 073e
00000360: fe42 d3bd b018 383c 2474 c53d 9ca4 793d
00000370: 90c5 36be a1c7 93bd 74ed b93d a494 28be
00000380: a0ec 943d 7c95 9e3d 9c2e 42bd 554e cfbd
00000390: cf62 33be 734d edbd 04a3 d93d a0c7 4cbc
000003a0: 6a94 37be 5e86 c0bd 8031 5dbb f16e d1bd
000003b0: 0c20 4e3d 60b2 30bd d861 9e3c 205f 8f3d
000003c0: c016 c53c f045 9a3c c0b9 b43c 68bd 0cbe
000003d0: 081c 38bd b4e9 993d c855 1a3d 18da f13c
000003e0: 74f7 933d 362f 193e c0af fe3b c0f6 31be
000003f0: 485f 41bd 7cbf dc3d 442a 133e 98c5 053d
0.009968787 0.11072922 0.08236027 -0.14783883 -0.090791665 0.17281923 0.009572908 0.060714886
0.023861617 0.1543673 -0.17400093 0.052944705 0.10258263 -0.11132655 -0.16275205 -0.013583332
-0.17853747 -0.13588779 -0.10770465 0.041692868 -0.05141835 -0.0124474615 0.074483454 0.034685314
0.15923432 -0.12339814 0.040327027 0.12198794 0.06951836 0.09723899 -0.15832253 -0.08153203
0.06328955 0.02324818 0.054147705 0.098649055 -0.032265797 -0.035985053 -0.17190029 -0.17443334
0.16938052 -0.02716282 0.16341949 -0.019151077 -0.04004194 0.069636226 0.009396166 0.09007236
0.114142895 -0.12830774 0.13984379 -0.084942356 0.0893285 -0.10963564 -0.112151735 0.16594464
-0.10495396 0.11882827 0.013161361 0.05482903 -0.036320224 0.014610842 0.13546595 0.09267858
-0.14785074 -0.17243439 0.14408576 -0.002933383 -0.027322501 -0.14663318 -0.06746907 0.06421834
0.13324305 0.04358262 0.16307536 0.04662539 0.046252012 -0.07645286 0.047460884 -0.066599116
0.10343632 -0.17505597 0.1717141 0.1430909 -0.084592536 -0.15098439 0.11024195 0.06285854
0.16523829 -0.01947005 -0.17409663 -0.07233301 0.12830043 -0.1790361 0.058829248 0.16666195
0.13023284 -0.05629827 0.058512315 0.09934342 0.06013359 0.139779 0.038611144 0.13208973
0.0015192479 -0.1246022 0.0497047 0.024414092 -0.05879514 0.07458928 0.023415819 0.1556158
0.09335205 -0.014042139 -0.03453821 -0.031268835 0.15052387 -0.1696566 -0.13659625 -0.0019318461
0.10804361 0.11390144 -0.037403315 -0.009197935 0.02361466 -0.11452139 -0.12541854 -0.083213255
0.004629776 0.005738914 -0.008362517 -0.04662247 0.15666792 -0.05472748 -0.13114229 0.16948503
-0.076401606 -0.10710275 0.16939783 -0.17730375 0.061521515 0.10710177 0.1359376 0.11990589
-0.06908552 -8.7320805e-06 0.10452956 -0.12666318 -0.1532817 0.07945007 -0.06546277 0.0069460273
-0.13018833 0.0033630729 0.13272282 0.106553346 0.17648888 0.06558539 0.17823425 0.045206428
0.08025429 0.12741804 0.14964458 0.10635486 0.025304735 -0.14860156 0.035067916 0.09884238
0.033086717 0.052869827 -0.03769727 0.066810295 0.024886012 -0.0057100356 -0.14036074 -0.16200791
-0.15563214 -0.039675683 -0.18153554 -0.11255429 -0.101882875 0.042531386 0.021652818 -0.024981797
-0.0404294 0.08208224 0.09341478 0.055861816 -0.06240283 -0.15420681 -0.1607731 0.10503039
-0.047774926 0.12621382 0.16565368 -0.0673691 -0.080603704 -0.002866 0.06138721 0.15038803
0.08658138 0.048210755 0.0056527555 0.100658804 -0.0038744211 -0.12264618 0.063473955 0.012043804
0.11880955 0.16434056 -0.09777003 -0.14865854 0.13763365 -0.12036558 0.1473102 0.13262472
-0.10315512 0.011236355 0.09641293 0.060948 -0.17848802 -0.072158106 0.09078494 -0.16462952
0.07271695 0.07743356 -0.04740773 -0.101223625 -0.17518161 -0.11587038 0.10626796 -0.012498766
-0.17927709 -0.094006285 -0.0033751428 -0.102262385 0.05032353 -0.04313886 0.019333765 0.070005655
0.0240587 0.018832177 0.022061229 -0.13744128 -0.044948608 0.075152785 0.037679464 0.02952294
0.07224932 0.14959416 0.007772416 -0.17379284 -0.047210008 0.1077871 0.14371592 0.032659143

l1.bias f4 [50]
00000000: 8eb3 c7bd d48c 253d 50e4 7bbc 28df ec3d
00000010: 2c33 9dbd 8929 89bd 2069 84bc 00c1 c3bc
00000020: cf02 33be 441e 323e 3a3e 33be 9bf2 b0bd
00000030: 1c88 bf3d 6e11 213e 5c63 813d 100c 043d
00000040: 7c02 06be c99b 09be 64c5 033e f042 cc3d
00000050: e0a2 abbd 56b0 353e 6078 31bc d0f1 233c
00000060: 48da 44bd 804f 14bc 3e2b 03be b5b3 0abe
00000070: 0006 f43d 9eb4 2a3e 107a 213c 804e a73d
00000080: 7f8a adbd a429 c83d b2cc 23be 8c9a 31be
00000090: a09f 3e3c 1883 d43c 00e3 043e 0c6f 51bd
000000a0: b7ec 0abe 868e 1fbe 3279 77bd d05b e4bc
000000b0: 3d96 f0bd a41f 433d 0802 bcbc c303 cfbd
000000c0: f432 7a3d a4af f83d
-0.09751044 0.040417507 -0.015374258 0.11566001 -0.07675776 -0.06697375 -0.016163409 -0.02389574
-0.1748154 0.17394358 -0.17504206 -0.08640023 0.09352133 0.15729305 0.063177794 0.032238066
-0.13086885 -0.13438334 0.12868267 0.09973705 -0.08380675 0.17743048 -0.010831922 0.010006383
-0.04805973 -0.009052157 -0.12809464 -0.13545115 0.11915207 0.16670462 0.009855762 0.081692696
-0.08473682 0.09773567 -0.15996054 -0.17344111 0.011634737 0.025941417 0.12977219 -0.051131293
-0.13566862 -0.15581712 -0.060418315 -0.02787581 -0.11747406 0.047637597 -0.022950187 -0.10108139
0.06108375 0.12142876

l2.weight f4 [100, 50]
00000000: 80cb 4d3d ef2b c7bd 3c7a 893d c470 98bc
00000010: ac86 d1bd f272 f53d 9410 be3d acba ac3d
00000020: eaa1 bc3d 4afc 00be 7ab4 8a3d 5139 dcbd
00000030: dec8 b43d e8d2 283d a80f 2d3d d001 613c
00000040: c0b2 113c 9017 53bc 302b 173c ca20 d0bd
00000050: c042 863c 7ad5 d73d 078c 033e aef0 1cbd
00000060: ecfa 4c3d 0205 9abd daff d6bd ea4e f83d
00000070: e017 53bc a997 083e d8b9 03be dfc2 0fbe
00000080: 946a c9bc aa00 ac3d 4615 c3bd a098 08bc
00000090: 12c8 ec3d b473 0ebe 4454 0e3d 4011 edbb
000000a0: c2e7 de3d 8260 c43d 98df 66bd 62a2 8f3d
000000b0: 5613 dabd e869 7f3d 6eae e0bd ffe5 0b3e
000000c0: 6094 8ebb 8a4d f43d b050 523c 854a 06be
000000d0: 88a7 14bd 5ca4 843d 125f afbd 4a30 e2bd
000000e0: ccf8 4a3d e7d0 0c3e f5ab a5bd 2c04 bbbd
000000f0: 76f9 e03d 0c85 28bd 828e f33d f6fb ca3d
00000100: d450 c73d d8b5 573d 18ba f43c 7a06 a33d
00000110: c499 da3d 4cd4 ffbd afe0 e3bd b68b bfbd
00000120: 8e9e 6ebd 140d 4abd bc29 a0bc dcab bbbd
00000130: d029 843c ac25 ccbd b8a7 1ebd 7cd0 bc3d
00000140: f64c f6bd 980e b03c 2046 c0bc 6be3 09be
00000150: 34ac 9f3d e4c5 dd3d 7140 84bd b90d a8bd
00000160: b0f1 af3c 20c3 b33d 80a8 c33a a881 73bd
00000170: 1afe 1fbd 4041 d8bd aba1 053e 36b9 ffbd
00000180: 22dc de3d f439 093d 78bc 43bd aa91 acbd
00000190: 0241 f3bd a8bb 85bd ee90 db3d 0225 8d3d
000001a0: 7f14 afbd 6314 f2bd bc7d adbd fee4 f1bd
000001b0: 5e2c 963d b626 a73d 20ea 96bc 4966 8abd
000001c0: 86f5 cb3d 1680 d83d e86b ae3d 60f2 ad3d
000001d0: a88b a7bc d89d 75bd 04c4 d8bc 105f ba3c
000001e0: b829 1fbd a407 cfbc e09b f6bd 9a1d f83d
000001f0: eae6 20bd d25a c4bd 507f 8d3d 82a0 b6bd
00000200: acfb a9bc 0601 34bd 5e0e dc3d c1fd e2bd
00000210: 8d41 0c3e c453 dcbd 5cf5 593d 2001 0ebe
00000220: 9aef e23d 5fe8 91bd 867b 1ebd 80ef f9bb
00000230: e88c 703d cc48 0dbd fc6f 79bd 60d1 373d
00000240: 80be 6abd 3cc5 3ebd 82a3 adbd 4489 cebd
00000250: 71f4 92bd 42cc 06be 46d6 f6bd b4bc bfbc
00000260: 2c3e acbd fcf4 6dbd be19 ba3d f6c9 4abd
00000270: 7cdd c23d f62b 1cbd 9e1d 28bd ac16 8abc
00000280: e867 463d bc58 ffbc 3a52 bd3d f033 5abc
00000290: b53b 83bd 23bc 89bd b8b9 bcbd d86f dcbd
000002a0: 38f3 eb3c 20b1 9dbd 6cbf 9cbc 9c62 2b3d
000002b0: 28c6 8d3c 7ceb 98bd 1ce3 cf3d dc86 70bd
000002c0: e31d 04be 6a1e a6bd 3284 1fbd d6ca df3d
000002d0: 4035 97bc 664d fa3d 2e1f e8bd 4c19 01be
000002e0: c235 ce3d 7a52 d73d 54c4 a13d 30b9 06be
000002f0: 7c57 003d eae9 6abd 9282 ec3d 629f adbd
00000300: 76ac 53bd 8e41 f33d 8894 053d a766 0f3e
00000310: aed5 aebd 36ce fb3d 54e0 ac3d 28cd d13c
00000320: 7d40 013e 5645 f73d fcdc b0bd 08b9 013d
00000330: 7ce3 4abd 1064 b43d afec 84bd 5294 07be
00000340: 260d 1ebd 0352 0b3e 155e 00be c834 853d
00000350: c66b f8bd d49e d4bd 4072 2ebc 884b d23c
00000360: 4643 0fbe 894e 97bd 4001 7e3b e079 eabd
00000370: f2d6 f43d eed8 ab3d a07f dc3b e5a2 9cbd
00000380: 9884 64bd b7c7 0d3e dce4 613d 203c 6ebd
00000390: 6865 b83d 065f 45bd 092d 95bd 980e 103d
000003a0: 0a9a cabd 5029 03bc 188c bfbc 7820 483d
000003b0: bcbe 05be 663d 42bd a5f2 0e3e c0d0 1e3d
000003c0: 7e55 a73d 9114 003e 2440 583d 660a 953d
000003d0: b21c 8a3d 1892 fa3c 0ac7 e5bd f6ba 963d
000003e0: da6b e63d 7698 ab3d cfd8 053e 30a6 c73c
000003f0: ce59 0abe 4c23 a4bc 405d 89bb 1403 a83d
0.0502429 -0.097251765 0.067127675 -0.018608458 -0.10230765 0.11984815 0.09280506 0.08434042
0.0921057 -0.1259624 0.067727044 -0.1075312 0.08827375 0.04121676 0.04225126 0.013733342
0.008892715 -0.012884036 0.009226605 -0.10162504 0.01638925 0.10538764 0.12846385 -0.038315468
0.050043985 -0.075204864 -0.104980186 0.12124427 -0.01288411 0.13339104 -0.12863863 -0.14039181
-0.024586953 0.08398564 -0.09525542 -0.00833717 0.11561598 -0.13911325 0.03474833 -0.0072347224
0.10884048 0.0958872 -0.05636558 0.07013394 -0.10648219 0.06235686 -0.1097077 0.13661955
-0.004351184 0.11928852 0.01283662 -0.13114364 -0.036292583 0.064766616 -0.08563055 -0.11044367
0.049553677 0.13751565 -0.08089439 -0.09131655 0.10985081 -0.04114251 0.118924156 0.09911339
0.097322136 0.052663654 0.029873893 0.0796022 0.1067386 -0.12491664 -0.11126839 -0.093528196
-0.05825668 -0.04932888 -0.01955115 -0.09163639 0.016133219 -0.09968123 -0.038734168 0.09219453
-0.12026398 0.021491334 -0.023470938 -0.1346566 0.07796517 0.1082876 -0.06457604 -0.082057424
0.02147755 0.087774515 0.0014927536 -0.05944982 -0.03906069 -0.105593204 0.13049953 -0.12486498
0.10881831 0.033502534 -0.04778716 -0.08426221 -0.11877634 -0.06529933 0.107210025 0.06891824
-0.08548831 -0.11820295 -0.084712476 -0.11811255 0.07332681 0.081616804 -0.018422186 -0.067577906
0.09958939 0.105713055 0.08516675 0.08493495 -0.020452335 -0.059964985 -0.026460655 0.022750407
-0.038858145 -0.025272198 -0.120414495 0.12115021 -0.039282717 -0.09587635 0.069090486 -0.08917333
-0.02074989 -0.04394629 0.10744928 -0.11083556 0.1369688 -0.107581645 0.05321251 -0.13867617
0.110808566 -0.071243994 -0.03869202 -0.0076274276 0.05872813 -0.034493253 -0.060897812 0.04487741
-0.05731058 -0.046574816 -0.08478452 -0.10084775 -0.0717553 -0.13163856 -0.12052588 -0.02340541
-0.08410296 -0.058094963 0.09086941 -0.04950901 0.09514901 -0.038127862 -0.04104387 -0.016856514
0.048438936 -0.031170242 0.09244199 -0.013318047 -0.064078726 -0.06725337 -0.092151105 -0.1076352
0.0288025 -0.076997995 -0.019134246 0.041842088 0.017306402 -0.0746679 0.101507396 -0.058722362
-0.12902026 -0.0811127 -0.03894443 0.1092736 -0.018458009 0.12221794 -0.11334072 -0.12607306
0.10068847 0.10513778 0.07898775 -0.13156581 0.03133343 -0.057351984 0.11548342 -0.084776655
-0.051678143 0.11877738 0.032612354 0.14004003 -0.0853685 0.12295191 0.08441225 0.025610521
0.12622257 0.12073772 -0.086358994 0.0316706 -0.049533352 0.08808148 -0.06490456 -0.13240173
-0.038586758 0.13605504 -0.1253589 0.06504208 -0.12129931 -0.103818566 -0.0106473565 0.025670782
-0.13990507 -0.07388026 0.003875807 -0.11449027 0.1195506 0.083909854 0.0067290813 -0.07648257
-0.055790514 0.13845716 0.055149898 -0.05816281 0.09003717 -0.048186325 -0.072839804 0.035170168
-0.09892662 -0.008005455 -0.023382232 0.04885909 -0.1306104 -0.047421835 0.13959749 0.0387733
0.08170603 0.12507845 0.052795544 0.07277374 0.067437544 0.030587241 -0.11219604 0.07359879
0.1125104 0.08378689 0.13070987 0.024371237 -0.1351082 -0.020036362 -0.0041920245 0.08203712

l2.bias f4 [100]
00000000: 3abe e43d 40e2 8c3b 6c01 10bd 4684 2fbd
00000010: 88d1 933c 3699 f93d 44ee 05be d441 36bd
00000020: 607f f3bb d807 0fbe af8e 99bd 32d4 ee3d
00000030: ee58 20bd 68c6 cdbd 6cb4 783d 90e6 d43c
00000040: 76a8 57bd 37d9 01be 2088 e93c c257 fa3d
00000050: f280 fd3d 24ae 8d3d f8be 2f3d 2e62 c8bd
00000060: 4057 173d 4016 9f3b a01f 2d3c 0685 e73d
00000070: 1814 863c 189a a53d 5ad5 ce3d 5711 99bd
00000080: a451 cc3d ccaa cebc f827 073d 685a 6ebd
00000090: 18f3 8e3d 0c1e 403d 98c5 9dbc b07e 1c3c
000000a0: a09a 6abc ec7a d63d 43c8 03be 787a c83c
000000b0: c2b2 ce3d 8a6c adbd 705c 25bc ece6 513d
000000c0: 28dd ba3d 295a e8bd f75a ddbd 55c8 81bd
000000d0: b4b6 fcbd 7046 033d 2c4e 773d 10c8 c43d
000000e0: e81b 8e3d 8849 253d 35e6 98bd 44ba d0bd
000000f0: db72 0f3e 2052 bd3d 38dd e43c 08ba 82bd
00000100: 90f6 69bd 1814 46bd 9475 2d3d 8079 4bbc
00000110: c0d6 373c 9033 7cbc b94f 023e 62a4 34bd
00000120: 90df 1d3d eced aebd fad5 c3bd 90cf 133d
00000130: 582c 38bd 50d9 723c 68ea 6b3d 0821 22bd
00000140: 9776 b9bd a6c1 b2bd 604a cb3b 40fe 5ebd
00000150: c076 cabd 4a13 fe3d 7caa 7e3d 709b 3b3d
00000160: 002c b33c 6357 10be e403 d7bd 9fb1 9cbd
00000170: dfd8 0cbe bd43 0bbe b258 6fbd 2ecf d83d
00000180: 2521 0c3e 1a8e da3d f0e2 90bc 9269 97bd
0.11169095 0.004299432 -0.035157606 -0.042850755 0.018044248 0.12187426 -0.13079172 -0.044496372
-0.007430956 -0.13967836 -0.07497918 0.11661567 -0.03914731 -0.100476086 0.06071894 0.025988847
-0.05265089 -0.12680517 0.028507292 0.1222377 0.1237811 0.0691798 0.04290673 -0.09784351
0.036948442 0.0048549473 0.010566622 0.11304669 0.016367003 0.08086032 0.10099287 -0.074740104
0.09976509 -0.025227927 0.0329971 -0.058191687 0.0697996 0.046903655 -0.01925926 0.009551689
-0.014319092 0.10472664 -0.12869363 0.02447246 0.10092689 -0.08467968 -0.01009284 0.051245615
0.091242135 -0.11345322 -0.10808366 -0.063370384 -0.12339535 0.032049596 0.060377285 0.096084714
0.069389164 0.040353328 -0.074657835 -0.10191777 0.14008658 0.0924418 0.027937517 -0.06383139
-0.057119906 -0.048359007 0.04234846 -0.012419105 0.011220634 -0.015393153 0.12725724 -0.04410208
0.038543284 -0.08541474 -0.09562297 0.03608662 -0.044964164 0.014822319 0.057596594 -0.039582282
-0.09055822 -0.08728342 0.0062039346 -0.05444169 -0.09885931 0.12406023 0.062174305 0.045802534
0.021871567 -0.14095835 -0.10498789 -0.07651066 -0.13754605 -0.13600059 -0.058434196 0.105863914
0.13684519 0.10671635 -0.017686337 -0.07393183

l3.weight f4 [30, 100]
00000000: 5170 9c3d b3de bc3d 1740 37bd d2e3 83bd
00000010: d803 3c3c 907a 5cbd c34c c53d f5d6 9dbd
00000020: f910 8b3d 89ed b33d f5fd b9bd f650 5a3d
00000030: 006c b13b bdec 3bbd 740e 87bc 9ad9 0dbd
00000040: 5abc 17bd d053 3cbc 5415 c2bc 397c a23d
00000050: e84b 0b3c b51b 86bd e0c7 b63b 3490 b33c
00000060: 7eea 82bd 5752 22bd 1ae5 663d 700f 2d3c
00000070: e632 7e3d fd9e 5cbd b79c 963d ac25 c53c
00000080: 10c6 69bd da59 00bd 2527 ccbd 50bd 1dbc
00000090: 963e 7d3d e625 6b3d 10f1 70bd 68ff 28bc
000000a0: 402e ba3c e4f1 f33c e816 d5bc 60e8 c93b
000000b0: 25fd 903d 4975 cb3d be64 073d ac1b 883c
000000c0: 19af b43d 1f6d 9a3d d49c c0bc 0c25 923c
000000d0: cfdc a93d c83b b2bc de5d 2f3d 494d ac3d
000000e0: 1c48 dd3c 58b6 8ebd 508c b1bb ddc9 b53d
000000f0: 0dde c83d 5876 92bd eb49 96bd e042 b0bc
00000100: db20 cb3d 5aeb 073d 23bc 70bd 32b2 283d
00000110: 98d7 c3bc 7063 04bd 7020 23bc acf9 833c
00000120: e861 edbc f3e5 b1bd f387 20bd edef 24bd
00000130: c01e 6dbd e8ba 01bc 9195 b53d 0540 b03d
00000140: 51b1 be3d 5770 4fbd 0c1a 8c3c 0a80 4dbd
00000150: d3a9 9cbd 4418 da3c bd15 ba3d f4e9 ac3c
00000160: 20d2 7dbd 42d9 163d 13de b93d b8e2 87bc
00000170: 1ad3 45bd 5853 29bc 9ff2 ae3d 7fc3 c73d
00000180: b771 a33d 9a22 783d 107d 36bc f613 7c3d
00000190: ed19 933d b2bd 1e3d c0d2 3ebd 330f 31bd
000001a0: 235a b33d 6d54 8fbd 00f9 673a 6434 dc3c
000001b0: 673e 32bd 0bfe c4bd 3088 7abc 062d 6b3d
000001c0: 8c4c b33c 7788 35bd 8bc8 803d d133 b13d
000001d0: 059a 8f3d e863 d0bc 9c5b 89bd dd2d 72bd
000001e0: acbb fd3c b0c3 72bc e868 41bc c156 963d
000001f0: 490e b93d 26ee 783d 8083 86bb 413b b63d
00000200: 60e1 d5bb ae5e 3d3d 52cb 5f3d 3058 433c
00000210: 9056 7cbd 93ea c73d 14ad edbc 18df 8cbd
00000220: 1080 113c fe55 83bd a82b 8cbd ccd3 fdbc
00000230: 3872 e2bc 6f8e bbbd 2197 b33d 0c84 b03c
00000240: 0ec7 88bd 7462 08bd 0c7d d9bc d248 763d
00000250: 5843 973c 1ab5 87bd 629c 2b3d a63f 7b3d
00000260: 37c4 43bd ba22 093d e25f 063d d812 86bc
00000270: b139 8c3d a831 1bbc 96b0 083d eec8 acbd
00000280: 9eda 563d e15f b73d c470 06bd 5eaf 97bd
00000290: 18db b2bd 0213 243d e8c1 abbd 6a61 99bd
000002a0: 925c 0f3d 79d3 a13d 8817 8fbc ec8d e5bc
000002b0: a89d 25bc bdd0 9b3d ed72 9e3d 658f 84bd
000002c0: 0a71 49bd 1565 99bd c03c 87ba 6b93 963d
000002d0: 631a 9d3d c5b1 813d a0d9 2c3b 3346 823d
000002e0: 9450 84bd 009b c4bd 1036 bbbd f4f5 ea3c
000002f0: d796 5dbd 4ad9 a4bd d48a adbc 38f5 b3bc
00000300: 4176 cc3d 8094 9fbc b08c f13b 562d 553d
00000310: 459e 81bd 22f8 c1bd 1c37 13bd 73ae c13d
00000320: 00d6 e83b b641 673d b231 593d f219 3b3d
00000330: b0c3 09bd 8efa 6d3d a7e1 833d 58b6 6abc
00000340: c0ec 8eba 78cb bfbc 522e 053d 375e 58bd
00000350: 8247 503d 505b e0bb 30b4 303c f2a8 773d
00000360: 2323 2abd 9846 3d3c ca87 5d3d aef0 003d
00000370: bd74 90bd 6ad5 48bd 900b 42bd 8da4 5bbd
00000380: b04c 32bc 7fc3 c2bd 950c a0bd 81d0 9f3d
00000390: a59b 873d e0e4 bebd 1dd9 c03d 577d 3abd
000003a0: cc79 8b3c 5bca b5bd 67b9 4fbd 0e14 5c3d
000003b0: e000 41bd 3f5e cb3d 3267 363d 124a 373d
000003c0: b3c6 a2bd d0b4 c53b e86d dbbc 9b48 863d
000003d0: 8a30 7e3d ae4e 233d 40af 7b3c 54b4 d13c
000003e0: f5d9 91bd 0340 20bd 0015 c2bd 6323 a1bd
000003f0: 3136 cb3d 0628 533d 2ac5 6bbd c99d c23d
0.0763861 0.09222164 -0.044738855 -0.06439938 0.011475526 -0.053827822 0.09633782 -0.077070154
0.06790347 0.087855406 -0.090816416 0.053299867 0.005414486 -0.045880068 -0.016486384 -0.03463135
-0.03704486 -0.011494592 -0.02369181 0.0793385 0.008501984 -0.065482534 0.005578026 0.021919347
-0.06392382 -0.039629307 0.056370832 0.010562763 0.06206026 -0.05386256 0.0735411 0.024065815
-0.057073653 -0.03133569 -0.09968404 -0.009627655 0.061827265 0.05740919 -0.058823645 -0.0103148
0.022727132 0.029778428 -0.0260119 0.0061617345 0.070795335 0.0993448 0.03305506 0.016614757
0.0882246 0.075403444 -0.023512281 0.017839931 0.08294069 -0.021757022 0.042814128 0.084131785
0.027011923 -0.06968373 -0.005418338 0.08876393 0.09807978 -0.071514785 -0.073383175 -0.021516263
0.09918376 0.033183433 -0.05877317 0.041185565 -0.023906514 -0.032321393 -0.009956464 0.016110264
-0.02897735 -0.086864375 -0.03919215 -0.040267874 -0.057890654 -0.007918097 0.08866418 0.08605961
0.09311164 -0.050644245 0.017102264 -0.050170936 -0.07649579 0.026622899 0.090861775 0.021107651
-0.06196797 0.036828287 0.090755604 -0.0165876 -0.048297025 -0.010334812 0.0854237 0.09754085
0.07980674 0.060579874 -0.011138216 0.061542474 0.07182679 0.038755126 -0.046587706 -0.043227386
0.087574266 -0.06998525 0.00088490546 0.02688045 -0.043516543 -0.09618767 -0.015291259 0.057415985
0.021887086 -0.044319596 0.062882505 0.08652461 0.07011799 -0.025438264 -0.06706926 -0.05912577
0.030973278 -0.014817163 -0.011804797 0.07340766 0.09035928 0.06077399 -0.0041050315 0.088980205
-0.006527111 0.04623287 0.05463726 0.011922881 -0.06160599 0.09761538 -0.029013194 -0.06878489
0.00888063 -0.06412886 -0.06844264 -0.030984782 -0.027642354 -0.091580264 0.0876906 0.02154734
-0.06678592 -0.033297017 -0.026548885 0.06012804 0.01846473 -0.06626339 0.041897185 0.061339997
-0.047794547 0.033480383 0.032806285 -0.016366407 0.06846941 -0.009472288 0.03337153 -0.08436762
0.052454583 0.08953834 -0.032822385 -0.074064955 -0.08733195 0.04005719 -0.08386594 -0.074892834
0.03500039 0.07901663 -0.017467275 -0.028021775 -0.010108389 0.07608173 0.07736764 -0.06472663
-0.049180068 -0.07489983 -0.0010317788 0.073523365 0.076710485 0.06332735 0.0026374832 0.06361046
-0.064606816 -0.095998764 -0.09141171 0.028681733 -0.05409893 -0.08049257 -0.021184362 -0.021967515
0.09983493 -0.01947999 0.0073715076 0.05204519 -0.06329016 -0.09471156 -0.03594123 0.09457102
0.007105589 0.05645915 0.05302591 0.04567904 -0.033633888 0.058100276 0.06439524 -0.014325701
-0.0010904297 -0.023412451 0.032514878 -0.052824225 0.050849445 -0.006846823 0.010785148 0.060463853
-0.041537415 0.011552475 0.054084577 0.03147953 -0.07053516 -0.049031653 -0.047374308 -0.053623725
-0.010882542 -0.09509944 -0.078149 0.07803441 0.06621484 -0.09320998 0.09416411 -0.04552969
0.01702585 -0.08876487 -0.050713923 0.053730063 -0.047119975 0.099300854 0.04453201 0.044748373
-0.07948055 0.0060335174 -0.026785806 0.06556817 0.06205801 0.039869957 0.015361607 0.025598682
-0.0712165 -0.039123546 -0.09476662 -0.078680776 0.099224456 0.05155184 -0.057561077 0.095027514

l3.bias f4 [30]
00000000: f67e 11bd 2ca8 d1bc 4030 8cbc ddc0 b2bd
00000010: 3a7b 733d 5daa bb3d 89e5 a63d 106f 193c
00000020: b672 15bd 6c43 9fbc f719 4bbd 5aaf b9bd
00000030: f481 d3bc 98f9 4c3c 349f e03c a04f 863b
00000040: e98e 823d 6083 123b 833a 73bd b462 09bd
00000050: 8093 f13b 7f03 c6bd 2776 44bd ddad 933d
00000060: 60cb a2bc 8322 a63d 3a8c 7c3d 9ab0 7c3d
00000070: 5826 cbbd 3d3d 64bd
-0.03552147 -0.025592886 -0.017112851 -0.08728192 0.05944369 0.091633536 0.08149249 0.009364858
-0.03648635 -0.019441329 -0.04958531 -0.09066649 -0.025818802 0.01251068 0.027419664 0.0040988475
0.06374914 0.0022356138 -0.059381973 -0.033541396 0.0073723197 -0.096686356 -0.04796424 0.07210896
-0.019872367 0.08112051 0.061657168 0.061691858 -0.09919423 -0.055722464

output.weight f4 [16, 30]
00000000: c010 0b3b e010 29be 0ecd 1cbe 969b 163e
00000010: 0cae 163d 6c7b 243e a8d3 813d 3e34 7ebd
00000020: 9bee 30be 40f6 f23d 0044 a639 4fbe 90bd
00000030: 700a aabc 0046 28bc 4077 d33b 90e1 41bd
00000040: 3d7c 21be 000d 043a 4019 9c3d 15f8 39be
00000050: acb8 1d3d 8054 a1ba f427 e63d e671 abbd
00000060: a80b 173e 1c50 59bd 9701 b8bd c0e3 973b
00000070: 20c5 34be 0575 f0bd 807d 1ebb 9c70 1cbe
00000080: b022 fdbd 08ae 863d 40a2 d63c 9846 393e
00000090: a094 af3c 5ce8 d43d 0034 e13c 004c 643a
000000a0: a070 cbbb f202 00be 6856 b63d a402 25be
000000b0: 3617 debd 7aeb 193e d065 c4bc 98f3 cd3d
000000c0: 44b6 c53d 9cf6 8d3d 7d3a 21be b8c1 693d
000000d0: 00e1 543c 18bb fc3d 6829 ddbd 9044 273c
000000e0: f458 323e 1496 003e 3c30 27be 00d7 623c
000000f0: 49dd 32be 0e9c 183e cccf 04be 74d8 213e
00000100: e854 253e 7dd1 9abd ae5e 363e 0c2f 333e
00000110: 7b7d 32be cc00 b83d 3c78 0f3e 38ad 2c3d
00000120: 4698 92bd c0c7 bc3d ab20 9bbd 1c4b 443d
00000130: 5a8a 22be dc80 31bd 9cf8 0b3d 0055 d93d
00000140: 484e b53c d8bb f73c 2447 053e 2a47 f1bd
00000150: 700c ec3d f883 363e 9c90 173e aea0 92bd
00000160: bb24 12be 9041 953d 28c7 3abe e0ea fd3d
00000170: 44a7 8e3d 3c90 b13d 20d4 283c b63c 2f3e
00000180: d63f 06be a431 6d3d 4408 da3d 3c7b fabd
00000190: 49a7 dbbd 9fea 1fbe 7a88 323e 18c3 1dbd
000001a0: 4211 0f3e 2bb2 32be 4a26 283e f532 f2bd
000001b0: fa95 023e e628 273e 886f e3bc 88fd b33d
000001c0: 68c7 efbc 182d 0dbe 38b4 9f3d c0cd fa3d
000001d0: 709e 77bd 7842 18be 2485 733d f06a c7bd
000001e0: 5055 8a3c fe44 373e 8a15 c8bd 51df c4bd
000001f0: 1c9a cebd d068 e33d 2c60 14bd 4da3 9ebd
00000200: 00f0 8bbb ee85 83bd c416 123e 70a7 92bd
00000210: 8cd3 7a3d edbc 3abe f09d 183e b8dd 1a3e
00000220: a0c6 643c 5c0b fe3d 446b 1bbd c8a5 4c3d
00000230: 48bd be3c dfde 1bbe b211 d3bd 4c68 973d
00000240: b462 753d b15d 28be bc3c 3e3d 8cfd c63d
00000250: a152 0ebe 8cfb 99bd e0bd 583c 5f3c 01be
00000260: da95 c6bd 66c8 0fbe 9061 fbbd a789 dcbd
00000270: a0eb c13d 948f 253e fe34 11be d2e6 cdbd
00000280: 6082 993d 585c 113d 788b ec3d 0001 7d3a
00000290: de40 133e 9cfc 3ebd 2916 1bbe 2254 113e
000002a0: de85 eabd fe0f 0d3e ccb1 fb3d eaa5 103e
000002b0: 2c9f 06be 2e96 363e d0e8 1f3c 723c c6bd
000002c0: ed99 e7bd 64bf 1abe 553f d1bd 4fef debd
000002d0: cc23 473d d08a 12be 9a3e 893d 64ae 0d3d
000002e0: b433 2a3e 6ce1 093e 5a3b 39be cc14 813d
000002f0: da6a 29be aa7f 1cbe 77cc 9cbd a81d 123e
00000300: 0c02 123d cc53 b63d 3bc2 e4bd 0087 5c3d
00000310: 1215 01be 5c34 cb3d 4a48 f4bd 14fd aa3d
00000320: 9060 3dbc 534b adbd 30aa eb3d e89a d7bc
00000330: 44a1 b73d b0ac 903d f874 1b3d 102b 3bbc
00000340: 4196 3abe 56c1 b4bd 0056 ab3b 18de b23d
00000350: 293f d0bd 53bc 3abe 5fed b4bd 02cb 1abe
00000360: 7438 2fbe 403b e03d 3262 eabd 34e9 713d
00000370: 98e2 bd3d 0474 0e3e 04cd 35bd f060 c03d
00000380: 00b6 6dbc 8a91 19be 541c 88bd 0467 16be
00000390: 6820 c13d d637 d8bd 51b8 0ebe 24e3 353e
000003a0: d816 a93d 3274 2c3e 18e5 223e 388e 0dbd
000003b0: b7d0 10be 4596 1ebe 00d3 39be 4044 303e
000003c0: a011 0cbe 4c05 033d d416 8d3d ad9a d0bd
000003d0: 76f9 f2bd a873 d33c 20bb 5cbd 94b6 0a3e
000003e0: 4875 dc3d 4814 acbc 0c07 23be 30b4 ee3d
000003f0: c0d8 433b f801 cf3c f885 c23c d8b0 993d
0.00212197 -0.16510344 -0.15312597 0.14707789 0.036787078 0.16062707 0.06339198 -0.06206154
-0.17278521 0.11863375 0.0003171265 -0.070675485 -0.02075693 -0.010270596 0.0064534247 -0.047334254
-0.1577005 0.00050373375 0.076220036 -0.18161042 0.038506195 -0.0012308508 0.11238089 -0.08371334
0.1475054 -0.053054914 -0.08984678 0.004635304 -0.17653322 -0.1174107 -0.002418369 -0.15277332
-0.12360132 0.065761626 0.026200414 0.18093336 0.021433175 0.103958815 0.027490616 0.00087088346
-0.0062084943 -0.12501124 0.089031994 -0.16114289 -0.10844271 0.15031233 -0.02397433 0.100562274
0.09653905 0.06931803 -0.15744968 0.05706951 0.012993097 0.12340373 -0.10798913 0.010209218
0.17416745 0.1255725 -0.16326994 0.013845205 -0.17467226 0.1490328 -0.12969893 0.15805227
0.1614567 -0.07559488 0.17809555 0.17498416 -0.1743068 0.08984527 0.1401071 0.04215738
-0.0715795 0.09217787 -0.0757459 0.047923192 -0.1587309 -0.04333578 0.03417264 0.106119156
0.022132054 0.030240938 0.13015419 -0.117811516 0.1152581 0.1782378 0.14801258 -0.071595535
-0.14271824 0.07287896 -0.18240035 0.123983145 0.06965497 0.08670089 0.010304481 0.17113003
-0.13110289 0.05790867 0.10646108 -0.12230536 -0.107252665 -0.15616845 0.17434874 -0.038516134
0.13971427 -0.17450778 0.16420856 -0.118261255 0.12752524 0.16324195 -0.027763143 0.087885916
-0.029269889 -0.13786733 0.07798046 0.12246275 -0.060453832 -0.14869106 0.059453145 -0.097371936
0.016886383 0.17897412 -0.09769733 -0.09612907 -0.10087988 0.11103976 -0.03622453 -0.07745991
-0.0042705536 -0.064220294 0.14266497 -0.071608424 0.061236903 -0.18236132 0.14903998 0.15123641
0.0139633715 0.124045104 -0.037944093 0.04996279 0.023283616 -0.15221737 -0.103061095 0.0739294
0.059908584 -0.1644199 0.04644464 0.09716329 -0.13898708 -0.07518682 0.0132288635 -0.12620686
-0.09696551 -0.1404129 -0.12274468 -0.107684426 0.0946877 0.16168052 -0.14180371 -0.10053791
0.0749557 0.035488456 0.11550039 0.0009651333 0.14380214 -0.046627626 -0.15145172 0.1419225
-0.114513144 0.13775632 0.122897714 0.14125791 -0.13146657 0.17830727 0.009760097 -0.09679498
-0.11308656 -0.15112072 -0.10217158 -0.10885488 0.048618123 -0.14310765 0.067013934 0.03459014
0.16621286 0.13464898 -0.18089047 0.06302795 -0.16544667 -0.15283075 -0.07656186 0.14269125
0.035646483 0.08902702 -0.11169859 0.053839684 -0.12605694 0.09922096 -0.119278505 0.08349052
-0.011558667 -0.084616326 0.1150707 -0.026318982 0.08966306 0.070641875 0.037953347 -0.011423841
-0.1822138 -0.088259384 0.005228758 0.08733767 -0.10168297 -0.18235902 -0.088343374 -0.15116504
-0.17111379 0.10948801 -0.114445105 0.05906029 0.09271735 0.13911444 -0.04438497 0.09393489
-0.014508724 -0.14996925 -0.06646028 -0.14687735 0.09430009 -0.10557525 -0.13937499 0.17762429
0.0825631 0.168412 0.15907705 -0.03455946 -0.14142118 -0.15487011 -0.18146896 0.17213535
-0.13678598 0.031987473 0.0688912 -0.10185752 -0.11863987 0.025811985 -0.053889394 0.1354621
0.10764557 -0.021005765 -0.15920657 0.11655462 0.0029883832 0.025269493 0.023745522 0.075044334

output.bias f4 [16]
00000000: b3b7 1bbe b075 dd3d 08d4 a7bd 786a 9b3d
00000010: f43c e23d c44e 073d 8455 4ebd 009a 4ebc
00000020: c8cf acbc 7460 0bbd 4a4b 853d 7498 fb3d
00000030: 621c f4bd ac7d 313d b648 243e b409 de3d
-0.15206794 0.10813463 -0.081947386 0.07588667 0.11046782 0.0330341 -0.050374523 -0.012609959
-0.021095172 -0.03402753 0.06508501 0.122849375 -0.11919476 0.04333274 0.16043362 0.108416945
