Simple_ANN_experience/saved_model/simpleANNlr=0.005bs=512_mass_balance.pt (torch, 34575 bytes, 8 tensors)

l1.weight f4 [50, 14]
0	0xbdde74c2	-0.108621135
1	0xbdec10cc	-0.11526641
2	0x3e82d33f	0.25551793
3	0xbe13583a	-0.14389125
4	0x3dbaa860	0.09114146
5	0x3cc6f2a0	0.024285614
6	0x3e79f27e	0.2440891
7	0x3e42dc56	0.19029364
8	0xbe5b0e12	-0.21392086
9	0x3e84d041	0.25940135
10	0x3db1560c	0.0865899
11	0x3e2c3ba0	0.1681962
12	0x3e10595a	0.14096585
13	0xbe3daf6c	-0.1852395
14	0x3e4d7656	0.20064673
15	0x3da51dfc	0.0806236
16	0x3d484b18	0.04889974
17	0x3e10f09a	0.14154282
18	0xbe061f83	-0.13097958
19	0xbdda73b6	-0.10666601
20	0x3e64fc4a	0.22361866
21	0xbc43f0e0	-0.011959285
22	0xbe71be4b	-0.23607747
23	0xbdcfb794	-0.101424366
24	0x3e50af1e	0.20379302
25	0x3c07a5c0	0.008279264
26	0x3e3fa85a	0.18716565
27	0xbe7d3076	-0.24725518
28	0x3e83d529	0.25748566
29	0x3e7a2812	0.24429348
30	0x3d10f0e8	0.035385996
31	0xbe81f68f	-0.25383422
32	0x3dc1aeb4	0.0945715
33	0x3e3fddb2	0.18736914
34	0x3e7ee2c2	0.24891189
35	0xbe607b4a	-0.21922031
36	0xbe4e590b	-0.20151155
37	0xbdb32e58	-0.08749074
38	0x3d9cef04	0.07662776
39	0xbd50d7ac	-0.05098693
40	0xbce6c908	-0.028172031
41	0x3dca6298	0.098820865
42	0xbcfd5d08	-0.03092815
43	0x3e1751ca	0.14777294
44	0x3da70adc	0.08156368
45	0x3e05cb5c	0.13065857
46	0xbd7c89b0	-0.061654747
47	0xbd21241c	-0.039341077
48	0xbd8f838c	-0.070075125
49	0x3e2da03c	0.16955656
50	0x3d776750	0.06040126
51	0xbe1e2dfe	-0.15447232
52	0x3e34172e	0.17586967
53	0xbe47869a	-0.1948494
54	0x3e588d12	0.21147564
55	0xbe2e34b6	-0.17012295
56	0x3d864410	0.06555951
57	0x3d9f2d5c	0.077723235
58	0xbe7a2ff4	-0.24432355
59	0x3e2ef2a4	0.17084748
60	0xbdff40c2	-0.124635234
61	0x3e62bf00	0.22143173
62	0x3e17d876	0.14828667
63	0xbe5f6150	-0.21814466
64	0xbe68284f	-0.22671627
65	0xbdd81dd0	-0.10552561
66	0xbe82f3b1	-0.25576547
67	0x3d0dd068	0.03462258
68	0xbe31bac5	-0.17356403
69	0xbe72e678	-0.2372073
70	0xbe5e3511	-0.2169993
71	0xbd066cf4	-0.03281875
72	0xbe6ff79e	-0.23434302
73	0xbdf3a546	-0.11896758
74	0xbde9fae0	-0.11424804
75	0xbe862177	-0.26197407
76	0x3d246548	0.04013565
77	0xbe5e10ba	-0.21686068
78	0xbe84e96a	-0.2595933
79	0xbe7fdbf7	-0.24986254
80	0x3e72e10e	0.23718664
81	0xbd9786ee	-0.07398783
82	0xbd9ff016	-0.07809465
83	0xbdaec74a	-0.08534105
84	0x3e2abfdc	0.16674751
85	0xbcca9170	-0.024727553
86	0x3e7a87f2	0.24465922
87	0xbe424d64	-0.18974835
88	0x3dcbc004	0.099487334
89	0xbe7cd721	-0.2469144
90	0xbe261cd0	-0.16221929
91	0x3dbe99b0	0.09306657
92	0xbd365044	-0.04451014
93	0xbdaa16c0	-0.083051205
94	0x3e57c8fa	0.2107276
95	0x3e47bb02	0.19504932
96	0x3e628f26	0.2212492
97	0x3e43d754	0.1912511
98	0x3dcc6200	0.099796295
99	0x3e158a2a	0.14603487
100	0x3c8d6fe0	0.01726526
101	0x3e5118be	0.20419595
102	0xbc001660	-0.007817835
103	0xbe74db1c	-0.23911709
104	0x3e508fb4	0.20367318
105	0xbce6d210	-0.028176337
106	0x3d568058	0.052368492
107	0xbde4540e	-0.11148845
108	0xbe439960	-0.19101477
109	0xbe164f56	-0.14678702
110	0x3ddbc718	0.107313335
111	0x3e6cbb4a	0.2311832
112	0xbe0f3580	-0.13985252
113	0xbe04b94c	-0.1296131
114	0x3e6f7cee	0.233875
115	0xbe009089	-0.12555136
116	0x3da29794	0.079390675
117	0xbe7c3402	-0.24629214
118	0xbd53dc64	-0.051723853
119	0xbe18f4fe	-0.14937207
120	0x3ca9c4a0	0.02072364
121	0x3e0b201c	0.13586468
122	0x3dd7c284	0.10535148
123	0xbe77d6be	-0.24203011
124	0x3e0b569e	0.1360726
125	0x3e807237	0.2508714
126	0x3e63d3e4	0.22248799
127	0xbda85b1e	-0.08220504
128	0x3e5f935e	0.2183356
129	0xbe4d35b8	-0.20040023
130	0x3e470a90	0.19437623
131	0xbdefe18c	-0.117129415
132	0x3e5fc6fc	0.2185325
133	0xbe5f107f	-0.21783637
134	0x3da634ac	0.08115515
135	0x3cd885c0	0.026430964
136	0xbe29bf0e	-0.16576788
137	0x3d9313f0	0.07181537
138	0x3e59223a	0.21204463
139	0xbc363a80	-0.011122346
140	0xbe1a3978	-0.15060985
141	0xbd55d1f8	-0.052202195
142	0xbe03d03f	-0.12872408
143	0xbe4e6db2	-0.20159033
144	0x3e5b6da8	0.2142855
145	0xbe3ca9ac	-0.184241
146	0x3e1d3c20	0.15354967
147	0xbe596958	-0.21231592
148	0x3e588538	0.21144569
149	0x3e817461	0.25284103
150	0xbd7a526c	-0.06111376
151	0xbdf16aac	-0.11787924
152	0xbe2cc693	-0.16872625
153	0xbd15c05c	-0.0365604
154	0xbce70080	-0.02819848
155	0xbe247382	-0.16059688
156	0x3dcb69dc	0.099323004
157	0xbe6ae7fc	-0.22940058
158	0x3d4cbca8	0.049984604
159	0x3e880cbd	0.2657222
160	0x3def0d00	0.116724014
161	0xbe675866	-0.22592315
162	0xbe3b10ff	-0.18268202
163	0xbcb9d750	-0.022685677
164	0x3e435326	0.19074687
165	0x3db20aac	0.08693442
166	0x3de02b3c	0.10945746
167	0xbd93c76e	-0.072157726
168	0xbd87d156	-0.066317245
169	0xbe6cb301	-0.2311516
170	0xbd6a2224	-0.057161465
171	0xbe5701ba	-0.20996752
172	0xbe13e0fe	-0.14441296
173	0xbcb15778	-0.021648154
174	0xbd9189da	-0.07106371
175	0x3d9ff7ac	0.078109115
176	0x3e056ba6	0.13029346
177	0x3e6b47bc	0.22976583
178	0xbe61a3aa	-0.22035089
179	0x3e67ab8a	0.2262403
180	0x3e07058c	0.1318571
181	0xbe0b153c	-0.13582319
182	0x3e172928	0.14761794
183	0xbd77e3f0	-0.060520113
184	0xbdf9021e	-0.12158607
185	0x3df9b5ec	0.12192902
186	0xbddde38e	-0.10834418
187	0x3e51513a	0.20441142
188	0x3d8fa700	0.070142746
189	0xbe814487	-0.25247595
190	0x3e82deff	0.25560758
191	0x3d32fab0	0.043696105
192	0x3cea5660	0.02860564
193	0x3dc7ddd8	0.0975911
194	0xbe4de5f8	-0.20107257
195	0x3e7c9ede	0.24669978
196	0x3dc4ada0	0.09603429
197	0xbe4c1695	-0.1993049
198	0xbe5b19ec	-0.21396607
199	0x3c19f240	0.009396136
200	0x3d4d1398	0.050067514
201	0xbe72e0f3	-0.23718624
202	0xbe3ff268	-0.18744814
203	0xbdd76d4e	-0.10518895
204	0x3e62ae66	0.2213684
205	0x3e86ea9f	0.26350877
206	0x3e5125f8	0.2042464
207	0xbe165d14	-0.14683944
208	0x3de37d78	0.11107916
209	0x3e1af70e	0.15133306
210	0x3d6ca688	0.057776004
211	0xbe3b879a	-0.18313447
212	0x3e84b9b5	0.25922933
213	0xbe830580	-0.25590134
214	0xbe03e41d	-0.12879987
215	0x3d435a78	0.0476937
216	0xbe4c2b29	-0.1993834
217	0xbe840857	-0.25787613
218	0x3e3fbbcc	0.18723983
219	0x3df25c8c	0.11834058
220	0xbe4658c3	-0.19369797
221	0xbd5017e0	-0.05080402
222	0xbd0280c0	-0.031861067
223	0x3e222400	0.15834045
224	0x3e444668	0.19167483
225	0x3c9a85b0	0.018862575
226	0x3e20fad4	0.15720683
227	0x3d71af00	0.059004784
228	0xbe553084	-0.20819288
229	0xbe0e7982	-0.13913539
230	0x3e04a28a	0.12952629
231	0xbe3e9d9a	-0.18614808
232	0x3de09218	0.10965365
233	0xbe5c56ca	-0.21517482
234	0x3e05e702	0.13076404
235	0xbdfba622	-0.12287547
236	0xbcdf53d8	-0.02726166
237	0x3da72df8	0.08163065
238	0x3dfa9320	0.12235093
239	0x3e820991	0.25397924
240	0xbe3c7106	-0.1840249
241	0x3cd5fc20	0.0261212
242	0x3dd25538	0.102701604
243	0x3d21b790	0.0394817
244	0xbe3136b6	-0.17306027
245	0xbe82633a	-0.2546633
246	0xbe3e5b96	-0.18589625
247	0xbd8077a6	-0.06272821
248	0xbbba4940	-0.0056850016
249	0xbe5c5b7d	-0.21519275
250	0x3e498e02	0.19683078
251	0x3d569318	0.052386373
252	0xbe87aa8f	-0.26497313
253	0x3d491680	0.049093723
254	0x3ddd0d90	0.107936025
255	0x3e5900fe	0.21191785

l1.bias f4 [50]
0	0x3decfa44	0.11571172
1	0x3e0bf4fe	0.13667676
2	0x3e2034d4	0.15645152
3	0x3daf72d4	0.085668236
4	0xbdde36e8	-0.10850316
5	0xbe483f96	-0.19555506
6	0x3d3218c8	0.043480664
7	0xbe85f70a	-0.26165038
8	0x3e765e1a	0.24059334
9	0x3e304a6c	0.1721589
10	0x3dfa5130	0.122225165
11	0x3e28fd9c	0.16502994
12	0xbd5ec0cc	-0.054383084
13	0xbda6ec04	-0.08150485
14	0x3db393c0	0.087684155
15	0xbdcac852	-0.09901489
16	0x3d393da0	0.045224786
17	0xbda5ab92	-0.08089365
18	0x3e431516	0.19051012
19	0xbe4d086e	-0.20022747
20	0xbb017e00	-0.001975894
21	0x3e3f3a94	0.1867469
22	0xbe467133	-0.1937912
23	0x3e210e70	0.15728164
24	0x3e45bb32	0.1930969
25	0xbe5a2ff8	-0.21307361
26	0xbe440022	-0.19140676
27	0xbe525946	-0.20541868
28	0xbd6b1bb4	-0.057399467
29	0xbe1511e4	-0.14557606
30	0xbdaa4e02	-0.0831566
31	0xbe2777a4	-0.16354233
32	0xbe4933ec	-0.19648713
33	0xbe02019c	-0.12695926
34	0x3e342e5a	0.17595807
35	0xbdfed3ba	-0.124427274
36	0x3c840c50	0.016119152
37	0x3dc29e00	0.09502792
38	0xbc079320	-0.008274823
39	0xbe2aea9c	-0.16691059
40	0x3a5eb400	0.000849545
41	0xbb95e340	-0.0045742095
42	0x3d8cd5ac	0.06876692
43	0x3d919284	0.07108024
44	0x3e075b36	0.13218388
45	0x3ca40bb0	0.020025104
46	0x3e48df08	0.1961633
47	0x3d710bf0	0.058849275
48	0xbd8cf9b4	-0.068835646
49	0xbe884a7d	-0.2661933

l2.weight f4 [100, 50]
0	0xbddec50a	-0.10877426
1	0x3cd4aed0	0.025962263
2	0x3ca623e8	0.020280793
3	0x3da9e28a	0.08295162
4	0x3ddb4d2a	0.10708077
5	0x3da1b21a	0.07895298
6	0xbd64c218	-0.055849165
7	0x3c6ee960	0.014582008
8	0x3d8e15fe	0.069377884
9	0x3dbce7b2	0.0922388
10	0x3d127ef4	0.035765603
11	0xbd3b99d4	-0.045801
12	0xbdbd6124	-0.09247044
13	0x3c025130	0.007953927
14	0x3dcb13b4	0.099158674
15	0x3dd91d00	0.106012344
16	0xbcdb5220	-0.026772559
17	0xbe0d2b6e	-0.13786098
18	0x3bf48700	0.0074623823
19	0x3dcdabb4	0.100425154
20	0xbdec3998	-0.11534423
21	0x3ddf65c2	0.10908081
22	0xbd053228	-0.032518536
23	0xbd0eec8e	-0.034893565
24	0xbddf84c8	-0.10913998
25	0x3d9642d0	0.07336962
26	0xbca5423c	-0.020173185
27	0x3baac2c0	0.0052112043
28	0x3d991be8	0.07476026
29	0x3dd7f54c	0.105448335
30	0x3dc341ea	0.095340565
31	0xbd48c66e	-0.049017362
32	0xbd98ee9f	-0.07467388
33	0x3d826764	0.063673764
34	0xbd8fe9f4	-0.07027045
35	0x3dbe4ba8	0.09291774
36	0xbde95481	-0.11393071
37	0xbda77d92	-0.081782475
38	0x3d8e7c90	0.06957352
39	0xbda55235	-0.0807232
40	0x3c4e5bf0	0.012595162
41	0xbdea8806	-0.11451726
42	0x3db6b786	0.08921723
43	0xbdc26e58	-0.09493703
44	0xbb9287e0	-0.004471764
45	0xbd897c50	-0.06713164
46	0xbe00638e	-0.12537977
47	0xbd36679e	-0.04453241
48	0x3d308a70	0.043100774
49	0xbc7f69f0	-0.015589222
50	0x3c30eb30	0.010798261
51	0x3dced212	0.100986615
52	0xbddb0004	-0.10693362
53	0x3d87592c	0.06608805
54	0x3d8d0784	0.06886199
55	0xbe0a1d30	-0.13487697
56	0x3d13952c	0.036030933
57	0xbdcd0e62	-0.10012509
58	0x3dd80a6c	0.10548863
59	0x3dbb7812	0.09153761
60	0xbdb2ef70	-0.08737075
61	0x3d359368	0.04433003
62	0xbe03a1cb	-0.12854688
63	0x3cfcdbc8	0.030866519
64	0x3dcfd6c6	0.10148387
65	0x3d9f9384	0.07791808
66	0x3c5b0e00	0.013370037
67	0xbd89db39	-0.067312665
68	0xbd2814ea	-0.04103557
69	0x3d2ff380	0.04295683
70	0x3dd91bf0	0.10601032
71	0x3d399fa8	0.045318276
72	0xbc1f82e0	-0.009735793
73	0x3dc01d06	0.09380536
74	0x3d98ec30	0.07466924
75	0xbdda519e	-0.106600985
76	0x3e021d85	0.12706573
77	0xbe0d26d9	-0.1378435
78	0xbca6f66c	-0.020381175
79	0xbd131978	-0.03591296
80	0x3d35d990	0.044396937
81	0xbc1eb260	-0.009686083
82	0x3dd954bc	0.10611865
83	0x3d0acfc8	0.033889562
84	0x3e0e22c9	0.13880457
85	0x3e028bc3	0.12748627
86	0xbdf38656	-0.11890857
87	0x3c08dd80	0.008353591
88	0xbd88794a	-0.06663759
89	0xbe0ee5ae	-0.13954803
90	0x3d926b70	0.07149398
91	0x3de07ae2	0.10960938
92	0xbda8d822	-0.08244349
93	0xbdd9211e	-0.1060202
94	0x3e0e739b	0.13911287
95	0x3d3ad86c	0.045616552
96	0x3d8e635c	0.06952545
97	0x3d267f1c	0.040648565
98	0xbdca2fd9	-0.098724075
99	0xbdb55ad2	-0.08855213
100	0x3c99f478	0.01879333
101	0x3cb56990	0.022145063
102	0xbcc4f0a4	-0.024040528
103	0xbbc79640	-0.0060909092
104	0xbca058a4	-0.019573517
105	0xbde7bf77	-0.11315816
106	0xbc816038	-0.015792951
107	0xb9a20a00	-0.00030906498
108	0xbda62882	-0.08113195
109	0x3d22e008	0.039764434
110	0x3ce8f260	0.028435886
111	0x3d9950e0	0.07486129
112	0x3e072d15	0.13200791
113	0xbe0490aa	-0.1294581
114	0x3da733a8	0.081641495
115	0xbd8391d0	-0.06424296
116	0xbdcd7fa6	-0.10034113
117	0xbdea07ad	-0.11427245
118	0xbdd08a7c	-0.10182664
119	0xbdb33b6b	-0.087515675
120	0xbd983e62	-0.074337736
121	0x3d2f5a18	0.04281053
122	0x3d8b0702	0.06788446
123	0xbe0041d8	-0.12525117
124	0x3d00b0ec	0.031418726
125	0x3d96473a	0.07337804
126	0xbd9b3e62	-0.07580258
127	0x3df955b2	0.12174548
128	0xbde50693	-0.111828946
129	0xbdca4b30	-0.09877622
130	0xbe060573	-0.13088016
131	0x3c1e8230	0.009674594
132	0xbe056674	-0.13027364
133	0x3c70ce80	0.014697671
134	0xbc5679b0	-0.013090536
135	0x3cedf148	0.029045716
136	0xbdcd2a94	-0.10017887
137	0x3cdc72e0	0.026910245
138	0x3cfe74d8	0.031061575
139	0xbdbc8bf1	-0.09206379
140	0xbdbcd039	-0.09219403
141	0xbdf4b1ac	-0.11947951
142	0x3c455e50	0.012046412
143	0xbde5b544	-0.11216214
144	0xbdb2fc8e	-0.08739577
145	0x3e0b3ad1	0.13596655
146	0xbdc20110	-0.09472859
147	0xbb8da1e0	-0.0043222755
148	0x3c04ff80	0.008117557
149	0x3dad8120	0.08471894
150	0x3e02314d	0.1271412
151	0x3d682410	0.056675017
152	0xbdb35108	-0.0875569
153	0x3dfabcee	0.12243067
154	0xbd89e66c	-0.067334026
155	0xbc4a4c10	-0.012347236
156	0xbdd33de7	-0.10314541
157	0xbda390ba	-0.07986589
158	0x3d998710	0.07496464
159	0x3d4c291c	0.049843892
160	0xbdf54bf0	-0.119773746
161	0xbe0166b1	-0.1263683
162	0xbd30ba68	-0.04314652
163	0xbdfd5028	-0.12368804
164	0xbe066c0b	-0.13127153
165	0xbc4368a0	-0.0119268
166	0x3dd2492a	0.10267861
167	0x3d9802c0	0.074223995
168	0x3dfd8036	0.1237797
169	0xbd500f82	-0.05079604
170	0xbdd8c085	-0.10583595
171	0x3da42b14	0.08016029
172	0xbd772ab2	-0.06034345
173	0xbe1009ea	-0.14066282
174	0x3de4539a	0.11148758
175	0x3dca4120	0.09875703
176	0x3c4fff50	0.012695149
177	0x3d74dbd4	0.059779957
178	0x3e0ca8a7	0.13736211
179	0xbdfe1497	-0.12406271
180	0x3d55b690	0.05217606
181	0xbd2a6eb8	-0.041609496
182	0xbc3ee720	-0.011651784
183	0x3da2bd9a	0.0794632
184	0x3d273e84	0.040831104
185	0xbc831278	-0.016000018
186	0x3a3fae00	0.0007312
187	0x3e0bfbf1	0.13670327
188	0x3daf5df6	0.085628435
189	0xbdda5818	-0.10661334
190	0xbe0ee0b0	-0.13952899
191	0x3d08e8d0	0.033425152
192	0xbd8f1628	-0.06986648
193	0xbdc0add4	-0.09408155
194	0xbda3cee8	-0.079984486
195	0xbce48b88	-0.027898565
196	0x3d875602	0.066082016
197	0x3de0815e	0.10962175
198	0xbde56f3c	-0.11202857
199	0xbce117dc	-0.027477197
200	0xbcccf09c	-0.025017075
201	0xbd9ad8a8	-0.07560855
202	0x3b472980	0.0030389726
203	0xbd274dac	-0.040845558
204	0x3d899684	0.06718162
205	0xbd87bcbe	-0.066277966
206	0xbe0c750c	-0.13716525
207	0x3dbc7ac2	0.09203102
208	0x3d10abf8	0.035320252
209	0xbd474aa0	-0.048655152
210	0x3d4d4684	0.050116077
211	0x3d93c44a	0.072151735
212	0xbda1c396	-0.07898633
213	0x3dcd9024	0.10037258
214	0x3dac5838	0.08415264
215	0x3cc48268	0.023987964
216	0x3e0ae313	0.13563184
217	0xbc81ff38	-0.015868768
218	0xbde4e2f9	-0.11176104
219	0xbd09b74e	-0.03362208
220	0xbdeb59e7	-0.11491757
221	0xbda40ae4	-0.0800989
222	0xbceb4030	-0.02871713
223	0x3d04b188	0.03239587
224	0xbcf4b8ec	-0.029873334
225	0x3da0a306	0.07843594
226	0xbc7e6d00	-0.015528917
227	0x3dc5f2f6	0.09665482
228	0x3e0952bf	0.13410471
229	0x3dc74898	0.09730643
230	0xbdc7c37c	-0.097540826
231	0xbd971f0d	-0.07378969
232	0x3ddb2b32	0.10701598
233	0x3a88ef80	0.0010447353
234	0xbd114b00	-0.035471916
235	0xbdcc6316	-0.09979837
236	0xbd0d4ff4	-0.034500077
237	0x3a03f800	0.00050342083
238	0x3d713578	0.058888882
239	0x3d505f94	0.0508724
240	0x3e100989	0.14066137
241	0x3bbacf80	0.0057010055
242	0xbccc2c50	-0.024923474
243	0x3dcba530	0.099436164
244	0x3dec7ec2	0.11547615
245	0xbd57b85a	-0.052666046
246	0x3da64c02	0.08119966
247	0x3b9864e0	0.004650697
248	0x3dcd7f94	0.10034099
249	0xbd839752	-0.064253464
250	0x3df73cc6	0.120721385
251	0x3dc43320	0.09580064
252	0xbcd5589c	-0.026043229
253	0x3d325570	0.04353851
254	0xbd841c3f	-0.064507
255	0xbd59c3b4	-0.053165153

l2.bias f4 [100]
0	0xbdf3b650	-0.11900008
1	0x3db6129c	0.08890268
2	0x3ccdab48	0.025106087
3	0xbdd7280f	-0.105056874
4	0x3d443558	0.047902435
5	0x3ded0946	0.115740344
6	0x3da9fd12	0.083002225
7	0x3dc1bd10	0.09459889
8	0xbd6840be	-0.056702368
9	0xbdac7cec	-0.084222645
10	0xbe01c842	-0.12674049
11	0xbd32c3ac	-0.04364364
12	0x3dd07624	0.101787835
13	0x3db7686c	0.08955464
14	0xb927b400	-0.00015993416
15	0x3d9f155c	0.07767746
16	0x3d156744	0.036475435
17	0x3e098a99	0.13431777
18	0xbd98acfc	-0.07454869
19	0x3b280480	0.0025637448
20	0x3e02d8cb	0.12778012
21	0xbdb3fc28	-0.08788329
22	0xbd4c21b0	-0.049836814
23	0x3d18fcbc	0.0373504
24	0xbc507130	-0.0127222985
25	0xbd900369	-0.070319004
26	0xbe04526e	-0.1292207
27	0xbcc80488	-0.024416223
28	0xbd981ec4	-0.07427743
29	0x3c91a690	0.017779619
30	0xbc515fd0	-0.012779191
31	0x3de4c9de	0.111713156
32	0x3cfd16d8	0.030894682
33	0xbdaa08ee	-0.083024845
34	0x3d782d28	0.06058994
35	0xbb621180	-0.0034495294
36	0xbd6f065a	-0.058355667
37	0x3da74304	0.08167079
38	0xbe09893b	-0.13431256
39	0x3da6ab7c	0.08138177
40	0xbdf1c3f0	-0.1180495
41	0xbcffdafc	-0.03123235
42	0xbda211ae	-0.079135284
43	0x3beccda0	0.007226661
44	0xbd4d7e72	-0.050169416
45	0xbd361dcc	-0.04446201
46	0xbd6e036e	-0.05810874
47	0x3d8492d8	0.06473321
48	0x3e05fa3f	0.13083743
49	0xba4b5c00	-0.00077575445
50	0x3b12a440	0.0022375733
51	0x3d02faf8	0.031977624
52	0x3cf6daa8	0.03013356
53	0x3d8aac02	0.06771089
54	0x3dda794a	0.10667665
55	0x3dbfe1f0	0.09369266
56	0xbd1e11e2	-0.038591273
57	0x3dbc9c5c	0.09209511
58	0x3dc6b1b4	0.09701863
59	0xbd4013ae	-0.046893768
60	0xbd9b609d	-0.07586787
61	0x3dc7eb2c	0.09761652
62	0xbe099ce9	-0.13438763
63	0x3d735320	0.059405446
64	0x3dbfbcac	0.09362158
65	0x3dab19a2	0.083544984
66	0xb9bf6600	-0.00036506355
67	0xbd4a67b6	-0.049415313
68	0xbcb59af8	-0.022168621
69	0xbcdf31a0	-0.027245343
70	0x3d84d4d2	0.06485905
71	0x3df2adbe	0.11849545
72	0x3db7c9f2	0.08974065
73	0xbd043e08	-0.03228572
74	0x3e0d19bb	0.13779347
75	0x3e0016f1	0.12508751
76	0xbc803890	-0.015651971
77	0xbca4a970	-0.020100325
78	0xbdb33e04	-0.08752063
79	0x3d9d629a	0.076848224
80	0xbd9dbc43	-0.07701924
81	0x3e04bbc3	0.1296225
82	0xbdbaaf9e	-0.091155276
83	0x3d31f250	0.043443978
84	0x3d96b954	0.07359567
85	0xbd5e9ef8	-0.054350823
86	0xbd9bf945	-0.07615904
87	0x3d942040	0.07232714
88	0xbd5dcf42	-0.054152735
89	0xbda2a1bc	-0.07941005
90	0xbced2e90	-0.028952867
91	0xbcd9e454	-0.026598133
92	0x3d548274	0.051882222
93	0xbdab1b0c	-0.08354768
94	0xbdf573df	-0.11984991
95	0x3d870dfa	0.06594463
96	0xbdf4224a	-0.119206026
97	0xbc5e74b0	-0.013577625
98	0x3df084ce	0.117440805
99	0xbcdf8ffc	-0.027290337

l3.weight f4 [20, 100]
0	0xbdc4a0ab	-0.096009575
1	0x3d1e6172	0.03866715
2	0x3c7a6950	0.0152838975
3	0x3cbb572c	0.022868715
4	0xbda9ccd2	-0.082910195
5	0x3d918207	0.07104879
6	0x3b57d940	0.0032935888
7	0x3dc6fb2d	0.09715877
8	0x3dbc771b	0.09202405
9	0x3d9323bf	0.071845524
10	0xbda6a5d8	-0.08137101
11	0x3d1ffbee	0.03905862
12	0xbb1d5240	-0.0024005324
13	0xbd87ef15	-0.06637398
14	0x3ad6bac0	0.001638256
15	0xbd942505	-0.072336234
16	0xbcf8da98	-0.030377671
17	0xbd0276fa	-0.031851746
18	0xbda2d2e0	-0.079503775
19	0x3d3201f2	0.043458886
20	0x3d5adf52	0.05343563
21	0x3cac3448	0.021021023
22	0x3cd2124c	0.02564349
23	0x3d1b1516	0.037861906
24	0xbcc349ec	-0.02383896
25	0x3d072452	0.032993622
26	0x3c250e70	0.010074243
27	0xbb8eb200	-0.0043547153
28	0x3d4a1d06	0.049344085
29	0x3d39c2c2	0.04535175
30	0x3db5a95d	0.08870194
31	0x3d3f2052	0.046661682
32	0xbdcc0bd2	-0.09963192
33	0x3d32bdb2	0.04363794
34	0x3cb5aa98	0.022176072
35	0x3d2cef02	0.042220123
36	0xbdcbf2f3	-0.09958448
37	0x3da3f487	0.08005624
38	0xbcfded8c	-0.03099706
39	0x3bd98980	0.0066387057
40	0xbcef7a4c	-0.02923312
41	0xbd923c6d	-0.071404316
42	0xbce483d4	-0.027894892
43	0x3d813291	0.06308473
44	0x3d4e8f92	0.050429888
45	0xbc136568	-0.008996345
46	0xbd215527	-0.03938785
47	0xbd6a940d	-0.0572701
48	0x3dc1ba59	0.09459371
49	0x3c92bf94	0.017913617
50	0xbbc6e450	-0.0060696974
51	0x3d978ae9	0.07399542
52	0x3d88ae45	0.06673864
53	0x3d99ced1	0.0751015
54	0xbd2717b3	-0.040794086
55	0x3d48ef52	0.04905636
56	0x3d80c16f	0.062868945
57	0x3cdc48ec	0.02689024
58	0x3d9cb459	0.07651586
59	0x3c52e458	0.012871824
60	0x3da68e5d	0.081326224
61	0x3d0bc1fa	0.034120537
62	0x3caf0160	0.02136296
63	0xbbc9aa60	-0.0061543435
64	0x3c623058	0.013805471
65	0xbba3de80	-0.0050008893
66	0x3db4cecd	0.088285066
67	0xbd845aea	-0.06462653
68	0x3d6e3872	0.0581593
69	0xbdba63f7	-0.09101098
70	0xbc0a3fb0	-0.008438036
71	0x3daf3be7	0.08556347
72	0xbdb6a282	-0.08917715
73	0x3d89cbb3	0.06728306
74	0x3d809fd1	0.062804826
75	0x3d88ae59	0.06673879
76	0xbd15bed6	-0.03655895
77	0x3cc48020	0.023986876
78	0xbb39e840	-0.0028367192
79	0x3dc088f9	0.094011255
80	0xbd94145b	-0.07230445
81	0xbdc70e95	-0.09719578
82	0x3c8ba808	0.017047897
83	0xbdaac432	-0.083382025
84	0xbcb350c8	-0.021889105
85	0x3dc4f943	0.096178554
86	0x3d0e8682	0.034796245
87	0xbd6be33a	-0.057589747
88	0xbb81d980	-0.0039626956
89	0xbd8a9fae	-0.06768738
90	0x3d598082	0.05310107
91	0xbd83c290	-0.06433594
92	0x3db28f39	0.08718724
93	0x3d5366a6	0.051611565
94	0xbdc404b2	-0.09571208
95	0xbdc70db2	-0.09719409
96	0x3d06b9f6	0.03289219
97	0xbdb60d87	-0.08889299
98	0xbb40aa40	-0.0029398352
99	0x3d983c03	0.07433321
100	0x3cf89eac	0.030349098
101	0x3d905093	0.07046618
102	0x3d84866f	0.06470954
103	0x3dbe7981	0.09300519
104	0x3d8b3125	0.06796483
105	0x3da4a54f	0.080393426
106	0xbb638700	-0.0034717917
107	0xbd166bea	-0.03672401
108	0x3b7ba600	0.0038398504
109	0xbd912b23	-0.07088306
110	0x3c2eebb0	0.0106763095
111	0x3b1f1340	0.0024272949
112	0xbd192604	-0.03738977
113	0x3dbd105d	0.09231637
114	0x3d8d8893	0.06910815
115	0x3c9a38c8	0.018825904
116	0xbc361050	-0.011112288
117	0xbdb0896f	-0.086199634
118	0xbd633c40	-0.05547738
119	0xbcf07a40	-0.029355168
120	0x3dbb7229	0.09152634
121	0x3c618a58	0.013765894
122	0x3dc243a1	0.094855554
123	0x3d0b990e	0.03408151
124	0xbca99c58	-0.020704433
125	0xbcec5640	-0.028849721
126	0x3cb4fb54	0.022092499
127	0x3d49c446	0.049259447
128	0xbceb2428	-0.028703764
129	0x3d0db76e	0.03459876
130	0xbbc4eb60	-0.006009504
131	0xbdc60013	-0.09667983
132	0xbd7d32ea	-0.061816134
133	0x3ce2df0c	0.027694248
134	0xbd10bd34	-0.03533669
135	0xbd5fcb0a	-0.054636993
136	0xbc85fe00	-0.016356468
137	0xbcbb1d20	-0.022841036
138	0x3d3835b2	0.044973083
139	0x3bbc4cb0	0.0057464465
140	0x3dc0a7cf	0.09407007
141	0x3cfa199c	0.03052979
142	0x3c9241ac	0.01785358
143	0xbd917b6a	-0.071036175
144	0x3db0aaad	0.08626304
145	0x3cc9d928	0.024639681
146	0x3b8b3280	0.0042479634
147	0xbda0acfa	-0.07845493
148	0xbd8355c6	-0.06412844
149	0x3daa6a7f	0.08321094
150	0x3d04e23e	0.032442324
151	0xbd317780	-0.043326855
152	0x3cca04c0	0.024660468
153	0xbd69a423	-0.0570413
154	0xbd2a95a7	-0.041646626
155	0x3d8de495	0.06928364
156	0xbcccb6c0	-0.024989486
157	0x3d45dde6	0.048307322
158	0xbd5ca36d	-0.053866792
159	0xbc004ae8	-0.007830359
160	0xbd2b9a3a	-0.04189513
161	0xbdb7cb5b	-0.08974334
162	0x3b708c00	0.003670454
163	0x3d0f885a	0.035042144
164	0x3c933c48	0.01797308
165	0x3d304cc6	0.043041967
166	0xbdb59557	-0.08866375
167	0x3d7e79aa	0.062127747
168	0x3c06d1e8	0.0082287565
169	0x3a978280	0.0011559278
170	0x3bdbf330	0.00671234
171	0x3b631560	0.0034650192
172	0xbc165b68	-0.009177066
173	0x3d78716a	0.060655035
174	0x3bf169d0	0.00736735
175	0xbc21d140	-0.009876549
176	0xbdabff26	-0.08398275
177	0x3d83d065	0.064362325
178	0x3d82b423	0.063820146
179	0xbd40a3c3	-0.047031175
180	0xbd72e83d	-0.05930351
181	0x3dbeea87	0.09322076
182	0xbd7f687d	-0.062355507
183	0x3db9ef5d	0.09078858
184	0xbc3633b0	-0.011120722
185	0xbdb04f10	-0.0860883
186	0xbc89e820	-0.016834319
187	0x3d4a7c82	0.049435146
188	0xbd03b484	-0.032154575
189	0xbda89a3d	-0.082325436
190	0x3b9af1e0	0.004728541
191	0xbd8d7e82	-0.06908895
192	0x3dcbc369	0.09949381
193	0xbd89f454	-0.06736055
194	0xbc52c510	-0.012864366
195	0xbcdd8cf8	-0.027044758
196	0x3c650b28	0.013979711
197	0xbd4e4213	-0.050355982
198	0xbd9db7f0	-0.07701099
199	0xbd97e255	-0.07416216
200	0x3db11a63	0.08647611
201	0x3d0ed752	0.034873314
202	0x3dc2329f	0.094823115
203	0xbd28c040	-0.04119897
204	0x3ce5922c	0.028023802
205	0x3d67cf16	0.056593977
206	0x3c4eb8e8	0.012617327
207	0x3d49593a	0.04915736
208	0x3d8f3357	0.06992214
209	0x3d797742	0.06090475
210	0xbdb52427	-0.08844786
211	0x3dbac929	0.091203995
212	0xbd8bd150	-0.068270326
213	0xbdba10b5	-0.09085218
214	0xbd05fc46	-0.03271129
215	0xbd9c0a35	-0.07619134
216	0xbdb8b3cb	-0.09018668
217	0xbca86c80	-0.02055955
218	0x3ce70964	0.02820272
219	0x3db21ca9	0.08696873
220	0x3d0f5d32	0.035000987
221	0x3cad1988	0.021130338
222	0x3c68e870	0.014215574
223	0x3cc616e8	0.024180844
224	0x3c4ed928	0.012625016
225	0xbd632f33	-0.055464935
226	0x3cc1a500	0.023638248
227	0xbdb118a3	-0.08647277
228	0x3c128d28	0.008944787
229	0xbc4c1d90	-0.01245822
230	0xbdc3f080	-0.09567356
231	0x3d0db6da	0.03459821
232	0x3cac41ec	0.021027528
233	0x3cd8662c	0.026415907
234	0xbdc17f6d	-0.09448133
235	0xbcf62468	-0.030046657
236	0xbd5665d3	-0.0523432
237	0xbcc98314	-0.024598636
238	0xbc5dbec0	-0.013534248
239	0x3d3a522a	0.045488514
240	0xbdb68bd2	-0.08913387
241	0x3ca3158c	0.019907735
242	0x3d37f1da	0.044908382
243	0x3dc490b1	0.0959791
244	0x3dcb4d35	0.099268354
245	0xbbe8e920	-0.007107869
246	0xbd6b3b7d	-0.05742978
247	0x3d4401f6	0.047853433
248	0x3d0b1fea	0.033965982
249	0xbc047c58	-0.0080862865
250	0xbd49931d	-0.049212564
251	0xbd3660fa	-0.044526078
252	0xbd9be3dd	-0.07611821
253	0x3ccb13b4	0.024789669
254	0xbd8aa5dc	-0.067699164
255	0x3d804af9	0.062643

l3.bias f4 [20]
0	0x3c5891e8	0.0132183805
1	0xbc1808d0	-0.009279445
2	0x3d243726	0.040091656
3	0x3d7f8612	0.06238372
4	0xbd9ca91a	-0.07649441
5	0xbd80517a	-0.062655404
6	0x3d929767	0.07157784
7	0xbd078a5a	-0.033090927
8	0xbd3caf47	-0.046065595
9	0xbdc11192	-0.094271794
10	0xbcd7958c	-0.026316427
11	0xbc6279a8	-0.01382295
12	0x3d82a8bf	0.06379842
13	0xbbd37ea0	-0.006454304
14	0x3d160992	0.03663022
15	0xbdba4802	-0.09095766
16	0x3dbb3b8d	0.09142218
17	0x3d115fe2	0.03549183
18	0x3dbcfb9b	0.092276774
19	0x3d358172	0.0443129

output.weight f4 [8, 20]
0	0xbe33ac26	-0.17546138
1	0x3e4f9a40	0.20273685
2	0xbc075800	-0.008260727
3	0x3d607e50	0.05480796
4	0xbe2c5ff1	-0.16833474
5	0x3e34750c	0.17622775
6	0xbcc0f0e8	-0.023552373
7	0x3cc6d8f0	0.024273366
8	0xbe478f53	-0.19488268
9	0x3e1e6dcc	0.15471572
10	0x3d3c3018	0.045944303
11	0xbd60f1f0	-0.05491823
12	0xbd2eda08	-0.0426884
13	0xbcf231d0	-0.029564768
14	0x3e50eda6	0.20403156
15	0x3e1921e8	0.1495434
16	0xbe61c58b	-0.22048013
17	0xbbc55fc0	-0.006023377
18	0xbe0f8e66	-0.14019164
19	0x3d7caf50	0.06169063
20	0x3e03441c	0.1281895
21	0x3cf9c1e0	0.030487955
22	0x3de9eb7c	0.11421868
23	0xbe3586ec	-0.1772725
24	0xbca42378	-0.020036444
25	0xbce788a0	-0.02826339
26	0xbe259304	-0.16169363
27	0x3d82049c	0.063485354
28	0x3ca24480	0.019808054
29	0xbdd205ef	-0.10255038
30	0x3e51957e	0.20467183
31	0x3e490e4e	0.19634363
32	0x3e2f0c30	0.17094493
33	0xbd80b09a	-0.06283684
34	0x3d2174a8	0.039417893
35	0xbe4e5188	-0.20148289
36	0x3cf66fd0	0.030082613
37	0x3e3e733e	0.18598649
38	0x3e05b17a	0.13055983
39	0x3d2d4398	0.04230079
40	0xbe355d3e	-0.1771135
41	0x3e3b78dc	0.18307823
42	0xbc8913f8	-0.016733155
43	0xbd8f4a4a	-0.069965914
44	0xbe3279cd	-0.17429276
45	0xbc8d1738	-0.017222986
46	0x3beb53e0	0.0071816295
47	0xbca84338	-0.020539865
48	0x3a004f00	0.00048945844
49	0x3d62e150	0.055390656
50	0xbe4f1f2b	-0.20226733
51	0x3ba473c0	0.0050186813
52	0xbd83b4c2	-0.06430961
53	0xbe5615c8	-0.20906746
54	0x3e033714	0.1281398
55	0x3c3d59b0	0.011557028
56	0xbd3c7ebc	-0.0460193
57	0xbe0cad9f	-0.13738106
58	0xbe104f08	-0.14092648
59	0xbbe23660	-0.0069034547
60	0xbd82694a	-0.063677385
61	0xbd824dd8	-0.06362504
62	0x3dfc7d7c	0.12328622
63	0x3d794510	0.06085688
64	0x3e4ca7ba	0.19985858
65	0xbe1227fa	-0.14273062
66	0xbb50b840	-0.0031848103
67	0xbca1a658	-0.01973264
68	0xbe23f83e	-0.16012666
69	0xbdffc059	-0.12487859
70	0x3d37d390	0.044879496
71	0xbdf61d1a	-0.120172694
72	0x3e0b55b4	0.13606912
73	0x3da5a074	0.08087245
74	0xbda4979a	-0.08036728
75	0xbdeac899	-0.11464042
76	0xbe4d6961	-0.2005973
77	0xbe61873a	-0.22024241
78	0xbe039578	-0.12849987
79	0x3dcfbc74	0.101433665
80	0x3e40b62c	0.18819493
81	0x3e072e20	0.13201189
82	0xbbb22860	-0.005436942
83	0xbe39d2df	-0.18146847
84	0xbe4fd368	-0.20295489
85	0xbe2eb075	-0.170595
86	0xbc71f500	-0.014767885
87	0xbe08164f	-0.1328976
88	0xbd6ad0dc	-0.05732809
89	0x3dd81afc	0.10552022
90	0xbe49aea1	-0.19695522
91	0xbdf1fe87	-0.11816125
92	0xbe3979f0	-0.18112922
93	0xbdd1ba21	-0.102405794
94	0x3e30cbf2	0.17265299
95	0x3e0a2c62	0.13493493
96	0x3e00cb76	0.12577614
97	0xbe49d580	-0.1971035
98	0x3e4e07d8	0.2012018
99	0xbe5ff869	-0.21872105
100	0xbd9d9b6e	-0.076956615
101	0x3d995c84	0.07488349
102	0x3e5df6cc	0.21676177
103	0x3e5d1ed0	0.21593785
104	0xbe5a3e2d	-0.2131278
105	0x3e4d1808	0.20028698
106	0x3e595b60	0.21226263
107	0x3e3df38a	0.18549934
108	0xbd7c4c04	-0.06159593
109	0x3c9ca450	0.019121319
110	0xbe45002c	-0.19238347
111	0xbe201b88	-0.15635502
112	0xbd52fbc0	-0.05150962
113	0xbe4157ce	-0.18881151
114	0x3d82f5b8	0.063945234
115	0xbda121d6	-0.07867782
116	0x3e08e80e	0.13369772
117	0x3c4d2d00	0.012522936
118	0xbe61317c	-0.21991533
119	0x3e26e730	0.16299129
120	0x3cb16b90	0.021657735
121	0x3df398a0	0.11894345
122	0xbd87fbf6	-0.066398546
123	0xbbf0f600	-0.0073535442
124	0x3e0241da	0.12720433
125	0xbdce8325	-0.100836076
126	0x3db064b0	0.086129546
127	0xbe568eb4	-0.20952874
128	0x3e1aa80a	0.15103164
129	0x3d38a4d8	0.045079082
130	0xbe0f43e7	-0.13990746
131	0x3cd65da0	0.02616769
132	0x3d535b50	0.051600754
133	0x3c547c60	0.012969106
134	0xbe1de372	-0.15418795
135	0x3e20b396	0.15693507
136	0xbd1970b4	-0.037460998
137	0x3dd70e6c	0.10500798
138	0x3e10f8ee	0.14157459
139	0xbdc2c182	-0.09509565
140	0x3d709e20	0.05874455
141	0x3d2a5dd8	0.041593403
142	0xbcccd888	-0.025005594
143	0x3e43306c	0.1906144
144	0x3d8f9280	0.070103645
145	0x3c5fbb10	0.013655439
146	0xbe1aa708	-0.1510278
147	0xbe160df5	-0.14653762
148	0x3d664018	0.05621347
149	0x3e08c866	0.13357696
150	0x3db865e8	0.09003812
151	0xbe1bc3c4	-0.15211397
152	0xbe5c7ee5	-0.21532781
153	0xbdb0e414	-0.086372524
154	0xbe05df6c	-0.1307351
155	0xbd68ca24	-0.0568334
156	0xbd80792e	-0.06273113
157	0x3d6a3bc0	0.05718589
158	0xbd84fbba	-0.064933255
159	0xbcfd4990	-0.030918866

output.bias f4 [8]
0	0x3e335dc0	0.17516232
1	0xbd772374	-0.060336545
2	0x3de6c7a4	0.11268547
3	0xbdf6916e	-0.12039457
4	0xbdee95ca	-0.11649664
5	0x3e27cf34	0.16387635
6	0xbca42728	-0.020038202
7	0x3e11c4fa	0.14235297
