Simple_ANN_experience/saved_model/simpleANNlr=0.001bs=64My_Mass_Balance_loss.pt (torch, 34575 bytes, 8 tensors)

l1.weight f4 [50, 14]
0	0x3e5d4bba	0.21610919
1	0xbe381d7e	-0.1798
2	0x3e3fc6ba	0.18728152
3	0xbdad1e3a	-0.08453031
4	0x3e646dd8	0.22307527
5	0x3e2b9e22	0.16759542
6	0xbe26e6aa	-0.16298929
7	0x3e8518fd	0.25995627
8	0xbe83538c	-0.2564968
9	0x3ba91140	0.005159527
10	0x3d91e984	0.07124618
11	0xbdd268f2	-0.10273923
12	0x3e12582c	0.14291447
13	0x3e391dca	0.1807777
14	0xbd1ac838	-0.0377886
15	0xbe220cfe	-0.15825269
16	0x3e5c000c	0.21484393
17	0xbda01ac0	-0.07817602
18	0xbd8d4370	-0.06897628
19	0x3e21906c	0.15777749
20	0x3e4985f2	0.19680002
21	0x3e863733	0.2621399
22	0xbe26d085	-0.16290481
23	0xbd99c672	-0.075085536
24	0xbd742a10	-0.059610426
25	0xbdf9715c	-0.12179825
26	0xbe328898	-0.17434919
27	0xbe357ae0	-0.17722654
28	0x3dd78e14	0.10525146
29	0x3d8752b8	0.06607574
30	0x3dc3d08c	0.095612615
31	0x3e728e6a	0.23687139
32	0xbe5f0a2f	-0.21781228
33	0xbc9cdfc0	-0.019149661
34	0xbdecc526	-0.115610406
35	0xbdb8508a	-0.089997366
36	0x3e06c148	0.13159668
37	0xbe7f137d	-0.24909778
38	0xbe4a7d2a	-0.19774309
39	0x3e6d7e7e	0.23192784
40	0x3af1ab00	0.0018437803
41	0x3d34a080	0.044098377
42	0x3dc3cae4	0.09560183
43	0x3e517eee	0.20458576
44	0xbe59b1a6	-0.21259174
45	0x3e17675e	0.14785525
46	0x3cc487a0	0.023990452
47	0x3d7b0820	0.061287045
48	0x3e1b2bec	0.15153474
49	0xbd615418	-0.05501184
50	0xbc3c3600	-0.011487484
51	0x3da73b58	0.08165616
52	0xbd8f2a40	-0.069904804
53	0xbcc01978	-0.023449644
54	0xbd7804ec	-0.06055157
55	0xbc45bde0	-0.0120691955
56	0x3e84d457	0.25943252
57	0xbe84e2c5	-0.2595426
58	0x3e67d224	0.22638756
59	0xbe36a41e	-0.17836043
60	0xbe858ef5	-0.2608563
61	0xbe57799c	-0.21042484
62	0x3e284d4a	0.16435733
63	0xbe091611	-0.13387324
64	0xbe51425e	-0.20435473
65	0xbcbd4740	-0.023105264
66	0x3ca6f710	0.02038148
67	0xbdba59c4	-0.09099153
68	0xbe63a6e0	-0.22231627
69	0xbe86ccab	-0.26328024
70	0x3e2c2bd6	0.16813597
71	0xbd894dd4	-0.06704298
72	0xbdb44716	-0.08802621
73	0x3d8c5e88	0.06853968
74	0x3e0efa9a	0.13962784
75	0xbd7dc720	-0.06195748
76	0x3e0f2cda	0.13981953
77	0x3e1812f4	0.1485098
78	0x3e85a165	0.26099697
79	0xbe00bca0	-0.12571955
80	0x3e3a37aa	0.18185297
81	0xbe4fd686	-0.20296678
82	0xbe0c5f7f	-0.13708304
83	0xbe11f4b3	-0.14253502
84	0x3e363642	0.17794135
85	0xbe388022	-0.18017629
86	0x3c8e5020	0.017372191
87	0xbca0f568	-0.019648269
88	0x3e8187ff	0.2529907
89	0x3de7cbbc	0.11318156
90	0x3e31332c	0.17304677
91	0x3dfdc0b8	0.12390274
92	0xbe823145	-0.25428215
93	0xbe1ef7de	-0.15524241
94	0x3e233a96	0.15940318
95	0x3e6841de	0.22681376
96	0xbc6c49a0	-0.01442185
97	0xbd15e5f8	-0.03659627
98	0x3e7eadba	0.24870959
99	0x3ba02b00	0.0048879385
100	0x3e61273c	0.21987623
101	0xbded39a8	-0.11583263
102	0xbe836444	-0.25662434
103	0xbe6c0cb6	-0.23051724
104	0xbd9a283e	-0.07527207
105	0xbe784102	-0.24243549
106	0x3e525956	0.20541891
107	0xbb914e00	-0.004434347
108	0x3e858aff	0.26082608
109	0x3d597238	0.053087443
110	0xbe0893d1	-0.13337637
111	0x3e468f7a	0.1939067
112	0x3c930f50	0.017951638
113	0xbc1e4be0	-0.009661645
114	0xbe707c9c	-0.23485035
115	0x3e509ec0	0.20373058
116	0x3da17838	0.07884258
117	0xbdd26d98	-0.102748096
118	0x3e1ddc14	0.15415984
119	0xbd4d8e2c	-0.050184414
120	0x3daf9c3c	0.08574721
121	0xbd60b48c	-0.054859683
122	0x3e4add52	0.1981099
123	0x3e0cc952	0.13748673
124	0xbe422a42	-0.18961433
125	0xbd8a990c	-0.067674726
126	0xbd0fb448	-0.03508404
127	0xbd17dde4	-0.037076846
128	0x3e262f7e	0.16229054
129	0x3db6871c	0.08912489
130	0xbd775ed8	-0.060393184
131	0x3e327300	0.17426682
132	0xbd2c529c	-0.04207097
133	0x3e572300	0.21009445
134	0x3dd189f4	0.102313906
135	0x3e4790a8	0.19488776
136	0x3ddce3cc	0.10785636
137	0xbbcccbc0	-0.006249875
138	0x3e49e28a	0.19715324
139	0xbe6ea651	-0.23305632
140	0x3e0862cc	0.13318938
141	0x3e544adc	0.20731682
142	0x3e37550a	0.17903534
143	0xbba300c0	-0.0049744546
144	0xbdbafbf6	-0.09130089
145	0xbe851647	-0.2599356
146	0xbddf751c	-0.10911009
147	0xbe0b2e57	-0.13591896
148	0x3d6d43a0	0.05792582
149	0xbc422580	-0.011849761
150	0xbe2cb134	-0.16864473
151	0x3d94f830	0.072739005
152	0xbd0ef18c	-0.034898326
153	0xbe83bf3a	-0.25731832
154	0x3e85f699	0.26164702
155	0xbc76c900	-0.015062571
156	0x3e65158e	0.22371504
157	0x3e7ad5a2	0.24495557
158	0x3c829870	0.015941828
159	0x3c916a00	0.01775074
160	0xbda3ba6a	-0.0799454
161	0xbdc136e8	-0.09434301
162	0x3dcf0294	0.101079136
163	0xbe3fe311	-0.18738963
164	0xbe072484	-0.13197523
165	0xbce7f780	-0.02831626
166	0x3e441c7e	0.19151494
167	0x3e39b6cc	0.18136138
168	0x3daac4dc	0.08338329
169	0xbe2f474a	-0.17117038
170	0xbe74f289	-0.23920645
171	0x3e78db9a	0.24302521
172	0xbe081368	-0.13288653
173	0x3dcbd5f4	0.09952918
174	0xbe5e67d4	-0.21719295
175	0x3b184600	0.0023235083
176	0xb9758000	-0.00023412704
177	0x3d853210	0.06503689
178	0x3e0c00b8	0.13672149
179	0x3e56963a	0.20955744
180	0xbcb8b360	-0.02254647
181	0x3e208bda	0.15678349
182	0x3e0fe28e	0.14051268
183	0x3e764832	0.24050978
184	0x3d21e138	0.039521426
185	0xbe4664a8	-0.19374335
186	0xbdde2c78	-0.108483255
187	0xbe21a182	-0.15784267
188	0xbe1eba9e	-0.15500876
189	0x3dc75f20	0.097349405
190	0x3e0a53a2	0.13508466
191	0x3da12a6c	0.078694195
192	0x3b7d4480	0.0038645566
193	0x3e62dec0	0.22155285
194	0x3d111ad0	0.03542596
195	0x3e378edc	0.1792559
196	0x3e195b88	0.14976323
197	0xbe021250	-0.12702298
198	0xbcf130b0	-0.029442161
199	0xbe750238	-0.23926628
200	0x3d7535d0	0.059865773
201	0xbd828928	-0.06373817
202	0xbc076f80	-0.00826633
203	0x3e573726	0.21017131
204	0xbe26e010	-0.1629641
205	0xbe1fc916	-0.15604052
206	0xbe3cc835	-0.18435748
207	0x3e62efbc	0.22161764
208	0xbac68300	-0.0015145242
209	0xbe59248b	-0.21205346
210	0xbd3feb68	-0.04685536
211	0x3e75328e	0.23945066
212	0x3e632860	0.2218337
213	0xbd4296c0	-0.047507048
214	0x3b1a1600	0.0023511648
215	0x3db29350	0.08719504
216	0xbc1affa0	-0.00946036
217	0x3e513182	0.20429042
218	0x3e32c594	0.17458183
219	0x3e155462	0.1458297
220	0xbdac5cc4	-0.08416131
221	0x3e65821c	0.22412914
222	0xbe56fc84	-0.20994765
223	0x3d0397d0	0.0321272
224	0x3d108550	0.035283387
225	0x3e78811a	0.24267998
226	0x3c35b240	0.011089861
227	0x3da278cc	0.079331964
228	0x3e162754	0.1466344
229	0x3e46d452	0.19416931
230	0xbdcb8856	-0.099381134
231	0xbd82d116	-0.06387536
232	0x3e150802	0.14553836
233	0xbe0d5a49	-0.13803972
234	0xbe64c7a3	-0.2234178
235	0xbe81585c	-0.25262725
236	0x3d836f24	0.06417683
237	0xbdab6654	-0.08369127
238	0x3db5a078	0.088684976
239	0xbdf320aa	-0.118714646
240	0xbc52a440	-0.012856543
241	0x3d965c20	0.0734179
242	0x3d32a7f0	0.04361719
243	0xbdf5fb68	-0.120108426
244	0xbd9fd866	-0.078049466
245	0xbd18ae28	-0.037275463
246	0x3e62c542	0.2214556
247	0xbcafb198	-0.021446988
248	0x3cc89380	0.024484396
249	0xbd863ff6	-0.06555168
250	0x3d8d7078	0.06906217
251	0xbdf6e7c4	-0.120559245
252	0x3d635b68	0.055507094
253	0xbe4863e8	-0.19569361
254	0xbde5d83c	-0.11222884
255	0xbe853685	-0.26018158

l1.bias f4 [50]
0	0xbe196c49	-0.14982714
1	0xbe603bf7	-0.21897875
2	0xbe06124a	-0.13092914
3	0xbe24887b	-0.16067688
4	0x3e6d777a	0.23190108
5	0x3e70315a	0.23456326
6	0x3e188b8a	0.1489698
7	0xbdef0238	-0.11670345
8	0xbe7c4af8	-0.24637973
9	0x3db05ee8	0.08611852
10	0xbe548d02	-0.20756915
11	0xbe49a26d	-0.19690867
12	0xbd8d6f92	-0.06906046
13	0x3e280eac	0.16411847
14	0x3de29d60	0.11065173
15	0xbc33cb40	-0.010973752
16	0xbd0bf42c	-0.034168407
17	0xbd87d050	-0.06631529
18	0xbe704fe3	-0.23467974
19	0xbe542c21	-0.20719959
20	0xbe36fe32	-0.17870405
21	0x3e8061f5	0.25074735
22	0xbe5335c3	-0.20625977
23	0xbdbd6640	-0.09248018
24	0xbe4399e4	-0.19101673
25	0xbd323114	-0.043503836
26	0xbe7ab8cc	-0.24484557
27	0x3cb91dd0	0.022597224
28	0xbc702cc0	-0.014659107
29	0x3e04c75a	0.12966672
30	0x3e72ccc2	0.23710921
31	0x3e8100b9	0.25195864
32	0xbe3aeafe	-0.18253705
33	0x3db76134	0.08954087
34	0x3e882b7f	0.26595685
35	0x3ca47bf0	0.02007863
36	0xbd0866b8	-0.033301085
37	0xbe403844	-0.18771464
38	0x3db9a148	0.09063965
39	0xbe710369	-0.23536457
40	0x3caf15f0	0.021372765
41	0x3e6301bc	0.2216863
42	0x3e31db56	0.17368826
43	0xbe656b6d	-0.22404261
44	0xbd0bffdc	-0.034179553
45	0x3e2df654	0.16988498
46	0xbe6fcb7e	-0.2341747
47	0x3b5a7580	0.0033334196
48	0xbe326117	-0.1741985
49	0x3dd57d4c	0.10424289

l2.weight f4 [100, 50]
0	0xbd94af9d	-0.07260058
1	0xbd6fe58e	-0.05856853
2	0x3cf9b168	0.030480102
3	0x3dd68a72	0.10475625
4	0x3dcefca0	0.10106778
5	0x3cbf6788	0.023364797
6	0xbd4fd120	-0.050736547
7	0x3da4104a	0.080109194
8	0x3def5c0a	0.11687477
9	0xbbde6ac0	-0.006787628
10	0xbba82320	-0.0051311404
11	0xbd50fcda	-0.051022388
12	0x3d944d3c	0.07241294
13	0xbdc7e030	-0.09759557
14	0xbdf70710	-0.12061894
15	0x3df743aa	0.12073453
16	0x3df3d3c2	0.11905624
17	0x3d654cc0	0.055981398
18	0xbded1ed9	-0.11578149
19	0xbd9eb443	-0.07749226
20	0xbdf434c1	-0.119241245
21	0xbd933b11	-0.071890004
22	0xbd73bdb8	-0.0595071
23	0xbc1739a0	-0.009230047
24	0xbc21a820	-0.009866744
25	0xbd5ba6e2	-0.05362595
26	0xbc11d800	-0.008901596
27	0xbd088462	-0.033329375
28	0xbdaced31	-0.08443678
29	0xbdb621e8	-0.08893186
30	0x3c015db0	0.007895872
31	0xbbf31400	-0.0074181557
32	0x3df73d0a	0.12072189
33	0xbd592608	-0.053014785
34	0x3d90ea94	0.07075992
35	0x3dbb8b12	0.09157385
36	0x3d63d858	0.055626243
37	0x3cddf958	0.027096435
38	0x3da752e0	0.08170104
39	0x3d6f02ec	0.058352396
40	0x3d208220	0.039186597
41	0x3d9505f4	0.07276526
42	0x3e0fdb6d	0.14048548
43	0x3d5c2394	0.053744867
44	0xbddcb1d4	-0.107761055
45	0x3e0ed99d	0.139502
46	0xbd123716	-0.035697065
47	0xbdbb06c2	-0.09132148
48	0x3d975828	0.07389861
49	0x3d1a0200	0.037599564
50	0xbda3ab9d	-0.07991717
51	0x3e013299	0.12616958
52	0x3e0fdf5b	0.14050047
53	0x3e021489	0.12703146
54	0xbd809b1b	-0.06279584
55	0x3d6a8018	0.057251066
56	0x3c861e38	0.016371831
57	0x3da70ff2	0.08157338
58	0x3cf237a8	0.029567555
59	0xbd0c6172	-0.03427262
60	0x3cca4a80	0.024693727
61	0xbd92d295	-0.071690716
62	0xbdec7db3	-0.11547413
63	0x3c920370	0.017823905
64	0x3c92f8e0	0.017940938
65	0xbdd510d7	-0.104036026
66	0xbe00fb10	-0.12595773
67	0xbc52be80	-0.012862802
68	0x3d906fcc	0.070525736
69	0xbcdfd4b0	-0.027323097
70	0x3dd0a018	0.101867855
71	0xbdb6c52c	-0.08924326
72	0xbde9e7ed	-0.114211895
73	0xbdb2fe3a	-0.08739896
74	0xbdd22bb9	-0.10262246
75	0xbbc4a940	-0.0060016215
76	0x3cb098b0	0.021557182
77	0xbdb55ebc	-0.0885596
78	0x3dc123b8	0.09430641
79	0xbce6b968	-0.02816458
80	0xbe013218	-0.12616765
81	0xbda10eaa	-0.07864125
82	0x3de37e1a	0.11108036
83	0xbe00cd3a	-0.12578288
84	0x3db1eca4	0.08687714
85	0xbd5f3d4a	-0.05450181
86	0xbda502cc	-0.08057174
87	0x3d9b8c90	0.075951695
88	0xbdd88974	-0.10573092
89	0xbdeb62de	-0.11493467
90	0x3d37fbb8	0.044917792
91	0x3d9695ec	0.07352814
92	0xbdacef35	-0.084440626
93	0xbbaddf60	-0.0053061694
94	0xbcce5364	-0.025186248
95	0xbd8b1a35	-0.06792108
96	0x3d996980	0.07490826
97	0x3ddd6628	0.108105004
98	0x3cf6d088	0.030128732
99	0x3c3e93b0	0.011631891
100	0x3d160610	0.036626875
101	0x3cd7dd78	0.026350722
102	0x3da0a770	0.07844436
103	0xbd633aac	-0.055475876
104	0xbc76a470	-0.015053853
105	0xbd4564b8	-0.048191756
106	0xbdba6240	-0.09100771
107	0xbdd64f88	-0.10464388
108	0xbd5b49fc	-0.053537354
109	0x3dcd0f72	0.100127116
110	0x3da45df2	0.08025731
111	0xbced8a4c	-0.02899661
112	0x3d46b90c	0.04851632
113	0x3d694260	0.056948066
114	0x3e063ead	0.13109846
115	0xbdbe0291	-0.09277833
116	0x3dc2d4e2	0.095132604
117	0x3d34f9a0	0.044183373
118	0x3ca00ef8	0.019538388
119	0xbd21bf46	-0.039489053
120	0xbdb13e62	-0.08654477
121	0x3d75dea0	0.060026765
122	0xbdd869ed	-0.10567079
123	0x3dea2216	0.114322826
124	0x3b438f00	0.0029839873
125	0x3dcafa1a	0.09910984
126	0x3c94cef8	0.018165097
127	0x3de0604a	0.10955866
128	0xbdce5848	-0.10075432
129	0xbdeb0222	-0.11475016
130	0xbc9f034c	-0.019410752
131	0x3dee5656	0.11637561
132	0xbddf9d73	-0.10918703
133	0x3d3ae440	0.045627832
134	0xbd0da016	-0.034576498
135	0x3cd95e68	0.026534274
136	0x3ca54aa0	0.020177186
137	0x3d770118	0.060303777
138	0xbdae0f7e	-0.08499049
139	0xbda0c51c	-0.07850096
140	0x3c09e480	0.008416295
141	0xbc8be408	-0.017076507
142	0xbdb9b67a	-0.09068008
143	0x3dca854e	0.09888707
144	0x3db40b98	0.08791274
145	0xbdf0bf6e	-0.11755262
146	0xbdaf828e	-0.08569823
147	0xbe0cfd66	-0.13768539
148	0x3dc11648	0.09428078
149	0xbdc28060	-0.09497142
150	0xbddc2a7c	-0.10750291
151	0x3cb6d7d8	0.02231972
152	0xbd868068	-0.0656746
153	0x3d4b743c	0.049671397
154	0xbda31e88	-0.07964808
155	0xbdc5cbc2	-0.09658004
156	0xbdddaa49	-0.10823495
157	0xbd9c8345	-0.07642225
158	0x3dac4e2e	0.08413349
159	0x3de29316	0.11063211
160	0xbd842df1	-0.06454075
161	0x3e0c06b5	0.13674434
162	0xbdaad5f0	-0.083415866
163	0x3de5d946	0.11223082
164	0xbd1e7526	-0.03868594
165	0xbc6b7f50	-0.014373615
166	0xbe065813	-0.13119535
167	0x3d922c1c	0.071373194
168	0x3d84dc46	0.06487326
169	0x3db66fec	0.08908066
170	0x3e00ac93	0.12565832
171	0xbc1eff00	-0.009704351
172	0x3dd15f78	0.10223287
173	0x3db2c24a	0.08728464
174	0x3c06b870	0.008222684
175	0x3dacf1a0	0.08444524
176	0xbcd03828	-0.025417402
177	0x3d8288fe	0.063737854
178	0x3bab1160	0.005220577
179	0xbe0759fa	-0.13217917
180	0xbd22d432	-0.039753146
181	0xbde24b61	-0.11049534
182	0x3d8181e6	0.06323604
183	0xbe0c42d5	-0.1369737
184	0x3d820d2e	0.0635017
185	0x3d6742e4	0.056460276
186	0x3dde1d7e	0.10845469
187	0x3d98c106	0.07458691
188	0xbce99da4	-0.028517552
189	0x3d2f0d4c	0.04273729
190	0x3d866cd4	0.06563726
191	0x3dc051d0	0.093906045
192	0x3e0cc7b3	0.13748054
193	0x3e016e1d	0.12639661
194	0xbd3e5e28	-0.046476513
195	0xbde33779	-0.11094565
196	0x3d40aacc	0.047037885
197	0x3cb1dc78	0.021711573
198	0x3d218b20	0.03943932
199	0x3cc2cad8	0.023778364
200	0xbe0f2d04	-0.13982016
201	0xbbffa460	-0.0078015774
202	0x3e070ca9	0.13188423
203	0xbc7cf490	-0.015439168
204	0xbbe838e0	-0.007086858
205	0x3dbe28d2	0.092851296
206	0xbd92d2a0	-0.0716908
207	0xbd5efbf0	-0.054439485
208	0xbdea4923	-0.11439731
209	0xbe05c2e9	-0.13062634
210	0x3e048fa9	0.12945427
211	0xb9a9bc00	-0.00032374263
212	0xbd092bc2	-0.033488996
213	0x3d63b030	0.055587947
214	0xbdb020de	-0.08600019
215	0xbd12ed66	-0.035870932
216	0xbe07a5f4	-0.132469
217	0xbdf63a6b	-0.12022861
218	0x3d45f340	0.048327684
219	0x3d6c5320	0.05769646
220	0xbe0a2b34	-0.13493043
221	0xbdf2a59e	-0.11847995
222	0x3d4e8438	0.050419062
223	0x3c04c0e0	0.008102626
224	0xbd8ecd77	-0.06972783
225	0xbdebcdc1	-0.11513854
226	0xbc9240bc	-0.017853133
227	0xbde2a6f5	-0.11067001
228	0xbd65b12e	-0.056077175
229	0x3dbcff36	0.09228365
230	0xbe0e28f5	-0.13882811
231	0xbd3e844e	-0.046512894
232	0xbd0a623a	-0.033785082
233	0x3c7b6310	0.015343443
234	0x3d36cb9c	0.04462777
235	0xbdad4222	-0.084598795
236	0xbdc55e7a	-0.096371606
237	0xbdb21f6b	-0.08697399
238	0x3db9d066	0.09072952
239	0xbcd766a0	-0.026294053
240	0x3d216d9c	0.039411172
241	0x3da2e810	0.07954419
242	0x3de56312	0.11200537
243	0x3d2c27f0	0.042030275
244	0xbdf9b9bb	-0.121936284
245	0xbd8e77b2	-0.06956424
246	0x3d15d9a0	0.036584496
247	0x3c798990	0.015230551
248	0xbde27f61	-0.11059452
249	0x3d218ff0	0.03944391
250	0xbde88682	-0.1135378
251	0x3d0d94d0	0.034565747
252	0xbdc650f8	-0.09683412
253	0xbd48e098	-0.049042314
254	0x3c875458	0.01651971
255	0xbd53db76	-0.051722966

l2.bias f4 [100]
0	0xbe0edcbc	-0.13951391
1	0x3d9ad824	0.07560757
2	0xbd99d80e	-0.07511912
3	0xbd3311ce	-0.04371815
4	0x3d994c20	0.07485223
5	0x3d474084	0.04864551
6	0xbe0e5d03	-0.13902669
7	0xbde387b0	-0.11109865
8	0x3d898b7a	0.06716056
9	0xba774000	-0.0009431839
10	0xbdacdef2	-0.08440961
11	0xbd920ec6	-0.07131724
12	0x3d909f48	0.070616305
13	0x3dc6a87a	0.09700103
14	0x3e0a8743	0.13528161
15	0x3d0c01a8	0.034181267
16	0x3e0d530b	0.1380121
17	0xbd458b2a	-0.04822842
18	0xbdc33f66	-0.09533577
19	0xbc8ccd0c	-0.017187618
20	0x3dac11f2	0.0840186
21	0xbc2f6330	-0.0107048005
22	0x3dd72e5a	0.10506888
23	0xbd6b6a7c	-0.0574746
24	0x3dfcf65a	0.12351675
25	0x3c9ac8a0	0.018894494
26	0x3dc73c32	0.09728278
27	0x3e09d43d	0.13459869
28	0x3d2eab2c	0.04264371
29	0xbe041f68	-0.12902606
30	0xbd81726b	-0.063206516
31	0x3dc3e492	0.09565081
32	0xbe003c2d	-0.12522955
33	0x3daa7cb4	0.083245665
34	0xbc8aa498	-0.016924188
35	0xbca632f0	-0.02028796
36	0x3cf9b060	0.03047961
37	0xbcedc7e4	-0.02902598
38	0xbd33cd5e	-0.043897025
39	0xbdc7511a	-0.09732266
40	0x3d39f910	0.04540354
41	0x3def87fe	0.1169586
42	0x3d377cb8	0.044796675
43	0xbd20cd3c	-0.039258227
44	0x3c33a840	0.010965407
45	0x3dad26ba	0.08454652
46	0xb9618000	-0.00021505356
47	0x3e109055	0.14117558
48	0xbdcb2d7a	-0.09920783
49	0xbd356efc	-0.044295296
50	0x3d4a298c	0.04935603
51	0xbe0b434c	-0.1359989
52	0x3d8cfc2a	0.06884034
53	0x3cbffa38	0.023434743
54	0x3ccc8200	0.024964333
55	0x3db38ad8	0.08766717
56	0xbe0a9e34	-0.13536912
57	0x3ca90808	0.020633712
58	0xbc2eb250	-0.01066263
59	0xbccfe5d8	-0.025378153
60	0xbc300280	-0.010742784
61	0xbdd4ec48	-0.103966296
62	0x3e0aa0db	0.13537924
63	0xbd7f34de	-0.062306277
64	0x3c89a480	0.016802073
65	0xbdb89a24	-0.09013775
66	0xbda7844a	-0.08179529
67	0x3cca1470	0.024667948
68	0xbe071971	-0.13193299
69	0x3cc95e98	0.024581239
70	0xbe07c532	-0.13258818
71	0xbd7d3cca	-0.06182555
72	0x3c7861e0	0.015160054
73	0x3cdce148	0.026962891
74	0x3db4d348	0.08829361
75	0x3befa300	0.0073131323
76	0x3df76d82	0.12081434
77	0xbdacc4ec	-0.08435997
78	0xbd87980f	-0.066208
79	0xbc87a5a0	-0.016558468
80	0xbdaa9b86	-0.08330445
81	0xb9a10000	-0.00030708313
82	0x3c0a2a20	0.008432895
83	0xbe031b0c	-0.12803286
84	0x3afaf400	0.0019146204
85	0x3d50f838	0.05101797
86	0x3e08dff9	0.13366689
87	0x3d55e9e4	0.05222501
88	0xbd869435	-0.06571237
89	0x3d0b2a24	0.033975735
90	0x3cdaa2d0	0.026688963
91	0xbc2d8f50	-0.01059325
92	0xbb9aab40	-0.0047201216
93	0xbd60bb80	-0.054866314
94	0x3dcfa7fe	0.10139464
95	0x3dc5be10	0.09655392
96	0x3da1774c	0.07884082
97	0xbde48769	-0.1115864
98	0xbe02ab1c	-0.12760586
99	0x3d6c1348	0.057635576

l3.weight f4 [20, 100]
0	0xbd82fa8a	-0.06395443
1	0xbc93008c	-0.017944597
2	0xbd10801c	-0.035278425
3	0xbdbb00e5	-0.0913103
4	0x3d850fb7	0.06497138
5	0x3d3658ba	0.04451821
6	0xbd4629e0	-0.04837978
7	0xbc0b5c70	-0.008505926
8	0x3cdb6174	0.026779868
9	0xbd9193a0	-0.07108235
10	0x3ca598c0	0.020214438
11	0x3d2af4fa	0.041737534
12	0xbd30f7da	-0.04320512
13	0x3d53b5da	0.0516871
14	0xba88a380	-0.0010424703
15	0xbd29c853	-0.04145081
16	0x3d91201b	0.07086202
17	0xbd8610d2	-0.06546177
18	0xbd3990b0	-0.045304
19	0xbcf83408	-0.030298248
20	0x3da2d26d	0.07950292
21	0xbce49514	-0.027903117
22	0xbd978533	-0.073984526
23	0xbdbc276a	-0.09187205
24	0x3d8bb909	0.06822402
25	0xbd789a6d	-0.060694147
26	0xbd41949d	-0.04726087
27	0xbdb0fb8d	-0.086417295
28	0xbc3438a8	-0.010999836
29	0x3d9c81b7	0.07641929
30	0xbc88b158	-0.016686127
31	0x3d3d1132	0.046158977
32	0x3d68ea5a	0.05686412
33	0xbc9d4fa8	-0.019203022
34	0xbc8e3958	-0.017361328
35	0xbcf3d408	-0.02976419
36	0x3c0e0de8	0.008670308
37	0x3bd65650	0.006541051
38	0xbd95f5a5	-0.073222436
39	0xbd7de517	-0.061986055
40	0x3d1d24f6	0.038365327
41	0x3d068bfe	0.03284835
42	0xbd391873	-0.045189332
43	0x3daac3cf	0.08338129
44	0xbd51daed	-0.051234175
45	0xbd50782a	-0.050895847
46	0xbc1cb858	-0.009565435
47	0xbd8ccd45	-0.068750896
48	0x3db34655	0.08753649
49	0x3c98d86c	0.018657885
50	0x3c5e4750	0.013566807
51	0x3da2ebdd	0.079551436
52	0x3dc87f7b	0.0978994
53	0xbcaa97e0	-0.020824373
54	0x3d8acd69	0.0677746
55	0x3c8fc0f8	0.01754807
56	0xbdbc6c2a	-0.09200318
57	0xbd54f407	-0.051990535
58	0x3d7ed6ba	0.062216498
59	0x3b3a2960	0.002840601
60	0x3d0006f2	0.031256624
61	0xbd45b0c0	-0.048264265
62	0x3c671768	0.014104702
63	0xbce30f18	-0.027717158
64	0xbcc9ce20	-0.02463442
65	0xbd9af91e	-0.075670466
66	0x3cb52114	0.0221105
67	0x3d9ac5f5	0.075572886
68	0x3d1cf952	0.038323708
69	0x3d168f82	0.036757953
70	0x3d9cec3b	0.07662245
71	0xbd984e8a	-0.07436855
72	0x3db2c2cd	0.087285616
73	0x3d1d220e	0.038362555
74	0x3db95589	0.09049518
75	0x3c0e7898	0.008695744
76	0xbd980b20	-0.07423997
77	0xbd71b2e7	-0.059008505
78	0x3d4b58be	0.049645178
79	0xbd7be8b7	-0.06150123
80	0x3cbe0a00	0.023198128
81	0xbaa0dc00	-0.0012272596
82	0x3c986fd8	0.018608019
83	0x3d526b86	0.051372074
84	0x3c835fb8	0.016036853
85	0x3ce6a84c	0.028156422
86	0xbdc7a15d	-0.097475745
87	0xbd76fb93	-0.060298514
88	0xbda8149a	-0.082070544
89	0xbcbe53c0	-0.023233294
90	0xbd8f2445	-0.0698934
91	0xbcfb2b6c	-0.030660354
92	0x3d1d5f22	0.038420804
93	0x3d44e84e	0.048073106
94	0x3d6499e6	0.05581083
95	0x3d1aeb0a	0.037821807
96	0x3d98ce05	0.0746117
97	0x3dad4313	0.08460059
98	0xbc04de30	-0.008109614
99	0xbdc679fa	-0.09691234
100	0xbd06e08a	-0.03292898
101	0xbd0f9596	-0.035054766
102	0xbd8e5a35	-0.069507994
103	0x3d934113	0.07190146
104	0x3d9799f5	0.07402412
105	0xbbd30fd0	-0.006441094
106	0x3dbfb58d	0.093608
107	0xbd60208d	-0.054718543
108	0x3cab38b4	0.020901062
109	0x3db573c1	0.08859969
110	0x3d153a42	0.036432512
111	0x3d8072a5	0.06271867
112	0xbd796d73	-0.060895395
113	0x3b0f5ba0	0.002187468
114	0xbad6c6c0	-0.0016386136
115	0xbcc69440	-0.024240613
116	0xbb27c300	-0.0025598407
117	0x3da3730f	0.0798093
118	0xbd835080	-0.064118385
119	0x3c4fb890	0.0126782805
120	0x3db0ff61	0.0864246
121	0xbc8c4688	-0.017123476
122	0x3d5bbf72	0.053649373
123	0xbdbb1880	-0.091355324
124	0x3cf6e2cc	0.030137442
125	0xbca39c28	-0.019971922
126	0x3c36f9c0	0.0111679435
127	0xbd1827da	-0.03714738
128	0x3da03389	0.078223296
129	0x3d8eb555	0.0696818
130	0xbd31ef6d	-0.043441225
131	0xbd898fe2	-0.067168966
132	0x3b9221b0	0.0044595823
133	0x3dc23b35	0.09483949
134	0x3d531f02	0.051543243
135	0x3da9bca1	0.08287931
136	0x3dc579f3	0.096424006
137	0x3dacd009	0.08438117
138	0x3caf04cc	0.021364592
139	0xbd97415d	-0.07385514
140	0x3da0f91f	0.07860016
141	0xbd1a5407	-0.03767779
142	0x3d31c616	0.0434018
143	0xbd9c3796	-0.0762779
144	0x3d99ada5	0.07503823
145	0xbd91c07b	-0.07116791
146	0xbdc3c8bf	-0.09559774
147	0xbdcba8c7	-0.09944301
148	0xbca5ba00	-0.020230293
149	0x3dacc30f	0.08435642
150	0x3d054b66	0.03254261
151	0x3da84597	0.08216398
152	0xbd24391d	-0.04009353
153	0xbc71b830	-0.014753386
154	0xbd9fa88a	-0.07795818
155	0x3c61e298	0.013786934
156	0xbc9b5774	-0.0189626
157	0x3d4373c6	0.047717832
158	0xbd83c02a	-0.06433137
159	0x3d937903	0.072008155
160	0xbd3076c3	-0.04308201
161	0x3d652626	0.055944584
162	0xbd9533c6	-0.072852656
163	0x3d92b7bd	0.071639515
164	0x3b4967a0	0.0030731931
165	0x3da4dbaf	0.08049714
166	0xbc89d420	-0.016824782
167	0x3dc1705f	0.09445261
168	0x3d1a501e	0.037674062
169	0x3dbfa1db	0.09357043
170	0xbdbd4793	-0.09242167
171	0x3da03a01	0.07823563
172	0xbc229770	-0.009923801
173	0xbd3ab6b0	-0.04558438
174	0xbd51a820	-0.051185727
175	0xbdc40e03	-0.09572985
176	0x3dc4a2fd	0.096014
177	0x3cc98040	0.024597287
178	0x3db4540f	0.088050954
179	0x3d81ab41	0.06331492
180	0x3dbd4513	0.092416905
181	0x3c67a230	0.01413779
182	0xbca9b8b8	-0.020717964
183	0xbca959f4	-0.020672776
184	0xbd8760f6	-0.06610291
185	0xbc7a3118	-0.015270494
186	0x3d8593c9	0.065223284
187	0xbc61c128	-0.013778962
188	0xbd5acd87	-0.053418662
189	0xbcf927d8	-0.030414507
190	0xbb9b1eb0	-0.004733883
191	0x3db66a37	0.089069776
192	0xbc21d840	-0.009878218
193	0x3dafd8d1	0.08586276
194	0x3d3e204a	0.046417512
195	0x3d8bcb15	0.06825844
196	0x3d65f7ae	0.05614441
197	0x3d88b889	0.06675822
198	0x3d59bfc2	0.05316139
199	0xbd615820	-0.055015683
200	0x3d531096	0.05152949
201	0xbd0f2c24	-0.034954205
202	0xbd9bfa98	-0.07616156
203	0x3d09b78e	0.033622317
204	0xbb70c860	-0.0036740527
205	0x3dbace7b	0.09121414
206	0x3bb93450	0.005651988
207	0xbd9b862b	-0.0759395
208	0x3d164972	0.036691137
209	0x3d29ce12	0.04145629
210	0xbda444c5	-0.08020929
211	0xbd851f80	-0.06500149
212	0xbc930754	-0.01794783
213	0x3dc24dfd	0.09487531
214	0x3d879ea7	0.066220574
215	0x3da5d821	0.08097864
216	0x3cc17e18	0.023619696
217	0x3c49ab98	0.012308978
218	0xbd51447a	-0.051090695
219	0x3d452a66	0.048136137
220	0x3cd507c4	0.02600468
221	0xbdc04727	-0.09388571
222	0x3db03791	0.086043485
223	0xbd1565dc	-0.036474094
224	0xb8df2800	-0.00010640919
225	0xbdb00047	-0.08593803
226	0x3dc05457	0.093910865
227	0x3dcafc29	0.09911377
228	0xbdc6c7af	-0.097060554
229	0x3d797cc2	0.060909994
230	0xbd351aa3	-0.044214856
231	0x3d88d061	0.0668037
232	0xbd9b6f88	-0.07589632
233	0x3d37b066	0.04484596
234	0xbb90f8b0	-0.004424177
235	0xbc0ea380	-0.008705974
236	0xbcfa5060	-0.030555904
237	0xbd4134ed	-0.047169615
238	0x3dcb6229	0.09930832
239	0x3dbc3da1	0.09191442
240	0x3c86d640	0.016459584
241	0x3cfdab54	0.030965485
242	0x3d902c9f	0.07039761
243	0x3d4b5152	0.0496381
244	0x3d119022	0.035537846
245	0x3d4af3ce	0.049548917
246	0x3db398f5	0.087694086
247	0x3be6fb20	0.0070489794
248	0xbcf5d2e0	-0.03000778
249	0xbc8c9cb8	-0.017164573
250	0x3c9f9e6c	0.019484721
251	0xbdae02a3	-0.08496597
252	0x3d893e71	0.06701363
253	0xbda0b1ae	-0.0784639
254	0xbd45dc80	-0.04830599
255	0xbdcb79c0	-0.09935331

l3.bias f4 [20]
0	0xbc036368	-0.008019306
1	0x3d4e83b2	0.050418563
2	0xbcb11354	-0.021615662
3	0xbd1a30ea	-0.037644304
4	0xbd352a43	-0.044229757
5	0x3d44c482	0.048038967
6	0x3dae8213	0.085209034
7	0x3d88b637	0.0667538
8	0x3db242a3	0.08704116
9	0x3d6ddb1a	0.05807028
10	0xbcfe0ed8	-0.031012937
11	0xbca40448	-0.020021573
12	0xbd292e5d	-0.04130398
13	0xbb87c3e0	-0.004143223
14	0xbc18c6d8	-0.009324752
15	0x3db70979	0.08937354
16	0xbdb6b140	-0.089205265
17	0x3c5c1350	0.013432339
18	0xbb4ed1c0	-0.0031558126
19	0xbd0e39ec	-0.034723207

output.weight f4 [8, 20]
0	0xbe31188d	-0.17294522
1	0x3e3ae206	0.18250284
2	0x3dd31a58	0.10307759
3	0xbdae9bf2	-0.08525838
4	0x3bb89260	0.0056326836
5	0x3e5f18ce	0.21786806
6	0x3d299bd0	0.04140836
7	0xbafd7600	-0.0019337535
8	0x3e46a21e	0.1939778
9	0xbe517c55	-0.20457585
10	0xbdbd82e8	-0.09253484
11	0x3e38fe52	0.18065766
12	0x3e1b5946	0.15170774
13	0xbdb9321a	-0.09042759
14	0xbe25eb4c	-0.1620304
15	0xbe5761c6	-0.21033391
16	0x3e5d3efc	0.21606058
17	0xbe2d30a1	-0.16913082
18	0x3ddae1d0	0.106876016
19	0x3e1fc40e	0.15602133
20	0xbe2b9a8e	-0.16758177
21	0x3e139a1a	0.14414254
22	0xbe2aa7d0	-0.16665578
23	0x3dd73abc	0.105092496
24	0x3e3d3f2c	0.1848113
25	0x3e13c20e	0.14429495
26	0xbe4fd7d1	-0.20297171
27	0xbd821a82	-0.06352712
28	0x3ddc12e4	0.107457906
29	0x3c79e120	0.015251428
30	0xbd086560	-0.033299804
31	0x3d9ea538	0.07746357
32	0xbda9e724	-0.0829604
33	0xbb59b500	-0.0033219457
34	0x3da27198	0.079318225
35	0xb94c9400	-0.0001951009
36	0xbe004749	-0.12527193
37	0x3e15143e	0.14558503
38	0xbd94f81c	-0.072738856
39	0x3d3b7768	0.04576817
40	0x3dd814d8	0.10550851
41	0xbc917380	-0.01775527
42	0x3e317cb8	0.17332733
43	0x3e214126	0.15747508
44	0xbd847534	-0.06467667
45	0xbe649b59	-0.22324885
46	0xbe5e13ce	-0.21687242
47	0x3d148978	0.036263913
48	0xbcca5410	-0.024698287
49	0x3e60677e	0.21914479
50	0x3e40950e	0.1880686
51	0x3e48034c	0.19532508
52	0xbe432f00	-0.19060898
53	0x3e1b864a	0.15187946
54	0xbd598bd0	-0.05311185
55	0x3dab4d84	0.08364394
56	0x3e303f48	0.1721164
57	0x3db52888	0.08845621
58	0x3e10f0b2	0.14154318
59	0x3e413594	0.18868095
60	0xbe067a27	-0.13132535
61	0x3e0ecf60	0.13946295
62	0xbd926da8	-0.071498215
63	0x3d0276c0	0.03185153
64	0x3d73f3f0	0.05955881
65	0xbe2f6116	-0.17126879
66	0xbe39b1eb	-0.18134277
67	0x3df8f40c	0.12155923
68	0xbe45ee92	-0.19329289
69	0xbd3c760c	-0.046011016
70	0xbd95d6ec	-0.07316384
71	0xbe5b13ce	-0.21394274
72	0xbe014f38	-0.12627876
73	0xbe091f0a	-0.13390747
74	0xbe500e6b	-0.20318
75	0xbc6fb330	-0.014630124
76	0x3c3b0840	0.011415541
77	0xbdba06a8	-0.09083301
78	0xbdf10413	-0.11768355
79	0x3e483644	0.1955195
80	0xbdd1e96c	-0.102496
81	0xbdac00f6	-0.08398621
82	0x3e116596	0.14198908
83	0x3e27ced8	0.16387498
84	0x3e07d0be	0.13263223
85	0x3de57358	0.11203641
86	0xbde7de8c	-0.11321744
87	0xbe17e36d	-0.1483285
88	0xbe5b3991	-0.21408679
89	0x3e446c04	0.1918183
90	0x3d0d5ff8	0.03451535
91	0x3d9bea64	0.07613066
92	0x3dc57154	0.09640756
93	0xbe4caf2c	-0.19988698
94	0x3da57d28	0.08080512
95	0xbe597e22	-0.21239522
96	0xbd73e8a0	-0.05954802
97	0x3d63fa58	0.05565867
98	0x3e58ae3e	0.21160218
99	0xbd49779c	-0.049186334
100	0x3cdeb1c0	0.027184367
101	0xbe037cf0	-0.12840629
102	0x3ba56f20	0.0050486475
103	0x3d0937b0	0.033500373
104	0xbdbe88f2	-0.09303464
105	0xbe59f88f	-0.21286224
106	0x3df0dd54	0.11760965
107	0x3d5312e0	0.051531672
108	0x3d758460	0.059940696
109	0xbd9a4ec4	-0.075345546
110	0x3e5de83e	0.21670625
111	0x3dbf3ee0	0.09338164
112	0x3e51bf82	0.2048321
113	0x3e3590fe	0.17731091
114	0xbe0f65b0	-0.14003634
115	0x3e30f166	0.17279586
116	0xbe32c65a	-0.17458478
117	0xbe27750e	-0.16353247
118	0x3b5a1c80	0.0033281147
119	0xbe45813c	-0.1928758
120	0x3d382c68	0.044964224
121	0xbdd69a3c	-0.104786366
122	0xbe2c09b6	-0.1680058
123	0x3dd3052c	0.10303721
124	0xbdc60f3c	-0.096708745
125	0xbcdd75b8	-0.027033672
126	0x3db6c06c	0.0892342
127	0x3e1ef62c	0.15523595
128	0xbe04df04	-0.12975699
129	0xbda7f088	-0.082001746
130	0xbda5e4cc	-0.0810028
131	0x3deea5d0	0.1165272
132	0x3dab3ffc	0.083618134
133	0xbe2332d7	-0.15937363
134	0xbe0b54f8	-0.13606632
135	0x3d7f1c00	0.062282562
136	0xbd0ab29c	-0.03386174
137	0x3dc50b60	0.0962131
138	0xbbac2240	-0.0052531064
139	0x3d24e708	0.04025939
140	0xbddfa58b	-0.10920247
141	0xbcf628a8	-0.030048683
142	0xbe333b50	-0.17503095
143	0x3e5fa84a	0.21841541
144	0xbdf3e85a	-0.11909552
145	0x3e2024fa	0.15639105
146	0xbde28327	-0.110601716
147	0xbc742ea0	-0.014903694
148	0xbe188ada	-0.14896718
149	0x3dd7d758	0.105391204
150	0xbe62daf2	-0.22153834
151	0x3d5d66c0	0.05405307
152	0x3d4437b0	0.04790467
153	0xbe10f189	-0.14154638
154	0xbe4ddd89	-0.2010404
155	0xbe3bf75a	-0.18356076
156	0x3e1ecf6a	0.1550881
157	0x3dc73754	0.0972735
158	0x3d4c9738	0.0499489
159	0xbe61111d	-0.21979184

output.bias f4 [8]
0	0x3e28b08a	0.16473594
1	0x3d6d1bf0	0.05788797
2	0xbe26edb8	-0.1630162
3	0xbe2af550	-0.16695142
4	0x3df0f09c	0.117646426
5	0x3de0f6d8	0.10984582
6	0xbd28c8cc	-0.04120712
7	0xbe371826	-0.17880306
