Simple_ANN_experience/saved_model/simpleANNlr=0.002bs=128_mse_data.pt (torch, 34575 bytes, 8 tensors)

l1.weight f4 [50, 14]
0	0xbe4903a8	-0.19630301
1	0x3c944060	0.018097103
2	0xbd59b304	-0.05314924
3	0x3e4c7eca	0.19970241
4	0x3d87fc40	0.0663991
5	0xbd0f7020	-0.03501904
6	0xbe0f1774	-0.1397379
7	0x3e68a876	0.22720513
8	0xbe43894a	-0.1909534
9	0x3dfefca8	0.12450534
10	0xbcef6010	-0.02922061
11	0x3da0a6ec	0.07844338
12	0x3d6d2eb0	0.057905853
13	0xbca0bc98	-0.019621179
14	0x3e607970	0.21921325
15	0x3ddbcf14	0.107328564
16	0xbd3c76b4	-0.04601164
17	0x3da86dc4	0.08224061
18	0x3e83381b	0.25628743
19	0x3c6d9c00	0.014502525
20	0x3e267aba	0.16257754
21	0x3d57e268	0.052706152
22	0x3e6cd244	0.23127085
23	0xbe1e01df	-0.15430401
24	0xbe2410b8	-0.16022003
25	0x3e374a40	0.17899418
26	0xbde2ac3a	-0.11068006
27	0xbc5bc980	-0.013414741
28	0xbd86b78a	-0.06577976
29	0x3d2393a0	0.039935708
30	0xbe4a89e6	-0.19779167
31	0x3db6fc20	0.08934808
32	0x3bb05900	0.0053817034
33	0x3e82ef81	0.25573352
34	0x3e84483d	0.25836363
35	0xbe5f2ff1	-0.21795632
36	0x3e4ff998	0.20310056
37	0xbe7a0a2b	-0.24417941
38	0xbe1e45f0	-0.15456367
39	0x3d807f50	0.06274283
40	0x3def7440	0.11692095
41	0x3cc835d0	0.024439722
42	0x3d0d9a20	0.034570813
43	0xbe3e485e	-0.18582293
44	0x3e82cd05	0.25547042
45	0xbcbff5d8	-0.023432657
46	0xbdaf04ee	-0.08545862
47	0x3df08580	0.11744213
48	0xbe7a0262	-0.24414971
49	0x3e6f7046	0.23382673
50	0xbdc7eb58	-0.09761685
51	0x3dbdc984	0.09266952
52	0xbe14d946	-0.14536008
53	0xbe56b279	-0.2096652
54	0xbe35eb68	-0.17765582
55	0xbce19398	-0.027536198
56	0x3d29e2b8	0.04147598
57	0x3e143c14	0.14476043
58	0xbd70d184	-0.05879356
59	0xbe1a4544	-0.15065485
60	0xbdc5c8b2	-0.0965742
61	0xbe0fab1d	-0.14030118
62	0xbe392f1e	-0.1808438
63	0x3e470e20	0.19438982
64	0x3d9d2064	0.07672194
65	0x3c806b50	0.01567617
66	0xbe7401bc	-0.23828787
67	0x3ddda174	0.1082181
68	0x3e0c4962	0.13699868
69	0xbcff5bc0	-0.03117168
70	0x3da841bc	0.08215663
71	0xbe27b16a	-0.16376272
72	0xbc3da8a0	-0.011575848
73	0x3e6964d2	0.22792366
74	0xbd6a993c	-0.057275042
75	0x3dbb2360	0.091376066
76	0x3e650d28	0.223683
77	0xbe4c4f6a	-0.19952169
78	0x3e5536e2	0.20821717
79	0x3da27104	0.07931712
80	0xbe85a1e7	-0.26100084
81	0xbdfad3d2	-0.12247433
82	0x3d83e588	0.06440264
83	0x3d0818e8	0.033226877
84	0x3e68b3de	0.22724864
85	0xbe83d381	-0.25747302
86	0xbd8d6fc8	-0.06906086
87	0x3e05103c	0.12994474
88	0x3e731b96	0.23740992
89	0xbe731418	-0.23738134
90	0xbe336b26	-0.17521343
91	0x3e129d76	0.14317879
92	0xbe0f43e0	-0.13990736
93	0xbe490437	-0.19630514
94	0x3cba5650	0.022746235
95	0xbe3c3065	-0.18377836
96	0x3e16a466	0.1471115
97	0x3e1fc9a2	0.1560426
98	0xbe4e438c	-0.20142955
99	0xbe6c6a3c	-0.230874
100	0x3e7f7762	0.24947885
101	0x3c99eb70	0.018789023
102	0xbe793ce1	-0.2433963
103	0xbdd8bf6c	-0.10583386
104	0x3dcbb7c4	0.0994716
105	0x3ca98780	0.020694494
106	0x3e4e195a	0.20126858
107	0xbe7fb085	-0.2496968
108	0x3e16d196	0.14728388
109	0xbe72a7ff	-0.23696898
110	0xbe56476e	-0.20925686
111	0xbe03ab5f	-0.12858342
112	0xbe7d6962	-0.24747232
113	0xbe0dfa91	-0.13865115
114	0x3d78bd00	0.06072712
115	0x3e4084b0	0.18800616
116	0xbe42f286	-0.19037828
117	0xbcd1aa88	-0.025594011
118	0x3e7f33d2	0.24922112
119	0xbdbc9752	-0.092085496
120	0xbc1b5280	-0.009480119
121	0xbe7481ab	-0.2387759
122	0x3e81dd7d	0.25364295
123	0x3d9df594	0.07712856
124	0x3dac5040	0.08413744
125	0xbe5bc4e8	-0.21461833
126	0xbca4cd50	-0.020117432
127	0x3e7ca42e	0.24672005
128	0x3e441d0e	0.19151708
129	0xbd7e659c	-0.06210862
130	0xbd9a8036	-0.075439855
131	0x3deb38e0	0.114854574
132	0xbe2642d0	-0.16236424
133	0x3e1f67d6	0.15566954
134	0xbe4ef515	-0.20210679
135	0x3e27288e	0.16324064
136	0x3d5b92f0	0.053606927
137	0xbd792690	-0.06082779
138	0x3dabe674	0.08393565
139	0x3e17f946	0.14841184
140	0x3e4c24b2	0.19935873
141	0xbe2f24d4	-0.17103893
142	0xbe04cda2	-0.12969068
143	0x3d4ed460	0.050495505
144	0xbe5ab511	-0.21358134
145	0xbe163bc9	-0.14671244
146	0x3e838f4d	0.25695267
147	0xbe27cf56	-0.16387686
148	0xbdce51a2	-0.10074164
149	0xbdbc9d1a	-0.09209652
150	0x3e7af9a2	0.2450929
151	0xbe443f02	-0.1916466
152	0x3e388f9c	0.18023533
153	0x3d572d20	0.05253327
154	0x3e88b627	0.2670147
155	0xbe102875	-0.14077933
156	0x3cd1cc60	0.025610149
157	0x3e2f8606	0.1714097
158	0xbe4dbebc	-0.2009229
159	0x3e799e1e	0.24376723
160	0x3e7ea1ba	0.24866381
161	0xbe140a05	-0.14456947
162	0xbe3fbaa9	-0.18723549
163	0xbe7446ae	-0.23855087
164	0xbe3744f8	-0.17897403
165	0x3cfb7010	0.030693084
166	0xbb035800	-0.0020041466
167	0x3e62cec2	0.22149184
168	0x3e53c39a	0.20680085
169	0x3e41e560	0.18935156
170	0x3e2cdb20	0.16880465
171	0x3e0d5e80	0.1380558
172	0xbe5e4dfb	-0.21709435
173	0x3dbf714c	0.093477815
174	0x3cf67c30	0.030088514
175	0xbe392d30	-0.18083644
176	0x3e0ba978	0.13638866
177	0x3d891bb8	0.0669474
178	0x3e5a320e	0.21308157
179	0x3e5cf986	0.2157956
180	0x3e6d0788	0.23147404
181	0x3d337718	0.04381475
182	0xbe3e74f6	-0.18599305
183	0x3e762b76	0.24040017
184	0xbdfeeb7c	-0.12447259
185	0xbe2233a4	-0.15840012
186	0x3df3e1b8	0.11908287
187	0x3d924dc0	0.07143736
188	0x3e342598	0.17592466
189	0xbdd74236	-0.105106756
190	0xbc56f740	-0.013120472
191	0xbc3d2000	-0.011543274
192	0xbd96e020	-0.07366967
193	0xbc76f3e0	-0.015072793
194	0x3d83bb98	0.06432265
195	0xbd6cd20c	-0.057817504
196	0x3e67bf0c	0.22631472
197	0xbe45693f	-0.1927843
198	0x3e121b88	0.14268315
199	0x3d5bbf10	0.05364901
200	0x3e33cdd4	0.17558986
201	0x3dbcac1c	0.09212515
202	0x3d10c1e8	0.035341173
203	0x3d58ccf0	0.05292982
204	0x3e3a5e84	0.18200117
205	0x3e2195fe	0.15779874
206	0xbe6d41ea	-0.23169675
207	0xbe68abed	-0.22721834
208	0x3e3f1988	0.18662083
209	0xbd6fb990	-0.058526576
210	0x3cd97bc0	0.026548266
211	0x3d0821f0	0.03323549
212	0x3cd02dd0	0.02541247
213	0x3d94ca54	0.072651535
214	0x3e7286b6	0.236842
215	0xbc0b5620	-0.0085044205
216	0x3e474fbc	0.1946401
217	0x3d75dd70	0.060025632
218	0x3d10ca60	0.03534925
219	0xbc8a64d0	-0.016893774
220	0xbccb0490	-0.024782449
221	0xbcc5c5d8	-0.02414219
222	0xbe842145	-0.25806633
223	0x3d6ff7c8	0.058585912
224	0x3e6cd022	0.23126271
225	0xbe376b54	-0.17912036
226	0xbe1a38ac	-0.15060681
227	0xbe527929	-0.20554031
228	0x3da1c344	0.07898572
229	0x3e2092f0	0.15681052
230	0xbe7fac7e	-0.24968144
231	0xbd177114	-0.036973074
232	0x3e1c6ad2	0.15275124
233	0x3dff85b4	0.12476674
234	0xbdbde6b8	-0.09272522
235	0xbddcac5c	-0.107750624
236	0x3d9cf3b0	0.07663667
237	0xbdddfbe0	-0.10839057
238	0x3d8dd358	0.06925076
239	0xbdac9dd8	-0.08428544
240	0x3c92d840	0.017925382
241	0xbc40b8e0	-0.011762828
242	0x3e3d996c	0.18515557
243	0x3e1d59fa	0.15366355
244	0x3b4eda80	0.0031563342
245	0x3d8350d8	0.06411904
246	0x3c6606e0	0.014039725
247	0xbcd17d90	-0.025572568
248	0xbe1c2026	-0.15246639
249	0x3e157a56	0.14597449
250	0xbdb4370a	-0.0879956
251	0x3df77960	0.12083697
252	0x3ddeef68	0.10885507
253	0xbc227ec0	-0.009917915
254	0xbe65ca3c	-0.22440428
255	0x3e81acab	0.25327048

l1.bias f4 [50]
0	0x3dd28544	0.10279325
1	0xbe071837	-0.13192831
2	0x3e2c4efe	0.16827008
3	0xbc37dd20	-0.011222154
4	0xbd1f6a10	-0.03891951
5	0xbe1e848e	-0.15480253
6	0x3e73bb0e	0.23801824
7	0xbdd1458c	-0.10218343
8	0x3e6aec02	0.22941592
9	0x3d7851a0	0.06062472
10	0xbdd79a5c	-0.105274886
11	0x3e13c0b4	0.14428979
12	0xbe704e15	-0.23467286
13	0x3cc073f0	0.023492783
14	0xbe7e300c	-0.24823016
15	0x3d8618bc	0.065476865
16	0x3d5d31d8	0.054002613
17	0x3d5ba2f8	0.053622216
18	0x3e448de4	0.19194752
19	0xbd7acd2c	-0.061230823
20	0x3e654394	0.2238906
21	0xbe681654	-0.22664768
22	0xbe48e4a8	-0.19618475
23	0x3e799576	0.24373421
24	0xb9112000	-0.00013840199
25	0xbd771ec4	-0.060332075
26	0x3b8ad780	0.0042371154
27	0xbdf30a7c	-0.11867234
28	0xbddae778	-0.106886804
29	0xbe5b4418	-0.21412694
30	0x3d5761f0	0.052583635
31	0xbdecb4b6	-0.115579054
32	0xbe32e060	-0.17468405
33	0x3d6f1370	0.058368146
34	0xbe158d9e	-0.14604804
35	0x3cd4f710	0.025996715
36	0x3d228610	0.039678633
37	0xbe48fb58	-0.1962713
38	0xbe099eed	-0.13439532
39	0xbdab5a20	-0.08366799
40	0x3e2bab72	0.1676462
41	0x3deeed40	0.116663456
42	0x3e78951a	0.24275628
43	0x3e1e6746	0.15469083
44	0xbe57e868	-0.2108475
45	0xbe3d76d8	-0.18502367
46	0x3e1a4ecc	0.15069121
47	0xbe6fdae0	-0.23423338
48	0xbdf74ae4	-0.12074831
49	0x3e24a24c	0.16077536

l2.weight f4 [100, 50]
0	0x3c8a6910	0.0168958
1	0x3da70c02	0.08156587
2	0xbd3ea956	-0.04654821
3	0x3bb97160	0.0056592673
4	0xbdf07df6	-0.11742775
5	0xbd302800	-0.043006897
6	0xbdccb607	-0.099956565
7	0xbdd61a2a	-0.10454209
8	0xbd3df2a0	-0.046373963
9	0xbd2b9c56	-0.04189714
10	0xba8d5180	-0.0010781735
11	0x398ce000	0.00026869774
12	0x3d7de764	0.06198825
13	0x3dfd8286	0.12378411
14	0x3dacbad4	0.08434072
15	0x3c854848	0.016269818
16	0xbdf34dd7	-0.11880081
17	0xbde134c8	-0.10996395
18	0x3e01a401	0.12660219
19	0xbae90d80	-0.0017780513
20	0xbc81d7f0	-0.015850037
21	0xbc8efb50	-0.01745382
22	0x3dbd2e72	0.09237374
23	0xbde0e641	-0.109814174
24	0x3ca2a6d8	0.019854948
25	0xbdcf3fb8	-0.10119575
26	0xbb9f09a0	-0.0048534423
27	0x3cb87c08	0.02252008
28	0x3dc80caa	0.097680405
29	0xbd6f067e	-0.0583558
30	0xbdb4675e	-0.08808778
31	0x3ca78ff8	0.020454392
32	0x3cd32da0	0.025778592
33	0x3c1c73f0	0.009549126
34	0xbd55180e	-0.052024893
35	0xbd524f1c	-0.051344976
36	0xbd8e5e56	-0.06951587
37	0xbdf542bc	-0.11975619
38	0xbd9b6859	-0.07588262
39	0xbde4a5dc	-0.11164448
40	0x3de5eff2	0.112274066
41	0x3ce86f88	0.028373495
42	0x3d6917bc	0.0569074
43	0x3cc32f98	0.023826405
44	0x3d6027b4	0.054725364
45	0xbcbf0cf4	-0.023321606
46	0x3d8e461c	0.06946966
47	0x3d8c183e	0.06840561
48	0xbd359a38	-0.044336528
49	0xbdf19e76	-0.11797802
50	0xbd6b6732	-0.05747146
51	0x3df89afe	0.121389374
52	0x3d0ae880	0.033913136
53	0x3dadab70	0.08479965
54	0x3df61426	0.12015562
55	0x3dfba8fa	0.12288089
56	0xbd136776	-0.03598734
57	0x3c32d1f0	0.010914311
58	0x3cabc310	0.020967036
59	0x3d85909e	0.06521724
60	0xbd75ba5c	-0.05999218
61	0xbdfb3c5e	-0.122673735
62	0x3d42bb44	0.04754187
63	0x3d81af64	0.06332281
64	0xbd23efda	-0.040023662
65	0x3d9ba37e	0.07599543
66	0x3c4e7290	0.012600556
67	0xbd1d5c2c	-0.03841798
68	0xbdd934be	-0.10605763
69	0xbdfe79f2	-0.12425603
70	0x3d867518	0.065653026
71	0x3dbfaabe	0.09358738
72	0x39e0fa00	0.00042910874
73	0x3e0e67ef	0.13906835
74	0x3de88f86	0.113555
75	0x3dd10bae	0.10207306
76	0x3ddcc0ec	0.107789844
77	0x3bd48260	0.0064852685
78	0xbba4d9c0	-0.0050308406
79	0xbc597670	-0.013272867
80	0x3d54d7c4	0.051963583
81	0x3d692e08	0.056928664
82	0x3cb84668	0.02249451
83	0x3e083bf7	0.13304125
84	0xbdf9e37a	-0.12201591
85	0x3e02903b	0.12750332
86	0x3e07b44b	0.1325237
87	0xbe0e2943	-0.13882928
88	0x3cd93ac8	0.026517287
89	0xbc02b240	-0.007977068
90	0x3cb43840	0.021999478
91	0x3de3bd92	0.11120142
92	0xbd0024c0	-0.031285048
93	0xbdc8610a	-0.09784134
94	0xbc9f98ec	-0.019482099
95	0x3be53fa0	0.00699611
96	0xbd49cec4	-0.049269453
97	0xbd4f78c2	-0.050652273
98	0x3ce8f680	0.028437853
99	0xbb271580	-0.0025494993
100	0x3a7e5800	0.0009702444
101	0x3d00394c	0.031304643
102	0x3d0c6820	0.03427899
103	0x3dc3fb7e	0.09569453
104	0x3d8419ca	0.064502314
105	0x3d5d69e8	0.05405608
106	0x3ce99f00	0.0285182
107	0xbcd03734	-0.025416948
108	0xbc8793e0	-0.016550004
109	0x3d165970	0.036706388
110	0x3da5240a	0.080635145
111	0x3d9da7a6	0.07697992
112	0xbdd63dc9	-0.10461003
113	0x39bffe00	0.00036619604
114	0x3c3b0360	0.011414379
115	0x3dc4d132	0.09610213
116	0xbd4e7d46	-0.05041244
117	0xbdc517e2	-0.09623696
118	0x3dfa862a	0.12232621
119	0x3cc1f488	0.023676172
120	0x3de6be42	0.112667575
121	0x3d639e18	0.05557069
122	0xbcbd3f64	-0.023101516
123	0xbd90c246	-0.07068305
124	0x3c1a7f40	0.009429753
125	0xbdf78fef	-0.12088
126	0x3c1f89d0	0.009737447
127	0x3d45983c	0.048240885
128	0xbc226af0	-0.009913191
129	0xbcadea7c	-0.021229975
130	0x3d37035c	0.044680938
131	0x3d758b40	0.059947252
132	0x3d9fa334	0.077948004
133	0xbd57c2a0	-0.052675843
134	0xbd6d678c	-0.057960078
135	0x3df6d1f6	0.120517656
136	0x3de4a5aa	0.111644104
137	0xbd0f0e3a	-0.034925677
138	0x3dba0afc	0.09084126
139	0xbd9b1444	-0.07572225
140	0x3df210ae	0.11819588
141	0x3d91e900	0.07124519
142	0xbcbbdd20	-0.022932589
143	0x3e0772db	0.13227408
144	0x3d756270	0.05990833
145	0x3c94f538	0.018183336
146	0xbd2c9be2	-0.04214085
147	0x3cced8c0	0.025249839
148	0xbd60b75e	-0.054862373
149	0x3c349e70	0.011024103
150	0xbe03d485	-0.12874039
151	0xbdefa696	-0.117016956
152	0xbe0a3849	-0.13498034
153	0x3dd877d2	0.10569729
154	0x3d23d624	0.039999142
155	0xbc5fed10	-0.01366736
156	0xbd8c2eb9	-0.06844849
157	0xbdb5832c	-0.0886291
158	0x3cb9dad8	0.02268736
159	0x3d00e878	0.0314717
160	0xbd2408a6	-0.04004731
161	0x3cafcc70	0.021459788
162	0xbd7f071a	-0.062262632
163	0xbdb337ce	-0.08750878
164	0xbd7afdca	-0.06127719
165	0xbce5e1ac	-0.02806171
166	0xbd01ddb4	-0.031705573
167	0x3d72e644	0.05930163
168	0x3d9f212c	0.07769999
169	0x3c8d2218	0.017228171
170	0x3d9d6546	0.07685332
171	0x3cdb60a8	0.026779488
172	0xbdd92dce	-0.1060444
173	0xbdba5046	-0.09097342
174	0xbd0b6714	-0.03403385
175	0x3df020be	0.11724995
176	0x3da2c31a	0.07947369
177	0xbdbfaab0	-0.09358728
178	0xbb822060	-0.0039711446
179	0xbc8cc2cc	-0.01718273
180	0xbd917e8b	-0.07104214
181	0xbc963a58	-0.018338367
182	0x3d3c5b54	0.045985535
183	0x3d8fea84	0.07027152
184	0x3d98b09c	0.074555606
185	0xbd874b2c	-0.06606135
186	0xbddbd8ce	-0.107347116
187	0xbd1fe516	-0.039036833
188	0xbe00f476	-0.12593254
189	0xbce63060	-0.028099239
190	0x3debcc8a	0.11513622
191	0xbe03c35b	-0.12867491
192	0x3d542b68	0.051799208
193	0x3d700680	0.05859995
194	0x3d977a12	0.0739633
195	0x3d8e9b4a	0.06963213
196	0xbe08dfa6	-0.13366565
197	0xbd0c0c78	-0.03419158
198	0x3cf4fbb8	0.029905185
199	0xbcfd7c40	-0.030943036
200	0xbd076d6e	-0.033063345
201	0xbd8fce01	-0.07021714
202	0xbd0c7c52	-0.03429825
203	0x3ddbd90e	0.10734759
204	0x3d2ec670	0.042669713
205	0x3d5f94dc	0.054585323
206	0x3a778d00	0.0009443313
207	0xbdbfd6be	-0.09367131
208	0x3dd7418a	0.105105475
209	0x3d37a710	0.044837058
210	0x3da044e4	0.0782564
211	0xbdff518b	-0.12466725
212	0x3ca8cda8	0.020605877
213	0x3bcde5c0	0.006283492
214	0x3e043ce1	0.12913848
215	0x3d5f27dc	0.054481372
216	0x3d24a348	0.04019478
217	0x3d9261fc	0.07147595
218	0xbd30e710	-0.04318911
219	0x3db19b62	0.08672215
220	0x3ddf5432	0.10904731
221	0xbdbd3f04	-0.09240535
222	0xbb9d0a60	-0.0047924966
223	0x3de73a12	0.11290373
224	0xbccbc4f0	-0.02487418
225	0x3e028291	0.1274512
226	0x3d841360	0.06449008
227	0x3dee1d56	0.11626689
228	0x3d2d4264	0.042299643
229	0x3d59949c	0.05312024
230	0xbd9f2763	-0.07771184
231	0x3dcd782e	0.10032688
232	0xbd77914c	-0.0604413
233	0x3e0cdf6d	0.13757105
234	0x3d712d0c	0.05888085
235	0x3c959060	0.01825732
236	0x3d016444	0.03158976
237	0x3c81a6b8	0.015826568
238	0x3d9cb1f8	0.07651132
239	0xbddabc46	-0.106804416
240	0xbcb5264c	-0.022112988
241	0xbcda5b34	-0.026654817
242	0xbdc7f22a	-0.09762986
243	0x3dca438a	0.09876163
244	0x3c736880	0.014856458
245	0x3d638714	0.055548742
246	0xbd9874c9	-0.0744415
247	0x3dd3e878	0.10347074
248	0xbde9ff1c	-0.114256114
249	0xbdf3b057	-0.118988685
250	0x3d8f8210	0.07007229
251	0xbc9c9478	-0.019113764
252	0xbde813a7	-0.113318734
253	0x3d821a90	0.06352723
254	0xbd86f848	-0.06590325
255	0xbd1b2f10	-0.03788668

l2.bias f4 [100]
0	0x3d47693c	0.048684344
1	0x3dfd824e	0.12378369
2	0xbde37491	-0.11106218
3	0x3de7dc96	0.1132137
4	0x3d4d6eb0	0.050154388
5	0x3d77292c	0.060342
6	0xbd37c7a8	-0.04486814
7	0x3d3d2fd4	0.04618819
8	0xbdde2eec	-0.108487934
9	0xbdb7e1b1	-0.08978594
10	0x3caf32c0	0.021386504
11	0x3d8f922e	0.070103034
12	0x3d847488	0.06467539
13	0xbd3f0054	-0.046631172
14	0x3dee2dde	0.11629842
15	0xbdef2ccb	-0.116784655
16	0xbda771e2	-0.08176018
17	0x3d0088a8	0.031380326
18	0x3d1a6668	0.03769532
19	0xbb90d780	-0.004420221
20	0xbdbe9b00	-0.09306908
21	0xbd9d4e48	-0.076809466
22	0xbcebdadc	-0.028790884
23	0x3d8198f8	0.063280046
24	0xbe0fb635	-0.1403435
25	0xbbfa6aa0	-0.007642105
26	0xbc809750	-0.015697151
27	0x3dd1838a	0.10230167
28	0xbd8325db	-0.06403705
29	0x3c7cd730	0.015432164
30	0xbb9b0820	-0.004731193
31	0xbd889330	-0.06668699
32	0xbdb662d8	-0.08905572
33	0xbc8ebab0	-0.017423004
34	0x3d639920	0.055565953
35	0x3e106ad9	0.14103259
36	0xbded24a8	-0.11579257
37	0x3cc13898	0.023586556
38	0xbd97d033	-0.07412758
39	0xba78af00	-0.0009486526
40	0x3d4b61c8	0.0496538
41	0x3dc6c7a6	0.09706049
42	0xbd973f3c	-0.07385108
43	0x3d8b6aa0	0.068074465
44	0x3e07b297	0.1325172
45	0x3b772240	0.0037709624
46	0xbcd04098	-0.025421426
47	0x3da8ce08	0.08242422
48	0xbcb60424	-0.022218771
49	0x3cfc90d0	0.03083077
50	0xbe0faec6	-0.14031515
51	0x3b9d8900	0.0048075914
52	0xbdffb217	-0.1248514
53	0x3d9a4ede	0.07534574
54	0x3e004b95	0.12528832
55	0xbcf0599c	-0.029339604
56	0x3d9fc7cc	0.0780178
57	0xbd29897a	-0.041390873
58	0xbdf6694a	-0.12031801
59	0x3d397000	0.045272827
60	0xbc5e6da0	-0.013575941
61	0xbd20bf16	-0.039244734
62	0xbe04a424	-0.1295324
63	0x3d862aee	0.06551157
64	0x3c2392a0	0.009983689
65	0x3ddcbfbc	0.10778758
66	0xbda7cf7f	-0.081938736
67	0x3de315ea	0.11088164
68	0x3d72ab54	0.059245422
69	0x3b991fa0	0.0046729594
70	0xbe103ed6	-0.1408647
71	0x3de4c1a2	0.11169745
72	0xbc9dcea4	-0.019263573
73	0x3d7d9940	0.06191373
74	0xbce44200	-0.027863503
75	0xbde78cc8	-0.11306149
76	0x3d8314b8	0.06400436
77	0xbb654080	-0.0034981072
78	0x3d2bb97c	0.04192494
79	0x3dbaa24a	0.091129854
80	0x3d464134	0.048402026
81	0xbddc0b44	-0.10744336
82	0x3d82b43e	0.06382035
83	0x3dcf1e5e	0.10113214
84	0xbd19969a	-0.03749714
85	0x3dd5835a	0.10425444
86	0xbda8d696	-0.08244054
87	0xbdc5c66a	-0.09656985
88	0xbce0c68c	-0.027438425
89	0x3e0ba4b7	0.13637052
90	0x3ccd4118	0.025055453
91	0xbdbef294	-0.09323612
92	0x3e0eb571	0.13936402
93	0x3dc6647e	0.09687136
94	0x3d99c5a0	0.07508397
95	0x3d726bf4	0.059184983
96	0x3de8ec86	0.11373238
97	0x3dddbe2e	0.108272895
98	0x3dbbc2fa	0.09168048
99	0x3d9720ec	0.07379326

l3.weight f4 [20, 100]
0	0x3ca8aab4	0.02058921
1	0x3d33fdf6	0.043943368
2	0xbd94aea0	-0.072598696
3	0xbc109ca8	-0.008826412
4	0x3aa82580	0.0012828559
5	0x3cd207dc	0.025638513
6	0x3dc47b19	0.095937915
7	0xbd758b23	-0.059947144
8	0xbdbff8ca	-0.093736246
9	0xbd2ef327	-0.042712357
10	0xbdbf34ba	-0.09336229
11	0x3db56419	0.08856983
12	0xbc1a0230	-0.009399936
13	0xbcded66c	-0.027201854
14	0xbcbb48e8	-0.022861913
15	0xbd985a85	-0.0743914
16	0x3cfe93c4	0.03107632
17	0x3da1de61	0.079037435
18	0x3dae55d1	0.08512462
19	0xbd5838ed	-0.052788664
20	0xbdb10935	-0.08644334
21	0xbda633d3	-0.081153534
22	0x3d406db6	0.04697963
23	0x3dc58c01	0.09645844
24	0xbd61ff7a	-0.055175282
25	0xbba17fb0	-0.0049285516
26	0xbd3270e7	-0.043564703
27	0xbd2e3f90	-0.042541087
28	0x3d7bb8b2	0.061455436
29	0xbb2fa760	-0.0026802644
30	0xbcf92bb8	-0.030416355
31	0x3d004f62	0.031325705
32	0xbca90b78	-0.020635352
33	0x3db84e17	0.089992695
34	0x3dc40009	0.09570319
35	0xbb0c0ea0	-0.0021371022
36	0x3db51305	0.08841518
37	0x3b392d40	0.002825573
38	0x3c427e98	0.011871003
39	0x3d663a9a	0.05620823
40	0xbd91635a	-0.07099028
41	0xbba219e0	-0.004946932
42	0xbd86de2d	-0.065853454
43	0xbd788807	-0.0606766
44	0xbdc3aba8	-0.09554225
45	0xbd3758f3	-0.044762563
46	0xbc021c18	-0.007941268
47	0xbd13f53c	-0.036122546
48	0x3c4ec800	0.012620926
49	0xbdc0ac70	-0.0940789
50	0xbda9436b	-0.08264812
51	0x3d7f1a92	0.0622812
52	0x3ccbd440	0.024881482
53	0x3dbff75f	0.09373354
54	0xbc2622d8	-0.010140143
55	0xbd5fb29d	-0.0546137
56	0xbce6ee80	-0.028189898
57	0xbca2dc6c	-0.019880496
58	0x3c902cb8	0.017599449
59	0x3d6b3cb2	0.05743093
60	0x3ccbe054	0.024887241
61	0x3a1b3180	0.0005920157
62	0xbdb35f63	-0.08758428
63	0xbdc35950	-0.095385194
64	0x3bf393d0	0.007433392
65	0xbd73043d	-0.059330214
66	0x3d75b912	0.05999095
67	0xbd90dc02	-0.07073213
68	0x3d44f862	0.04808844
69	0x3bbc4ca0	0.005746439
70	0xbd42f133	-0.047593307
71	0xbce53bec	-0.027982675
72	0x3d550b5e	0.052012794
73	0x3ceaa374	0.028642394
74	0x3d819da9	0.063288994
75	0x3d4e9d1e	0.050442807
76	0x3c8889b8	0.016667232
77	0x3d55e0d2	0.05221636
78	0xbd7f695a	-0.06235633
79	0x3d35b026	0.04435744
80	0x3d6e6626	0.058202885
81	0xbd912033	-0.0708622
82	0xbd5865d7	-0.052831497
83	0xbdc14003	-0.094360374
84	0xbd0b5b5a	-0.034022667
85	0x3d94adf5	0.07259742
86	0x3da0d66d	0.078533985
87	0xbd310a93	-0.043222975
88	0x3d15508e	0.036453776
89	0xbcbba314	-0.02290491
90	0xbd12b3dc	-0.03581606
91	0xbd8a50a4	-0.06753662
92	0x3c106d50	0.008815125
93	0xbdac7f8b	-0.084227644
94	0xbbf791b0	-0.007555209
95	0x3d7d6aa6	0.061869286
96	0x3d5e1d0e	0.054226927
97	0x3d65583a	0.055992343
98	0xbc998d48	-0.018744126
99	0x3d8b4b29	0.06801445
100	0x3da25471	0.07926262
101	0x3d4775c2	0.048696287
102	0xbd63f9d3	-0.055658173
103	0x3dbde169	0.09271509
104	0x3d7e9722	0.06215585
105	0xbd6a2bb3	-0.05717058
106	0x3dae6831	0.08515967
107	0xbd8a5782	-0.06754972
108	0x3d6ec13a	0.058289744
109	0x3d857b21	0.065176256
110	0xbd4d1fba	-0.050079085
111	0xbcf56ccc	-0.029959105
112	0x3d12542e	0.03572481
113	0x3d865021	0.06558252
114	0xbd94ed2e	-0.07271801
115	0xbd2cfa93	-0.042231154
116	0x3bc247a0	0.0059289485
117	0x3db77f87	0.08959871
118	0xbda99a38	-0.08281368
119	0xbd055fb6	-0.03256198
120	0x3ced41c4	0.028962024
121	0xbcebde80	-0.02879262
122	0xbacf60c0	-0.001582168
123	0x3c5dc6d8	0.013536178
124	0x3d8f2fe1	0.06991554
125	0x3d08ba06	0.03338053
126	0x3d8ec009	0.069702215
127	0xbdb3e542	-0.08783962
128	0xbcc9ff94	-0.024658002
129	0x3d66d73a	0.0563576
130	0xbdb3ca58	-0.087788284
131	0x3d5a16b2	0.0532443
132	0xbd6a11f0	-0.057146013
133	0x3c9dc378	0.019258246
134	0x3dc8ef91	0.09811319
135	0x3cbf3c20	0.0233441
136	0x3dc18791	0.09449685
137	0x3d47c93a	0.04877589
138	0xbda8fb33	-0.082510374
139	0x3d1cc3f2	0.038272806
140	0xbc131cd8	-0.008979045
141	0x3daced4b	0.084436975
142	0xbd98f7b6	-0.07469122
143	0x3c37d9d8	0.011221372
144	0xbd48cf3d	-0.049025763
145	0xbdac0f5b	-0.08401366
146	0xbb539ac0	-0.0032288283
147	0x3d9b81e1	0.07593132
148	0xbd71889a	-0.058968164
149	0x3c2820f0	0.010261759
150	0xbdbf965f	-0.09354853
151	0x3c38d958	0.011282288
152	0xbcf637d4	-0.030055918
153	0xbd747177	-0.05967852
154	0xbd89189c	-0.06694147
155	0x3d194692	0.037420817
156	0xbd754590	-0.059880793
157	0x3d9b9f6f	0.07598769
158	0xbc2f2990	-0.010691062
159	0x3ca323c0	0.019914508
160	0xbcfe9d38	-0.031080827
161	0xbd1d43a7	-0.038394596
162	0x3bbcf0b0	0.005765997
163	0xbd978978	-0.07399267
164	0xbd265ca7	-0.040615704
165	0x3d963919	0.07335109
166	0xbd4576d3	-0.048209023
167	0xbd83d7dd	-0.06437657
168	0x3c401640	0.011724055
169	0xbdb5b96d	-0.08873258
170	0xbdc26a2f	-0.09492909
171	0x3cc7f7d8	0.024410173
172	0xbc8d154c	-0.01722207
173	0xbdb00d97	-0.08596342
174	0x3dc706d3	0.097180985
175	0xbd41d23a	-0.04731963
176	0xbd1fa5dd	-0.03897654
177	0xbdb20cc3	-0.0869384
178	0xbd395083	-0.045242798
179	0x3d3ed502	0.04658986
180	0x3c2138d0	0.009840205
181	0xbd019876	-0.03163954
182	0x3bc9eb00	0.0061620474
183	0xbcb41900	-0.021984577
184	0x3c97ef34	0.018546678
185	0xbcc73b0c	-0.024320148
186	0xbd2c70ed	-0.042099882
187	0x3d927739	0.07151646
188	0xbdaf1fff	-0.08551025
189	0xbb5bef60	-0.0033559427
190	0x3d9bedab	0.07613691
191	0x3d8fa3ab	0.07013639
192	0xbd53d7c7	-0.051719453
193	0x3da28ba1	0.07936788
194	0x3d1935ba	0.037404753
195	0x3c7c4480	0.015397191
196	0xbcb3b720	-0.021937907
197	0xbd8390dd	-0.06424115
198	0xbd8a9928	-0.067674935
199	0x3db9fac7	0.09081035
200	0xbd918a72	-0.071064845
201	0xbb16de60	-0.002302073
202	0xbd3fa92d	-0.046792198
203	0x3ca042ac	0.019563042
204	0xbce7a9d4	-0.028279223
205	0xbdbe8e4f	-0.09304487
206	0x3cd6a664	0.026202388
207	0x3d92fb5b	0.071768485
208	0x3bc97120	0.0061475188
209	0x3dc59091	0.096467145
210	0xbd432a5d	-0.047647823
211	0x38cdac00	9.807199e-05
212	0xbd3f205d	-0.046661723
213	0xbd40d9f3	-0.047082853
214	0x3d8a3e41	0.06750155
215	0xbdb4e712	-0.08833136
216	0xbdaeaf5f	-0.08529543
217	0x3cba95f8	0.022776589
218	0xbd668340	-0.056277514
219	0xbb95ba80	-0.0045693517
220	0x3c728f10	0.014804617
221	0xbdcb755d	-0.09934495
222	0x3cd42644	0.025897153
223	0xbda99da8	-0.08282024
224	0x3c358750	0.011079624
225	0xbdaf6dc5	-0.08565859
226	0xbda0b59a	-0.07847138
227	0x3d14ab16	0.036295973
228	0x3c8f1f78	0.01747106
229	0xbdaad678	-0.08341688
230	0xbd6048da	-0.054756977
231	0x3d408e02	0.04701043
232	0xbd8b16da	-0.06791468
233	0x3da1be01	0.078975685
234	0xbca13598	-0.019678876
235	0x3cdd7914	0.027035274
236	0x3dbc9cf3	0.09209623
237	0xbda4e938	-0.080522954
238	0xbd534b1a	-0.051585294
239	0xbc6405e8	-0.013917424
240	0x3cf5648c	0.029955171
241	0x3dacab29	0.08431084
242	0x3dae9b29	0.08525688
243	0xbbad8400	-0.0052952766
244	0x3d437546	0.047719263
245	0x3d7dedea	0.06199447
246	0xbd87062a	-0.065929726
247	0x3c7a6250	0.015282229
248	0x3cc2a220	0.023758948
249	0x3c8a4acc	0.016881369
250	0x3d6c80ee	0.057740144
251	0x3d764912	0.06012828
252	0x3d4ef15a	0.05052314
253	0xbcac2574	-0.021013953
254	0x3db21d5f	0.08697008
255	0x3d567e7e	0.052366726

l3.bias f4 [20]
0	0xbd2eb89a	-0.04265652
1	0xbd31c1ed	-0.043397833
2	0xbdae33aa	-0.08505948
3	0xbd3c077d	-0.04590558
4	0xbd886b1d	-0.06661055
5	0xbd48305a	-0.048874237
6	0x3d113512	0.035451002
7	0x3d83bcf9	0.06432528
8	0x3d99111b	0.07473966
9	0xbbf85f30	-0.0075797066
10	0xbcf9ead8	-0.03050749
11	0x3dabc259	0.08386678
12	0x3bec78d0	0.0072165504
13	0x3d399a92	0.045313425
14	0x3d654d86	0.055982135
15	0xbd97a145	-0.074038066
16	0x3c8c39a0	0.017117321
17	0x3cf1f5b4	0.029536106
18	0xbdbe6e63	-0.09298398
19	0xbd6afcad	-0.057369877

output.weight f4 [8, 20]
0	0x3e14defa	0.14538184
1	0x3dc91558	0.09818524
2	0x3e0eab70	0.13932586
3	0x3e52bd74	0.20580083
4	0xbe37cfcb	-0.1795036
5	0x3e5493a2	0.20759442
6	0x3e23fa2e	0.16013405
7	0xbddb9c6c	-0.107231945
8	0x3d879e10	0.06621945
9	0xbc91cd70	-0.017798156
10	0xbdb4c4fa	-0.08826633
11	0x3e5de6fa	0.21670142
12	0xbd944d86	-0.07241349
13	0x3e591f18	0.21203268
14	0xbe1b8e1f	-0.15190934
15	0xbe16d184	-0.14728361
16	0xbdc98230	-0.098392844
17	0xbe4b9ddc	-0.19884437
18	0x3cd70f68	0.026252463
19	0x3e39277a	0.18081465
20	0x3aaeb680	0.0013329536
21	0x3dba2da4	0.090907365
22	0xbd7c5da0	-0.061612725
23	0x3d588b80	0.052867413
24	0xbd85e152	-0.06537117
25	0xbe079a8b	-0.13242547
26	0xbde0a320	-0.109686136
27	0x3e49a086	0.19690141
28	0x3e38f92e	0.18063805
29	0x3db49aec	0.088186115
30	0xbe13d386	-0.14436159
31	0x3e38f664	0.1806274
32	0x3d851a68	0.06499177
33	0xba6f8100	-0.0009136349
34	0xbe5a6404	-0.21327215
35	0xbe21e553	-0.15810136
36	0x3e25cb52	0.16190842
37	0x3c1db850	0.009626463
38	0x3e2c9e8e	0.16857359
39	0x3cf0a210	0.029374152
40	0x3da07cb4	0.07836285
41	0xbe0aeea2	-0.13567594
42	0x3db357a4	0.087569505
43	0xbba3b140	-0.004995495
44	0x3e368fa0	0.17828226
45	0x3da98824	0.0827792
46	0xbe4c8f52	-0.19976547
47	0x3e54fc2e	0.20799324
48	0xbe27ca3e	-0.16385743
49	0xbdd991ac	-0.10623488
50	0xbdb6eb8e	-0.08931647
51	0x3e27d87c	0.16391176
52	0xbab17e00	-0.0013541579
53	0x3dd67aac	0.104726166
54	0x3dd026c4	0.10163644
55	0xbdffbb87	-0.1248694
56	0xbe591dd8	-0.2120279
57	0xbd0497d8	-0.032371372
58	0xbd8643b4	-0.06555882
59	0x3b75ef80	0.0037526786
60	0xbd8d09b0	-0.06886613
61	0x3e402df8	0.18767536
62	0xbc7d3ba0	-0.01545611
63	0x3e567e0e	0.20946524
64	0xbe2fc7a0	-0.17165995
65	0x3e01e334	0.12684327
66	0xbe31868b	-0.1733648
67	0x3e567f44	0.20946985
68	0x3e4b76b0	0.19869494
69	0xbdc61964	-0.096728116
70	0x3d741f60	0.059600234
71	0xbbd7af80	-0.0065822005
72	0xbbd63640	-0.006537229
73	0xbe589c57	-0.21153389
74	0x3e2256be	0.15853402
75	0x3e594a26	0.21219692
76	0x3dd32bac	0.10311064
77	0x3cf3d070	0.029762477
78	0xbdec0ec5	-0.115262546
79	0xbe04b6ac	-0.12960309
80	0xbc3c4ff0	-0.011493668
81	0xbe48554f	-0.19563793
82	0xbe21a730	-0.15786433
83	0x3e31348a	0.17305198
84	0x3e5cd594	0.21565849
85	0xbda8dd54	-0.0824534
86	0x3b75dec0	0.0037516803
87	0xbb444740	-0.0029949695
88	0xbac0d700	-0.0014712512
89	0x3e55b9aa	0.20871606
90	0xbe077466	-0.13227996
91	0xbab33300	-0.0013671815
92	0x3e4e3376	0.20136818
93	0x3e514fcc	0.20440596
94	0xbdf8646c	-0.12128529
95	0xbd52eaec	-0.05149357
96	0x3df16904	0.11787608
97	0xbe5e5eb5	-0.21715815
98	0xbd34b8e4	-0.044121638
99	0xbdc3f208	-0.09567648
100	0xbe244f7e	-0.16045949
101	0xbe4d016a	-0.2002007
102	0xbc1f9f00	-0.009742498
103	0x3df130d4	0.11776891
104	0xbe1ad7d6	-0.15121397
105	0x3e253c64	0.16136318
106	0x3e4d1010	0.20025659
107	0xbe4264e0	-0.18983793
108	0xbe116ff2	-0.1420286
109	0x3e4fbdd6	0.2028726
110	0xbdb8def8	-0.09026903
111	0x3e10dd26	0.14146861
112	0x3dd63448	0.104591906
113	0xbe2263f4	-0.15858442
114	0xbc9731a8	-0.018456295
115	0x3d1473a8	0.03624311
116	0xbe2e2e59	-0.17009868
117	0xbe1777a2	-0.1479173
118	0xbe13146a	-0.14363256
119	0x3e54179c	0.20712131
120	0xbd0a6b54	-0.033793762
121	0xbe482338	-0.19544685
122	0x3e50de96	0.2039741
123	0xbe1a5862	-0.15072778
124	0xbc267830	-0.010160491
125	0x3d1824c0	0.037144423
126	0x3e121ff4	0.14270002
127	0x3d98f058	0.07467717
128	0xbdba12ee	-0.09085642
129	0xbd5d6e2c	-0.054060146
130	0xbdb7557c	-0.08951852
131	0xbd0d9950	-0.03457004
132	0xbe64323a	-0.22284785
133	0x3dacf39c	0.08444902
134	0x3ba3f6a0	0.005003765
135	0x3dff8588	0.12476641
136	0xbe03df64	-0.12878186
137	0x3c00a440	0.00785166
138	0x3ce94d90	0.028479367
139	0x3de8f540	0.11374903
140	0x3dd0d314	0.1019651
141	0x3e39bc3e	0.18138215
142	0x3e358da4	0.17729813
143	0x3d139b98	0.036037058
144	0xbdb1df22	-0.08685137
145	0xbe43628a	-0.19080558
146	0xbe0978d1	-0.13424994
147	0x3e0e0430	0.13868785
148	0xbda3ce7e	-0.0799837
149	0xbddafd0c	-0.10692796
150	0x3d8a91c8	0.06766087
151	0x3e5e35f6	0.21700272
152	0x3dbd1174	0.092318445
153	0xbde428bc	-0.11140582
154	0x3df5c5a0	0.120005846
155	0xbdb9b862	-0.09068371
156	0x3cd74650	0.026278645
157	0xbddf0cee	-0.10891138
158	0xbb83bf40	-0.0040206015
159	0x3e18c492	0.14918736

output.bias f4 [8]
0	0x3e30f1e6	0.17279777
1	0xbce12888	-0.027485147
2	0x3e129850	0.14315915
3	0x3db3c660	0.087780714
4	0x3dd1fa44	0.102528125
5	0x3d1ad610	0.037801802
6	0x3dec179c	0.11527941
7	0x3d519f28	0.051177174
