Simple_ANN_experience/saved_model/simpleANNlr=0.005bs=64_mse_data.pt (torch, 34575 bytes, 8 tensors)

l1.weight f4 [50, 14]
0	0x3de8b8f8	0.11363405
1	0xbe052f80	-0.13006401
2	0x3e1672be	0.14692208
3	0x3cf418f0	0.029797047
4	0x3d85eca4	0.06539276
5	0xbdddbe46	-0.108273074
6	0x3c8a6ed0	0.016898543
7	0x3ddbe7f4	0.10737601
8	0xbe56e865	-0.20987089
9	0x3b8ec780	0.0043572783
10	0x3e56a72a	0.20962206
11	0x3e65ab98	0.22428739
12	0xbe510db2	-0.2041538
13	0xbe51b5a2	-0.20479444
14	0xbdcd809a	-0.100342944
15	0x3b52dd00	0.0032175183
16	0x3e600aa8	0.21879065
17	0x3d89515c	0.06704971
18	0x3dc6f2ec	0.097143024
19	0xbdbf1192	-0.09329523
20	0xbd102a4c	-0.035196587
21	0x3cf3d210	0.029763252
22	0xbe17199d	-0.14755864
23	0xbd3f6c14	-0.04673393
24	0x3e68e668	0.22744143
25	0xbdcd0992	-0.10011591
26	0xbe7a513e	-0.24445054
27	0xbe649c6c	-0.22325295
28	0x3e2e1486	0.17000017
29	0xbe6e705d	-0.2328505
30	0x3e0b79f6	0.13620743
31	0x3dd698b4	0.104783446
32	0x3e76af9a	0.24090424
33	0x3e3cd400	0.18440247
34	0xbc9e2200	-0.019303322
35	0x3d246580	0.04013586
36	0xbe65aede	-0.22429988
37	0xbe209e98	-0.15685499
38	0x3e605646	0.2190791
39	0x3df759a4	0.120776445
40	0x3de842e0	0.113408804
41	0xbe7ea654	-0.24868137
42	0xbe4cfa99	-0.2001747
43	0xbc5e0860	-0.013551801
44	0xbe0e54d6	-0.1389955
45	0x3e8008af	0.25006625
46	0xbdd4faa6	-0.1039937
47	0x3e7beeb2	0.24602774
48	0xbdcd3bea	-0.10021193
49	0x3ca71720	0.020396769
50	0xbd88f3ee	-0.06687151
51	0xbdae8122	-0.08520724
52	0xbe6be0c5	-0.23034962
53	0x3d90fb00	0.070791245
54	0x3dfc1638	0.123089254
55	0x3e337228	0.17524016
56	0xbd9d7204	-0.076877624
57	0x3d281a60	0.04104078
58	0xbd6dbe3c	-0.05804275
59	0x3d3dbe80	0.046324253
60	0xbe739e9b	-0.23790972
61	0xbcb4cd18	-0.022070453
62	0xbdc9af8c	-0.09847936
63	0xbddde04c	-0.10833797
64	0x3d32fbe0	0.043697238
65	0xbdc07b7e	-0.09398554
66	0x3e137a5e	0.14402148
67	0xbca353c0	-0.019937396
68	0x3e2cfe2c	0.16893834
69	0x3de61c3c	0.11235854
70	0xbe84d855	-0.25946298
71	0xbe2751e2	-0.1633983
72	0x3dd5c08c	0.10437116
73	0xbe4f715c	-0.20258087
74	0x3c0fcd80	0.008777022
75	0x3a361800	0.00069463253
76	0x3e470020	0.19433641
77	0xbd5be34c	-0.053683564
78	0x3e14a4c8	0.14515984
79	0xbe5338ee	-0.20627186
80	0x3df2e1f4	0.118595034
81	0x3dde14a8	0.108437836
82	0x3e7f5f32	0.24938658
83	0xbe87f31c	-0.26552665
84	0x3e3c274a	0.18374363
85	0x3e339b86	0.17539796
86	0x3e245b50	0.16050458
87	0x3dbb2c94	0.09139362
88	0xbd73639c	-0.059421167
89	0x3e4e5918	0.20151174
90	0x3d156c38	0.03648016
91	0x3cd44d30	0.025915712
92	0x3e3e2f02	0.1857262
93	0x3d6cfda8	0.057859093
94	0xbe51d4ee	-0.20491382
95	0x3e4447d2	0.19168022
96	0x3e828ce3	0.25498113
97	0x3e877a39	0.26460436
98	0xbd8cf33e	-0.06882332
99	0xbe263a3a	-0.16233149
100	0xbe67d1b1	-0.22638585
101	0x3e72ade2	0.23699144
102	0x3ddaa890	0.10676682
103	0xbda158dc	-0.07878277
104	0x3e8267f3	0.25469932
105	0x3cbb6540	0.022875428
106	0xbe059547	-0.13045226
107	0x3e7e2ba6	0.24821338
108	0xbcd0b568	-0.025477126
109	0x3e26b052	0.16278198
110	0xbd89eb40	-0.067343235
111	0x3c69c740	0.014268696
112	0x3c625220	0.013813525
113	0x3dbf1960	0.09331012
114	0xbdbc105c	-0.09182808
115	0xbe4f3e70	-0.20238662
116	0x3df1af50	0.11801016
117	0xbe77d45c	-0.24202102
118	0xbe24e221	-0.16101886
119	0x3df7a610	0.12092221
120	0x3e1bf06c	0.15228432
121	0x3e06975a	0.13143674
122	0x3da19b28	0.07890922
123	0x3d492980	0.049111843
124	0xbd83501a	-0.064117625
125	0x3dea04d8	0.11426705
126	0x3e667a78	0.22507656
127	0x3e4ac7f0	0.19802833
128	0x3e0bb894	0.1364463
129	0xbc29a580	-0.0103544
130	0xbe831a31	-0.2560592
131	0xbd7caa00	-0.061685562
132	0xbe5820b0	-0.2110622
133	0xbd988178	-0.07446569
134	0xbe01eacf	-0.12687229
135	0xbe055d10	-0.13023782
136	0x3e884639	0.26616076
137	0xbadb1500	-0.0016714633
138	0x3e2092c8	0.15680993
139	0x3d7e9aa8	0.06215921
140	0x3d0370a0	0.03208983
141	0xbde02430	-0.10944402
142	0x3e7a98ba	0.24472323
143	0xbdbbcbd6	-0.09169738
144	0x3ba72a40	0.005101472
145	0x3e6e6c0a	0.23283401
146	0x3e07322e	0.13202736
147	0xbdbc6744	-0.09199384
148	0xbdaf1cea	-0.08550437
149	0x3d80e3fc	0.062934846
150	0xbd5fa344	-0.05459906
151	0x3e6d76ee	0.231899
152	0x3e5e3f26	0.21703777
153	0xbe798cc4	-0.24370104
154	0xbe28837f	-0.16456412
155	0x3c819bd0	0.015821368
156	0xbd7833c8	-0.060596257
157	0x3bd24340	0.006416708
158	0xbdf816b6	-0.12113707
159	0xbd3e599c	-0.046472177
160	0xbe493750	-0.19650006
161	0xbd169490	-0.036762774
162	0xbe24d9a7	-0.16098653
163	0x3d9d0164	0.07666281
164	0xbc886010	-0.016647369
165	0xbe72b028	-0.23700011
166	0xbe635788	-0.2220136
167	0x3d607bb8	0.054805487
168	0xbe86828c	-0.26271474
169	0x3e72e016	0.23718295
170	0xbd070608	-0.032964736
171	0x3e694ebc	0.22783941
172	0xbdbcf9a0	-0.092273
173	0xbac1b000	-0.0014777184
174	0x3d7d8740	0.061896563
175	0x3e580eee	0.21099445
176	0x3d29be50	0.04144126
177	0xbd873be6	-0.066032216
178	0x3d4d0b70	0.050059736
179	0xbbf63d80	-0.0075146556
180	0x3ddd4cf0	0.1080569
181	0xbd872326	-0.06598501
182	0xbe09b1f6	-0.13446793
183	0xbe720468	-0.23634493
184	0x3d14b420	0.036304593
185	0xbe0f4ae8	-0.13993418
186	0xbe4f081c	-0.20217937
187	0xbdd4a58e	-0.103831396
188	0xbc611fa0	-0.01374045
189	0xbc876b90	-0.016530782
190	0x3e60114e	0.21881601
191	0xbdcb8862	-0.09938122
192	0x3e6c5dc4	0.23082644
193	0xbe465e15	-0.19371827
194	0x3e56b462	0.20967248
195	0xbe071b63	-0.13194041
196	0x3e415872	0.18881395
197	0xbe6f071d	-0.23342557
198	0xbe432939	-0.19058694
199	0xbe06cead	-0.13164778
200	0x3d790c88	0.060802966
201	0x3e354ada	0.17704335
202	0xbd1ffe74	-0.039061025
203	0x3d121748	0.035666734
204	0x3cbc5120	0.022987902
205	0x3e13766c	0.14400643
206	0x3e8542bf	0.26027486
207	0xbe04dc06	-0.12974557
208	0x3d44dff8	0.048065156
209	0xbe2ea31c	-0.17054409
210	0x3de0f69c	0.10984537
211	0x3d876398	0.06610793
212	0xbe468e93	-0.19390325
213	0x3dd32440	0.103096485
214	0xbe1ca3de	-0.15296885
215	0x3d85c7f0	0.06532276
216	0x3e77990a	0.24179474
217	0x3dffda10	0.12492764
218	0x3d211b48	0.039332658
219	0x3bb80f00	0.0056170225
220	0xbe64ac0a	-0.22331253
221	0xbe1680e2	-0.14697602
222	0x3c1acdc0	0.009448469
223	0xbd98e048	-0.07464653
224	0x3d3bad48	0.04581955
225	0x3e64300c	0.22283953
226	0x3e1ed828	0.15512145
227	0x3e8722bd	0.2639369
228	0x3e3cee3e	0.18450257
229	0x3dd29d10	0.102838635
230	0x3d63ab68	0.055583388
231	0xbe0ff5f2	-0.14058664
232	0xbe12d119	-0.14337577
233	0x3e49c192	0.19702747
234	0x3dc42cec	0.09578881
235	0x3c9083d0	0.017640978
236	0xbe627aeb	-0.22117202
237	0x3e554340	0.20826435
238	0xbdcbcf8e	-0.09951697
239	0x3e206d4c	0.15666693
240	0xbba9a9c0	-0.0051777065
241	0x3e80a9dd	0.25129595
242	0xbd2efb38	-0.04272005
243	0xbdf5393a	-0.11973806
244	0xbd98bfc2	-0.0745845
245	0xbd1255c8	-0.03572634
246	0x3d6edd08	0.05831626
247	0xbbec6400	-0.0072140694
248	0x3b040f80	0.002015084
249	0x3d62a390	0.055331767
250	0xbe6aadea	-0.22917905
251	0x3c31d2a0	0.01085344
252	0x3d1ac680	0.03778696
253	0xbe887fd1	-0.26660016
254	0xbe3dabec	-0.18522614
255	0x3e2dd628	0.16976225

l1.bias f4 [50]
0	0x3e7ece96	0.24883494
1	0xbd54f7b0	-0.051994026
2	0xbdbdc7d6	-0.09266631
3	0xbdf0eac2	-0.117635265
4	0x3e33e250	0.175668
5	0x3d90f5f8	0.07078165
6	0x3da218d8	0.07914895
7	0xbc6a7bc0	-0.014311731
8	0x3e6a11e8	0.22858393
9	0x3d5975c0	0.05309081
10	0xbcec5e90	-0.028853685
11	0x3ded5f3c	0.1159043
12	0xbe2b7794	-0.16744834
13	0xbddb39fc	-0.10704419
14	0x3e383e06	0.1799241
15	0xbc8770d0	-0.016533285
16	0xbe5e34a4	-0.21699768
17	0x3dbb1848	0.09135491
18	0x3e38358a	0.17989174
19	0x3db2a168	0.08722192
20	0xbdff0a9e	-0.12453197
21	0xbe45d793	-0.19320516
22	0x3e3e89f2	0.1860731
23	0xbd82c1b8	-0.06384605
24	0x3d278418	0.04089746
25	0xbe87d078	-0.26526237
26	0x3e038494	0.12843543
27	0xbe0ea899	-0.13931502
28	0xbe75bc44	-0.23997599
29	0xbe1baed2	-0.15203407
30	0xbe5c463a	-0.21511164
31	0xbe462154	-0.19348651
32	0xbe2cc6f1	-0.16872765
33	0x3b99b280	0.0046904683
34	0x3e7cdc46	0.24693403
35	0xbe697dd4	-0.22801906
36	0x3e75a186	0.23987398
37	0xbe14f234	-0.14545518
38	0x3e597856	0.21237311
39	0xbdf900e0	-0.1215837
40	0x3e816da9	0.25278977
41	0xbe3e0216	-0.18555483
42	0x3df99b10	0.12187779
43	0xbe8123cb	-0.2522262
44	0x3e509d3a	0.20372477
45	0xbe027635	-0.12740405
46	0x3dc23d6c	0.094843715
47	0xbe1e6234	-0.15467149
48	0xbde94f7e	-0.11392115
49	0x3e14b966	0.14523849

l2.weight f4 [100, 50]
0	0x3cad5cf0	0.02116248
1	0xbdd2c6b4	-0.10291806
2	0xbdedf421	-0.116188295
3	0xbe0dbccd	-0.13841553
4	0x3d7e10ac	0.06202762
5	0x3ce41720	0.027843058
6	0x3c3cef30	0.011531636
7	0x3dd81800	0.10551453
8	0x3d766db4	0.060163215
9	0xbd8aacef	-0.06771266
10	0xbd8f6cd7	-0.070031814
11	0x3d497dac	0.049192116
12	0x3d1fe034	0.039032176
13	0x3e05fb97	0.13084255
14	0x3d32eb84	0.043681636
15	0xbc86da28	-0.016461447
16	0xbd716814	-0.058937147
17	0x3d01b6d4	0.0316685
18	0xbc31afd0	-0.01084514
19	0x3de20682	0.110363975
20	0x3da35484	0.079751045
21	0x3d6aa614	0.05728729
22	0x3e0eebd9	0.13957156
23	0x3dbb9a46	0.09160285
24	0x3db3ea04	0.08784869
25	0xbcd2146c	-0.025644504
26	0xbd2db0bc	-0.042404875
27	0xbc891768	-0.016734794
28	0xbb465d00	-0.0030267835
29	0x3c175ab0	0.00923793
30	0xbdc90cfa	-0.09816928
31	0x3df75b1a	0.12077923
32	0x3e054ba9	0.13017143
33	0xbcd11f3c	-0.025527589
34	0x3c86ce38	0.016455755
35	0xbd5869ae	-0.05283516
36	0x3af84900	0.0018942654
37	0xbb5005c0	-0.0031741709
38	0xbe05fc79	-0.13084592
39	0xbe08b508	-0.13350308
40	0x3a1e8700	0.0006047338
41	0x3d578e54	0.05262597
42	0xbdd392b4	-0.10330716
43	0x3dfbfe7e	0.123044
44	0xbd83e78f	-0.06440651
45	0xbe09c23e	-0.13453004
46	0x3e0c5a41	0.13706304
47	0xbd6883ca	-0.05676631
48	0xbda0161e	-0.078167185
49	0x3c295e50	0.010337427
50	0x3aab0b00	0.0013049543
51	0x3c885d50	0.016646057
52	0xbd8a8dd7	-0.06765335
53	0x3dc79cbc	0.097466916
54	0x3db3b774	0.08775225
55	0x3d9ed3a8	0.07755214
56	0xbc25d200	-0.010120869
57	0x3cfd39b0	0.030911297
58	0xbda1fd28	-0.07909614
59	0x3de4bc82	0.111687675
60	0xbde649a9	-0.11244518
61	0x3dc016f4	0.09379378
62	0x3db2664a	0.08710916
63	0xbdecc714	-0.11561409
64	0x3d8a0068	0.06738359
65	0x3d937d24	0.07201603
66	0x3d98def4	0.074644
67	0x3cfa4a18	0.030552909
68	0x3c0a43e0	0.008439034
69	0x3d323424	0.043506756
70	0xbda518d8	-0.08061379
71	0x3de54c0e	0.11196147
72	0x3e0d3a01	0.13791658
73	0xbd763194	-0.060105875
74	0xbd596b8a	-0.053081073
75	0x3d11b884	0.03557636
76	0xbcab8fac	-0.020942532
77	0x3d7c591c	0.06160842
78	0xbde9afd1	-0.114104874
79	0x3e04b5f3	0.12960033
80	0x3d6637c0	0.05620551
81	0x3e02d68d	0.12777157
82	0x3d8a04d2	0.06739201
83	0x3ddd7054	0.108124405
84	0x3e008ea5	0.12554415
85	0x3e0de443	0.13856606
86	0xbd4dc6e8	-0.05023852
87	0xbdd7b22f	-0.10532033
88	0x3ca31c38	0.019910917
89	0xbc95c92c	-0.018284403
90	0x3e0e6933	0.13907318
91	0x3e0473c7	0.1293479
92	0xbdcdb598	-0.10044402
93	0xbdc81e50	-0.09771407
94	0xbddf91f6	-0.10916512
95	0x3e094b1b	0.13407557
96	0xbe017b3b	-0.12644665
97	0xbe0e87b7	-0.13918959
98	0x3dd3bf90	0.10339272
99	0x3cf89140	0.030342698
100	0xbd99cf13	-0.075101994
101	0xbb8cc2a0	-0.004295662
102	0x3c0974b0	0.008389637
103	0xbd87d8c0	-0.06633139
104	0xbdb14cca	-0.086572245
105	0x3c417f30	0.011810109
106	0x3de4090a	0.111345366
107	0xbdf78a59	-0.120869346
108	0x3d01ceac	0.03169124
109	0xbd8c5928	-0.06852943
110	0x3c7c59a0	0.015402228
111	0xbc9a48a0	-0.018833458
112	0x3dd0ade2	0.101894155
113	0x3de432b6	0.11142485
114	0xbe07efed	-0.13275118
115	0x3a046800	0.00050508976
116	0x3d31c928	0.04340473
117	0xbd1b5baa	-0.037929215
118	0xbd49436e	-0.04913657
119	0xbdc6a71f	-0.096998446
120	0x3db7d57e	0.08976267
121	0xbbbaea80	-0.005704224
122	0x3d15d684	0.03658153
123	0xbd83af66	-0.06429939
124	0xbe0dfdf7	-0.13866411
125	0xbdf3c2c0	-0.1190238
126	0xbceee78c	-0.029163145
127	0xbdb01fa4	-0.08599785
128	0x3d85f246	0.065403506
129	0xbc57f330	-0.013180539
130	0xbd9e5b63	-0.077322744
131	0x3d94080e	0.07228099
132	0xbd034912	-0.032052107
133	0x3d12ae14	0.035810545
134	0x3e037e63	0.12841181
135	0x3cf83768	0.030299857
136	0xbdac6f28	-0.08419639
137	0xbe0def3a	-0.13860789
138	0x3ded8336	0.11597292
139	0x3db78d9c	0.08962557
140	0x3e089c03	0.13340764
141	0xbbb3a040	-0.00548175
142	0x3e0201df	0.12696026
143	0x3d84a594	0.06476894
144	0x3dd792ac	0.10526022
145	0xbcb7b49c	-0.022424988
146	0x3dc3457a	0.09534736
147	0x3d4f1770	0.05055946
148	0xbdbd513e	-0.09244011
149	0x3ca77438	0.02044116
150	0x3d26df14	0.040740088
151	0xbdc653da	-0.09683962
152	0xbe0f8c5f	-0.14018391
153	0xbc319310	-0.010838285
154	0x3babdde0	0.0052449554
155	0x3e00e441	0.12587072
156	0x3aafa280	0.0013399869
157	0xbc4ef810	-0.012632385
158	0xbe074fcd	-0.13214035
159	0x3c62a720	0.013833791
160	0x3d96c502	0.07361795
161	0xbd35b3a4	-0.04436077
162	0xbd3e44c6	-0.046452306
163	0x3d9f1ad0	0.07768786
164	0x3da1c7ae	0.07899414
165	0x3dc13828	0.09434539
166	0xbd78cb84	-0.060740963
167	0x3db65c7e	0.0890436
168	0x3df17112	0.117891446
169	0xbdf8a9a0	-0.121417284
170	0x3df550f6	0.11978333
171	0xbca62608	-0.020281807
172	0xbd52167e	-0.05129098
173	0xbe0b83e7	-0.13624536
174	0x3d28e808	0.041236907
175	0x3e0f51ed	0.13996096
176	0xbcfd0a94	-0.030888833
177	0xbdd7fb12	-0.10545935
178	0xbc123e80	-0.008926034
179	0x3db51252	0.08841385
180	0xbd800b36	-0.06252138
181	0xbe0a46dc	-0.13503593
182	0xbde21c92	-0.110406056
183	0xbdd56aa7	-0.10420733
184	0xbe04a3b2	-0.1295307
185	0xbd7b217a	-0.061311223
186	0xbdc4c240	-0.09607363
187	0x3da03f5a	0.07824583
188	0x3d194dc0	0.037427664
189	0x3e0bc34b	0.13648717
190	0x3db35be6	0.087577626
191	0xbc05abf0	-0.008158669
192	0xbd33e012	-0.043914862
193	0xbde738c2	-0.112901226
194	0x3c12adc0	0.008952558
195	0xbd8533eb	-0.06504043
196	0x3dfbb756	0.12290828
197	0xba0e8b00	-0.0005437583
198	0xbc617b20	-0.013762265
199	0x3d5f4af4	0.05451484
200	0x3e0e838f	0.13917373
201	0xbd65f738	-0.05614397
202	0x3d1e28a0	0.03861296
203	0xbdf2d9e2	-0.11857964
204	0x3d01b148	0.03166321
205	0xbd422d7c	-0.04740666
206	0x3ded20d6	0.115785286
207	0xbaf5d980	-0.0018756837
208	0xbc7a39c0	-0.015272558
209	0x3e03429b	0.12818377
210	0xbd0a9e6c	-0.03384249
211	0xbcffd514	-0.031229533
212	0x3e0186cf	0.12649082
213	0xbe05701c	-0.13031048
214	0x3d0925f0	0.033483446
215	0xbdb1d251	-0.08682693
216	0x3de14f5e	0.11001466
217	0x3de93242	0.11386539
218	0xbdcd3e52	-0.10021652
219	0xbd33bc0a	-0.0438805
220	0xbd85c903	-0.065324806
221	0x3d044efc	0.032301888
222	0x3dd7d9f8	0.10539621
223	0x3d35eca0	0.044415116
224	0x3e02956d	0.12752314
225	0xbd97443f	-0.07386064
226	0xbdcf2448	-0.10114342
227	0xbc14f0c0	-0.009090602
228	0xbdecdd63	-0.11565664
229	0xbde7e102	-0.11322214
230	0xbc7585d0	-0.014985517
231	0xbdbfe23a	-0.09369321
232	0xbd24668a	-0.04013685
233	0xbe0cb273	-0.13739948
234	0x3da84cda	0.08217783
235	0x3dbe09f0	0.09279239
236	0x3d5764cc	0.05258636
237	0xbe00ee93	-0.12591009
238	0x3c503360	0.012707561
239	0xbcaf3e78	-0.021392092
240	0x3da5929e	0.08084606
241	0x3d121564	0.03566493
242	0x3c519ff0	0.01279448
243	0xbe0ed6f8	-0.13949192
244	0x3af2aa80	0.0018513948
245	0xbd8fd110	-0.070222974
246	0x3d3ef088	0.046616107
247	0xbe08342d	-0.13301153
248	0x3dc477cc	0.09593162
249	0xbe1068a2	-0.14102414
250	0x3e05fe89	0.13085379
251	0xbd9d3a4a	-0.076771334
252	0xbdceb556	-0.10093181
253	0xbdcc4d82	-0.09975721
254	0xbd0c5fb2	-0.03427095
255	0xbd944583	-0.07239821

l2.bias f4 [100]
0	0x3d23675c	0.039893493
1	0x3d826ada	0.063680366
2	0x3accef80	0.0015635341
3	0x3b30e400	0.0026991367
4	0x3d58fe84	0.0529771
5	0xbd16bfca	-0.036803998
6	0xbde5a6ac	-0.11213431
7	0xbc007370	-0.007840022
8	0xbe0e56ce	-0.13900301
9	0xbdb82880	-0.089921
10	0xbdac4c06	-0.08412938
11	0x3e00f3fb	0.12593071
12	0x3dbe6e4e	0.09298383
13	0xbd69da48	-0.057092935
14	0x3d7ffc1c	0.06249629
15	0xbce3fe70	-0.027831286
16	0xbd5de45e	-0.054172866
17	0xbdcf6c00	-0.10128021
18	0xbb381b00	-0.0028092265
19	0xbe10a1d7	-0.14124237
20	0xbdb2165a	-0.086956695
21	0xbdeced77	-0.1156873
22	0xbbb4c000	-0.0055160522
23	0xbb2f4540	-0.0026744157
24	0x3d9e20c0	0.0772109
25	0x3cb9b7e0	0.022670686
26	0xbd956ece	-0.07296525
27	0x3c327300	0.010891676
28	0xbcd76b4c	-0.02629628
29	0xbd4a7962	-0.049432166
30	0xbd77e7aa	-0.060523666
31	0x3b8e5f20	0.004344836
32	0x3c0a4e40	0.008441508
33	0x3e036291	0.12830569
34	0xbe0d50ad	-0.13800307
35	0x3ded5cae	0.11589943
36	0xbdd51276	-0.10403912
37	0xbdf4550d	-0.11930285
38	0xbe01864d	-0.12648888
39	0x3d116cf0	0.03550428
40	0xbd489a76	-0.04897543
41	0xbda80ca0	-0.08205533
42	0xbd826712	-0.06367315
43	0x3d943cb6	0.07238142
44	0x3d9350d6	0.071931526
45	0x3d9a2e2a	0.07528336
46	0xbcaf00d8	-0.021362707
47	0xbc30b230	-0.010784671
48	0x3da4a718	0.08039683
49	0x3e0146e5	0.126247
50	0x3d547394	0.051868036
51	0x3db57ed2	0.0886208
52	0xbde371d8	-0.11105698
53	0xbdd952a9	-0.10611469
54	0x3d06d818	0.032920927
55	0xbcdc8004	-0.026916511
56	0xbe00798c	-0.12546366
57	0x3de876e2	0.113508
58	0xbddfd742	-0.10929729
59	0xbdb1c0e0	-0.08679366
60	0x3cfef0f0	0.031120747
61	0x3cf590d8	0.029976293
62	0x3d16f724	0.036856785
63	0xbdaee52e	-0.08539806
64	0xbdd42522	-0.10358645
65	0xbb906be0	-0.004407391
66	0x3ddb7c0a	0.10717018
67	0x3db0d378	0.086340845
68	0xbcd289a0	-0.02570039
69	0x3dab1a1c	0.08354589
70	0xbd6594a2	-0.05604995
71	0x3daa32a6	0.08310442
72	0xbda0d417	-0.07852953
73	0xbde0e6b2	-0.10981502
74	0xbe055a84	-0.1302281
75	0xbbf11220	-0.007356897
76	0xba78d900	-0.0009492785
77	0x3dc1fdc0	0.09472227
78	0xbdfa6520	-0.12226319
79	0x3d30c800	0.043159485
80	0x3df2ac72	0.118492976
81	0x3d8f5746	0.06999068
82	0xbc6770e0	-0.014126033
83	0xbd850189	-0.064944334
84	0x3d662cc0	0.05619502
85	0x3d2fbe98	0.042906374
86	0x3cbd6450	0.023119122
87	0xbdc641e8	-0.09680539
88	0xbd9fe949	-0.078081675
89	0x3e079a75	0.13242514
90	0xbd065d88	-0.032804042
91	0x3aabc280	0.001310423
92	0xbd566824	-0.05234541
93	0xbd89bbb4	-0.06725255
94	0xbd3315ba	-0.043721892
95	0xbd090b24	-0.03345789
96	0xbc408cf0	-0.011752352
97	0x3db5633a	0.088568166
98	0xbde56536	-0.11200945
99	0xbbe170a0	-0.006879881

l3.weight f4 [20, 100]
0	0xbd7eb403	-0.06218339
1	0xbce89e28	-0.028395727
2	0x3da57929	0.0807975
3	0xbd8c45a6	-0.06849222
4	0xbd72fa13	-0.05932052
5	0x3dc3c0bd	0.09558246
6	0x3c3fbca8	0.011702694
7	0x3d9a7d97	0.075434856
8	0xbdab6f25	-0.083708085
9	0xbdca5670	-0.09879768
10	0x3dad342b	0.08457216
11	0xbd51a5f3	-0.051183652
12	0xbce17714	-0.027522601
13	0x3dc60db5	0.09670583
14	0xbc05b930	-0.008161828
15	0xbda16ce6	-0.07882099
16	0xbdc20207	-0.09473043
17	0xbdaea573	-0.08527651
18	0x3db27513	0.087137364
19	0x3dc9facb	0.09862288
20	0x3b41a560	0.0029548034
21	0xbdb312bb	-0.08743807
22	0x3d8f721d	0.07004187
23	0xbd005b14	-0.03133686
24	0xbcb31168	-0.021858886
25	0xbd9b5e8b	-0.07586392
26	0xbdc1195d	-0.09428666
27	0x3c885cf4	0.016645886
28	0xbd9be49b	-0.076119624
29	0x3beb43e0	0.007179722
30	0xbc851d38	-0.016249284
31	0xbd9883e3	-0.074470304
32	0x3d864f19	0.065580554
33	0xb9bf0500	-0.00036434084
34	0xbdae954b	-0.08524569
35	0xbda3155b	-0.079630576
36	0xbcda72f8	-0.02666615
37	0x3d9aa90f	0.075517766
38	0xbd5900e7	-0.052979376
39	0xbdbf8c15	-0.093528904
40	0xbc6f0168	-0.014587738
41	0xbd4930bd	-0.049118746
42	0xbda793a8	-0.0818246
43	0x3d110fca	0.03541545
44	0x3cd53ef4	0.026030995
45	0xbdbabbb7	-0.09117835
46	0x3cbacdc0	0.022803187
47	0xbbfae020	-0.0076561123
48	0xbd865ca8	-0.065606415
49	0xbd2e7293	-0.042589735
50	0x3da6d60f	0.08146297
51	0x3dbcfb61	0.09227634
52	0x3d9457c3	0.07243302
53	0xbd3578bd	-0.044304598
54	0x3daba301	0.083807
55	0x3cb9648c	0.022630952
56	0xbcd2e538	-0.025744066
57	0xbce013f4	-0.027353264
58	0x3d787142	0.060654886
59	0xbd95a2bb	-0.07306429
60	0x3cad3fc0	0.021148562
61	0x3daa13db	0.083045684
62	0x3d44d49a	0.048054315
63	0xbd958fb8	-0.07302803
64	0x3d04552a	0.03230778
65	0x39b84600	0.0003514737
66	0xbda2239e	-0.0791695
67	0xbb9140a0	-0.0044327527
68	0xbd55bc37	-0.05218145
69	0xbd3e3360	-0.046435714
70	0x3db995b7	0.09061759
71	0x3da34e0b	0.0797387
72	0x3ccba1d4	0.02485744
73	0x3d28fbe6	0.041255854
74	0x3d147f62	0.036254294
75	0x3d5e62aa	0.054293312
76	0x3d65d7a2	0.056113847
77	0xbbbf84b0	-0.005844675
78	0x3c355350	0.0110672265
79	0xbd0408aa	-0.032234825
80	0xbd55c470	-0.05218929
81	0xbc163418	-0.009167694
82	0x3cf6d4dc	0.030130796
83	0xbd5ca420	-0.05386746
84	0xbca2aaac	-0.019856773
85	0xbd6f6fd3	-0.058456253
86	0xbd42b11d	-0.04753219
87	0xbdb60d9d	-0.08889315
88	0xbc807798	-0.015682027
89	0x3d9351af	0.07193314
90	0xbc292dd0	-0.010325864
91	0x3d69894a	0.057015695
92	0x3d6839f6	0.0566959
93	0x3d4a1cea	0.04934398
94	0xb9000a00	-0.00012210757
95	0xbd451253	-0.04811318
96	0xbce74d2c	-0.02823504
97	0x3d9d72c9	0.07687909
98	0x3dace771	0.084425814
99	0xbc346110	-0.01100947
100	0xbd00a740	-0.031409502
101	0xbda3a4b8	-0.07990402
102	0x3d0fc8b2	0.035103507
103	0x3da47c77	0.08031552
104	0xbd8a772d	-0.06761012
105	0xbda671a5	-0.08127145
106	0xbd9c7c42	-0.07640888
107	0x3d6bfa8a	0.05761198
108	0xbd5a0b97	-0.05323371
109	0xba7f5b00	-0.0009741038
110	0x3c86352c	0.016382776
111	0x3be98500	0.0071264505
112	0xbd5a5863	-0.05330695
113	0xbdcc40e8	-0.099733174
114	0xbb52c760	-0.0032162294
115	0xbd4633d7	-0.048389282
116	0xbd5bbbba	-0.053645827
117	0xbc8e5238	-0.01737319
118	0xbdbde155	-0.09271494
119	0x3d8207cb	0.06349143
120	0xbd238f83	-0.039931785
121	0x3da21adf	0.079152815
122	0xbdae8ef0	-0.08523357
123	0xbcef5e68	-0.029219821
124	0xbb40b3c0	-0.0029404014
125	0x3cce5f5c	0.025191955
126	0xbd484a57	-0.04889902
127	0xba273100	-0.0006377846
128	0x3d13bde2	0.03606976
129	0x3b57bbc0	0.0032918304
130	0xbd58eac3	-0.05295826
131	0xbcc16400	-0.023607254
132	0xbd23f53a	-0.04002879
133	0x3ca17ee8	0.019713834
134	0xbd6c61a7	-0.057710316
135	0x3d1ec382	0.03876067
136	0xbc72c080	-0.014816403
137	0x3c733158	0.014843307
138	0x3dcbfbf7	0.09960168
139	0x3b0d8ac0	0.0021597594
140	0x3cd7f7b4	0.026363231
141	0x3dc2911b	0.09500333
142	0x3d9c33cf	0.07627069
143	0xbcfe29c0	-0.031025767
144	0x3b9704a0	0.0046087056
145	0x3a879340	0.0010343567
146	0xbd3ee1c7	-0.046602037
147	0x3d6b3466	0.057423018
148	0xbd8f2ac5	-0.069905795
149	0xbce69874	-0.028148867
150	0x3c44e4d8	0.012017451
151	0xbd9f0902	-0.0776539
152	0xbd8d7eae	-0.06908928
153	0x3db6cb85	0.08925537
154	0xbd3e356d	-0.04643767
155	0x3a4ae300	0.0007739514
156	0x3d231c12	0.03982169
157	0x3c69b130	0.014263436
158	0x3dcc34d7	0.09971016
159	0xbd593b1a	-0.05303488
160	0x3d81368f	0.06309234
161	0x3dcb3ea7	0.09924059
162	0x3dc6fe65	0.09716491
163	0x3d1fdc96	0.039028727
164	0xbc807034	-0.015678503
165	0x3c691518	0.014226221
166	0xbd996fb3	-0.07492008
167	0x3c8baa58	0.017049
168	0xbcbb6438	-0.022874936
169	0x3d022406	0.031772636
170	0xbd26d6b3	-0.040732097
171	0xbd50ae3a	-0.050947405
172	0x3b8710d0	0.0041218773
173	0xbdc5c257	-0.09656208
174	0xbdb1e1f2	-0.08685674
175	0xbd5fe410	-0.054660857
176	0xbd65f817	-0.0561448
177	0xba3a9700	-0.00071178377
178	0x3d8588b3	0.06520214
179	0xbd801354	-0.062536865
180	0xbc3479b0	-0.011015341
181	0xbd57b713	-0.052664828
182	0xba059300	-0.0005095452
183	0xbd92f728	-0.071760476
184	0x3d651712	0.055930205
185	0x3da53771	0.08067215
186	0xbd52198a	-0.051293887
187	0xbd9873f3	-0.074439906
188	0x3d901813	0.07035842
189	0xbce53c20	-0.027982771
190	0xbcece2ec	-0.028916799
191	0x3c4f4100	0.012649775
192	0x3d3d8ff6	0.04627987
193	0x3dc548d3	0.09633031
194	0xbd1dd19a	-0.03852997
195	0xbcc1c268	-0.02365227
196	0x3d58d75a	0.05293975
197	0x3db5feb7	0.088864736
198	0x3d5f95c2	0.05458618
199	0xbcfd362c	-0.03090962
200	0x3db3fd91	0.08788598
201	0xbc9be718	-0.019031093
202	0x3c1c3740	0.009534657
203	0xbc143cd0	-0.009047702
204	0x3d4c56b2	0.049887367
205	0x3d31d4a2	0.043415673
206	0xbd27aa8a	-0.040934123
207	0x3dc3c7f5	0.09559623
208	0xbdaadaaa	-0.08342488
209	0xbdc2a8cb	-0.09504851
210	0xbdb0ad68	-0.086268246
211	0xbc700aa8	-0.014650978
212	0xbc1c5950	-0.009542778
213	0x3c7b5d80	0.015342116
214	0xbdb35e50	-0.08758223
215	0xbda72c68	-0.08162767
216	0xbc8eebf4	-0.017446496
217	0xbcfd36c8	-0.03090991
218	0x3d4d4742	0.050116785
219	0xbd4255ba	-0.047445036
220	0xbda4c5db	-0.080455504
221	0x3dbb3ee7	0.09142857
222	0x3d97fd6b	0.074213825
223	0xbda295fa	-0.07938762
224	0x3d54b312	0.051928587
225	0x3c8bbcb4	0.017057754
226	0xbd1e0ea0	-0.038588166
227	0xbcd6b274	-0.02620814
228	0xbd41982d	-0.047264267
229	0xbc5f85a8	-0.013642706
230	0x3afca180	0.0019274205
231	0xbcd37fac	-0.025817715
232	0xbda06d62	-0.07833363
233	0xbc79d470	-0.015248403
234	0xbd967aad	-0.07347617
235	0x3d82546d	0.06363759
236	0xbdb057f2	-0.08610524
237	0xbdb3d6ca	-0.08781202
238	0x3c572810	0.01313211
239	0x3d443932	0.04790611
240	0x3cc67948	0.024227753
241	0x3dbe4841	0.09291125
242	0x3cc9c6d8	0.024630949
243	0xbd492647	-0.04910877
244	0x3d1a41d6	0.037660442
245	0xbdc32eed	-0.09530435
246	0x3d02b306	0.03190901
247	0x3aece480	0.0018073469
248	0xbd8ae20a	-0.06781395
249	0xbd8aa976	-0.06770603
250	0xbc962f88	-0.018333212
251	0x3da7cdf7	0.081935816
252	0x3d912751	0.07087577
253	0x3c19e1f0	0.009392247
254	0xbcb67848	-0.022274151
255	0xbdb0d00b	-0.08633431

l3.bias f4 [20]
0	0x3ccb23b8	0.024797305
1	0x3db3b75d	0.08775208
2	0x3c6c9280	0.014439225
3	0x3c76cb00	0.015063047
4	0x3db229d5	0.08699385
5	0x3d9689db	0.073505126
6	0x3ce085c4	0.027407534
7	0x3d89bff7	0.067260675
8	0xbd5d9077	-0.05409285
9	0xbd37a760	-0.044837356
10	0x3d2be4ae	0.041966133
11	0x3d8c8c6b	0.0686272
12	0xbd48da77	-0.04903647
13	0x3dc891f3	0.097934626
14	0x3c11a318	0.008888982
15	0x3cd5b8a4	0.02608902
16	0xbd17ff4a	-0.037108697
17	0x3d41216e	0.04715102
18	0xbdc227d7	-0.09480255
19	0xbd3f0eb7	-0.046644893

output.weight f4 [8, 20]
0	0x3d371598	0.044698328
1	0xbe5b20f0	-0.21399283
2	0xbdb8b636	-0.09019129
3	0x3e1158a4	0.1419397
4	0xbc3b8ea0	-0.011447579
5	0xbe16bc26	-0.1472021
6	0x3e324604	0.17409521
7	0x3d9f0854	0.0776526
8	0x3df33ce0	0.11876845
9	0x3c3375b0	0.010953352
10	0x3d45c240	0.048280954
11	0xbda9bfaa	-0.0828851
12	0x3d000e80	0.03126383
13	0xbc313da0	-0.010817915
14	0x3e233934	0.1593979
15	0xbcc549a0	-0.024082959
16	0x3d5c1148	0.05372742
17	0xbe3824d5	-0.179828
18	0xbe221568	-0.15828478
19	0x3e3975ac	0.18111295
20	0x3e27c106	0.16382226
21	0x3e5ab980	0.21359825
22	0xbca27f08	-0.019835964
23	0x3df3d4b0	0.11905801
24	0xbe207c65	-0.15672453
25	0xbce87488	-0.028375879
26	0x3e28b372	0.16474703
27	0xbe4482ee	-0.1919057
28	0x3e059532	0.13045195
29	0x3ab08c80	0.0013469607
30	0xbe0734cf	-0.13203739
31	0x3dba95ec	0.091106266
32	0x3e190898	0.14944685
33	0xbc882ba0	-0.016622365
34	0x3a13f200	0.0005643666
35	0xbdf01355	-0.11722437
36	0xbe391749	-0.18075289
37	0xbd771284	-0.060320392
38	0x3cb19a68	0.021680072
39	0xbe595ccc	-0.21226805
40	0x3d833ec0	0.06408453
41	0x3e1025ee	0.14076969
42	0xbe012746	-0.12612638
43	0x3dfbac8c	0.1228877
44	0x3d85d918	0.06535548
45	0xbd4ffb0c	-0.050776526
46	0xbe00c4bc	-0.12575048
47	0xbe3e8262	-0.18604425
48	0xbe059093	-0.13043432
49	0x3e49ad9c	0.19695133
50	0xbdccffc6	-0.100097224
51	0x3dbbbb60	0.09166598
52	0xbe54435c	-0.2072882
53	0x3e184e00	0.14873505
54	0x3e2c6066	0.16833648
55	0xbe0793ce	-0.13239977
56	0x3e274220	0.16333818
57	0x3e5a334c	0.2130863
58	0x3d352f20	0.044234395
59	0xbc9c3d28	-0.01907213
60	0x3bdff9e0	0.0068352073
61	0x3e2a0886	0.16604814
62	0xbe44362c	-0.1916129
63	0x3e1e266a	0.15444341
64	0xbdf394fd	-0.11893652
65	0xbe5843a2	-0.2111955
66	0xbdc49168	-0.095980465
67	0x3d3900e0	0.04516685
68	0x3c3fe8c0	0.011713207
69	0x3e4ea2e0	0.2017932
70	0x3e22a124	0.15881783
71	0x3e1e6e4a	0.1547176
72	0xbe26a3e8	-0.16273463
73	0xbda7758c	-0.08176717
74	0x3e55f990	0.20895982
75	0x3e05266c	0.13002938
76	0x3e075a5c	0.13218063
77	0x3d068d40	0.03284955
78	0x3e00219a	0.12512818
79	0xbd3de03c	-0.046356425
80	0x3c187870	0.009306058
81	0x3cef5070	0.02921316
82	0x3ceb64c0	0.028734565
83	0x3d247a00	0.04015541
84	0x3d7994c8	0.060932904
85	0x3e3baf1a	0.18328515
86	0xbe466c86	-0.19377336
87	0xbdc67958	-0.09691113
88	0x3e5cb7d0	0.21554494
89	0xbe401964	-0.18759686
90	0xbdff59c9	-0.12468297
91	0x3d9e3c44	0.077263385
92	0x3d8a6b20	0.06758714
93	0xbb8ed860	-0.00435929
94	0xbd3a4194	-0.045472696
95	0x3d6c1c50	0.05764419
96	0x3e385c6c	0.18004006
97	0x3e634862	0.2219558
98	0xbde02934	-0.10945359
99	0x3dc439ec	0.0958136
100	0x3e59c302	0.21265796
101	0x3e0fc61a	0.14040413
102	0x3de263cc	0.11054191
103	0x3dac7698	0.084210575
104	0x3d2ec058	0.042663902
105	0x3d66e2d8	0.05636868
106	0xbd41c128	-0.04730335
107	0xbe5424eb	-0.20717208
108	0x3e396206	0.18103799
109	0x3e0d5120	0.13800478
110	0xbdf3ee84	-0.119107276
111	0xbd8b4164	-0.06799582
112	0xbc830c68	-0.015997127
113	0x3df92ffc	0.121673554
114	0x3c4b4430	0.012406394
115	0x3d92fff0	0.071777225
116	0x3d5e40b8	0.05426094
117	0x3e17cf3c	0.14825147
118	0x3e01ba26	0.12668666
119	0x3dbc40dc	0.091920584
120	0xbddb6485	-0.10712532
121	0x3e2bbab0	0.16770434
122	0x3e3b53da	0.18293706
123	0xbd222578	-0.039586514
124	0xbd4edf6c	-0.05050604
125	0x3d3b9930	0.045800388
126	0x3d1c5550	0.038167298
127	0x3e1ce62c	0.15322179
128	0xbd86c290	-0.065800786
129	0xbe121c5e	-0.14268634
130	0x3d805188	0.06265551
131	0x3c3724a0	0.011178166
132	0xbd437a74	-0.047724202
133	0xbe1fdd5c	-0.15611786
134	0x3e5560fa	0.20837775
135	0x3c630730	0.013856694
136	0xbe38a1e1	-0.18030502
137	0xbdcc8ffc	-0.099884
138	0xbddac6fa	-0.10682483
139	0x3c985db0	0.018599361
140	0x3e2308c4	0.15921313
141	0x3da76730	0.08173978
142	0x3b1b4d40	0.0023697168
143	0xbcd31f48	-0.025771752
144	0x3d59b0c0	0.053147078
145	0x3e434ba0	0.19071817
146	0xbd39faf4	-0.045405343
147	0x3dbaed60	0.09127307
148	0xbc65ee40	-0.014033854
149	0x3dba8688	0.09107691
150	0x3d956844	0.07295278
151	0x39e0ac00	0.0004285276
152	0x3c7abed0	0.015304282
153	0x3d8aa4e8	0.067697346
154	0x3e13a0c6	0.14416799
155	0x3e31d4b6	0.17366299
156	0x3da47e10	0.08031857
157	0xbdcfe874	-0.10151759
158	0xbd6cee84	-0.057844654
159	0xbd8a661e	-0.067577586

output.bias f4 [8]
0	0xbd3e1184	-0.046403423
1	0xbd82cc56	-0.0638663
2	0xbe448c6f	-0.19194196
3	0xbd67d954	-0.056603745
4	0x3e47b76a	0.1950356
5	0x3e5321d6	0.20618376
6	0x3d37bc40	0.044857264
7	0x3d6a5f40	0.057219744
