Simple_ANN_experience/simpleANN.pt (torch, 6807 bytes, 6 tensors)

l1.weight f4 [30, 14]
000000 52 fc 30 be e4 70 b4 3d 24 cf 62 bd 57 79 1c be
       -0.17283753 0.08810595 -0.055373326 -0.15280662
000010 1a dd 32 be b4 70 1e bd cc fe fa 3d 7c ef 10 3e
       -0.17467156 -0.0386817 0.1225563 0.14153856
000020 14 cd d5 3d 5e 4c 35 be 30 d7 46 3e f3 14 39 be
       0.10439506 -0.17704913 0.19418025 -0.18074398
000030 bc db 1f bd 7c 63 c0 3d 4b ea 1a be dc 44 23 3e
       -0.039027914 0.09393975 -0.15128438 0.15944237
000040 8e f3 2c 3e a8 ed 27 3e da 3f c4 bd be 07 80 be
       0.16889784 0.16399252 -0.09582491 -0.25005907
000050 c6 f6 29 be f3 a6 22 be 30 1e be 3c 67 ab 87 be
       -0.16598043 -0.15883999 0.023207754 -0.26497957
000060 80 0a 0d bc 56 1d 2b be 66 c2 36 3e ff 63 64 be
       -0.00860846 -0.1671041 0.17847595 -0.2230377
000070 a6 61 47 3e 46 74 cc bd c0 4a 92 3d d8 06 9a 3d
       0.19470844 -0.09983115 0.07143164 0.075208366
000080 01 02 00 be c0 2c a0 3d 80 bf c3 bb 75 f0 82 3e
       -0.12500764 0.078210354 -0.0059737563 0.2557408
000090 f8 3a 5f 3d a0 a0 03 3e e8 6a cb 3d 43 01 87 3e
       0.054499596 0.12854242 0.099325 0.2636815
0000a0 68 3e 03 bd 3e d1 f8 bd b4 9f 13 bd 6b 57 0f be
       -0.032041937 -0.12149285 -0.036040977 -0.13998191
0000b0 d0 16 99 3c e8 47 b1 bc c8 23 c6 bd 16 5d 4c be
       0.018687636 -0.021640733 -0.096747935 -0.19957384
0000c0 38 d2 6e 3d ad ae 85 3e 52 69 7c be fd 94 26 be
       0.05830595 0.2610983 -0.24649552 -0.16267772
0000d0 e8 4d 03 bd 48 4c 76 3d d0 71 a8 3c 34 21 1e 3e
       -0.03205672 0.06013134 0.020562083 0.15442353
0000e0 00 9f 55 bb e2 52 4e be 04 bf 0a bd d8 eb 1e be
       -0.0032595992 -0.20148805 -0.033873573 -0.15519655
0000f0 d8 32 c1 3d ec 92 ad 3d 49 1a 30 be 00 91 95 3a
       0.09433526 0.08475289 -0.17197527 0.0011411011
000100 b4 60 93 bd e5 63 09 be c6 1c 1b be 30 e6 9c 3d
       -0.07196179 -0.13417013 -0.15147695 0.07661092
000110 42 cb 83 bd 5f e4 63 be fb 68 43 be e9 f6 83 be
       -0.06435253 -0.22255085 -0.19083016 -0.25774315
000120 f1 24 88 be 80 89 52 3b 58 4a ad 3d a8 2f c6 bd
       -0.26590684 0.0032125413 0.084614456 -0.096770585
000130 20 60 a8 bd a8 83 d0 3d f8 64 5e 3d d2 33 74 be
       -0.082214594 0.101813614 0.05429551 -0.23847893
000140 f8 72 35 3e d6 3f 15 3e c8 43 bf bd bd 93 85 be
       0.17719638 0.14575133 -0.093391 -0.26089278
000150 88 f0 60 3d a6 58 81 be f8 2f 47 3e 30 c0 cb bd
       0.05491689 -0.25262946 0.19451892 -0.09948766
000160 60 b3 12 3d 6d 9d 85 3e d2 24 71 be 00 ce 79 3c
       0.035815597 0.2609667 -0.23549202 0.015246868
000170 32 60 15 3e be b8 7d 3e 84 62 b4 3d 6a d5 8e bd
       0.14587477 0.24777505 0.08807853 -0.06974299
000180 60 63 57 3c 38 0d 2f 3d 60 aa 87 be 6a 09 32 be
       0.013146251 0.042737216 -0.26497173 -0.17386404
000190 0c fb 9a bd 90 46 52 3d 1c af 43 3e e4 a9 84 bd
       -0.07567415 0.051336825 0.19109768 -0.064777166
0001a0 a8 6b ec bc c1 85 69 be 8d 34 27 be d0 06 5d 3d
       -0.028859928 -0.2280493 -0.1632864 0.053961575
0001b0 7e 95 2d be 78 09 53 3d 00 f5 e4 bb d8 46 ef 3d
       -0.16951558 0.051522702 -0.006987214 0.11683434
0001c0 e5 3c 87 3e 9c 18 e0 3d ca c0 7f be 18 a8 83 be
       0.26413646 0.10942194 -0.24975887 -0.25714183
0001d0 60 c5 69 3c e8 b6 4f 3d d7 dc 82 be 72 4e cd bd
       0.014268249 0.050711542 -0.25559112 -0.10024728
0001e0 64 e2 cf 3d 30 b0 53 bd a7 e3 85 be d5 e9 2b be
       0.101506025 -0.051681697 -0.26150247 -0.16788419
0001f0 4a 6f 27 be a8 62 52 3d 80 93 87 bd f0 30 4e 3d
       -0.16351047 0.051363617 -0.0661993 0.05033964
000200 ca fa 85 be 40 53 e2 bd 52 a1 7a 3e 16 cc 56 3e
       -0.261679 -0.11051035 0.24475601 0.2097629
000210 f2 44 7e 3e fc e6 f2 3d 44 d4 2d bd 15 0d 76 be
       0.24830988 0.11860463 -0.04243876 -0.24028428
000220 8d 66 57 be 17 a3 87 3e 15 ae 7a be e6 ba 47 3e
       -0.21035214 0.26491615 -0.2448047 0.1950489
000230 f4 2c cb 3d d0 2d 4a 3d 41 a0 43 be d8 3a 42 3d
       0.099206835 0.049360096 -0.19104101 0.0474194
000240 ce fd 7c 3e 9c 1c 34 be 33 22 52 be d0 1c 5d be
       0.24706194 -0.17589039 -0.20520858 -0.21593022
000250 70 84 f9 3d 50 7a 02 3d 40 8c 30 3e 86 1e 54 3e
       0.121834636 0.031854928 0.17241001 0.20714769
000260 0e 2d 37 be 59 a7 15 be e2 d1 54 3e ec 36 a4 bd
       -0.17888281 -0.1461462 0.20783189 -0.08018288
000270 a8 4c 88 bd 44 e9 b2 3d 49 36 14 be 9e e9 51 3e
       -0.06655246 0.08735898 -0.14473833 0.20499274
000280 2f 27 87 3e 47 8c 12 be ce b5 3b be 00 ed 8e bd
       0.26397082 -0.14311324 -0.18331072 -0.06978798
000290 40 1c 82 be 2c 69 1a be 62 00 69 3e e8 c7 2b be
       -0.25412178 -0.15079182 0.22754052 -0.16775477
0002a0 12 e3 18 be 39 e2 85 be fe 83 3d 3e 88 ee be bc
       -0.1493037 -0.26149157 0.18507382 -0.0233071
0002b0 4e 61 17 be d4 fa 39 3e 86 33 c3 bd 26 4f 0e 3e
       -0.14783213 0.1816209 -0.09531312 0.1389738
0002c0 0c 8d 99 bd b0 93 8f bd a6 3c 4e be 8c d3 91 3d
       -0.07497606 -0.07010591 -0.20140323 0.071204275
0002d0 20 a6 44 bd 08 2d f3 bc 10 d1 4a 3e ac b7 a3 3d
       -0.04800999 -0.029684559 0.19806314 0.07994017
0002e0 74 52 1d be 3e 6c 3c 3e 4e 77 39 3e 94 71 e5 3d
       -0.15363485 0.18400666 0.18111917 0.11203304
0002f0 c0 ab d8 3c 80 37 5a 3c 08 77 3d be 12 72 a5 bd
       0.026449084 0.013318896 -0.18502438 -0.08078398
000300 60 1f 53 3d 42 b5 6c be f9 cf 5c be 00 a3 74 3c
       0.051543593 -0.2311602 -0.2156371 0.01493144
000310 94 68 30 3e fc 15 a5 bd c6 f0 89 bd 82 e4 c1 bd
       0.17227393 -0.08060834 -0.06735377 -0.094674125
000320 1d 9e 40 bd 94 cc ba bd 21 54 93 3d 06 03 59 3e
       -0.04702579 -0.091210514 0.07193781 0.2119256
000330 a9 4f 30 3e 97 bc 67 3d f0 30 84 be 1c 9a 9d bd
       0.17217888 0.056576338 -0.25818586 -0.0769541
000340 3e 75 05 be c0 98 ae 3b 68 72 c8 bd 53 ab 33 be
       -0.13033006 0.005328268 -0.09787446 -0.17545824
000350 03 1f 88 3e 1c 52 2c 3e 58 a7 2b 3e 60 4b 7f bc
       0.2658616 0.16828197 0.16763055 -0.015581936
000360 ca a0 ea bd c8 06 5b be 50 cb 75 3d b6 5d 6b 3e
       -0.11456449 -0.21389306 0.060008347 0.22984967
000370 90 5d 21 3d ea ff 40 be 8c ee 09 bd e4 91 0e 3e
       0.03939587 -0.18847623 -0.03367476 0.1392284
000380 80 01 29 3d 84 4c 8f 3d e0 53 c9 3d 5e 72 58 3e
       0.041261196 0.06997016 0.09830451 0.21137378
000390 f8 a0 c5 3d be 02 2e 3e f0 4f 67 3d 22 eb cf bd
       0.09649843 0.16993234 0.05647272 -0.1015227
0003a0 8c 6a 28 3e ee 11 18 3e 90 12 e2 3c fc 00 20 3e
       0.16446894 0.1485059 0.027596742 0.15625376
0003b0 98 47 75 bd 14 8b be 3d f2 19 84 be 10 8d 99 3d
       -0.05988273 0.09303871 -0.25801045 0.07497609
0003c0 4c 3b c7 3d e9 bf 85 3e 00 de 9d ba 56 ff 19 3e
       0.09728107 0.26122978 -0.001204431 0.15038809
0003d0 86 a4 09 3e 7e ff 31 be d5 84 86 3e e8 04 75 3d
       0.13441667 -0.17382619 0.26273218 0.059819132
0003e0 38 fd 68 be 48 6c 9a bd a0 93 07 3d 40 08 1a be
       -0.22752845 -0.07540184 0.03309977 -0.1504221
0003f0 6e c4 2b 3e 88 56 8e 3d e8 b6 d1 bc a0 2a e8 bd
       0.1677415 0.06950098 -0.025599912 -0.11336255

l1.bias f4 [30]
000000 02 27 8e bd 3f 56 88 be c1 e0 83 be b0 f6 78 be
       -0.06941034 -0.266283 -0.2575741 -0.24312854
000010 1c 83 ee 3d 50 2e 50 3e 5e 44 71 3e d4 0f 4e bd
       0.11646101 0.20330167 0.23561236 -0.050308064
000020 84 04 fc 3d 72 40 6f 3e 7d 72 01 be d2 9c 40 3e
       0.12305549 0.23364428 -0.1264133 0.18809822
000030 70 5b 0d 3d aa e2 22 3e d0 1a 80 be 8e da 36 be
       0.03451103 0.15906778 -0.25020456 -0.1785681
000040 f6 0c 7d 3e 3c e4 ab 3d a4 28 ba bd 74 06 3a be
       0.24711975 0.083931416 -0.09089783 -0.18166524
000050 0a b7 7c 3e d2 89 20 be ba 16 4f 3e 4c a2 74 bd
       0.24679199 -0.15677574 0.20223513 -0.05972509
000060 c0 88 ee 3d ed 4c 81 be b4 0b 06 bd 61 19 17 be
       0.11647177 -0.25254002 -0.032726005 -0.14755775
000070 ee 4e 1b 3e f6 21 78 3e
       0.15166828 0.24231705

l2.weight f4 [20, 30]
000000 3c c3 29 3e 66 98 cb 3b 69 22 76 bb 20 2e 35 3c
       0.16578382 0.0062132357 -0.003755713 0.01105836
000010 e0 0e 41 3d 0e f7 6c bd f8 95 16 3e 2c 76 25 3e
       0.047133327 -0.057852797 0.14705646 0.1615836
000020 14 a2 15 be 44 85 92 3d 88 b4 84 3d b1 6f f5 bd
       -0.14612609 0.07154325 0.06479746 -0.11984194
000030 64 97 86 3d 34 73 f7 3d 26 ec 6b be 8e 8a 04 3e
       0.06571844 0.1208252 -0.23039302 0.1294348
000040 d2 bb cf 3d 06 b4 21 3e 60 97 d6 3c 22 d0 e8 bd
       0.10143246 0.1579133 0.026195228 -0.11367823
000050 61 db 09 bd ae dd b5 3d a8 fc 98 3d 80 57 17 3e
       -0.03365648 0.08880173 0.07470065 0.14779472
000060 0c c0 f1 3d 3f 4a 39 be c8 09 a4 bc 7d b8 28 be
       0.11804208 -0.18094729 -0.020024195 -0.16476627
000070 5b 1e e5 bc 3c 76 00 3e 7c df c4 3d ff 10 0b be
       -0.027968576 0.12545103 0.09612939 -0.13580702
000080 d2 42 7c 3d ac 6a 8a bd aa c3 ff bd 94 10 2f 3e
       0.061587162 -0.06758627 -0.12488492 0.17096168
000090 20 ed 8f bc 54 8d a0 bd 94 0d d9 bd 1c 60 42 bd
       -0.017569125 -0.07839456 -0.10598293 -0.04745494
0000a0 9b 9a c7 3d 7e 90 bb 3b 68 7c f7 3d a1 0e 50 be
       0.097462855 0.005724012 0.120842755 -0.2031808
0000b0 36 ed a2 3d e4 1a 7e 3d 04 47 60 bd 24 79 fc bd
       0.07955401 0.062037364 -0.054755226 -0.12327793
0000c0 a1 04 1e be e0 d6 fb 3d ee 17 ed 3d 17 61 7b bd
       -0.15431453 0.122968435 0.1157683 -0.06137189
0000d0 31 c9 b6 bd a5 8a df bd f1 e1 04 3e 8c bb 76 3d
       -0.08925093 -0.10915116 0.12976815 0.060237452
0000e0 00 2b 64 ba 54 a0 85 3d 81 a1 8d 3d cf 82 1f 3b
       -0.0008703917 0.06524721 0.0691557 0.0024339443
0000f0 b2 f0 2b 3e 82 af ac bc a7 61 f0 3b cc 38 f5 bd
       0.16791037 -0.021079782 0.00733586 -0.11973724
000100 34 6a f9 3d 90 72 7a 3c 81 57 88 bd 04 04 d1 3d
       0.1217846 0.015286103 -0.06657315 0.10205844
000110 82 ae 3e 3e 34 84 37 3e 93 f2 ec bd ae c6 82 3d
       0.18621257 0.17921525 -0.11569705 0.063855514
000120 c7 6d f1 bd 50 8f c7 bd 9c 13 4c 3c c8 41 5b 3d
       -0.117885165 -0.097441316 0.012455847 0.05352953
000130 5a fa 98 bd ec bc 91 3d d3 5b 29 3c 68 f7 b9 bd
       -0.07469626 0.07116112 0.010336834 -0.09080392
000140 f9 fa 04 bc 2f c9 20 3e 36 46 35 3e ce 15 cf bd
       -0.008116477 0.15701745 0.17702565 -0.10111581
000150 cb 30 11 bd 37 31 a5 bd 3d a2 93 bd 3a a5 22 3e
       -0.035446923 -0.080660276 -0.07208679 0.15883341
000160 f9 1e 99 3d aa c6 c6 bd 80 44 0a 3d f9 03 82 bb
       0.07476611 -0.09705861 0.033756733 -0.0039677587
000170 a5 fc e8 3d 62 4e 91 bd 98 18 e9 3c 10 c9 3e bc
       0.11376313 -0.070950285 0.02845411 -0.011644617
000180 70 d8 9c 3d 36 14 39 3e 86 7a bd 3c ac 20 ae bd
       0.0765847 0.18074116 0.023129713 -0.085023254
000190 05 63 99 3d 82 d4 ce bb c8 e5 bd 3d 95 85 29 bd
       0.074895896 -0.006311954 0.09272343 -0.04138716
0001a0 c0 32 d2 3d c0 24 d7 3c 44 90 90 b9 f0 12 42 3d
       0.10263586 0.026262641 -0.00027573307 0.04738134
0001b0 9d 6d a3 3d b2 15 ed bd 12 6e 14 3e 36 ea f1 bd
       0.079798914 -0.11576404 0.14495113 -0.1181225
0001c0 32 e5 32 3e 58 10 1a 3e 86 67 d0 bd 1f 86 03 be
       0.17470244 0.15045297 -0.101759955 -0.12844132
0001d0 da 6f 11 be c0 95 f8 3c 19 f0 8d 3d c9 de c9 bc
       -0.14202824 0.030344844 0.069305606 -0.024642365
0001e0 78 89 74 bd bf 9f de 3d d8 e5 f7 bd 58 95 c6 3d
       -0.059701413 0.10870313 -0.12104386 0.09696454
0001f0 88 31 71 3d 84 fd a2 3d 34 95 eb 3d 64 e2 1a 3d
       0.058885127 0.079585105 0.115030676 0.03781356
000200 48 9d 05 3e 20 51 cd 3b 5a 35 40 3d 4f a5 7d 3d
       0.1304828 0.0062657744 0.04692588 0.06192523
000210 fb 78 0a be 89 34 51 be 97 ae 94 bd b3 dc d4 bd
       -0.13522713 -0.20430197 -0.07259863 -0.103936575
000220 99 db aa bd bd 38 12 be bb 30 fe bd fa e8 20 be
       -0.08342666 -0.14279456 -0.12411638 -0.15713874
000230 78 7a c2 3d 94 bf b4 bd 4d a0 29 be ec dc 3d bd
       0.09496015 -0.08825603 -0.16565056 -0.046353266
000240 1f 4d cf bd 90 a3 d3 3d 94 76 df 3d 8c f3 b9 bd
       -0.101221316 0.103339314 0.10911289 -0.09079656
000250 d8 e3 88 3c 9d 7c 94 bd 14 94 11 3e 53 eb c7 3d
       0.016710207 -0.072503306 0.14216644 0.097616814
000260 61 e7 18 3d 9d 05 2c be 9c cc 16 3e fc 6c 90 bd
       0.037330035 -0.16799016 0.1472649 -0.07052037
000270 2d 6c 26 be fc 3c a9 3d 42 49 2d 3e 3c 9b 48 3d
       -0.16252203 0.08263585 0.16922477 0.048976168
000280 15 45 12 bd b1 24 06 3e 17 30 c3 bd 64 e1 be 3b
       -0.035710413 0.13099934 -0.09530657 0.0058252085
000290 23 10 a0 bd f8 ee 22 bd 5c ff 74 3d 2c 76 67 bd
       -0.07815578 -0.03977868 0.059813842 -0.05650918
0002a0 aa d2 92 3d 30 66 04 3d 4d fb 86 3d 4e f3 1d 3e
       0.07169087 0.032324016 0.065909006 0.15424845
0002b0 92 ef 30 3e 58 f0 be bc 40 73 30 3b e0 07 73 bc
       0.17278889 -0.023307964 0.0026924163 -0.0148334205
0002c0 00 49 f8 3b 10 b9 2d be 2b 21 07 bd 59 3b ae 3d
       0.0075770617 -0.16965127 -0.032990616 0.085074134
0002d0 2c cb f7 bd 0e 4b 3f bd 95 fd 20 3e 1f ab cd bd
       -0.12099299 -0.046702437 0.15721734 -0.100424044
0002e0 e8 87 3e 3d 74 66 88 bd f0 4b d6 bd 27 dd e4 bd
       0.04651633 -0.066601664 -0.10463703 -0.11174994
0002f0 4e 6d d0 bd c0 55 74 3d c0 a2 03 bd e4 2e b8 3d
       -0.10177098 0.05965209 -0.032137632 0.08993319
000300 d3 83 2d be 6f ed b9 3d bb be 5d 3c d8 1d 93 3c
       -0.16944818 0.0907849 0.013534243 0.017958567
000310 37 a4 4d bb 54 b2 89 3d 49 0f be bd dc 28 5e 3d
       -0.0031378397 0.067234665 -0.09280259 0.054238185
000320 a4 14 06 be dd a2 01 be 18 a6 98 3d 4e 4b 13 3e
       -0.13093811 -0.12659784 0.07453555 0.14384195
000330 2c 7f 20 bd b8 7b 25 3d 90 fc fe 3c a6 85 03 be
       -0.03918378 0.04040119 0.03112629 -0.12843952
000340 8a c4 fd 3d e0 d6 88 bd 0c 05 8a 3d c9 c2 00 be
       0.123910025 -0.06681609 0.06739244 -0.12574305
000350 10 1a 8c bd 3c d7 18 be 8b b4 2e be d0 7c 2b bd
       -0.068409085 -0.14925855 -0.17061059 -0.041867077
000360 03 24 1b be d9 c6 fb bd 3e 9f 1f be 50 85 27 bd
       -0.15150456 -0.122937866 -0.1558809 -0.04089862
000370 bd de 4f bd 54 bb 87 bd f8 82 a0 3d 93 bd 5a be
       -0.05074953 -0.06627527 0.0783748 -0.2136138
000380 52 ae f9 bd d8 45 e8 bd 94 d9 d8 bd e0 e5 d7 3d
       -0.12191452 -0.11341447 -0.10588375 0.10541892
000390 7d 13 bd 3c 70 67 fd 3c b9 bb f6 3c c1 52 dd 3d
       0.023080582 0.030933112 0.03011881 0.108068
0003a0 80 14 ed 3d 90 8e 0e bc 01 15 a3 bd 88 fa 93 3d
       0.11576176 -0.008700982 -0.079629906 0.072255194
0003b0 b4 7e e9 3d a6 58 18 3e e3 67 97 bd ff 6e 1d be
       0.1140112 0.14877567 -0.07392862 -0.15374373
0003c0 44 a8 57 bd 56 4c b2 bd 7a 8f bd 3d c4 7c 06 bd
       -0.052650705 -0.08705966 0.092558816 -0.03283383
0003d0 30 45 4f 3c 50 8f fc 3d b4 03 c3 3d 32 17 36 3e
       0.012650773 0.12332022 0.09522191 0.17782286
0003e0 ee 62 1c 3e d0 7b 62 3d 04 e9 50 bd 8f 7e 8e 3c
       0.15272114 0.055293858 -0.05100347 0.017394332
0003f0 38 f8 be bd 6d ff ba 3d 6b 0d 49 3e ea 5b f7 bd
       -0.09324688 0.0913075 0.19634025 -0.12078078

l2.bias f4 [20]
000000 71 f2 71 bd a9 8a 4f be a2 4c 48 3d c6 cd 1a be
       -0.0590691 -0.20267738 0.048901208 -0.15117559
000010 bb a9 9f bc 3b d5 31 bd c7 07 94 ba 6a b3 5d 3d
       -0.019490113 -0.043416243 -0.0011293822 0.05412618
000020 f0 2d a7 ba 9b aa 98 bc 4d 76 c2 bd 60 0e 7f 3d
       -0.0012754779 -0.018636039 -0.0949522 0.06226957
000030 59 f3 2c 3d 7d a1 50 3e c6 f6 dd bd 60 2f 27 3e
       0.042224262 0.20374103 -0.10838084 0.16326666
000040 42 be 01 be 9a 46 a8 bc 52 a5 22 3e bd 34 53 be
       -0.12670234 -0.020541478 0.15883377 -0.20625587

l3.weight f4 [6, 20]
000000 b7 2b aa 3b 76 d2 f9 3d 1f 48 49 be 76 00 23 3e
       0.0051931995 0.12198345 -0.19656418 0.15918145
000010 25 b1 01 3e f1 c3 dc 3c 03 54 a0 3d b9 34 12 3d
       0.12665232 0.0269489 0.07828524 0.03569481
000020 13 b1 55 3c c2 7e dc bd 80 f9 62 bd 50 47 54 be
       0.013042706 -0.10766365 -0.055413723 -0.20730329
000030 5c 84 8e be 71 20 7f be c6 e5 88 3d 55 83 a8 bd
       -0.27835357 -0.24914719 0.06684451 -0.082281746
000040 03 17 0c 3e db 52 06 be 53 0e fb bd ca 2c 6c be
       0.13680653 -0.13117544 -0.122585915 -0.2306396
000050 09 c7 ca 3d f9 02 4d bc 3b 75 73 bc c4 8d 93 bd
       0.09901244 -0.012512916 -0.014859493 -0.07204774
000060 c2 34 8c bd cc d2 8a bc ba 99 bc 3d 11 66 e7 bc
       -0.06846 -0.016946219 0.092090085 -0.028246911
000070 fb 1a 4d 3d f0 16 92 3c d0 42 36 bd c6 68 fe bd
       0.05007456 0.017833203 -0.04449731 -0.12422328
000080 8d f9 88 bd 7c fc 08 be 81 77 2f be cb 15 62 be
       -0.06688223 -0.13377565 -0.17135431 -0.22078626
000090 97 2c a0 3d 3e 25 10 bc 38 4f 63 be 63 a3 13 be
       0.07821005 -0.008797942 -0.22198188 -0.14417796
0000a0 f7 74 60 3d a4 8f 14 3e cc 1a 09 bd fb e8 5f be
       0.054799046 0.1450792 -0.03347282 -0.21866219
0000b0 28 b1 dd bd 8c b6 27 be f1 d8 87 3d 10 36 25 3e
       -0.108248055 -0.1637823 0.06633175 0.16133904
0000c0 60 8c 01 3e c5 d4 88 be 00 89 24 be 6b 68 09 be
       0.12651205 -0.2672483 -0.16067886 -0.13418739
0000d0 85 b0 a9 bd 03 97 36 bd 24 5c e1 3c f1 31 85 bd
       -0.082856216 -0.04457761 0.027509756 -0.06503666
0000e0 0e 05 09 3e 43 96 a2 bc b4 24 39 be 2f ae e5 3d
       0.13380834 -0.019847041 -0.18080407 0.112148635
0000f0 cf a8 86 3d 60 60 c2 3d f1 89 63 be ae 62 88 3d
       0.065751664 0.09491038 -0.22220589 0.06659447
000100 4d 3d c5 3d 92 83 a8 bd 8a 79 70 be 97 e9 1a bb
       0.09630833 -0.0822822 -0.23483863 -0.0023637766
000110 4b ff d2 bd cc ce 9e bd e0 69 00 3c 80 00 ba bd
       -0.103025995 -0.07754287 0.007837743 -0.090821266
000120 3c fd 4a be e4 69 05 3e 55 54 8c be 0a 4e a2 bd
       -0.19823164 0.13028675 -0.2740809 -0.07925041
000130 a2 55 c9 3d 7e 11 d7 bd 9a 7f 4e 3c d9 ea e3 3d
       0.09830786 -0.10501383 0.012603665 0.11128778
000140 7b 7d ee b8 01 b3 3a be b9 72 8d be c5 a3 18 be
       -0.00011372097 -0.18232347 -0.2762659 -0.14906223
000150 9d 87 d1 bd c5 55 15 be ca a6 82 bd 57 2a 2b 3d
       -0.10230944 -0.145835 -0.06379469 0.041788425
000160 f0 05 e3 bd 76 86 bc 3d da 87 eb bd 8b 92 cf bd
       -0.11085117 0.09205334 -0.11500521 -0.10135373
000170 7e db cd 3c c6 85 72 bd c9 24 16 be 02 e8 8c be
       0.025129076 -0.059209608 -0.1466247 -0.27520758
000180 52 4f ff bd d5 9d b9 3d d0 81 cd bc 97 70 0a 3e
       -0.12466301 0.09063307 -0.025086313 0.13519512
000190 b6 be 4a be ab 2a 8a 3d 9e 64 3c 3d 65 85 56 bd
       -0.19799313 0.067464195 0.045994394 -0.05237331
0001a0 f6 fe 74 be 16 6a 33 be 6a 5a 0d 3e 6a 8c f2 bd
       -0.23925385 -0.17520937 0.13804021 -0.11843188
0001b0 e7 d1 c2 bd 27 e6 86 3d 55 a7 8a bc 35 99 08 be
       -0.09512692 0.06586867 -0.016925493 -0.13339694
0001c0 28 8d 27 be 73 a0 4a be da 8d 82 be 8a 6b 07 bc
       -0.1636244 -0.19787769 -0.2549885 -0.008265385
0001d0 dd d3 9e ba 80 98 76 be 97 db 41 be 9f bc 6b be
       -0.0012117584 -0.24081612 -0.18931423 -0.23021172

l3.bias f4 [6]
000000 7f cd f9 bd 6c 0d 8c bd 8b 14 b8 bd 3f 05 35 3d
       -0.121973984 -0.068384975 -0.08988293 0.044194456
000010 b9 b2 f2 3d fc dd 44 be
       0.11850495 -0.19225305
